dqn_agent_full_state_new.pth (torch, 471294 bytes, 24 tensors)

0.weight f4 [150, 11]
0	0xc096f6cf	-4.717628
1	0xc0926af3	-4.5755553
2	0xc08abdfc	-4.3356915
3	0xc092268f	-4.567207
4	0xc09af28d	-4.8421082
5	0xc08fab8d	-4.4896913
6	0xc09a5d94	-4.823923
7	0xc08bfab6	-4.3743544
8	0xc09b1aa2	-4.847001
9	0xc08fbcab	-4.4917808
10	0x40da42d2	6.820657
11	0xc098725d	-4.7639604
12	0xc099a668	-4.8015633
13	0xc0d73df1	-6.726311
14	0xc08e741f	-4.451675
15	0xc0c96a79	-6.294247
16	0xc0d2ed5d	-6.591475
17	0xc0918355	-4.5472817
18	0xc0cf6e20	-6.482193
19	0xc090b890	-4.5225296
20	0x4095c268	4.679981
21	0xc08aa7d9	-4.332989
22	0xc0ca0bb2	-6.3139277
23	0xc0d5a4f9	-6.6763883
24	0xc08aa425	-4.332537
25	0xc0c0dab8	-6.026699
26	0xc0d42364	-6.62932
27	0xc0c9b691	-6.303536
28	0xc0c813f0	-6.252434
29	0xc0d5abd6	-6.677226
30	0xc0938948	-4.610508
31	0xc08d6be1	-4.419419
32	0x40cc9b82	6.393983
33	0xc0907ad4	-4.5149937
34	0xc088d43f	-4.275909
35	0xc08ac1fa	-4.336179
36	0xc0d11a98	-6.5344963
37	0xc0d5ce9c	-6.681471
38	0xc0c9ef2b	-6.3104453
39	0xc089873a	-4.297757
40	0xc0c7c866	-6.2432127
41	0xc093e766	-4.621997
42	0xc090e884	-4.5283833
43	0x40932e85	4.5994287
44	0xc0bc3aab	-5.8821616
45	0xc0c7920c	-6.236578
46	0xc0c9c712	-6.3055506
47	0xc0c2b986	-6.085147
48	0xc094ee84	-4.6541157
49	0xc0cca838	-6.3955345
50	0xc0c3050d	-6.0943666
51	0xc08beaa2	-4.3723917
52	0xc0b9c61f	-5.8054347
53	0xc093e9c1	-4.6222844
54	0x40c82032	6.25393
55	0xc0d41b09	-6.6283
56	0xc08fee51	-4.4978414
57	0xc0c7d4f0	-6.2447433
58	0xc08f0ab2	-4.4700556
59	0xc0cc6ad7	-6.388042
60	0xc0cb3dfb	-6.351316
61	0xc09ace46	-4.83768
62	0xc0d6c09a	-6.711011
63	0xc0898d77	-4.2985187
64	0x4099e088	4.8086586
65	0xc091977a	-4.549741
66	0xbd832440	-0.064033985
67	0x3e971bce	0.295134
68	0xbd4d7dc8	-0.050168782
69	0xbe665d50	-0.22496533
70	0xbd24af20	-0.040206075
71	0xbe313a7c	-0.17307466
72	0xbe4b8a5f	-0.19877003
73	0x3e39be2a	0.18138948
74	0xbe42a9f7	-0.19010149
75	0xbda4f37a	-0.08054252
76	0x3e8c86b8	0.27446532
77	0xc08ab45f	-4.334518
78	0xc0c90628	-6.2820015
79	0xc098cc0c	-4.774908
80	0xc0cbb97b	-6.3663917
81	0xc0d97af0	-6.796257
82	0xc0964dbe	-4.69699
83	0xc0891322	-4.2835855
84	0xc0995090	-4.7910843
85	0xc08b4fcf	-4.3534923
86	0xc08a5d56	-4.3238935
87	0x40d8632b	6.7621055
88	0xc08f368e	-4.4754095
89	0xc0b63c36	-5.69485
90	0xc08b1a0a	-4.3469286
91	0xc0bfd41d	-5.9946427
92	0xc0d1f3f4	-6.5610294
93	0xc0959375	-4.67425
94	0xc0d70ee2	-6.7205667
95	0xc0d0a57d	-6.520201
96	0xc0c9be1d	-6.304457
97	0xc0981860	-4.7529755
98	0x40981cd0	4.753517
99	0xc08a0f89	-4.3143964
100	0xc0940e8d	-4.626776
101	0xc0bb1263	-5.8459945
102	0xc08ff51d	-4.498671
103	0xc09330a5	-4.599688
104	0xc09176e4	-4.545763
105	0xc0975044	-4.728548
106	0xc0c9273e	-6.2860403
107	0xc0ccb10b	-6.3966117
108	0xc0d6a0d0	-6.7071304
109	0x4092fb4b	4.5931754
110	0xc08b3018	-4.349621
111	0xc08cc4cb	-4.3990226
112	0xc08ec85a	-4.461957
113	0xc08eecf4	-4.466425
114	0xc090d197	-4.5255847
115	0xc09224c9	-4.5669904
116	0xc098f9f2	-4.780511
117	0xc09056db	-4.5106025
118	0xc0d0e713	-6.5282073
119	0xc0cd4787	-6.4149814
120	0x40d8f2f6	6.7796583
121	0xc0cabca5	-6.335528
122	0xc0d5e678	-6.6843834
123	0xc0c3847c	-6.1099224
124	0xc0945d2d	-4.636374
125	0xc0954391	-4.664498
126	0xc091d8e3	-4.5577254
127	0xc0ceef88	-6.4667397
128	0xc097a1f5	-4.73852
129	0xc08d7c99	-4.4214597
130	0x408cecc2	4.403901
131	0xc08f97df	-4.487289
132	0xc0d421dd	-6.6291337
133	0xc0cb7a5e	-6.3586874
134	0xc0dacf09	-6.837773
135	0xc095dd9a	-4.683301
136	0xc09341ab	-4.601766
137	0xc09adf96	-4.839793
138	0xc08cf681	-4.405091
139	0xc08b9529	-4.361958
140	0xc08c6fce	-4.388648
141	0xc0cf4fdf	-6.4785
142	0xc092fce7	-4.593372
143	0xc0d6bce9	-6.7105603
144	0xc0d784f1	-6.734978
145	0xc0afaa7a	-5.48956
146	0xc0b8c7a0	-5.7743683
147	0xc0b31ae7	-5.597034
148	0xc0d9d48f	-6.807197
149	0xc0bcc3c7	-5.8988986
150	0xc0d2e171	-6.5900197
151	0x4095f949	4.6866803
152	0xc09aa942	-4.8331614
153	0x408d031c	4.4066296
154	0xc0d4b2c0	-6.64682
155	0xc0d1d613	-6.557382
156	0xc0933f70	-4.601494
157	0xc0c268f6	-6.0753126
158	0xc091a323	-4.551164
159	0xc0d15332	-6.5414057
160	0xc0c32b7e	-6.099059
161	0xc0c97ea2	-6.296708
162	0x409b1125	4.845843
163	0xc0966bc9	-4.7006574
164	0x408ed3b6	4.4633436
165	0xc0ca6d4e	-6.325843
166	0xc0886ad6	-4.2630415
167	0xc094be7e	-4.6482534
168	0xc08bb2a8	-4.3655586
169	0xc0d58924	-6.672991
170	0xc08c2c4b	-4.380407
171	0xc08d15b4	-4.4088993
172	0xc08d63db	-4.4184394
173	0xc095a6ff	-4.6766353
174	0xc0936a6c	-4.606741
175	0x408ea253	4.457315
176	0xc08a5e05	-4.323977
177	0xc09480c1	-4.640717
178	0xc097275c	-4.7235546
179	0xc096e59b	-4.715528
180	0xc0d98853	-6.797891
181	0xc0894e86	-4.2908354
182	0xc0901973	-4.5031066
183	0xc08928d1	-4.2862325
184	0xc08c5ed4	-4.3865757
185	0xc09554fa	-4.666623
186	0x4093cecc	4.6189938
187	0xc0d6c6c3	-6.711763
188	0xc0d3b136	-6.615382
189	0xc092c1a5	-4.5861382
190	0xc0ba2ec1	-5.8182073
191	0xc0d3125f	-6.5959926
192	0xc0cb006b	-6.343801
193	0xc0cfbe9c	-6.4920177
194	0xc0ca6aad	-6.325522
195	0xc09150ca	-4.541112
196	0xc098e1a0	-4.777542
197	0x408879f0	4.264885
198	0xc0b5f39a	-5.6859865
199	0xc0c22cef	-6.067985
200	0xc0bff232	-5.998315
201	0xc0c58514	-6.172495
202	0xc0b79a38	-5.7375755
203	0xc0c52491	-6.1607137
204	0x40c6f197	6.216991
205	0xc0bb9170	-5.8615036
206	0x40bc2d3a	5.880521
207	0xc0bf5c57	-5.980022
208	0xc0c13f98	-6.039013
209	0xc093be70	-4.616997
210	0xc093f9d0	-4.6242447
211	0xc08e328c	-4.4436703
212	0xc0cb6918	-6.356579
213	0xc0d63dfa	-6.6950655
214	0xc089ec17	-4.3100696
215	0xc090641e	-4.5122213
216	0xc0d6890a	-6.7042284
217	0xc088f9b1	-4.28048
218	0xc08e2902	-4.442506
219	0x408a9ba8	4.331501
220	0xc0ce29b5	-6.442591
221	0xc0b8598b	-5.7609305
222	0xc098880c	-4.7666073
223	0xc0bc7b0f	-5.890022
224	0xc0d19f8a	-6.550725
225	0xc0d0f4f1	-6.5299
226	0xc0bed7f9	-5.963864
227	0x40880634	4.250757
228	0x40b97f18	5.7967644
229	0xc09346bb	-4.602384
230	0x40b93361	5.787522
231	0xc0ca1ac6	-6.3157682
232	0xc0c881a8	-6.265827
233	0xc0c0e1cb	-6.0275626
234	0xc0b3e640	-5.6218567
235	0xc0b6465a	-5.696088
236	0xc0ca3a77	-6.319637
237	0xc0d9379a	-6.7880373
238	0xc08a7c86	-4.3277006
239	0xc09af149	-4.8419538
240	0x4093faee	4.624381
241	0xc08b1b3c	-4.3470745
242	0xc0921373	-4.564874
243	0xc0894ed0	-4.2908707
244	0xc08974aa	-4.295491
245	0xc08f4545	-4.4772058
246	0xc0cbd1d0	-6.369362
247	0xc08c70f8	-4.38879
248	0xc088a33c	-4.269926
249	0xc08d7dfe	-4.42163
250	0xc08f93c9	-4.48679
251	0xc08a00b7	-4.3125873
252	0x408a6b4a	4.325597
253	0xc08c7061	-4.388718
254	0xc095a9ba	-4.6769686
255	0xc0d42f25	-6.630755

0.bias f4 [150]
0	0xc08cab77	-4.395931
1	0xc0d34599	-6.602246
2	0xc0ceb599	-6.4596677
3	0xc0975df9	-4.7302213
4	0xc0d3cf28	-6.6190376
5	0xc0ccc4bd	-6.399016
6	0xbe915ae9	-0.2838967
7	0xc08e44ea	-4.4459124
8	0xc09aa86a	-4.8330584
9	0xc08885fe	-4.2663565
10	0xc09278c8	-4.577244
11	0xc0d0e7a8	-6.5282784
12	0xc0881cd6	-4.25352
13	0xc0cdd592	-6.4323206
14	0xc0cd8dd1	-6.4235616
15	0xc096f21f	-4.717056
16	0xc08f0cb8	-4.4703026
17	0xc0d605c7	-6.6882052
18	0xc0b62726	-5.692279
19	0xc095e1ea	-4.6838274
20	0xc0d5600c	-6.6679745
21	0xc0d7f65f	-6.7488246
22	0xc099c178	-4.804867
23	0xc08d5871	-4.417046
24	0xc0897bb7	-4.296352
25	0xc0c8d626	-6.276141
26	0xc09127cc	-4.536108
27	0xc0974a54	-4.7278233
28	0xc0928be8	-4.5795784
29	0xc08a077a	-4.3134127
30	0xc0c6d115	-6.2130227
31	0xbd956682	-0.072949424
32	0xc1615f6b	-14.085795
33	0xc0880f9d	-4.251906
34	0xc091718d	-4.545111
35	0xc096edda	-4.7165346
36	0xc097bfd5	-4.742167
37	0xc0d0ade0	-6.521225
38	0xc0da7310	-6.8265457
39	0xc0d26cd1	-6.5757833
40	0xc0888044	-4.2656574
41	0xc0c5670b	-6.1688285
42	0xc0c647f3	-6.196283
43	0xc0c883b3	-6.2660766
44	0xc0d03d17	-6.5074573
45	0xc09634be	-4.6939383
46	0xc08b7125	-4.3575616
47	0xc0c3de7b	-6.1209083
48	0xc0991030	-4.783226
49	0x3da61d24	0.08111027
50	0xc0922180	-4.5665894
51	0xbdd86340	-0.105658054
52	0xc0d7cdbf	-6.7438655
53	0xc0923539	-4.568997
54	0xc099f5d8	-4.81126
55	0xbdc9ee54	-0.098599106
56	0xc093a428	-4.6137886
57	0xc0d00a37	-6.501247
58	0xc0cece20	-6.4626617
59	0xc089a6e6	-4.3016233
60	0x3e7220d8	0.23645341
61	0xc0b9e279	-5.8088956
62	0xc093edc1	-4.6227727
63	0xc0bc61dd	-5.886946
64	0xc088ae82	-4.271302
65	0xc0942e34	-4.63064
66	0xc0cce57b	-6.4030128
67	0xc09a75de	-4.826888
68	0xc0d1a4f2	-6.551385
69	0xc0887c26	-4.265155
70	0xc08c9201	-4.3928227
71	0xc08c48ca	-4.3838854
72	0xc0c43324	-6.1312428
73	0xc0b8f4ca	-5.7798815
74	0xc0d12891	-6.536202
75	0xbdd8ee04	-0.10592273
76	0xc094cc71	-4.649956
77	0xc0d266eb	-6.575063
78	0xc0974f4d	-4.7284303
79	0xc093b12d	-4.615378
80	0xc08945dd	-4.289778
81	0xc08bb8c0	-4.3663025
82	0xc0c6f100	-6.216919
83	0xc0c6bb9f	-6.210403
84	0xc0daccaa	-6.8374834
85	0xc0dacff1	-6.8378835
86	0xc0cf8691	-6.4851766
87	0xbba31f00	-0.0049780607
88	0xc0975304	-4.7288837
89	0xc09af9a2	-4.8429728
90	0xc0944e22	-4.6345377
91	0xc092f6e2	-4.592637
92	0xc09578d5	-4.671
93	0xc0c24475	-6.0708566
94	0xc0957bf0	-4.671379
95	0xc0d4fcd5	-6.6558633
96	0xc0919ed0	-4.5506363
97	0xc0919de2	-4.550523
98	0xc0cd6bac	-6.4193935
99	0xc08d0767	-4.4071536
100	0xbe03285a	-0.12808362
101	0xc095104a	-4.6582384
102	0xc0c5992f	-6.174949
103	0xc0cca370	-6.394951
104	0xc08d8f80	-4.423767
105	0xc0c5d527	-6.1822696
106	0xc08897e0	-4.2685394
107	0xc0cdf350	-6.435951
108	0xc094c4ae	-4.6490088
109	0xc093bf30	-4.6170883
110	0xc0bccc3d	-5.8999314
111	0xc0bbd590	-5.8698196
112	0xc0ba4b20	-5.8216705
113	0xc0ce1f21	-6.4413
114	0xc0d426a8	-6.629719
115	0xc0b6bb93	-5.7103972
116	0xc0c6bb56	-6.210368
117	0xc0947b42	-4.640046
118	0xc0c1e228	-6.058857
119	0xc0d9c181	-6.804871
120	0xc08a6cc4	-4.325777
121	0xc08e4763	-4.446214
122	0xc0c50e43	-6.157991
123	0xc0b815b5	-5.75265
124	0xc1355724	-11.333775
125	0xc09ae0f5	-4.8399606
126	0xc0bb7eb4	-5.8592167
127	0xc15f6926	-13.963171
128	0xc0c4b505	-6.147097
129	0xc0c86d62	-6.2633524
130	0xc1a23533	-20.275976
131	0xc0e0d4d0	-7.025978
132	0xc08cf65b	-4.4050727
133	0xc0c306e7	-6.0945926
134	0xbe197b37	-0.14988409
135	0xc0d9d58f	-6.807319
136	0xc09a4ca1	-4.821854
137	0xc0d952ff	-6.7913814
138	0xc0941169	-4.6271253
139	0xc08bf568	-4.373707
140	0xc0bb0821	-5.8447423
141	0xc09625e6	-4.6921263
142	0xc0c881db	-6.2658515
143	0xc0986f58	-4.763592
144	0xc0936ade	-4.6067953
145	0xc08b6795	-4.3563943
146	0xc08cc0fd	-4.398558
147	0xc09782fc	-4.7347393
148	0xc0c25ac3	-6.0735793
149	0xc0945699	-4.635571

2.weight f4 [100, 150]
0	0x4068cfb7	3.637678
1	0x3c3e7610	0.011624828
2	0xc0c0fd0c	-6.0308895
3	0x4065d15b	3.590903
4	0x40c0dbba	6.026822
5	0x3d76df90	0.0602718
6	0xbcc8559a	-0.02445488
7	0x40dec0bf	6.9610286
8	0xc0a763ec	-5.2309475
9	0x40098c25	2.1491787
10	0x4046f954	3.1089678
11	0x40c09f10	6.019417
12	0xc0c16cb3	-6.044519
13	0x3d51ec34	0.05125065
14	0xc0c02739	-6.004788
15	0xc0c02068	-6.003956
16	0x406bb5d1	3.6829722
17	0xc0bf8875	-5.9854074
18	0xc0bddd36	-5.9332533
19	0x40dabe0f	6.8357005
20	0xc0be4675	-5.9461007
21	0xc0c0e436	-6.027858
22	0x406a9736	3.6654792
23	0x40ec0c75	7.3765206
24	0x3d229d80	0.039700985
25	0x3d5d2764	0.053992644
26	0x40d987aa	6.7978106
27	0xc0bdc993	-5.930856
28	0x40dc3707	6.881717
29	0xc0f28e0a	-7.5798388
30	0x40bfa358	5.9886894
31	0x3c3ddac8	0.011587806
32	0x415fbf4b	13.984202
33	0x403f5d4e	2.9900699
34	0x403daa43	2.963517
35	0x40df6fef	6.982414
36	0x406b1bbf	3.6735685
37	0x40c05b67	6.0111575
38	0x40c099d0	6.018776
39	0xc0bd9167	-5.9239993
40	0x406764f3	3.6155365
41	0x3d912cce	0.07088624
42	0xc0c0cf98	-6.025341
43	0x40bd9bdd	5.9252763
44	0xc0bd718e	-5.9201117
45	0x40ea6bef	7.3256755
46	0xc0bd1460	-5.908737
47	0xc0c18ff7	-6.048824
48	0xc0ee2b0d	-7.442755
49	0xbd55ee37	-0.052229133
50	0x40ea6f01	7.3260503
51	0x3d1c27e0	0.038123965
52	0xc0a83b5e	-5.257247
53	0x40b7cd4e	5.7438116
54	0xbcde3632	-0.027125452
55	0x3d79358c	0.060842082
56	0x40e0b52e	7.0221167
57	0x3d7ef220	0.062242627
58	0x40bee38b	5.9652762
59	0x40be64b2	5.949792
60	0xbc035ca0	-0.008017689
61	0xc0c1a2b4	-6.051111
62	0x406bdd53	3.6853836
63	0x40c10fcf	6.0331798
64	0x40ac6bbc	5.388151
65	0x406a4e3b	3.6610248
66	0xc0c169d2	-6.0441675
67	0x3cdcdbcc	0.026960276
68	0x40be51c5	5.9474816
69	0xc0c2221f	-6.066665
70	0xc0c07ece	-6.015479
71	0x40e28101	7.0782475
72	0xbd9484ed	-0.07251916
73	0xc0c09970	-6.01873
74	0xbd904798	-0.070449054
75	0x3c1b8ae8	0.009493567
76	0x40a529b4	5.1613407
77	0xc0bf8606	-5.9851103
78	0x40a91e4a	5.2849474
79	0xc0bd9846	-5.924838
80	0x3d095372	0.033526845
81	0x40eef56a	7.467458
82	0xc0c08984	-6.0167866
83	0xc0be3576	-5.944026
84	0xc0bd0475	-5.906794
85	0x3c9163d0	0.01774779
86	0x40c0fb06	6.0306425
87	0x3d9fd380	0.07804012
88	0x4042dce4	3.044732
89	0x40e39e5b	7.1130805
90	0x4066a62e	3.6038928
91	0x403f9ddc	2.99401
92	0x40be90a7	5.9551578
93	0xc0bd43a0	-5.914505
94	0x406a2219	3.6583312
95	0x40be972b	5.955953
96	0x40dbeb22	6.8724527
97	0x40eb7ddd	7.359114
98	0xc0bf4ac7	-5.977878
99	0x40bf27fa	5.97363
100	0xbd98ce43	-0.07461216
101	0x40bbf800	5.8740234
102	0xbd361b8a	-0.044459857
103	0xc0bf8ddf	-5.9860682
104	0x4027597d	2.614837
105	0xc0bdd4e7	-5.932239
106	0x4044fec5	3.07805
107	0x40bdefa2	5.935502
108	0x40c6d7b1	6.2138295
109	0x40adaacd	5.4270997
110	0xc0be3662	-5.9441385
111	0xc0c0edbf	-6.0290217
112	0xc0bedcf0	-5.96447
113	0xc0bffb81	-5.999451
114	0x40bf8ab3	5.985681
115	0xc0bf561a	-5.9792604
116	0xc0bee9c9	-5.966038
117	0xc0bde8df	-5.9346766
118	0xbc47d888	-0.012197621
119	0xc0bdd5f8	-5.932369
120	0x40bf8596	5.985057
121	0x407df0c0	3.9678192
122	0xc0bd9f34	-5.925684
123	0xc0beabb8	-5.9584618
124	0xc136e59f	-11.43106
125	0x40ad30db	5.412214
126	0xc0bea36e	-5.95745
127	0x4160bc6c	14.046001
128	0x403e934b	2.97774
129	0xc0c0e53e	-6.0279837
130	0xc0c0e121	-6.0274816
131	0xc0bd33ab	-5.912557
132	0x40ddb111	6.9278646
133	0xc0be81c4	-5.9533405
134	0x3ac723c0	0.001519315
135	0xc0beb714	-5.9598484
136	0x4045e693	3.0921981
137	0xc0bfcbef	-5.993644
138	0x4060797f	3.5074155
139	0x40617022	3.522469
140	0xc0bd9e26	-5.925555
141	0x409e42ac	4.9456387
142	0xc0bd42ee	-5.91442
143	0x40a77b23	5.2337813
144	0xc0be4e28	-5.9470406
145	0xc0c20d06	-6.06409
146	0x40727712	3.7885175
147	0x403b5454	2.927022
148	0x3d79474c	0.06085901
149	0x40dd76b8	6.920742
150	0xc08ef186	-4.466983
151	0xc091b643	-4.5534987
152	0xc0921561	-4.5651097
153	0xc0902353	-4.504312
154	0xc092bd41	-4.5856023
155	0xc0918aad	-4.548178
156	0xbc2bc340	-0.010483563
157	0xc08efa54	-4.4680576
158	0xc09138c4	-4.5381794
159	0xc090cff8	-4.525387
160	0xc08ef935	-4.467921
161	0xc091ed7a	-4.560239
162	0xc0928959	-4.579266
163	0xc0d27fa4	-6.578081
164	0xc093c9c9	-4.618382
165	0xc0929bb4	-4.5815067
166	0xc0919b37	-4.550197
167	0xc08fc2bf	-4.4925227
168	0x40bfcb39	5.9935575
169	0xc08f9f91	-4.4882283
170	0xc092c829	-4.5869336
171	0xc093e2fd	-4.6214585
172	0xc0939af0	-4.6126633
173	0xc091f333	-4.5609374
174	0xc0b21d53	-5.5660796
175	0xc0c0f982	-6.0304575
176	0xc09144a2	-4.539628
177	0xc0922658	-4.5671806
178	0xc08ed8cf	-4.463966
179	0xc090a260	-4.519821
180	0x40bfe91a	5.997205
181	0xbc12a010	-0.008949295
182	0x3c90e2e4	0.017686315
183	0xc09082fe	-4.5159903
184	0xc08f2058	-4.472698
185	0xc08ec3c7	-4.4613986
186	0xc08fd857	-4.4951587
187	0xc08fb343	-4.4906325
188	0xc0916ee2	-4.5447855
189	0xc09283de	-4.578597
190	0xc08ecbce	-4.4623785
191	0x40c01ddb	6.0036445
192	0x40c01541	6.0025945
193	0xc09203b5	-4.5629525
194	0xc08fa7e8	-4.4892464
195	0xc091c9ee	-4.5558996
196	0xc09239b0	-4.569542
197	0x40c0d719	6.026257
198	0xc08f5527	-4.4791446
199	0xbccde004	-0.025131233
200	0xc08f6f83	-4.4823623
201	0xbd650d6e	-0.05592101
202	0xc08f153e	-4.471343
203	0xc09222e3	-4.5667586
204	0xc08f9b32	-4.4876947
205	0xbd7bbf30	-0.061461627
206	0xc08ec849	-4.461949
207	0xc08fd958	-4.495281
208	0xc08f2fbd	-4.4745774
209	0xc091b42e	-4.5532446
210	0xbaeecdc0	-0.0018219277
211	0x40be2213	5.9416595
212	0xc09021fa	-4.5041475
213	0x40bf3291	5.9749227
214	0xc08f5aa3	-4.479814
215	0xc0915c7b	-4.542539
216	0xc092aed7	-4.5838428
217	0xc0af3270	-5.474907
218	0xc093e794	-4.622019
219	0xc092694d	-4.575354
220	0xc0932ae8	-4.5989876
221	0xc090b987	-4.5226474
222	0x40c0dd6b	6.0270286
223	0x40c075e8	6.014393
224	0xc0922ae4	-4.5677357
225	0xbd4bf1de	-0.04979121
226	0xc092e68e	-4.590644
227	0xc0931636	-4.5964613
228	0xc0939fe6	-4.613269
229	0xc08fd0b7	-4.494228
230	0xc093bf3a	-4.617093
231	0xc091183e	-4.5342093
232	0x40c0f31e	6.0296774
233	0x40c09610	6.018318
234	0xc091079e	-4.53218
235	0xc093813c	-4.6095257
236	0xc093b9c6	-4.6164274
237	0xbc251090	-0.01007475
238	0xc0928bc8	-4.579563
239	0xc090dbe0	-4.52684
240	0xc092f063	-4.591844
241	0xc0908b6a	-4.5170183
242	0xc08ee665	-4.4656243
243	0x40bd5bc2	5.917451
244	0xc08f34de	-4.4752035
245	0xc090e777	-4.528255
246	0xc0937938	-4.608547
247	0xc09149b8	-4.540249
248	0xc0921751	-4.5653462
249	0xc090374c	-4.50675
250	0xbd8ce47a	-0.06879516
251	0xc093583e	-4.6045218
252	0x40bf3552	5.975259
253	0xc08f58cb	-4.479589
254	0xc0925cab	-4.573812
255	0x40c03f21	6.007706

2.bias f4 [100]
0	0x406c4385	3.691621
1	0xc08e6183	-4.4494033
2	0xc0b04c33	-5.5093017
3	0xc09b09b4	-4.8449345
4	0xc09795f1	-4.7370534
5	0xc0fd163d	-7.9089646
6	0xc09c0645	-4.8757653
7	0xc094d4ea	-4.6509905
8	0xc0d0a423	-6.520036
9	0xc09822b7	-4.7542377
10	0xc0909b4a	-4.518956
11	0xc099bfbe	-4.804656
12	0xc09b3ccd	-4.851172
13	0xc09506b0	-4.6570663
14	0xbefac831	-0.4898086
15	0xc0f3dbda	-7.6205873
16	0xc09a1ddd	-4.8161454
17	0xc0a97964	-5.296068
18	0xc05d130c	-3.4542875
19	0xc0e06449	-7.012242
20	0xc09b94dd	-4.861922
21	0xc0efef9a	-7.497998
22	0x3fde091d	1.7346531
23	0xc09d500b	-4.916021
24	0xc0b261d2	-5.574441
25	0xbf5f995d	-0.8734339
26	0xbfb19043	-1.387215
27	0xc09b8d6e	-4.8610144
28	0xc0bfa66c	-5.989065
29	0xc1abd23e	-21.477657
30	0xc08ed77b	-4.463804
31	0xc03f2d50	-2.9871407
32	0xc0945516	-4.6353865
33	0xc0f74f6c	-7.728445
34	0xc0be1b12	-5.9408045
35	0xc09a85c6	-4.82883
36	0xc092c576	-4.586604
37	0xc09959e7	-4.7922244
38	0xc0b20a84	-5.5637836
39	0xc099cd1a	-4.806287
40	0xc0bdb645	-5.9284997
41	0xc103b8b5	-8.2325945
42	0xc0bdafc4	-5.927706
43	0xc1270280	-10.43811
44	0xbff9b4b3	-1.950827
45	0xc095592b	-4.667135
46	0xc093a76a	-4.6141863
47	0xc0b70942	-5.71988
48	0xc0d1b598	-6.553417
49	0xc098330b	-4.756231
50	0xc0911f59	-4.5350766
51	0xc0f78d43	-7.735994
52	0xc0f77822	-7.7334146
53	0xc0993d59	-4.7887387
54	0xc0944751	-4.6337056
55	0xc09500be	-4.6563406
56	0xc0b1be75	-5.554499
57	0xc08f4815	-4.477549
58	0xc095e501	-4.6842046
59	0xc19b6f83	-19.42945
60	0xc099104b	-4.783239
61	0xc0985b9b	-4.7611823
62	0xc0d5dbbf	-6.6830745
63	0xc0a29a66	-5.0813475
64	0xc09b93e7	-4.8618045
65	0xc09903cd	-4.781714
66	0xc0a699bb	-5.206266
67	0xc07be9e9	-3.9361517
68	0xc09e407f	-4.945373
69	0xc09a7244	-4.8264484
70	0xc09160c6	-4.543063
71	0xc098e458	-4.777874
72	0xc08ff9dd	-4.499251
73	0xc0932215	-4.5979104
74	0xc0be3237	-5.9436297
75	0xc09040f0	-4.507927
76	0xc09b3001	-4.84961
77	0xc0cff8db	-6.499128
78	0xc0e18f85	-7.0487695
79	0xc12d0aac	-10.815105
80	0xc091aa8c	-4.5520687
81	0xc0938372	-4.6097956
82	0xc0c1ae19	-6.052502
83	0xc0da37e7	-6.819324
84	0xc0c1b39f	-6.0531764
85	0xc0f72fd2	-7.7245874
86	0xc09c7283	-4.8889785
87	0xc0977257	-4.7327075
88	0xc0958f7f	-4.6737666
89	0xc09ae724	-4.8407154
90	0xc08fda9f	-4.495437
91	0xc0c0fb94	-6.03071
92	0xc0de8547	-6.953769
93	0xc0bfa9dc	-5.989485
94	0xc0ce63c1	-6.449677
95	0xc0985bd1	-4.761208
96	0xc0bd09f3	-5.9074645
97	0xc0adc87f	-5.4307246
98	0xc0980b8b	-4.751409
99	0xc0dd1555	-6.908854

4.weight f4 [5, 100]
0	0x40d7cddf	6.7438807
1	0x408eef37	4.466701
2	0x3dab2fc1	0.08358718
3	0x40906b09	4.513066
4	0x408dcbeb	4.4311423
5	0x400ed957	2.2320154
6	0x408ceb37	4.4037127
7	0x40917340	4.5453186
8	0x4091255f	4.535812
9	0x40b0084c	5.501013
10	0x408f043f	4.4692683
11	0x408fcd00	4.4937744
12	0x4092a896	4.5830793
13	0x408e480b	4.4462943
14	0xc19fb555	-19.963541
15	0xc0bfee63	-5.99785
16	0x4093074f	4.594642
17	0xbfd7f1fb	-1.6870722
18	0xc10a528a	-8.645151
19	0x40821615	4.0651956
20	0x4091d793	4.557565
21	0xc0e423d5	-7.129374
22	0xc168cfb3	-14.550708
23	0x408e2ee0	4.443222
24	0x40aecc9e	5.4624777
25	0x4038bb85	2.8864453
26	0xc067d230	-3.6222038
27	0x40915f89	4.542912
28	0xc0be18a0	-5.940506
29	0xc13071e8	-11.027809
30	0x40923afc	4.5697002
31	0x404638b5	3.0972111
32	0x40922c51	4.5679097
33	0xc19f2b3b	-19.896109
34	0xc0bc828f	-5.8909373
35	0x408f90b3	4.4864135
36	0x408e9d64	4.4567127
37	0x40933af9	4.600949
38	0x40ae5b3b	5.4486365
39	0x408e182d	4.440451
40	0xc0bec9e2	-5.962144
41	0xc0ab7d18	-5.35902
42	0xc0bd831c	-5.9222546
43	0x3fd9aae3	1.7005275
44	0xbec5fafd	-0.3866805
45	0x408ed06d	4.4629426
46	0x408f4d40	4.47818
47	0x40afa6a9	5.4890943
48	0x408ea70e	4.4578924
49	0x4090f918	4.530407
50	0x409226f5	4.5672555
51	0xc19f11b4	-19.883644
52	0xc0c08807	-6.016605
53	0x409028e9	4.504994
54	0x4091f056	4.560588
55	0x408f89ec	4.485586
56	0x40aeb3f1	5.4594655
57	0x4091beb5	4.5545297
58	0x40901c95	4.503489
59	0xc131f053	-11.121173
60	0x408d6c6d	4.4194856
61	0x40901934	4.5030766
62	0xc0bd9969	-5.924977
63	0x409187f2	4.547845
64	0x4090e870	4.5283737
65	0x4090063f	4.5007625
66	0x408fc411	4.492684
67	0xc10a1796	-8.630758
68	0x4090ef55	4.5292153
69	0x408e9d72	4.4567194
70	0x40945ef2	4.63659
71	0x408e86d0	4.4539566
72	0x4090f731	4.5301747
73	0x408f5d1b	4.4801154
74	0xc0beb5da	-5.9596987
75	0x4091e29f	4.5589137
76	0x408c6b1d	4.3880754
77	0x408ebbad	4.4604096
78	0x40866b76	4.200618
79	0xc0bf25ca	-5.973363
80	0x408e8946	4.454257
81	0xc0bdd633	-5.9323974
82	0xc0bce94b	-5.903478
83	0x408d6a7b	4.419248
84	0xc0c03f02	-6.0076914
85	0xc19f87d3	-19.94132
86	0x4090cb5a	4.524823
87	0x4091d9f0	4.5578537
88	0x408ebe38	4.46072
89	0x408f20b2	4.472741
90	0x408f9604	4.4870625
91	0xc0bf35cc	-5.975317
92	0x408c495e	4.383956
93	0xc0bffc32	-5.9995356
94	0xc0bca368	-5.894947
95	0x408ee379	4.4652677
96	0xc0bfecaa	-5.9976397
97	0x40b05c25	5.511248
98	0x40932516	4.598277
99	0x408b257f	4.348327
100	0xbfcede1f	-1.6161536
101	0xc09092d0	-4.5179214
102	0xc0b2a729	-5.5829053
103	0xc09174fe	-4.5455313
104	0xc08e278f	-4.442329
105	0xbf8e4c8e	-1.1117113
106	0xc0d1f700	-6.5614014
107	0xc0d15cc8	-6.542576
108	0xc0cfd6a6	-6.494952
109	0xc0d29834	-6.5810795
110	0xc0d0206c	-6.5039577
111	0xc0934f4a	-4.603429
112	0xc08fe99c	-4.497267
113	0xc0910005	-4.5312524
114	0x4049b0b7	3.1514108
115	0x40ba41c6	5.820529
116	0xc090c9cd	-4.524634
117	0x400f54fb	2.2395618
118	0x40ea48f3	7.321405
119	0xc09017df	-4.502914
120	0xc0d06473	-6.512262
121	0x40f16b10	7.544319
122	0x3e016ff0	0.12640357
123	0xc0913e7d	-4.538878
124	0xc0d08551	-6.516274
125	0x40bc6e01	5.888428
126	0x40695df7	3.6463602
127	0xc08efca8	-4.468342
128	0x3cf92804	0.030414589
129	0xc101b060	-8.10556
130	0xc0cedbe7	-6.4643435
131	0x40437001	3.0537112
132	0xc0909e12	-4.5192957
133	0xbfe9c1e7	-1.8262299
134	0x40bebd65	5.9606194
135	0xc09071d9	-4.5138974
136	0xc09115b9	-4.5339017
137	0xc08fc504	-4.4927998
138	0xc0b29d60	-5.581711
139	0xc0915a98	-4.542309
140	0x40bd82ab	5.9222007
141	0x40aabf7c	5.3358746
142	0xc0c1306a	-6.03716
143	0x4048a9c1	3.135361
144	0x40569056	3.3525596
145	0xc0d38a2a	-6.6106157
146	0xc0d09f91	-6.5194783
147	0xc0af50ae	-5.4785986
148	0xc0d24132	-6.5704584
149	0xc09141cf	-4.5392833
150	0xc08f0d29	-4.4703565
151	0xc003f0e4	-2.0615778
152	0x40ad1098	5.4082756
153	0xc09412d8	-4.6273003
154	0xc08ed903	-4.4639907
155	0xc0d11470	-6.533745
156	0xc0b145b4	-5.5397587
157	0xc091c72b	-4.5555625
158	0xc090cc3a	-4.52493
159	0x416cfba9	14.81144
160	0xc0930301	-4.5941167
161	0xc08e3dbf	-4.4450374
162	0xc0941749	-4.6278424
163	0xc0d21139	-6.5646024
164	0xc08edf95	-4.4647927
165	0xc08e92a4	-4.4554005
166	0xc0d15cd6	-6.5425825
167	0x40eea0b0	7.457115
168	0xc09012c8	-4.5022926
169	0xc09065f9	-4.512448
170	0xc09013aa	-4.5024004
171	0xc0938fec	-4.6113186
172	0xc0914cce	-4.5406256
173	0xc08f0069	-4.4688
174	0xc0bc78bc	-5.889738
175	0xc08ed43b	-4.463407
176	0xc09210c3	-4.564546
177	0xc0d086a3	-6.516435
178	0xc094a3c8	-4.644993
179	0xc013fd84	-2.3123484
180	0xc090750e	-4.514289
181	0xc0cf474c	-6.477453
182	0x40bd2ca1	5.911698
183	0xc0933887	-4.6006503
184	0x40be9a01	5.9562993
185	0xc028f597	-2.6399896
186	0xc091e7a2	-4.5595255
187	0xc0922398	-4.566845
188	0xc08fe2fc	-4.496458
189	0xc08e9ccb	-4.45664
190	0xc090be65	-4.5232415
191	0x40c07855	6.014689
192	0xc092d137	-4.588039
193	0x40bccb7e	5.8998404
194	0xc08ed32b	-4.4632773
195	0xc0909821	-4.5185704
196	0xc0bf90c5	-5.986422
197	0xc0ce5dda	-6.4489565
198	0xc08e6b33	-4.450586
199	0xc094a14e	-4.6446905
200	0xbf62b2f2	-0.885543
201	0x408e76ba	4.451993
202	0x40af7439	5.4829373
203	0x40ce7305	6.4515405
204	0x40924327	4.5706973
205	0x3fbd9b58	1.4813032
206	0x4093ba09	4.6164594
207	0x40d41ba2	6.628373
208	0x408fe9ae	4.4972754
209	0x40935e7c	4.6052837
210	0x4093e438	4.6216087
211	0x40d34c4e	6.6030645
212	0x408ed2d0	4.463234
213	0x40d0f32f	6.5296855
214	0x3fcc93af	1.598257
215	0xc0bdb0d4	-5.9278355
216	0x4092d701	4.5887456
217	0xc0944402	-4.6333017
218	0xc0e8a84a	-7.270543
219	0x40cedf0c	6.4647274
220	0x40d068d7	6.512798
221	0xc062d2c9	-3.5441153
222	0xc038cc36	-2.887464
223	0x40d0b7d1	6.5224385
224	0x409207dd	4.56346
225	0xc0b5b0d5	-5.677836
226	0xc08ea888	-4.4580727
227	0x40921dea	4.5661516
228	0xc0bc6f84	-5.8886127
229	0xc0d948ba	-6.7901278
230	0x40900480	4.5005493
231	0xc089fdec	-4.3122463
232	0x40d12857	6.5361743
233	0x41512a77	13.072867
234	0xc0bc765b	-5.8894477
235	0x40d2d49b	6.588453
236	0x40d34525	6.6021905
237	0x408df963	4.4366927
238	0x40b42c0a	5.630376
239	0x40cee790	6.465767
240	0xc0bda419	-5.9262815
241	0x41097835	8.591847
242	0xc0c15fea	-6.0429583
243	0x3f3120b4	0.69190526
244	0xc0895551	-4.2916646
245	0x408f1cfd	4.4722886
246	0x408f5489	4.479069
247	0x40958990	4.6730423
248	0x40921721	4.5653234
249	0x4091f4a8	4.5611153
250	0x408e2011	4.4414144
251	0x415d80a6	13.843908
252	0xc0ba0919	-5.8136106
253	0x40921f00	4.566284
254	0x40d2512e	6.5724096
255	0x40929555	4.580729

4.bias f4 [5]
0	0x408f97b1	4.487267
1	0xc08e5bd6	-4.4487104
2	0x40a8ee40	5.2790833
3	0x408e146c	4.439993
4	0xbfe97d78	-1.8241415

0.weight f4 [150, 11]
0	0xbe294776	-0.16531166
1	0xbc972040	-0.018447995
2	0x3e5f669c	0.21816486
3	0x3a26f400	0.00063687563
4	0xbe8de774	-0.27715647
5	0x3d8a6cfc	0.06759068
6	0xbe890466	-0.26761168
7	0x3e4399f6	0.191017
8	0xbe952d13	-0.2913595
9	0x3d833d30	0.06408155
10	0x3e8eb42a	0.2787183
11	0xbe5ffcf0	-0.21873832
12	0xbe833f67	-0.2563431
13	0xbe3f9378	-0.18708599
14	0x3dbf92c0	0.09354162
15	0x3e7add60	0.2449851
16	0xbd560bb0	-0.05225724
17	0xbb075800	-0.0020651817
18	0x3d699550	0.05702716
19	0x3cb9dca0	0.02268821
20	0x3e0a07a0	0.13479471
21	0x3e5951d0	0.21222615
22	0x3e66b37c	0.22529405
23	0xbe0c6fff	-0.13714598
24	0x3e59c7f4	0.21267682
25	0xbd209d20	-0.039212346
26	0xbdb87958	-0.090075195
27	0x3e715758	0.23568475
28	0x3e92d55c	0.28678405
29	0xbe0d51be	-0.13800713
30	0xbd85b76a	-0.06529124
31	0x3e00cf40	0.1257906
32	0xbe14bb8f	-0.14524673
33	0x3d184808	0.03717807
34	0x3e8db40c	0.27676427
35	0x3e5c636c	0.21522301
36	0x3b9ac200	0.0047228336
37	0xbe10ea17	-0.14151798
38	0x3e6f7314	0.23383743
39	0x3e8193be	0.2530803
40	0x3e96c504	0.29447186
41	0xbd9533e8	-0.07285291
42	0x3cb338d0	0.021877676
43	0x3d34e490	0.044163287
44	0x3dd7b4d8	0.1053254
45	0xbe7f11eb	-0.24909179
46	0x3e6f5e20	0.2337575
47	0xbdc803c0	-0.0976634
48	0xbddf1760	-0.1089313
49	0x3e137284	0.14399153
50	0xbddae36e	-0.1068791
51	0x3e30f57e	0.17281148
52	0x3e3a6c52	0.18205383
53	0xbd9ddc82	-0.07708074
54	0x3e886b82	0.26644522
55	0xbdb7ab18	-0.089681804
56	0x3d420d88	0.047376186
57	0xbe83b6dc	-0.25725448
58	0x3d99ee3c	0.07516143
59	0x3e1ad80c	0.15121478
60	0x3e406972	0.18790224
61	0xbe95bdbd	-0.2924632
62	0xbe2fea32	-0.17179182
63	0x3e7c9dbc	0.24669546
64	0x3e86e8cc	0.26349485
65	0xbb944b80	-0.004525602
66	0xbd832440	-0.064033985
67	0x3e971bce	0.295134
68	0xbd4d7dc8	-0.050168782
69	0xbe665d50	-0.22496533
70	0xbd24af20	-0.040206075
71	0xbe313a7c	-0.17307466
72	0xbe4b8a5f	-0.19877003
73	0x3e39be2a	0.18138948
74	0xbe42a9f7	-0.19010149
75	0xbda4f37a	-0.08054252
76	0x3e8c86b8	0.27446532
77	0x3e58dbec	0.21177644
78	0x3e83f832	0.25775295
79	0xbe69549c	-0.22786182
80	0x3e33717c	0.1752376
81	0xbe839b0b	-0.25704226
82	0xbe197d81	-0.14989282
83	0x3e86f076	0.26355332
84	0xbe78549f	-0.2425103
85	0x3e476646	0.19472608
86	0x3e65b5a8	0.22432578
87	0x3e6597dc	0.22421211
88	0x3d92f128	0.07174903
89	0xbe1642f8	-0.14673984
90	0x3e4d445c	0.20045608
91	0xbbf40700	-0.0074471235
92	0xbc8d09c0	-0.017216563
93	0xbe02f790	-0.1278975
94	0xbe39b3da	-0.18135014
95	0x3c838990	0.016056806
96	0x3e6bcd34	0.23027498
97	0xbe524178	-0.20532787
98	0x3e4f3eec	0.20238847
99	0x3e7ad3dc	0.2449488
100	0xbd83c5fa	-0.064342454
101	0xbe9922ae	-0.2990927
102	0x3d6b0720	0.05737984
103	0xbd20c468	-0.039249808
104	0x3c26d760	0.010183185
105	0xbe340171	-0.17578675
106	0x3e82fd32	0.25583798
107	0x3e0db620	0.13839006
108	0xbe47f7c2	-0.19528106
109	0x3cb86470	0.02250883
110	0x3e4e4640	0.20143986
111	0x3e21cce8	0.15800822
112	0x3dacd6d8	0.08439416
113	0x3dcb93cc	0.099402994
114	0x3d132668	0.0359253
115	0xbc5775c0	-0.013150632
116	0xbe6b07ba	-0.22952166
117	0x3d460d80	0.04835272
118	0x3c360200	0.011108875
119	0x3defd214	0.11709991
120	0x3e73a80c	0.23794574
121	0x3e50942c	0.20369023
122	0xbe14a655	-0.14516576
123	0xbdfabf8e	-0.122435674
124	0xbdbaaf90	-0.09115517
125	0xbdf449a4	-0.11928108
126	0xbc4ce560	-0.012505859
127	0x3d946f1c	0.07247755
128	0xbe45f162	-0.19330361
129	0x3dfd73b8	0.12375587
130	0xbe10b4bb	-0.14131443
131	0x3d6d4410	0.057926238
132	0xbdb31472	-0.08744134
133	0x3e3bbee0	0.18334532
134	0xbe98dc35	-0.29855505
135	0xbe034055	-0.1281751
136	0xbd30b3a0	-0.043140054
137	0xbe95ed4a	-0.292826
138	0x3e122d3e	0.14275071
139	0x3e3ce73e	0.18447587
140	0x3e22f24a	0.15912738
141	0x3d6c51f0	0.05769533
142	0xbbbf9640	-0.0058467686
143	0xbe2f72ee	-0.17133686
144	0xbe487616	-0.19576296
145	0x3d57af48	0.052657396
146	0x3e5a32e8	0.21308482
147	0xbd60874c	-0.05481653
148	0xbe893436	-0.26797646
149	0x3db55c34	0.08855477
150	0xbd501d48	-0.050809175
151	0x3e10d9a0	0.14145517
152	0xbe936d28	-0.28794217
153	0xbe0debd6	-0.13859496
154	0xbddc5c2c	-0.10759768
155	0xbc94be60	-0.018157184
156	0xbd668498	-0.056278795
157	0xbdb3de28	-0.08782607
158	0xbbc2d200	-0.005945444
159	0xbb0ac600	-0.0021175146
160	0xbde4803c	-0.11157271
161	0x3e791fb4	0.243285
162	0x3e99ee64	0.3006469
163	0xbe1f2d28	-0.1554457
164	0xbda7a55e	-0.08185838
165	0x3e5ff474	0.21870595
166	0x3e975f5c	0.2956494
167	0xbdc402f8	-0.09570879
168	0x3e435c92	0.19078282
169	0xbdfa738a	-0.122290686
170	0x3e323130	0.17401576
171	0x3e1449c4	0.14481264
172	0x3e1279a4	0.14304215
173	0xbe02ddf2	-0.12779978
174	0xbd4ed9d8	-0.05050072
175	0xbdd4dbe2	-0.10393502
176	0x3e6e817c	0.23291582
177	0xbda19ce6	-0.07891254
178	0xbe2c951c	-0.16853756
179	0xbe211585	-0.15730865
180	0xbe7d6a96	-0.2474769
181	0x3e885382	0.2662621
182	0x3d5a0980	0.053231716
183	0x3e8ae1c6	0.27125376
184	0x3e287482	0.16450694
185	0xbdebc066	-0.115113065
186	0x3d5a4798	0.053290933
187	0xbe308126	-0.17236766
188	0xbd9beb78	-0.076132715
189	0xbd279ee8	-0.04092303
190	0x3e2d5806	0.1692811
191	0xbd686af8	-0.05674264
192	0x3e481d4c	0.19542426
193	0x3d415b60	0.047206283
194	0x3e5ad3d8	0.21369874
195	0x3b868580	0.00410527
196	0xbe6de7a7	-0.232329
197	0xbe8f870d	-0.28032723
198	0x3e9a5e08	0.30149865
199	0xbda4e3f2	-0.080512896
200	0xbc316360	-0.0108269155
201	0xbe3d727a	-0.185007
202	0x3e7fe910	0.2499125
203	0xbe316242	-0.17322639
204	0x3e6b02c4	0.22950274
205	0x3e0101c0	0.12598324
206	0xbddb11a8	-0.10696727
207	0x3bf4a540	0.0074659884
208	0xbd530c30	-0.051525295
209	0xbd8de0b2	-0.06927623
210	0xbd8fe6ec	-0.07026467
211	0x3ddc58b8	0.10759109
212	0x3e3b063e	0.182641
213	0xbe232126	-0.15930614
214	0x3e745048	0.2385875
215	0x3d1aa6b0	0.03775662
216	0xbe23ac62	-0.15983728
217	0x3e8858ec	0.26630342
218	0x3de8d0cc	0.1136795
219	0xbe6b0f06	-0.2295495
220	0x3dc6bd68	0.09704095
221	0x3e67fe88	0.2265569
222	0xbe62b9a0	-0.22141123
223	0x3dc79c40	0.09746599
224	0xbc3662c0	-0.011131942
225	0x3c223e00	0.009902477
226	0x3cc18670	0.023623675
227	0xbe96a486	-0.29422396
228	0xbe434cf4	-0.19072324
229	0xbd6b8be4	-0.057506457
230	0xbe4cc3d4	-0.19996578
231	0x3e64f1ac	0.22357816
232	0xbe8e82ac	-0.2783407
233	0xbd242558	-0.040074676
234	0xbda31a3c	-0.07963988
235	0x3e95324e	0.29139942
236	0x3e60dd30	0.21959376
237	0xbe7ecaa3	-0.24881987
238	0x3e5ebbcc	0.21751326
239	0xbe97eed1	-0.2967439
240	0x3da25294	0.07925907
241	0x3e4ae3ae	0.19813415
242	0xbc1f2e60	-0.0097156465
243	0x3e8a1862	0.26971728
244	0x3e847fc0	0.25878716
245	0x3da3b708	0.07993895
246	0x3e3afcf8	0.18260562
247	0x3e2af798	0.16696012
248	0x3e91e338	0.28493667
249	0x3e0a6f2a	0.13518968
250	0x3d816e88	0.0631991
251	0x3e762288	0.2403661
252	0xbe73d0a8	-0.23810065
253	0x3e26d772	0.16293123
254	0xbdf82294	-0.1211597
255	0xbdba8d02	-0.09108926

0.bias f4 [150]
0	0x3e2454d2	0.16047981
1	0xbd81137a	-0.06302543
2	0x3da2eb44	0.079550296
3	0xbe37f2c2	-0.17963699
4	0xbda33156	-0.079683945
5	0x3e0f9416	0.14021334
6	0xbe915ae9	-0.2838967
7	0x3dcf3368	0.10117227
8	0xbe924ab6	-0.28572625
9	0x3e937b0c	0.28804815
10	0xbccf37c0	-0.025295138
11	0x3c3337c0	0.010938585
12	0x3e960fdc	0.29308975
13	0x3ddae97c	0.10689065
14	0x3dece944	0.115679294
15	0xbe2710a9	-0.16314949
16	0x3db070cc	0.08615264
17	0xbe188ef2	-0.1489828
18	0x3e972586	0.29520816
19	0xbe09b147	-0.13446532
20	0xbe03a38c	-0.12855357
21	0xbe5699b4	-0.2095707
22	0xbe7f7533	-0.24947052
23	0x3e095820	0.13412523
24	0x3e803f28	0.25048184
25	0xbe93ca83	-0.28865442
26	0xb9e09c00	-0.00042840838
27	0xbe37e890	-0.1795981
28	0xbd1c0948	-0.03809479
29	0x3e71e024	0.23620659
30	0xbe66f2b6	-0.22553524
31	0xbd956682	-0.072949424
32	0xbd975054	-0.07388368
33	0x3e968034	0.29394686
34	0x3b945e40	0.004527837
35	0xbe2dcdef	-0.16973089
36	0xbe464eac	-0.19365948
37	0x3c936670	0.017993182
38	0xbe931612	-0.28727776
39	0xbd15bdd8	-0.036558002
40	0x3e93680a	0.28790313
41	0xbe39b10d	-0.18133946
42	0xbe55ce60	-0.20879507
43	0x3e8c026e	0.27345604
44	0x3d06aea0	0.03288138
45	0xbe12e5ed	-0.14345522
46	0x3e410360	0.18848944
47	0xbe089f88	-0.13342106
48	0xbe6fd446	-0.2342082
49	0x3da61d24	0.08111027
50	0xbc721ea0	-0.014777809
51	0xbdd86340	-0.105658054
52	0xbe2df7fd	-0.16989131
53	0xbc9bae20	-0.019003928
54	0xbe885da6	-0.26633948
55	0xbdc9ee54	-0.098599106
56	0xbd7b49f8	-0.06134984
57	0x3d1b8fb8	0.037978858
58	0x3d9cce90	0.07656586
59	0x3e797090	0.24359345
60	0x3e7220d8	0.23645341
61	0x3e36e0aa	0.1785914
62	0xbd992d5c	-0.07479355
63	0x3dcde85c	0.10054085
64	0x3e910dd4	0.28330863
65	0xbd9b50c0	-0.07583761
66	0x3e0b7994	0.13620597
67	0xbe92cff4	-0.2867428
68	0xbc445840	-0.011983931
69	0x3e91d9e2	0.28486544
70	0x3e24a6fc	0.16079324
71	0x3e2d54e8	0.1692692
72	0xbe133480	-0.14375496
73	0x3e54969c	0.20760578
74	0x3b4f9800	0.0031676292
75	0xbdd8ee04	-0.10592273
76	0xbdc431a0	-0.09579778
77	0xbd12c338	-0.035830706
78	0xbe36f192	-0.1786559
79	0xbd8b6cb0	-0.0680784
80	0x3e8535de	0.2601766
81	0x3e395896	0.18100199
82	0xbe6af014	-0.22943145
83	0xbe644416	-0.22291598
84	0xbe9720a2	-0.29517084
85	0xbe98e9ed	-0.2986597
86	0x3d5d58b8	0.054039687
87	0xbba31f00	-0.0049780607
88	0xbe3e94f0	-0.18611503
89	0xbe95ea30	-0.29280233
90	0xbdadc5c2	-0.08484985
91	0xbd217a30	-0.039423168
92	0xbe00cd29	-0.12578262
93	0xbdaabd62	-0.08336903
94	0xbdfe5938	-0.12419361
95	0xbdeee2bc	-0.1166434
96	0xbc1d3ee0	-0.00959751
97	0x3ab1e900	0.0013573468
98	0x3df58a9c	0.11989328
99	0x3e0e17fc	0.13876337
100	0xbe03285a	-0.12808362
101	0xbddde700	-0.108350754
102	0xbe3ff61a	-0.18746224
103	0x3e13bc80	0.14427376
104	0x3e010842	0.12600806
105	0xbe47754e	-0.19478342
106	0x3e92c2a2	0.28664118
107	0x3dd37d48	0.1032663
108	0xbe2bb217	-0.16767155
109	0xbd8f3d0e	-0.06994067
110	0x3db350f8	0.08755678
111	0x3df0fc38	0.11766857
112	0x3e29cbf8	0.16581714
113	0x3dc8d790	0.0980674
114	0xbdb9520a	-0.09048851
115	0x3e8ddebe	0.27709
116	0xbe643ad5	-0.22288068
117	0xbdc16a88	-0.09444147
118	0xbd922b62	-0.07137181
119	0xbe8800fb	-0.26563248
120	0x3e6132e8	0.21992075
121	0x3dcbe25c	0.09955284
122	0xbe2e9883	-0.17050366
123	0x3e707950	0.23483777
124	0x3e2d7526	0.1693922
125	0xbe964fa3	-0.29357633
126	0x3e0356ac	0.12826031
127	0x3e0f73f8	0.14009082
128	0x3dd3ffe0	0.10351539
129	0x3e8d3f2a	0.27587253
130	0xbe75a5c2	-0.23989013
131	0xbb6d3500	-0.003619492
132	0x3e0b8762	0.13625863
133	0xbddb59c6	-0.10710482
134	0xbe197b37	-0.14988409
135	0xbe894353	-0.26809177
136	0xbe89e356	-0.26931256
137	0xbe811c1d	-0.2521676
138	0xbda62036	-0.081116125
139	0x3e3a650c	0.18202609
140	0x3e122bda	0.1427454
141	0xbe158ef0	-0.14605308
142	0xbe8e859f	-0.2783632
143	0xbe59f64b	-0.2128536
144	0xbd6bdd0c	-0.057583854
145	0x3e46f5fa	0.1942977
146	0x3e1f3bb8	0.15550125
147	0xbe3ba650	-0.18325162
148	0xbdb0519c	-0.08609316
149	0xbda7ff90	-0.082030416

2.weight f4 [100, 150]
0	0xbcdcd95a	-0.02695911
1	0x3c3e7610	0.011624828
2	0xbd31dbb5	-0.04342242
3	0xbd2755f4	-0.040853456
4	0x3d224e78	0.039625615
5	0x3d76df90	0.0602718
6	0xbcc8559a	-0.02445488
7	0xbd100999	-0.035165403
8	0xbc92688c	-0.017872117
9	0xbd5b1258	-0.05348429
10	0x3da25ea0	0.079282045
11	0x3d02ea4a	0.031961717
12	0xbd738a6a	-0.059458174
13	0x3d51ec34	0.05125065
14	0xbca1f6c8	-0.019770995
15	0xbc8703f0	-0.01648137
16	0x3c8a5d1c	0.016890101
17	0x3ad44000	0.001619339
18	0x3d5e0640	0.05420518
19	0xbd39ce6e	-0.045362882
20	0x3d29552c	0.04134099
21	0xbd259784	-0.0404277
22	0xb91d2a00	-0.00014988333
23	0xbca431dc	-0.020043306
24	0x3d229d80	0.039700985
25	0x3d5d2764	0.053992644
26	0xbd8d88b3	-0.06910839
27	0x3d67e7b8	0.05661747
28	0xbd09ae09	-0.03361324
29	0xbb0a7b40	-0.0021130592
30	0x3a9fdb80	0.0012196153
31	0x3c3ddac8	0.011587806
32	0xbce678e8	-0.028133824
33	0xbcf35cfa	-0.02970742
34	0xbd7647a0	-0.0601269
35	0x3d3ab064	0.045578375
36	0x3d810f2a	0.063017204
37	0x3cc22428	0.023698881
38	0x3d0044ae	0.031315498
39	0x3d81ff20	0.06347489
40	0xbd4cca3d	-0.049997557
41	0x3d912cce	0.07088624
42	0xbd1b12ea	-0.037859835
43	0xbd7eb3ec	-0.062183306
44	0x3d89f9f8	0.06737131
45	0xbd8eecae	-0.06978737
46	0x3da1459e	0.078746065
47	0xbd7ba75c	-0.061438903
48	0xbd299a8b	-0.04140715
49	0xbd55ee37	-0.052229133
50	0xbd9c16c1	-0.076215275
51	0x3d1c27e0	0.038123965
52	0xbcfdabe0	-0.030965745
53	0x3c688900	0.01419282
54	0xbcde3632	-0.027125452
55	0x3d79358c	0.060842082
56	0xbd60049e	-0.054691903
57	0x3d7ef220	0.062242627
58	0xbcb5ce7e	-0.02219319
59	0xbd1a52df	-0.03767669
60	0xbc035ca0	-0.008017689
61	0xbd82548f	-0.063637845
62	0x3ca66170	0.020310134
63	0x3d3b49bc	0.045724615
64	0x3d6a0e1c	0.057142362
65	0xbb8466e0	-0.004040584
66	0xbd683e58	-0.05670008
67	0x3cdcdbcc	0.026960276
68	0xbd23abb3	-0.039958667
69	0xbda23618	-0.07920474
70	0xbce574c0	-0.028009772
71	0x3c812438	0.01576434
72	0xbd9484ed	-0.07251916
73	0xbd0003ac	-0.0312535
74	0xbd904798	-0.070449054
75	0x3c1b8ae8	0.009493567
76	0xbd53e79b	-0.051734548
77	0xba168100	-0.00057412684
78	0xbd3cabaf	-0.046062168
79	0x3d802f9a	0.06259079
80	0x3d095372	0.033526845
81	0x3d934080	0.07190037
82	0xbcf01f12	-0.02931169
83	0x3d31eaa8	0.043436676
84	0x3da5080c	0.080581754
85	0x3c9163d0	0.01774779
86	0x3d30e100	0.043183327
87	0x3d9fd380	0.07804012
88	0x3ca1acb0	0.019735664
89	0xbd83be7d	-0.06432817
90	0xbd7e461f	-0.06207859
91	0xbd10e4d9	-0.035374496
92	0xbd040346	-0.032229684
93	0x3d9547bc	0.07289073
94	0xbca11168	-0.01966162
95	0x3d6e9aa4	0.058252946
96	0xbcc72bc8	-0.024312869
97	0xbd48d2ef	-0.049029287
98	0x3c1d41b0	0.009598181
99	0xbc620e18	-0.0137973055
100	0xbd98ce43	-0.07461216
101	0xbd991248	-0.0747419
102	0xbd361b8a	-0.044459857
103	0x3ab7e100	0.0014028847
104	0x3c045958	0.008077942
105	0x3d622fd8	0.05522141
106	0x3d3f4390	0.046695292
107	0xbd549b59	-0.051905964
108	0x3d24fcea	0.04028026
109	0x3cd8bc94	0.026457109
110	0x3d316a30	0.04331416
111	0xbd2a5054	-0.041580513
112	0x3cbc7d18	0.023008868
113	0xbc4651c0	-0.012104452
114	0xbaa82700	-0.0012829006
115	0x3c000880	0.007814527
116	0x3cafa88c	0.021442674
117	0x3d584974	0.052804425
118	0xbc47d888	-0.012197621
119	0x3d5f3dcc	0.054502293
120	0xbb1d8ec0	-0.0024041384
121	0x3d93c222	0.07214762
122	0x3d7d16b4	0.06178923
123	0x3cedb5dc	0.029017381
124	0x3d8fc900	0.070207596
125	0x3da64e58	0.08120412
126	0x3ce4e348	0.027940407
127	0xbd6a4ff4	-0.057205155
128	0xbd5d227c	-0.053987965
129	0xbd25e532	-0.04050178
130	0xbd27f9f3	-0.041009855
131	0x3d99695a	0.07490797
132	0xbd863588	-0.06553179
133	0x3d0bd03c	0.034134135
134	0x3ac723c0	0.001519315
135	0x3ce0b39c	0.027429394
136	0x3d7c6d74	0.06162782
137	0xbbca2430	-0.0061688647
138	0xbc5f35f0	-0.0136237
139	0xbb5f50c0	-0.003407523
140	0x3d7d8260	0.061891913
141	0xbcbaf1fe	-0.022820469
142	0x3d95640a	0.072944716
143	0x3ca99fe0	0.020706117
144	0x3d259e68	0.04043427
145	0xbd9ce891	-0.07661546
146	0x3d4a1668	0.049337775
147	0x3d60a774	0.054847196
148	0x3d79474c	0.06085901
149	0xbd9a6061	-0.07537914
150	0x3d97a572	0.07404603
151	0xbc07a710	-0.008279577
152	0xbca6cf44	-0.020362504
153	0x3d1a2720	0.03763497
154	0xbd6efe3c	-0.058347926
155	0xbb42e5e0	-0.0029739067
156	0xbc2bc340	-0.010483563
157	0x3d99e81a	0.07514973
158	0x3b6f57c0	0.003652081
159	0x3c5a2138	0.013313584
160	0x3d922a3e	0.07136963
161	0xbc76b200	-0.015057087
162	0xbd14b871	-0.03630871
163	0xbd2223e4	-0.03958501
164	0xbd95de97	-0.07317846
165	0xbd291829	-0.041282807
166	0xbc438e70	-0.011935815
167	0x3d57abf4	0.05265422
168	0x3bc6e1d0	0.0060693994
169	0x3d51b794	0.051200464
170	0xbd2cf7fd	-0.042228688
171	0xbd9da0ec	-0.07696709
172	0xbd9ca19d	-0.07648013
173	0xbccbc4f2	-0.024874184
174	0xbcc7bd2e	-0.0243822
175	0xbd659b32	-0.05605621
176	0x3a9cebc0	0.0011972114
177	0xbcd2ef94	-0.025749005
178	0x3d9c32bc	0.07626864
179	0x3c8eedc8	0.017447367
180	0x3c1f3220	0.009716541
181	0xbc12a010	-0.008949295
182	0x3c90e2e4	0.017686315
183	0x3caf84f0	0.021425694
184	0x3d88d3b4	0.06681004
185	0x3d9ecf70	0.07754409
186	0x3d37ca68	0.044870764
187	0x3d5f2074	0.05447431
188	0x395e5c00	0.00021205842
189	0xbd09ff95	-0.033691008
190	0x3d9e221a	0.07721348
191	0x3ca93d44	0.020659097
192	0x3c7781e8	0.015106656
193	0xbd486147	-0.048920896
194	0x3d647e7c	0.055784687
195	0xbc7ccc88	-0.015429623
196	0xbcd2f916	-0.025753539
197	0x3d1ecd56	0.038770042
198	0x3d78fa4c	0.060785577
199	0xbccde004	-0.025131233
200	0x3d560fec	0.052261278
201	0xbd650d6e	-0.05592101
202	0x3d97c422	0.07410456
203	0xbcc7ce30	-0.02439031
204	0x3d674e40	0.05647111
205	0xbd7bbf30	-0.061461627
206	0x3da3ccc0	0.07998037
207	0x3d4c06c4	0.04981114
208	0x3d90631e	0.07050155
209	0xbc050e90	-0.008121148
210	0xbaeecdc0	-0.0018219277
211	0xbd3bb632	-0.045828052
212	0x3d20234e	0.03909617
213	0xbc4ddad8	-0.012564383
214	0x3d78d3f0	0.060748994
215	0xbb4eaec0	-0.0031537265
216	0xbd1e9927	-0.038720276
217	0x3d87c460	0.066292524
218	0xbda34ab6	-0.07973234
219	0xbd0da337	-0.034579482
220	0xbd6c1426	-0.057636403
221	0x3c8052c4	0.015664466
222	0x3d26f906	0.04076483
223	0x3cdc67f0	0.02690503
224	0xbcb7ee08	-0.02245237
225	0xbd4bf1de	-0.04979121
226	0xbd599d0b	-0.053128283
227	0xbd519866	-0.05117073
228	0xbd94e46f	-0.07270133
229	0x3d409da8	0.047025353
230	0xbd9af062	-0.07565381
231	0x3b859680	0.004076779
232	0x3d2cdd9e	0.042203538
233	0x3cfc9444	0.030832417
234	0x3c4af7b8	0.012388162
235	0xbd837b28	-0.064199746
236	0xbd92415c	-0.071413726
237	0xbc251090	-0.01007475
238	0xbd297c36	-0.041378222
239	0x3c57a1e0	0.013161153
240	0xbd55b834	-0.052177623
241	0x3c9d8f18	0.019233271
242	0x3da2f2a2	0.07956435
243	0xbd8f6e23	-0.07003429
244	0x3d8cfbdc	0.06883976
245	0x3c86eb3c	0.01646959
246	0xbd8b9375	-0.068152346
247	0xbb8c7c60	-0.0042872876
248	0xbca4caee	-0.020116296
249	0x3d19bc96	0.037533365
250	0xbd8ce47a	-0.06879516
251	0xbd8359d9	-0.064136215
252	0xbc392f38	-0.011302762
253	0x3d8489de	0.064716086
254	0xbd1012b7	-0.035174098
255	0x3ca5a2a8	0.020219162

2.bias f4 [100]
0	0x3c817160	0.015801132
1	0x3da6f846	0.08152823
2	0x3d06d2fc	0.032916054
3	0xbb937f30	-0.004501246
4	0x3c8f51f4	0.017495133
5	0x3d04981c	0.032371625
6	0x3d800482	0.0625086
7	0xbd4f7056	-0.05064424
8	0x3ca042e0	0.019563138
9	0xbd96ae79	-0.07357497
10	0x3d9bf3a0	0.07614827
11	0x3d917d46	0.07103972
12	0xbd75b2de	-0.059985034
13	0xbce1fb32	-0.0275856
14	0xbd812411	-0.06305707
15	0x3bc0e9e0	0.005887255
16	0xbcec65b0	-0.028857082
17	0x3d4331ac	0.047654793
18	0xbd045ddb	-0.03231607
19	0x3b66fea0	0.0035246983
20	0xbd89fe9c	-0.06738016
21	0xbd9e2eac	-0.07723746
22	0x3cfbc568	0.03073378
23	0xbd737c8e	-0.059444956
24	0x3b21f4c0	0.0024712533
25	0xbce1424c	-0.027497433
26	0xbd10c731	-0.035346214
27	0xbd981a63	-0.07426908
28	0xbacee6c0	-0.0015785322
29	0x3d9f4e92	0.07778658
30	0x3da6bb68	0.08141214
31	0xbd2c85a9	-0.042119656
32	0xbc4f2c18	-0.01264479
33	0x3da34000	0.079711914
34	0x3d3f3600	0.046682358
35	0x3cb49b64	0.022046752
36	0xbc67e7e8	-0.014154412
37	0x3ab5b240	0.0013862327
38	0xbcb0ab52	-0.021566067
39	0x3d8c24aa	0.068429306
40	0x3d719e14	0.058988646
41	0x3ca5a708	0.020221248
42	0x3d74dcf4	0.05978103
43	0x3d7d9f0c	0.061919257
44	0x3d0aa240	0.03384614
45	0xbda1df44	-0.07903913
46	0xbd8daac5	-0.06917337
47	0x3cce7248	0.025200978
48	0xbc68a0b8	-0.014198475
49	0x3d3869ac	0.04502265
50	0x3c3121d8	0.010811292
51	0x3da0470c	0.07826051
52	0x3d8b9264	0.06815031
53	0x396f5800	0.00022825599
54	0xbd289b35	-0.041163642
55	0xbd1acb73	-0.03779168
56	0xbc493920	-0.012281686
57	0x3d948376	0.07251637
58	0xbd9ab5d1	-0.0755421
59	0x3da22196	0.07916562
60	0x3d250080	0.04028368
61	0x3d762448	0.060093194
62	0xbd004913	-0.03131969
63	0xbd9b2b67	-0.07576638
64	0x3ca68344	0.020326264
65	0xbcc414d2	-0.02393571
66	0x3d415244	0.047197595
67	0x3d8d942a	0.06913026
68	0xbd0a1a17	-0.033716287
69	0x3d776c24	0.060405865
70	0x3d0c690a	0.03427986
71	0x3c81f41c	0.01586347
72	0x3d761da0	0.060086846
73	0xbd48688e	-0.048927836
74	0x3d33a490	0.04385811
75	0x3d94264e	0.072338685
76	0xbd486395	-0.048923094
77	0x3d24d30c	0.040240332
78	0xbd029a26	-0.03188529
79	0xbda37e28	-0.07983047
80	0x3cf4c14c	0.029877327
81	0xbd85dee4	-0.06536654
82	0xbd85262b	-0.065014206
83	0xbc40cd78	-0.011767738
84	0xbd8687b6	-0.065688536
85	0x3d19fe0c	0.037595794
86	0xbd48a9b6	-0.048989974
87	0x3d3a2860	0.04544866
88	0xbd3da8ad	-0.04630344
89	0x3d3681dc	0.044557437
90	0x3d9c12e4	0.076207906
91	0xbd310c30	-0.043224514
92	0xbd9795f5	-0.07401649
93	0xbb02cfc0	-0.0019960254
94	0x3af09180	0.0018353909
95	0x3cfbd750	0.030742317
96	0x3da3e314	0.08002296
97	0x3cea593c	0.028607003
98	0x3cbca2dc	0.023026876
99	0xbd3c4b4e	-0.045970254
