dqn_agent_state_truncated.pth (torch, 678752 bytes, 24 tensors)

0.weight f4 [150, 11]
00000000: 59b0 c7c0 9f4c b7c0 7425 c1c0 0206 c0c0
00000010: 9dde 37be fd47 b7c0 87c3 c0c0 4f0e bbc0
00000020: fd7d c340 bb30 be40 ffce c340 27e5 b7c0
00000030: e092 bbc0 6321 c1c0 9fa3 bbc0 cd35 06be
00000040: ade7 c4c0 c22a c3c0 1729 c440 157f b940
00000050: df3e bb40 88f2 c340 8612 a2c1 8231 86c1
00000060: b3a9 58c1 b761 61c1 8f32 56be bdce 62c1
00000070: 6617 61c1 1fef 5b41 4b11 ba40 6674 0dbf
00000080: e437 1f41 784d 93c0 1b2e 97c0 651f 94c0
00000090: 324a 8dc0 18b5 613d 36e0 9ac0 ac0c 92c0
000000a0: cff9 8a40 c702 8840 2f52 a540 eb74 8c40
000000b0: 2ff8 9ac0 a39d 86c0 627b 91c0 c644 98c0
000000c0: bcb7 e9c1 74ff bec0 e9a6 89c0 055d 7bc0
000000d0: 2400 8a40 748c 7540 9aca 2c40 2da0 aec1
000000e0: 3c5e f7c1 bc20 f4c1 4c74 0cc2 53ea fdc1
000000f0: d37f 67c2 e24a ebc1 f946 04c2 e2b1 a7c0
00000100: 1ef4 a2c0 11b9 7bc1 e601 a0c0 963f 97c0
00000110: 27c8 87c0 8f9e 94c0 9c1c 7c3e 8f4f a3c0
00000120: 6ec9 90c0 60c4 8640 7a25 b140 6fbc 1540
00000130: 0963 6b40 073d bfc0 5513 bec0 a8f8 bcc0
00000140: bb7a bac0 0853 3e3d 57ac c5c0 26ac c6c0
00000150: 054a c440 503d b640 9c68 b740 de9f bc40
00000160: a5f0 91c0 faec 03c2 714c bac0 cae9 26c2
00000170: e9b4 adc1 08ab f5c1 6bde ecc1 3cc2 91c1
00000180: 60cc eb40 5d41 7740 c6d2 dfc0 e315 47c1
00000190: 120e 2cc2 fd27 97c0 fe8d 0dc2 81cf fec1
000001a0: c86a 86c2 a22e 0cc2 7ff3 5ac2 6615 df40
000001b0: a90e d741 44a1 1541 f6dc 91c0 1917 18c2
000001c0: d41e 15c2 eee8 11c2 00a8 fcc1 91ea 0fc2
000001d0: 86d0 11c2 1dd7 d7c1 fdc8 92c1 c63f dac1
000001e0: e13e 9ac1 fcc2 20c2 a20d 0fc2 85eb 18c2
000001f0: 0da0 17c2 9a2a 46c2 327b 09c2 8db7 f4c1
00000200: 40da c9c1 343e 8dc1 a1d2 18c2 0d74 15c2
00000210: 7a62 b2c0 d1fa 8ac0 a628 9bc0 34f3 a5c0
00000220: 381a 33be 9712 afc0 847c 8bc0 d21a 2b40
00000230: 7ab0 bc40 6090 1140 f0e4 1d3f 84dd d4c1
00000240: b1ac a7c1 f109 d8c1 afff d6c1 3495 643e
00000250: 6921 37c2 ee91 d7c1 edea 7740 f063 fbc0
00000260: 6886 ffc0 2485 6b41 ce31 c7c0 46ec b7c0
00000270: 9452 b8c0 0fb8 c1c0 fad0 febd 47db c5c0
00000280: 46f8 c4c0 9d86 bec0 d3b9 bd40 cce1 bbc0
00000290: 7749 c0c0 4134 91c1 9431 97c1 e00c 96c1
000002a0: 7078 8ec1 4064 0d3e c0c4 9ec1 2d2a a0c1
000002b0: 674c cdc0 566d ed40 899a f5c0 68ff f040
000002c0: 3cfb d9c0 aa80 94c0 5f26 cec0 9ebd d2c0
000002d0: 1811 10bd 20b3 c0c0 1309 8fc0 35c0 9740
000002e0: 7f16 ccc0 aa86 9840 b2eb 9a40 5070 92c0
000002f0: 963c 8ac0 a64d 95c0 ecde 8ac0 70b7 b13c
00000300: ae9b 9bc0 4f65 9bc0 f1bf 9040 3fee a640
00000310: 40b4 a3c0 5f2c 9a40 025c ce42 699a 84c2
00000320: 3e57 8442 a57c c6c2 fecb b0c2 744a c542
00000330: b139 df42 cbc4 98c2 e5be ff42 7528 1ac0
00000340: 6617 19c3 247f f5c0 9792 1ec1 8ae5 d1c0
00000350: 809b 01c1 99c2 94be 62de 0fc1 4261 44c1
00000360: 9e85 d0c0 0b3a 74c1 bb0f de40 e02f f040
00000370: 7e00 c6c0 da2a c4c0 2970 bbc0 971a bbc0
00000380: 1071 cc3d faf6 bfc0 e38d c6c0 724b c0c0
00000390: cea8 c640 1e9a b6c0 a695 bbc0 b0c2 88c0
000003a0: cb03 91c0 f2d5 8ec0 8050 97c0 80e9 263e
000003b0: 0cc5 89c0 b15c 94c0 3a82 8840 89bd 9240
000003c0: 07ad 87c0 a536 8740 c127 90c0 7ffe 8fc0
000003d0: 0731 94c0 07f2 87c0 c807 563e 7de1 c9c0
000003e0: 907d 99c0 f072 8f40 82cd 97c0 f914 92c0
000003f0: ca8a 9040 eaea 92c0 2860 89c0 26c1 98c0
-6.240277 -5.728103 -6.035822 -6.0007334 -0.17956014 -5.7275376 -6.023868 -5.8454967
6.1091294 5.9434485 6.119018 -5.7467227 -5.861679 -6.0353255 -5.8637233 -0.13106461
-6.1532807 -6.0989695 6.130016 5.796763 5.8514247 6.123356 -20.259045 -16.774174
-13.54143 -14.086356 -0.20917724 -14.175473 -14.0682125 13.745879 5.814611 -0.55255735
9.951145 -4.6032066 -4.724378 -4.6288323 -4.415307 0.055104345 -4.8398695 -4.564047
4.342994 4.250339 5.166282 4.389272 -4.842796 -4.206743 -4.5463114 -4.758395
-29.214714 -5.9686832 -4.301625 -3.9275525 4.312517 3.8366976 2.6998658 -21.82821
-30.921013 -30.515984 -35.11357 -31.739416 -57.87483 -29.411564 -33.06931 -5.240464
-5.0922995 -15.732682 -5.0002317 -4.726512 -4.2431827 -4.6443553 0.24620289 -5.1034617
-4.5245886 4.2114716 5.535825 2.339626 3.6779196 -5.9761996 -5.93986 -5.9053535
-5.8274817 0.046465904 -6.1772876 -6.208514 6.1340356 5.6949844 5.7315197 5.894515
-4.5606256 -32.981422 -5.821831 -41.72831 -21.713335 -30.708511 -29.608603 -18.219841
7.368698 3.8633645 -6.994479 -12.442843 -43.01374 -4.7236314 -35.388664 -31.85132
-67.20856 -35.04554 -54.73779 6.971362 26.882158 9.3518715 -4.558223 -38.022556
-37.280106 -36.47747 -31.582031 -35.97907 -36.453636 -26.980036 -18.348139 -27.28114
-19.280703 -40.190414 -35.763313 -38.23 -37.9063 -49.541603 -34.370308 -30.589624
-25.231567 -17.655373 -38.205692 -37.36333 -5.574521 -4.343117 -4.848712 -5.185938
-0.1749047 -5.4710193 -4.3589497 2.673512 5.8965425 2.274437 0.61677456 -26.608162
-20.959322 -27.004854 -26.874846 0.22322541 -45.782627 -26.946255 3.8737137 -7.8559494
-7.985157 14.720005 -6.2248297 -5.747592 -5.7600803 -6.053718 -0.12442203 -6.1830173
-6.155307 -5.9539323 5.9289336 -5.871313 -6.008968 -18.150515 -18.899208 -18.756287
-17.808807 0.13807774 -19.84607 -20.020594 -6.4155765 7.4195967 -7.675114 7.5311775
-6.8119183 -4.640706 -6.442184 -6.5856466 -0.035172552 -6.021866 -4.4698577 4.742213
-6.377746 4.7664385 4.8412714 -4.57621 -4.3198957 -4.6657286 -4.339712 0.021693915
-4.862754 -4.856117 4.5234303 5.216583 -5.115753 4.8179164 103.1797 -66.30158
66.170395 -99.24345 -88.39842 98.64542 111.61268 -76.38436 127.87284 -2.4087193
-153.0914 -7.67177 -9.910789 -6.55927 -8.100464 -0.29054716 -8.991793 -12.273745
-6.5163107 -15.264171 6.93942 7.505844 -6.18756 -6.130231 -5.8574414 -5.846996
0.099825025 -5.9988985 -6.20482 -6.0092096 6.208106 -5.706313 -5.8620176 -4.2737656
-4.531713 -4.4636164 -4.7285767 0.1630001 -4.3053036 -4.636315 4.265897 4.5856366
-4.2398715 4.2254205 -4.504853 -4.4998164 -4.630985 -4.2482944 0.20901406 -6.3087754
-4.7965775 4.4827805 -4.7438364 -4.56506 4.516942 -4.591176 -4.292988 -4.7735777

0.bias f4 [150]
00000000: 10b7 c4c0 5840 bbc0 1ef8 96c1 6888 94c0
00000010: 6542 b0c0 d299 2dc2 e4bc 9dc0 e34a bcc0
00000020: aebe 0bc2 0acf 86c2 3e9a 55c2 a4cf 04c2
00000030: ab52 9ac0 b003 38c2 6e46 c4c0 bd4f 9fc1
00000040: 83e3 d8c0 8025 89c0 fd66 88c1 7624 2cc1
00000050: e4f5 b9c0 0a4d 8ec0 60a4 ccc0 6110 98c0
00000060: ce12 2ac1 2d8e d4c0 7852 ccc0 ff8c d3c0
00000070: a86c a8c0 cb80 8bc0 37ed 58c2 2c0b 9bc0
00000080: 71c1 d4c0 2a42 b6c0 dad7 bec0 469f 8ac0
00000090: fad2 cec0 4655 dac0 4aad bec0 6c06 99c0
000000a0: 8609 9fc0 5f38 c3c0 bf86 8ac0 6ff2 82c2
000000b0: 69dd 8fc0 3f5d 01c2 14fd cac0 f28f 2fc2
000000c0: 4835 dac0 b3c7 2bc2 670b 96c0 381b bdc0
000000d0: 18de d6c0 fcc2 13c2 8a93 d9c0 53dc 90c0
000000e0: 191c 76c2 2852 d6c0 9cf6 0ec2 ea6c b9c0
000000f0: 79f5 c3c2 cbe1 86c1 79e4 c4c0 c5c3 3bc2
00000100: f31b 95c0 be55 05c2 7682 cec0 8278 44c2
00000110: 83b7 22c1 2018 94c0 8d27 57c1 b2f0 15c2
00000120: 73cb 0cc1 87a0 0ac2 0f94 69c2 48e4 9ac0
00000130: b7df 2dc2 4a21 4ac2 4c2c 99c0 0b45 4ec2
00000140: 69aa 90c2 2c31 bcc0 98bf 67c2 2f58 41c2
00000150: eb43 80c2 f9e3 8fc2 be3d 33c1 bec4 c2c0
00000160: b25f 2ac2 9fbf 8ac0 ace8 c8c0 16fc 9ac0
00000170: ee4f ebc0 1a98 2ec2 070d 4bc1 6dd4 55c1
00000180: d441 d8c0 6257 b7c0 489a b7c0 065c 86c2
00000190: 28c3 b8c0 e96b 9fc2 49b0 eac1 af27 d4c0
000001a0: 2684 cdc0 fd25 c1c0 86f5 97c0 fda8 e2c0
000001b0: 46c6 97c0 fc3e 8ac0 9f03 2dc2 b5aa 8ac0
000001c0: 235e 9dc0 8549 c4c0 518c 93c0 6353 67c2
000001d0: 20c9 80c2 44d5 fbc0 addc 9ac0 ba79 c0c0
000001e0: 89d4 8cc0 0e54 74c2 91a7 c2c0 1488 bbc0
000001f0: 8ad8 88c0 5a5f bdc0 f52f 92c0 facf b9c0
00000200: eabb 23c2 2700 8ec0 3c51 8cc0 553c 8fc0
00000210: ca8a 9ac0 808a cfc0 b869 86c2 b7a8 03c1
00000220: ed06 94c0 f464 8bc0 b659 c0c0 8ec3 71c2
00000230: 9db0 b6c0 a97e 07c2 e4bd cac0 fb7b 61c2
00000240: 4749 d5c0 0944 95c0 46b6 8cc0 9cef c1c0
00000250: f1c0 b7c0 fc7b d3c0
-6.1473465 -5.8516045 -18.871151 -4.641651 -5.508105 -43.400215 -4.929308 -5.8841414
-34.93621 -67.40437 -53.400627 -33.202774 -4.8225913 -46.0036 -6.1335974 -19.913935
-6.7777724 -4.2858276 -17.050287 -10.758902 -5.811266 -4.446904 -6.3950653 -4.7519994
-10.629591 -6.6423554 -6.385067 -6.6109614 -5.2632637 -4.359472 -54.231655 -4.8451138
-6.6486135 -5.6955767 -5.963849 -4.3319426 -6.463254 -6.8229094 -5.9586535 -4.782034
-4.9699125 -6.100631 -4.3289485 -65.4735 -4.4957776 -32.34106 -6.3433933 -43.89057
-6.819004 -42.94502 -4.688892 -5.9095726 -6.714611 -36.940414 -6.79926 -4.526895
-61.52744 -6.697529 -35.74083 -5.794545 -97.97944 -16.86025 -6.1528897 -46.94118
-4.659662 -33.333733 -6.4534254 -49.117683 -10.169803 -4.627945 -13.447156 -37.485054
-8.79967 -34.656765 -58.39459 -4.8403664 -43.46847 -50.53251 -4.7866573 -51.567425
-72.33283 -5.8810024 -57.937103 -48.336117 -64.13265 -71.94526 -11.202574 -6.0865164
-42.593452 -4.3358912 -6.2784023 -4.843272 -7.353507 -43.648537 -12.6906805 -13.364362
-6.7580357 -5.729417 -5.737583 -67.17973 -5.773823 -79.71076 -29.336077 -6.629844
-6.4223814 -6.0358872 -4.748721 -7.0831285 -4.7429533 -4.3201885 -43.253536 -4.3333383
-4.9177413 -6.1339746 -4.6108785 -57.831432 -64.39282 -7.8697834 -4.839438 -6.014859
-4.400944 -61.082085 -6.082955 -5.860361 -4.276433 -5.9178896 -4.568354 -5.806638
-40.93351 -4.4375186 -4.3849163 -4.4761147 -4.829442 -6.4856567 -67.20648 -8.22869
-4.6258454 -4.3560734 -6.010951 -60.44097 -5.7090592 -33.87369 -6.33568 -56.371075
-6.665195 -4.664555 -4.39725 -6.060499 -5.7423024 -6.608885

2.weight f4 [100, 150]
00000000: afd6 bf40 53b6 c140 1673 2d3d 6bc4 8ec0
00000010: bb75 94c0 499d 8fc0 5e97 93c0 c424 c040
00000020: 84fb 8ec0 27c1 8fc0 487f 8fc0 c3f8 95c0
00000030: 724e 92c0 d657 c140 5749 c040 d6ba bdc0
00000040: b3f9 92c0 1214 92c0 9365 aac0 9e22 91c0
00000050: fb2d c040 28b1 93c0 b6dd 91c0 e211 8fc0
00000060: bd7b 92c0 15fb 89c0 5ca3 8fc0 3f4a 92c0
00000070: 11ad 93c0 ddd0 8ec0 4540 90c0 2134 8fc0
00000080: 6152 91c0 682c fbbf 23fe be40 fccc 90c0
00000090: 6720 90c0 37ef 92c0 8d1b c240 b455 91c0
000000a0: 9edd 91c0 a00e c040 c37d 90c0 5de8 8fc0
000000b0: b02e 91c0 017b bd40 a2d6 92c0 8706 60bd
000000c0: 86ed 8fc0 4ac7 8fc0 7732 8fc0 8aef 8ec0
000000d0: bdd3 8fc0 ba84 d2c0 3b91 d3c0 e0a9 90c0
000000e0: c488 92c0 cdd8 8fc0 3c92 8fbc 6bb3 be40
000000f0: 16e3 90c0 70b5 e63b c96b c040 a123 0bc2
00000100: b74a 90c0 0a75 90c0 5332 81c0 a24f 93c0
00000110: d502 c240 d3d5 93c0 e3d9 c040 6f4a 91c0
00000120: 9e57 b9bc d8bc d0c0 c3df 92c0 74f7 92c0
00000130: e4e4 ccc1 560b 91c0 52de 92c0 eaab 8fc0
00000140: c693 90c0 6807 c2c0 bfa7 93c0 7de2 bbc1
00000150: 4335 91c0 3a8b f1c0 2842 edbf a5fa bf40
00000160: 2bff 92c0 9255 8fc0 9905 be40 56d4 91c0
00000170: cf91 90c0 26d3 8ec0 4ce3 cabf fad4 91c0
00000180: cc41 8fc0 dccc be40 7619 bf40 3700 90c0
00000190: 31f5 c040 2b33 cdc1 ca32 93c0 76dd 8fc0
000001a0: 9641 8fc0 7109 be40 94f0 8ec0 835b 8bc0
000001b0: e8e9 8fc0 144b 8fc0 53a6 91c0 04c7 92c0
000001c0: 399a 92c0 63b3 be40 a4b1 8ec0 2d8c 92c0
000001d0: fe06 92c0 2ed3 4ac1 0e58 93c0 dc6b bf40
000001e0: 202a 93c0 09c3 cec0 2d04 bf40 79e4 be40
000001f0: d327 90c0 c465 00c0 8130 90c0 4d09 bf40
00000200: 9c40 8fc0 a937 91c0 b123 90c0 9358 8fc0
00000210: 1698 90c0 a6b3 92c0 03f7 8fc0 b43d be40
00000220: e6ef 8ec0 798f 90c0 75e6 c140 b9a0 8fc0
00000230: 7b9c c040 0a3b 91c0 1e00 90c0 eedb 8fc0
00000240: dd38 91c0 66cf 90c0 453d 8fc0 f3bb be40
00000250: 02b0 00c0 96b6 91c0 e4a0 bdc0 6463 bec0
00000260: 5fe6 27bd 093a c1c0 3527 bdc0 33b3 bfc0
00000270: 2c14 bec0 33d3 bdc0 ca3d a03d 97da bec0
00000280: d865 c0c0 8c6a c0c0 b158 bec0 ac5a bec0
00000290: 48fa bec0 98ad bec0 c8eb bfc0 98fc c0c0
000002a0: c9e0 bdc0 1a78 bfc0 6db4 c0c0 6f39 bec0
000002b0: 6f9a c1c0 f91b bec0 4031 c1c0 8f54 c1c0
000002c0: 9c5b bdc0 6180 bfc0 bd63 c1c0 fcb8 bdc0
000002d0: a97d bfc0 8601 c0c0 21b3 bfc0 1737 bec0
000002e0: 635c bdc0 5b0a bdc0 22f2 bec0 0476 bfc0
000002f0: c4fe bfc0 9bcd c0c0 b1cc bfc0 d503 bfc0
00000300: e639 bec0 8d25 bdc0 f40d bec0 0619 bdc0
00000310: 07e3 bdc0 0e76 83bd 99ca c0c0 67a1 bec0
00000320: ed1d c0c0 eca9 c0c0 a10f bdc0 b759 c0c0
00000330: 8616 88bd 59f4 bdc0 366c bdc0 cf26 bfc0
00000340: 3861 ecbc cc44 c0c0 2eea c0c0 1dad 9ebd
00000350: 002c c0c0 0ba0 bfc0 612b bfc0 c602 bfc0
00000360: fac5 bfc0 42fc c1c0 dbc9 c0c0 74d7 c0c0
00000370: 202c c0c0 ddd6 c0c0 17f8 1abd 3607 c2c0
00000380: eda9 c0c0 8de5 c0c0 957c c1c0 6833 c0c0
00000390: fb2c c1c0 f591 bec0 c42e bdc0 c80e bfc0
000003a0: ca0c bec0 e884 bdc0 57fb bdc0 8039 d4bb
000003b0: 15bc c0c0 59fc bec0 4214 c0c0 54e6 8c3c
000003c0: b8c2 bec0 6f54 c1c0 5a02 bfc0 0cda bdc0
000003d0: 93a3 c1c0 9d25 bec0 2299 c0c0 275d bec0
000003e0: e5e6 bfc0 fa9d c1c0 a6dc bfc0 6634 bec0
000003f0: 252e bdc0 f073 c1c0 f55f c0c0 6ae9 c0c0
5.9949565 6.0535064 0.042346083 -4.461477 -4.6393714 -4.48795 -4.6122274 6.004488
-4.4682026 -4.492328 -4.4842873 -4.6866164 -4.572076 6.041972 6.0089526 -5.929057
-4.592981 -4.56495 -5.324899 -4.5354757 6.005613 -4.6153755 -4.5583143 -4.470933
-4.577605 -4.3118997 -4.4886913 -4.5715632 -4.6148763 -4.462996 -4.5078454 -4.4751134
-4.541306 -1.9622927 5.9685225 -4.5250225 -4.5039554 -4.591701 6.065863 -4.541712
-4.558303 6.0017853 -4.515352 -4.4971147 -4.536949 5.921265 -4.5887003 -0.054693725
-4.4977446 -4.4930773 -4.4749103 -4.4667406 -4.494597 -6.578702 -6.6114783 -4.5207367
-4.579195 -4.495215 -0.017525785 5.9594016 -4.5277205 0.007040672 6.0131574 -34.784794
-4.5091205 -4.514287 -4.037393 -4.603471 6.0628457 -4.6198516 6.0265975 -4.540336
-0.022624787 -6.523052 -4.5898147 -4.5927067 -25.611763 -4.532634 -4.5896387 -4.4897356
-4.5180387 -6.063404 -4.614227 -23.48559 -4.5377517 -7.5482454 -1.8535814 5.9993463
-4.5936484 -4.4791956 5.9381833 -4.55717 -4.517799 -4.463275 -1.5850616 -4.557248
-4.476782 5.9625072 5.971858 -4.500026 6.0299306 -25.649984 -4.59995 -4.495784
-4.476756 5.9386525 -4.4668674 -4.354921 -4.497303 -4.477915 -4.5515532 -4.586794
-4.581326 5.959398 -4.4591846 -4.5796113 -4.5633535 -12.676558 -4.604499 5.9819164
-4.598892 -6.461308 5.9692597 5.9653897 -4.5048614 -2.0062113 -4.505921 5.9698853
-4.476637 -4.5380445 -4.504357 -4.4795623 -4.518565 -4.5844297 -4.498903 5.945032
-4.4667845 -4.5175138 6.059382 -4.4883695 6.0191016 -4.538457 -4.5000143 -4.495597
-4.5381913 -4.525317 -4.476229 5.960443 -2.0107427 -4.5535383 -5.92589 -5.9496326
-0.040991183 -6.0383344 -5.911036 -5.990625 -5.9399624 -5.932031 0.07824285 -5.9641833
-6.012432 -6.013006 -5.9483266 -5.9485683 -5.968052 -5.9586906 -5.997532 -6.030834
-5.9336896 -5.983411 -6.0220246 -5.944511 -6.0501018 -5.9409146 -6.037262 -6.041572
-5.917433 -5.9844213 -6.043425 -5.928831 -5.9840894 -6.000186 -5.9906163 -5.944225
-5.9175277 -5.907514 -5.967057 -5.983156 -5.9998493 -6.0250983 -5.9937367 -5.969218
-5.9445677 -5.910834 -5.9392033 -5.9093046 -5.9339633 -0.064190015 -6.024731 -5.9572024
-6.003653 -6.0207424 -5.908158 -6.0109515 -0.06644921 -5.9360776 -5.9194593 -5.9734874
-0.028854951 -6.008398 -6.0285864 -0.077478625 -6.005371 -5.9882865 -5.9740453 -5.9690886
-5.992917 -6.062043 -6.0246406 -6.0263004 -6.0053864 -6.0262284 -0.037834253 -6.0633802
-6.020743 -6.0280213 -6.046458 -6.006275 -6.036741 -5.955317 -5.9119587 -5.9705544
-5.939061 -5.922474 -5.936931 -0.006476581 -6.022959 -5.968304 -6.002473 0.017199673
-5.9612694 -6.041557 -5.969037 -5.932867 -6.0512176 -5.9420915 -6.018693 -5.948871
-5.9969354 -6.0505342 -5.9956846 -5.9438963 -5.911883 -6.0454025 -6.0117135 -6.028493

2.bias f4 [100]
00000000: 56a1 3cc2 fb8e c0c0 0192 9bc2 595c 10c2
00000010: 0b3e 53c2 e3fd 9cc1 70c3 1cc2 cf76 85c0
00000020: 0f9b 3dc2 c24e 06c2 5e90 06c2 0e55 3ec2
00000030: 1f9f 2ec2 c693 fec2 d164 26c2 5914 40c2
00000040: cc1c 92c2 37b7 c1c0 5a8f 3cc2 4621 27c2
00000050: 6f5a 1ec3 5dab 3bc2 a5d6 bec0 65fc 29c2
00000060: 22aa bdc0 4270 f4c2 bc49 28c2 87d9 08c3
00000070: 8ca5 81c1 cc9e f0c1 e369 aac0 2ea8 8cc2
00000080: 659c 56c2 4fb2 96c1 f28e 56c2 44d2 21c1
00000090: 6015 29c2 f29f 3dc2 23a9 3bc2 8829 bfc2
000000a0: eade bfc0 8614 11c2 5542 68c2 1773 13c2
000000b0: 62fe 9cc2 1dc9 25c2 d401 adc0 51e1 82c1
000000c0: c354 9ac2 0825 19c3 43ab 23c1 609d b8c2
000000d0: 0cbf 46c2 9258 9bc2 d673 bdc0 733c 26c2
000000e0: e1fd 3cc2 3bf4 0bc2 75b3 3fc2 fed4 2ec2
000000f0: 5cd5 a0c1 e712 3ec2 7cec 10c2 56bd bfc0
00000100: 0371 a941 264f 2fc2 c3fb ddc2 c971 00c3
00000110: 874a bec0 f1f4 b5c2 f34e 25c2 0b49 27c2
00000120: 90ad bdc2 3109 a2c2 725c 4340 6160 6ec2
00000130: 0136 a1c2 c7d1 67c0 aba9 87c2 b366 bec0
00000140: 2689 3ec2 7fcc 16c2 3743 1ec2 abc0 aac2
00000150: 251b 15c2 278d 16c2 e1a1 3dc2 9d13 25c2
00000160: 8377 bdc2 0479 33c2 519f 3bc2 2f2b 1bc2
00000170: 4572 8cc1 76d5 25c2 5081 19c2 45b5 12c2
00000180: 3eb3 88c2 c9d2 76c2 008d 26c2 750a 84c1
-47.157555 -6.0174537 -77.785164 -36.090183 -52.81059 -19.623968 -39.190857 -4.170753
-47.401424 -33.576912 -33.640984 -47.58306 -43.65539 -127.28862 -41.598454 -48.01987
-73.056244 -6.053615 -47.13999 -41.782494 -158.35326 -46.917347 -5.9637017 -42.49648
-5.927018 -122.21925 -42.072006 -136.84972 -16.205833 -30.077538 -5.3254256 -70.328476
-53.65273 -18.837065 -53.639595 -10.113834 -42.270874 -47.406197 -46.915173 -95.581116
-5.995961 -36.270042 -58.064777 -36.862392 -78.49684 -41.4464 -5.406473 -16.360018
-77.16555 -153.14465 -10.229312 -92.30737 -49.68657 -77.67299 -5.92039 -41.559032
-47.24793 -34.988506 -47.92525 -43.708 -20.10418 -47.51846 -36.23094 -5.9918623
21.180182 -43.827293 -110.99172 -128.44447 -5.9465976 -90.9784 -41.3271 -41.82133
-94.83899 -81.01795 3.0525174 -59.59412 -80.60548 -3.6221788 -67.83138 -5.9500365
-47.633934 -37.699703 -39.56564 -85.376305 -37.27651 -37.637844 -47.408085 -41.269154
-94.73342 -44.86818 -46.905582 -38.79217 -17.555796 -41.458458 -38.37628 -36.67702
-68.35008 -61.705845 -41.637695 -16.505106

4.weight f4 [5, 100]
00000000: 9a28 8e40 61cb bec0 8b13 0dc0 b84b 9440
00000010: 6a63 c3c0 1149 38c1 925e 5c42 07e2 b542
00000020: 9f45 8f40 9b55 3a41 1c85 c4c1 3461 9140
00000030: a63e 9240 b5b1 8341 8e1e 9040 ed76 9040
00000040: 8679 b141 7175 bec0 b9f6 8f40 35a9 8f40
00000050: 6c35 66c2 091d 8e40 a564 bfc0 3b39 9240
00000060: 9889 bdc0 12ee 1640 49aa 9040 b2d2 ab40
00000070: d350 6cc0 84bf 3f3f 53fd a7c0 301d c141
00000080: d952 57c1 567a 9040 8ab3 3a40 23f8 9340
00000090: 1ac9 8d40 95c4 92c1 d4b9 86c1 4593 d8c0
000000a0: c93e bec0 e2fa 9240 80f2 5f41 2d66 8f40
000000b0: e472 1d42 2efb 8d40 bd37 acc0 3f7b 6fc0
000000c0: 6068 5442 f5d1 97c1 f55b 8e40 4c6d de41
000000d0: 40e6 5f42 75cc 3f40 8c6b bec0 2e35 8f40
000000e0: cef2 9140 6b09 e741 dbbd 9140 ed12 5e42
000000f0: a7c7 4dbd daa9 9040 d7c3 8f40 92c4 bec0
00000100: d46a 6c42 90e5 81c0 5819 c4c1 10e8 9b41
00000110: 72d6 5a3d 773d e1c1 8e83 8f40 0411 8f40
00000120: 9979 f5c1 d62c 6f41 8248 0ac1 da06 e13d
00000130: 31d4 3940 dd23 11c2 c43a 8d40 a9d2 bdc0
00000140: 7cfc 8e40 ce35 bf40 15a7 9040 8f92 84c0
00000150: ae62 b140 ee2a 77c0 202e 9040 9f55 b9c1
00000160: d00f 3940 865f 9fbf 576a 9040 d65e 83c1
00000170: de10 a940 03de 8f40 d730 fac0 ac7e 9240
00000180: 7565 da41 2445 dc41 e55c 9340 74bb 8f40
00000190: d2b1 8d40 5b78 bcc0 21f3 2141 cfcf 9340
000001a0: ec77 cd41 8167 ca41 ddc7 bb41 2a11 fcc1
000001b0: 5c4d 9140 b1c9 8342 c533 7fc2 395e 8e40
000001c0: 67c0 b140 87b8 5041 5210 9140 d22c 8b40
000001d0: 97bd b941 f4ae bdc0 ccba 8d40 31d6 8f40
000001e0: aa2b 1cc0 13a7 8e40 3d0c bec0 4f7d 8f40
000001f0: 0237 bfc0 51a5 0ac2 8218 8f40 26ef 0fc2
00000200: 11d0 b6c0 4cf6 2340 4c99 0cbd 1c20 2541
00000210: 3c0a cf3f 07f9 8640 7846 4540 e4ef 9140
00000220: 2a7c 8740 2de7 34c0 43ba 30c0 ec0c a440
00000230: 93d5 bcc0 6c38 9140 c252 8341 f824 8840
00000240: 4c9d 2442 4fe1 8e40 5abf a9c0 7888 03c1
00000250: 29ab 2442 c742 7a41 5f8d 8f40 9696 a441
00000260: 83f5 2fc2 2aa8 d9c1 d516 bec0 5329 9340
00000270: b5a1 8b40 f776 8441 15eb 8d40 4fee 6bc1
00000280: 615e 0241 cf4c 9140 0d82 9040 e47e bcc0
00000290: 1fa3 b441 2014 8f40 bf4d 28c0 2b44 5540
000002a0: 7eeb bdc0 a4c0 bcc0 b863 9140 6a68 8e40
000002b0: b84b 8840 1a9a e33e f710 9142 ec3e 06c2
000002c0: 0397 d6c1 1357 63c2 029a cf41 6b37 bec0
000002d0: cf16 9040 4dce 923d ea21 9240 8541 1942
000002e0: 6b01 af40 ad88 8c40 9e3a 9040 1fea 8640
000002f0: bccc 8c41 aaf1 8e40 9721 8f40 7648 8b40
00000300: 9922 7bc2 f99a 8e40 5e59 8d40 7945 9240
00000310: 1c91 18c1 0c1c d041 7990 8f40 de69 8c40
00000320: f817 6c40 37f2 bcc0 2076 8541 d550 8f40
00000330: 047b 22c2 ecb3 b2c1 b07b 0dc2 89de 2d41
00000340: 5aff 6040 2d92 3742 ebe3 98c1 fc85 6340
00000350: 0e12 8b40 e7ea cac1 b67d 8e40 9a7c 2940
00000360: b046 f3c1 a254 bdc0 a0eb 6e40 ae72 8d40
00000370: 8c88 32c2 9a70 6f40 f8ef bec0 36d5 4f40
00000380: be58 bec0 0e4b 23c0 617f 4b40 33ba 1bc2
00000390: 0292 bec0 9f8d 72c0 8d57 abc0 477a be41
000003a0: 2e1c 6a40 9756 0cc0 d54e 0842 06e1 9340
000003b0: d692 a13e 23aa 9640 58ed 29c0 7f98 19c2
000003c0: 4fd1 bcc0 1960 8b40 695a a6c1 ebcc 7640
000003d0: ade9 16c2 dfe3 8c40 ee02 a9c0 f880 bdc0
000003e0: dad1 bbc1 55a9 bec1 d8c1 9140 cd3b 54c2
000003f0: 44ee a141 c683 a0c0 298e bdc0 9040 8f40
4.4424562 -5.9623265 -2.2043178 4.634243 -6.1058855 -11.5178385 55.092354 90.94146
4.4772487 11.6459 -24.564995 4.5431156 4.5701475 16.461771 4.50373 4.5145173
22.184338 -5.951836 4.4988675 4.489405 -57.55217 4.4410443 -5.9810357 4.569486
-5.923046 2.3582807 4.520787 5.3694696 -3.692433 0.74901605 -5.2496734 24.139252
-13.4577265 4.5149336 2.9172082 4.62404 4.4307985 -18.345987 -16.840736 -6.767977
-5.945164 4.5931253 13.996704 4.4812226 39.362198 4.4369116 -5.381804 -3.7418973
53.10193 -18.977518 4.448725 27.803368 55.974854 2.996854 -5.9506283 4.4752417
4.5608892 28.879599 4.5544257 55.518482 -0.05023923 4.520734 4.492656 -5.9614954
59.104324 -4.059273 -24.512375 19.488312 0.053427167 -28.155012 4.484809 4.470827
-30.684374 14.948446 -8.642702 0.10987635 2.9035761 -36.285023 4.4134235 -5.9319654
4.468321 5.975318 4.5203958 -4.1428905 5.543296 -3.8619952 4.5056305 -23.166807
2.89159 -1.2451026 4.512981 -16.421307 5.283309 4.495851 -7.818462 4.577963
27.29954 27.53376 4.6050897 4.4916325 4.4279566 -5.889692 10.121858 4.6191173
25.683556 25.300539 23.47259 -31.50838 4.5406933 65.89393 -63.800556 4.449002
5.5547366 13.045051 4.533242 4.349221 23.217573 -5.9276066 4.4290524 4.4948964
-2.440165 4.457895 -5.938994 4.4840465 -5.975465 -34.66144 4.4717417 -35.983543
-5.7128987 2.5619078 -0.034325883 10.320339 1.6174998 4.217899 3.082426 4.5605335
4.2339067 -2.8266098 -2.7613685 5.1265774 -5.901071 4.5381374 16.41541 4.254513
41.15361 4.4650035 -5.3046083 -8.220818 41.16715 15.641303 4.486007 20.573528
-43.989758 -27.207111 -5.940287 4.5987945 4.3634896 16.558088 4.4349465 -14.745681
8.148042 4.540626 4.5158753 -5.8904896 22.579649 4.4712067 -2.6297452 3.3322856
-5.9349966 -5.8985157 4.5434227 4.450246 4.259243 0.44453508 72.533134 -33.561447
-26.823736 -56.835033 25.9502 -5.944265 4.5027843 0.07168255 4.56664 38.313984
5.468923 4.391684 4.5071554 4.216079 17.599968 4.467 4.4728503 4.3525953
-62.783787 4.4564176 4.417159 4.5709805 -9.535427 26.013695 4.486386 4.3879232
3.688963 -5.9045672 16.682678 4.478617 -40.620132 -22.337852 -35.37079 10.86683
3.5155854 45.89275 -19.111288 3.5550528 4.345954 -25.364698 4.4528456 2.64823
-30.409515 -5.916581 3.7331314 4.420249 -44.633347 3.7412477 -5.966793 3.2473884
-5.948333 -2.551456 3.1796496 -38.931835 -5.955323 -3.7898939 -5.3544374 23.809706
3.65797 -2.192785 34.076984 4.6212187 0.3155734 4.7082686 -2.6551113 -38.398922
-5.9005504 4.3554807 -20.794146 3.8562572 -37.7282 4.4028163 -5.2816076 -5.9219933
-23.477467 -23.832682 4.5549126 -53.0584 20.24134 -5.0160856 -5.9236035 4.476631

4.bias f4 [5]
00000000: bd1e 3246 7a43 3046 4228 3046 17d7 2f46
00000010: 3895 3646
11399.685 11280.869 11274.064 11253.772 11685.305

0.weight f4 [150, 11]
00000000: 59b0 c7c0 9f4c b7c0 7425 c1c0 0206 c0c0
00000010: 9dde 37be fd47 b7c0 87c3 c0c0 4f0e bbc0
00000020: fd7d c340 bb30 be40 ffce c340 27e5 b7c0
00000030: e092 bbc0 6321 c1c0 9fa3 bbc0 cd35 06be
00000040: ade7 c4c0 c22a c3c0 1729 c440 157f b940
00000050: df3e bb40 88f2 c340 8612 a2c1 8231 86c1
00000060: b3a9 58c1 b761 61c1 8f32 56be bdce 62c1
00000070: 6617 61c1 1fef 5b41 4b11 ba40 6674 0dbf
00000080: e437 1f41 784d 93c0 1b2e 97c0 651f 94c0
00000090: 324a 8dc0 18b5 613d 36e0 9ac0 ac0c 92c0
000000a0: cff9 8a40 c702 8840 2f52 a540 eb74 8c40
000000b0: 2ff8 9ac0 a39d 86c0 627b 91c0 c644 98c0
000000c0: bcb7 e9c1 74ff bec0 e9a6 89c0 055d 7bc0
000000d0: 2400 8a40 748c 7540 9aca 2c40 2da0 aec1
000000e0: 3c5e f7c1 bc20 f4c1 4c74 0cc2 53ea fdc1
000000f0: d37f 67c2 e24a ebc1 f946 04c2 e2b1 a7c0
00000100: 1ef4 a2c0 11b9 7bc1 e601 a0c0 963f 97c0
00000110: 27c8 87c0 8f9e 94c0 9c1c 7c3e 8f4f a3c0
00000120: 6ec9 90c0 60c4 8640 7a25 b140 6fbc 1540
00000130: 0963 6b40 073d bfc0 5513 bec0 a8f8 bcc0
00000140: bb7a bac0 0853 3e3d 57ac c5c0 26ac c6c0
00000150: 054a c440 503d b640 9c68 b740 de9f bc40
00000160: a5f0 91c0 faec 03c2 714c bac0 cae9 26c2
00000170: e9b4 adc1 08ab f5c1 6bde ecc1 3cc2 91c1
00000180: 60cc eb40 5d41 7740 c6d2 dfc0 e315 47c1
00000190: 120e 2cc2 fd27 97c0 fe8d 0dc2 81cf fec1
000001a0: c86a 86c2 a22e 0cc2 7ff3 5ac2 6615 df40
000001b0: a90e d741 44a1 1541 f6dc 91c0 1917 18c2
000001c0: d41e 15c2 eee8 11c2 00a8 fcc1 91ea 0fc2
000001d0: 86d0 11c2 1dd7 d7c1 fdc8 92c1 c63f dac1
000001e0: e13e 9ac1 fcc2 20c2 a20d 0fc2 85eb 18c2
000001f0: 0da0 17c2 9a2a 46c2 327b 09c2 8db7 f4c1
00000200: 40da c9c1 343e 8dc1 a1d2 18c2 0d74 15c2
00000210: 7a62 b2c0 d1fa 8ac0 a628 9bc0 34f3 a5c0
00000220: 381a 33be 9712 afc0 847c 8bc0 d21a 2b40
00000230: 7ab0 bc40 6090 1140 f0e4 1d3f 84dd d4c1
00000240: b1ac a7c1 f109 d8c1 afff d6c1 3495 643e
00000250: 6921 37c2 ee91 d7c1 edea 7740 f063 fbc0
00000260: 6886 ffc0 2485 6b41 ce31 c7c0 46ec b7c0
00000270: 9452 b8c0 0fb8 c1c0 fad0 febd 47db c5c0
00000280: 46f8 c4c0 9d86 bec0 d3b9 bd40 cce1 bbc0
00000290: 7749 c0c0 4134 91c1 9431 97c1 e00c 96c1
000002a0: 7078 8ec1 4064 0d3e c0c4 9ec1 2d2a a0c1
000002b0: 674c cdc0 566d ed40 899a f5c0 68ff f040
000002c0: 3cfb d9c0 aa80 94c0 5f26 cec0 9ebd d2c0
000002d0: 1811 10bd 20b3 c0c0 1309 8fc0 35c0 9740
000002e0: 7f16 ccc0 aa86 9840 b2eb 9a40 5070 92c0
000002f0: 963c 8ac0 a64d 95c0 ecde 8ac0 70b7 b13c
00000300: ae9b 9bc0 4f65 9bc0 f1bf 9040 3fee a640
00000310: 40b4 a3c0 5f2c 9a40 025c ce42 699a 84c2
00000320: 3e57 8442 a57c c6c2 fecb b0c2 744a c542
00000330: b139 df42 cbc4 98c2 e5be ff42 7528 1ac0
00000340: 6617 19c3 247f f5c0 9792 1ec1 8ae5 d1c0
00000350: 809b 01c1 99c2 94be 62de 0fc1 4261 44c1
00000360: 9e85 d0c0 0b3a 74c1 bb0f de40 e02f f040
00000370: 7e00 c6c0 da2a c4c0 2970 bbc0 971a bbc0
00000380: 1071 cc3d faf6 bfc0 e38d c6c0 724b c0c0
00000390: cea8 c640 1e9a b6c0 a695 bbc0 b0c2 88c0
000003a0: cb03 91c0 f2d5 8ec0 8050 97c0 80e9 263e
000003b0: 0cc5 89c0 b15c 94c0 3a82 8840 89bd 9240
000003c0: 07ad 87c0 a536 8740 c127 90c0 7ffe 8fc0
000003d0: 0731 94c0 07f2 87c0 c807 563e 7de1 c9c0
000003e0: 907d 99c0 f072 8f40 82cd 97c0 f914 92c0
000003f0: ca8a 9040 eaea 92c0 2860 89c0 26c1 98c0
-6.240277 -5.728103 -6.035822 -6.0007334 -0.17956014 -5.7275376 -6.023868 -5.8454967
6.1091294 5.9434485 6.119018 -5.7467227 -5.861679 -6.0353255 -5.8637233 -0.13106461
-6.1532807 -6.0989695 6.130016 5.796763 5.8514247 6.123356 -20.259045 -16.774174
-13.54143 -14.086356 -0.20917724 -14.175473 -14.0682125 13.745879 5.814611 -0.55255735
9.951145 -4.6032066 -4.724378 -4.6288323 -4.415307 0.055104345 -4.8398695 -4.564047
4.342994 4.250339 5.166282 4.389272 -4.842796 -4.206743 -4.5463114 -4.758395
-29.214714 -5.9686832 -4.301625 -3.9275525 4.312517 3.8366976 2.6998658 -21.82821
-30.921013 -30.515984 -35.11357 -31.739416 -57.87483 -29.411564 -33.06931 -5.240464
-5.0922995 -15.732682 -5.0002317 -4.726512 -4.2431827 -4.6443553 0.24620289 -5.1034617
-4.5245886 4.2114716 5.535825 2.339626 3.6779196 -5.9761996 -5.93986 -5.9053535
-5.8274817 0.046465904 -6.1772876 -6.208514 6.1340356 5.6949844 5.7315197 5.894515
-4.5606256 -32.981422 -5.821831 -41.72831 -21.713335 -30.708511 -29.608603 -18.219841
7.368698 3.8633645 -6.994479 -12.442843 -43.01374 -4.7236314 -35.388664 -31.85132
-67.20856 -35.04554 -54.73779 6.971362 26.882158 9.3518715 -4.558223 -38.022556
-37.280106 -36.47747 -31.582031 -35.97907 -36.453636 -26.980036 -18.348139 -27.28114
-19.280703 -40.190414 -35.763313 -38.23 -37.9063 -49.541603 -34.370308 -30.589624
-25.231567 -17.655373 -38.205692 -37.36333 -5.574521 -4.343117 -4.848712 -5.185938
-0.1749047 -5.4710193 -4.3589497 2.673512 5.8965425 2.274437 0.61677456 -26.608162
-20.959322 -27.004854 -26.874846 0.22322541 -45.782627 -26.946255 3.8737137 -7.8559494
-7.985157 14.720005 -6.2248297 -5.747592 -5.7600803 -6.053718 -0.12442203 -6.1830173
-6.155307 -5.9539323 5.9289336 -5.871313 -6.008968 -18.150515 -18.899208 -18.756287
-17.808807 0.13807774 -19.84607 -20.020594 -6.4155765 7.4195967 -7.675114 7.5311775
-6.8119183 -4.640706 -6.442184 -6.5856466 -0.035172552 -6.021866 -4.4698577 4.742213
-6.377746 4.7664385 4.8412714 -4.57621 -4.3198957 -4.6657286 -4.339712 0.021693915
-4.862754 -4.856117 4.5234303 5.216583 -5.115753 4.8179164 103.1797 -66.30158
66.170395 -99.24345 -88.39842 98.64542 111.61268 -76.38436 127.87284 -2.4087193
-153.0914 -7.67177 -9.910789 -6.55927 -8.100464 -0.29054716 -8.991793 -12.273745
-6.5163107 -15.264171 6.93942 7.505844 -6.18756 -6.130231 -5.8574414 -5.846996
0.099825025 -5.9988985 -6.20482 -6.0092096 6.208106 -5.706313 -5.8620176 -4.2737656
-4.531713 -4.4636164 -4.7285767 0.1630001 -4.3053036 -4.636315 4.265897 4.5856366
-4.2398715 4.2254205 -4.504853 -4.4998164 -4.630985 -4.2482944 0.20901406 -6.3087754
-4.7965775 4.4827805 -4.7438364 -4.56506 4.516942 -4.591176 -4.292988 -4.7735777

0.bias f4 [150]
00000000: 10b7 c4c0 5840 bbc0 1ef8 96c1 6888 94c0
00000010: 6542 b0c0 d299 2dc2 e4bc 9dc0 e34a bcc0
00000020: aebe 0bc2 0acf 86c2 3e9a 55c2 a4cf 04c2
00000030: ab52 9ac0 b003 38c2 6e46 c4c0 bd4f 9fc1
00000040: 83e3 d8c0 8025 89c0 fd66 88c1 7624 2cc1
00000050: e4f5 b9c0 0a4d 8ec0 60a4 ccc0 6110 98c0
00000060: ce12 2ac1 2d8e d4c0 7852 ccc0 ff8c d3c0
00000070: a86c a8c0 cb80 8bc0 37ed 58c2 2c0b 9bc0
00000080: 71c1 d4c0 2a42 b6c0 dad7 bec0 469f 8ac0
00000090: fad2 cec0 4655 dac0 4aad bec0 6c06 99c0
000000a0: 8609 9fc0 5f38 c3c0 bf86 8ac0 6ff2 82c2
000000b0: 69dd 8fc0 3f5d 01c2 14fd cac0 f28f 2fc2
000000c0: 4835 dac0 b3c7 2bc2 670b 96c0 381b bdc0
000000d0: 18de d6c0 fcc2 13c2 8a93 d9c0 53dc 90c0
000000e0: 191c 76c2 2852 d6c0 9cf6 0ec2 ea6c b9c0
000000f0: 79f5 c3c2 cbe1 86c1 79e4 c4c0 c5c3 3bc2
00000100: f31b 95c0 be55 05c2 7682 cec0 8278 44c2
00000110: 83b7 22c1 2018 94c0 8d27 57c1 b2f0 15c2
00000120: 73cb 0cc1 87a0 0ac2 0f94 69c2 48e4 9ac0
00000130: b7df 2dc2 4a21 4ac2 4c2c 99c0 0b45 4ec2
00000140: 69aa 90c2 2c31 bcc0 98bf 67c2 2f58 41c2
00000150: eb43 80c2 f9e3 8fc2 be3d 33c1 bec4 c2c0
00000160: b25f 2ac2 9fbf 8ac0 ace8 c8c0 16fc 9ac0
00000170: ee4f ebc0 1a98 2ec2 070d 4bc1 6dd4 55c1
00000180: d441 d8c0 6257 b7c0 489a b7c0 065c 86c2
00000190: 28c3 b8c0 e96b 9fc2 49b0 eac1 af27 d4c0
000001a0: 2684 cdc0 fd25 c1c0 86f5 97c0 fda8 e2c0
000001b0: 46c6 97c0 fc3e 8ac0 9f03 2dc2 b5aa 8ac0
000001c0: 235e 9dc0 8549 c4c0 518c 93c0 6353 67c2
000001d0: 20c9 80c2 44d5 fbc0 addc 9ac0 ba79 c0c0
000001e0: 89d4 8cc0 0e54 74c2 91a7 c2c0 1488 bbc0
000001f0: 8ad8 88c0 5a5f bdc0 f52f 92c0 facf b9c0
00000200: eabb 23c2 2700 8ec0 3c51 8cc0 553c 8fc0
00000210: ca8a 9ac0 808a cfc0 b869 86c2 b7a8 03c1
00000220: ed06 94c0 f464 8bc0 b659 c0c0 8ec3 71c2
00000230: 9db0 b6c0 a97e 07c2 e4bd cac0 fb7b 61c2
00000240: 4749 d5c0 0944 95c0 46b6 8cc0 9cef c1c0
00000250: f1c0 b7c0 fc7b d3c0
-6.1473465 -5.8516045 -18.871151 -4.641651 -5.508105 -43.400215 -4.929308 -5.8841414
-34.93621 -67.40437 -53.400627 -33.202774 -4.8225913 -46.0036 -6.1335974 -19.913935
-6.7777724 -4.2858276 -17.050287 -10.758902 -5.811266 -4.446904 -6.3950653 -4.7519994
-10.629591 -6.6423554 -6.385067 -6.6109614 -5.2632637 -4.359472 -54.231655 -4.8451138
-6.6486135 -5.6955767 -5.963849 -4.3319426 -6.463254 -6.8229094 -5.9586535 -4.782034
-4.9699125 -6.100631 -4.3289485 -65.4735 -4.4957776 -32.34106 -6.3433933 -43.89057
-6.819004 -42.94502 -4.688892 -5.9095726 -6.714611 -36.940414 -6.79926 -4.526895
-61.52744 -6.697529 -35.74083 -5.794545 -97.97944 -16.86025 -6.1528897 -46.94118
-4.659662 -33.333733 -6.4534254 -49.117683 -10.169803 -4.627945 -13.447156 -37.485054
-8.79967 -34.656765 -58.39459 -4.8403664 -43.46847 -50.53251 -4.7866573 -51.567425
-72.33283 -5.8810024 -57.937103 -48.336117 -64.13265 -71.94526 -11.202574 -6.0865164
-42.593452 -4.3358912 -6.2784023 -4.843272 -7.353507 -43.648537 -12.6906805 -13.364362
-6.7580357 -5.729417 -5.737583 -67.17973 -5.773823 -79.71076 -29.336077 -6.629844
-6.4223814 -6.0358872 -4.748721 -7.0831285 -4.7429533 -4.3201885 -43.253536 -4.3333383
-4.9177413 -6.1339746 -4.6108785 -57.831432 -64.39282 -7.8697834 -4.839438 -6.014859
-4.400944 -61.082085 -6.082955 -5.860361 -4.276433 -5.9178896 -4.568354 -5.806638
-40.93351 -4.4375186 -4.3849163 -4.4761147 -4.829442 -6.4856567 -67.20648 -8.22869
-4.6258454 -4.3560734 -6.010951 -60.44097 -5.7090592 -33.87369 -6.33568 -56.371075
-6.665195 -4.664555 -4.39725 -6.060499 -5.7423024 -6.608885

2.weight f4 [100, 150]
00000000: afd6 bf40 53b6 c140 1673 2d3d 6bc4 8ec0
00000010: bb75 94c0 499d 8fc0 5e97 93c0 c424 c040
00000020: 84fb 8ec0 27c1 8fc0 487f 8fc0 c3f8 95c0
00000030: 724e 92c0 d657 c140 5749 c040 d6ba bdc0
00000040: b3f9 92c0 1214 92c0 9365 aac0 9e22 91c0
00000050: fb2d c040 28b1 93c0 b6dd 91c0 e211 8fc0
00000060: bd7b 92c0 15fb 89c0 5ca3 8fc0 3f4a 92c0
00000070: 11ad 93c0 ddd0 8ec0 4540 90c0 2134 8fc0
00000080: 6152 91c0 682c fbbf 23fe be40 fccc 90c0
00000090: 6720 90c0 37ef 92c0 8d1b c240 b455 91c0
000000a0: 9edd 91c0 a00e c040 c37d 90c0 5de8 8fc0
000000b0: b02e 91c0 017b bd40 a2d6 92c0 8706 60bd
000000c0: 86ed 8fc0 4ac7 8fc0 7732 8fc0 8aef 8ec0
000000d0: bdd3 8fc0 ba84 d2c0 3b91 d3c0 e0a9 90c0
000000e0: c488 92c0 cdd8 8fc0 3c92 8fbc 6bb3 be40
000000f0: 16e3 90c0 70b5 e63b c96b c040 a123 0bc2
00000100: b74a 90c0 0a75 90c0 5332 81c0 a24f 93c0
00000110: d502 c240 d3d5 93c0 e3d9 c040 6f4a 91c0
00000120: 9e57 b9bc d8bc d0c0 c3df 92c0 74f7 92c0
00000130: e4e4 ccc1 560b 91c0 52de 92c0 eaab 8fc0
00000140: c693 90c0 6807 c2c0 bfa7 93c0 7de2 bbc1
00000150: 4335 91c0 3a8b f1c0 2842 edbf a5fa bf40
00000160: 2bff 92c0 9255 8fc0 9905 be40 56d4 91c0
00000170: cf91 90c0 26d3 8ec0 4ce3 cabf fad4 91c0
00000180: cc41 8fc0 dccc be40 7619 bf40 3700 90c0
00000190: 31f5 c040 2b33 cdc1 ca32 93c0 76dd 8fc0
000001a0: 9641 8fc0 7109 be40 94f0 8ec0 835b 8bc0
000001b0: e8e9 8fc0 144b 8fc0 53a6 91c0 04c7 92c0
000001c0: 399a 92c0 63b3 be40 a4b1 8ec0 2d8c 92c0
000001d0: fe06 92c0 2ed3 4ac1 0e58 93c0 dc6b bf40
000001e0: 202a 93c0 09c3 cec0 2d04 bf40 79e4 be40
000001f0: d327 90c0 c465 00c0 8130 90c0 4d09 bf40
00000200: 9c40 8fc0 a937 91c0 b123 90c0 9358 8fc0
00000210: 1698 90c0 a6b3 92c0 03f7 8fc0 b43d be40
00000220: e6ef 8ec0 798f 90c0 75e6 c140 b9a0 8fc0
00000230: 7b9c c040 0a3b 91c0 1e00 90c0 eedb 8fc0
00000240: dd38 91c0 66cf 90c0 453d 8fc0 f3bb be40
00000250: 02b0 00c0 96b6 91c0 e4a0 bdc0 6463 bec0
00000260: 5fe6 27bd 093a c1c0 3527 bdc0 33b3 bfc0
00000270: 2c14 bec0 33d3 bdc0 ca3d a03d 97da bec0
00000280: d865 c0c0 8c6a c0c0 b158 bec0 ac5a bec0
00000290: 48fa bec0 98ad bec0 c8eb bfc0 98fc c0c0
000002a0: c9e0 bdc0 1a78 bfc0 6db4 c0c0 6f39 bec0
000002b0: 6f9a c1c0 f91b bec0 4031 c1c0 8f54 c1c0
000002c0: 9c5b bdc0 6180 bfc0 bd63 c1c0 fcb8 bdc0
000002d0: a97d bfc0 8601 c0c0 21b3 bfc0 1737 bec0
000002e0: 635c bdc0 5b0a bdc0 22f2 bec0 0476 bfc0
000002f0: c4fe bfc0 9bcd c0c0 b1cc bfc0 d503 bfc0
00000300: e639 bec0 8d25 bdc0 f40d bec0 0619 bdc0
00000310: 07e3 bdc0 0e76 83bd 99ca c0c0 67a1 bec0
00000320: ed1d c0c0 eca9 c0c0 a10f bdc0 b759 c0c0
00000330: 8616 88bd 59f4 bdc0 366c bdc0 cf26 bfc0
00000340: 3861 ecbc cc44 c0c0 2eea c0c0 1dad 9ebd
00000350: 002c c0c0 0ba0 bfc0 612b bfc0 c602 bfc0
00000360: fac5 bfc0 42fc c1c0 dbc9 c0c0 74d7 c0c0
00000370: 202c c0c0 ddd6 c0c0 17f8 1abd 3607 c2c0
00000380: eda9 c0c0 8de5 c0c0 957c c1c0 6833 c0c0
00000390: fb2c c1c0 f591 bec0 c42e bdc0 c80e bfc0
000003a0: ca0c bec0 e884 bdc0 57fb bdc0 8039 d4bb
000003b0: 15bc c0c0 59fc bec0 4214 c0c0 54e6 8c3c
000003c0: b8c2 bec0 6f54 c1c0 5a02 bfc0 0cda bdc0
000003d0: 93a3 c1c0 9d25 bec0 2299 c0c0 275d bec0
000003e0: e5e6 bfc0 fa9d c1c0 a6dc bfc0 6634 bec0
000003f0: 252e bdc0 f073 c1c0 f55f c0c0 6ae9 c0c0
5.9949565 6.0535064 0.042346083 -4.461477 -4.6393714 -4.48795 -4.6122274 6.004488
-4.4682026 -4.492328 -4.4842873 -4.6866164 -4.572076 6.041972 6.0089526 -5.929057
-4.592981 -4.56495 -5.324899 -4.5354757 6.005613 -4.6153755 -4.5583143 -4.470933
-4.577605 -4.3118997 -4.4886913 -4.5715632 -4.6148763 -4.462996 -4.5078454 -4.4751134
-4.541306 -1.9622927 5.9685225 -4.5250225 -4.5039554 -4.591701 6.065863 -4.541712
-4.558303 6.0017853 -4.515352 -4.4971147 -4.536949 5.921265 -4.5887003 -0.054693725
-4.4977446 -4.4930773 -4.4749103 -4.4667406 -4.494597 -6.578702 -6.6114783 -4.5207367
-4.579195 -4.495215 -0.017525785 5.9594016 -4.5277205 0.007040672 6.0131574 -34.784794
-4.5091205 -4.514287 -4.037393 -4.603471 6.0628457 -4.6198516 6.0265975 -4.540336
-0.022624787 -6.523052 -4.5898147 -4.5927067 -25.611763 -4.532634 -4.5896387 -4.4897356
-4.5180387 -6.063404 -4.614227 -23.48559 -4.5377517 -7.5482454 -1.8535814 5.9993463
-4.5936484 -4.4791956 5.9381833 -4.55717 -4.517799 -4.463275 -1.5850616 -4.557248
-4.476782 5.9625072 5.971858 -4.500026 6.0299306 -25.649984 -4.59995 -4.495784
-4.476756 5.9386525 -4.4668674 -4.354921 -4.497303 -4.477915 -4.5515532 -4.586794
-4.581326 5.959398 -4.4591846 -4.5796113 -4.5633535 -12.676558 -4.604499 5.9819164
-4.598892 -6.461308 5.9692597 5.9653897 -4.5048614 -2.0062113 -4.505921 5.9698853
-4.476637 -4.5380445 -4.504357 -4.4795623 -4.518565 -4.5844297 -4.498903 5.945032
-4.4667845 -4.5175138 6.059382 -4.4883695 6.0191016 -4.538457 -4.5000143 -4.495597
-4.5381913 -4.525317 -4.476229 5.960443 -2.0107427 -4.5535383 -5.92589 -5.9496326
-0.040991183 -6.0383344 -5.911036 -5.990625 -5.9399624 -5.932031 0.07824285 -5.9641833
-6.012432 -6.013006 -5.9483266 -5.9485683 -5.968052 -5.9586906 -5.997532 -6.030834
-5.9336896 -5.983411 -6.0220246 -5.944511 -6.0501018 -5.9409146 -6.037262 -6.041572
-5.917433 -5.9844213 -6.043425 -5.928831 -5.9840894 -6.000186 -5.9906163 -5.944225
-5.9175277 -5.907514 -5.967057 -5.983156 -5.9998493 -6.0250983 -5.9937367 -5.969218
-5.9445677 -5.910834 -5.9392033 -5.9093046 -5.9339633 -0.064190015 -6.024731 -5.9572024
-6.003653 -6.0207424 -5.908158 -6.0109515 -0.06644921 -5.9360776 -5.9194593 -5.9734874
-0.028854951 -6.008398 -6.0285864 -0.077478625 -6.005371 -5.9882865 -5.9740453 -5.9690886
-5.992917 -6.062043 -6.0246406 -6.0263004 -6.0053864 -6.0262284 -0.037834253 -6.0633802
-6.020743 -6.0280213 -6.046458 -6.006275 -6.036741 -5.955317 -5.9119587 -5.9705544
-5.939061 -5.922474 -5.936931 -0.006476581 -6.022959 -5.968304 -6.002473 0.017199673
-5.9612694 -6.041557 -5.969037 -5.932867 -6.0512176 -5.9420915 -6.018693 -5.948871
-5.9969354 -6.0505342 -5.9956846 -5.9438963 -5.911883 -6.0454025 -6.0117135 -6.028493

2.bias f4 [100]
00000000: 56a1 3cc2 fb8e c0c0 0192 9bc2 595c 10c2
00000010: 0b3e 53c2 e3fd 9cc1 70c3 1cc2 cf76 85c0
00000020: 0f9b 3dc2 c24e 06c2 5e90 06c2 0e55 3ec2
00000030: 1f9f 2ec2 c693 fec2 d164 26c2 5914 40c2
00000040: cc1c 92c2 37b7 c1c0 5a8f 3cc2 4621 27c2
00000050: 6f5a 1ec3 5dab 3bc2 a5d6 bec0 65fc 29c2
00000060: 22aa bdc0 4270 f4c2 bc49 28c2 87d9 08c3
00000070: 8ca5 81c1 cc9e f0c1 e369 aac0 2ea8 8cc2
00000080: 659c 56c2 4fb2 96c1 f28e 56c2 44d2 21c1
00000090: 6015 29c2 f29f 3dc2 23a9 3bc2 8829 bfc2
000000a0: eade bfc0 8614 11c2 5542 68c2 1773 13c2
000000b0: 62fe 9cc2 1dc9 25c2 d401 adc0 51e1 82c1
000000c0: c354 9ac2 0825 19c3 43ab 23c1 609d b8c2
000000d0: 0cbf 46c2 9258 9bc2 d673 bdc0 733c 26c2
000000e0: e1fd 3cc2 3bf4 0bc2 75b3 3fc2 fed4 2ec2
000000f0: 5cd5 a0c1 e712 3ec2 7cec 10c2 56bd bfc0
00000100: 1119 c641 264f 2fc2 c3fb ddc2 c971 00c3
00000110: 874a bec0 f1f4 b5c2 f34e 25c2 0b49 27c2
00000120: 90ad bdc2 3109 a2c2 1900 a340 6160 6ec2
00000130: 0136 a1c2 c7d1 67c0 aba9 87c2 b366 bec0
00000140: 2689 3ec2 7fcc 16c2 3743 1ec2 abc0 aac2
00000150: 251b 15c2 278d 16c2 e1a1 3dc2 9d13 25c2
00000160: 8377 bdc2 0479 33c2 519f 3bc2 2f2b 1bc2
00000170: 4572 8cc1 76d5 25c2 5081 19c2 45b5 12c2
00000180: 3eb3 88c2 c9d2 76c2 008d 26c2 750a 84c1
-47.157555 -6.0174537 -77.785164 -36.090183 -52.81059 -19.623968 -39.190857 -4.170753
-47.401424 -33.576912 -33.640984 -47.58306 -43.65539 -127.28862 -41.598454 -48.01987
-73.056244 -6.053615 -47.13999 -41.782494 -158.35326 -46.917347 -5.9637017 -42.49648
-5.927018 -122.21925 -42.072006 -136.84972 -16.205833 -30.077538 -5.3254256 -70.328476
-53.65273 -18.837065 -53.639595 -10.113834 -42.270874 -47.406197 -46.915173 -95.581116
-5.995961 -36.270042 -58.064777 -36.862392 -78.49684 -41.4464 -5.406473 -16.360018
-77.16555 -153.14465 -10.229312 -92.30737 -49.68657 -77.67299 -5.92039 -41.559032
-47.24793 -34.988506 -47.92525 -43.708 -20.10418 -47.51846 -36.23094 -5.9918623
24.76224 -43.827293 -110.99172 -128.44447 -5.9465976 -90.9784 -41.3271 -41.82133
-94.83899 -81.01795 5.093762 -59.59412 -80.60548 -3.6221788 -67.83138 -5.9500365
-47.633934 -37.699703 -39.56564 -85.376305 -37.27651 -37.637844 -47.408085 -41.269154
-94.73342 -44.86818 -46.905582 -38.79217 -17.555796 -41.458458 -38.37628 -36.67702
-68.35008 -61.705845 -41.637695 -16.505106

4.weight f4 [5, 100]
00000000: 9a28 8e40 61cb bec0 8b13 0dc0 b84b 9440
00000010: 6a63 c3c0 1149 38c1 925e 5c42 07e2 b542
00000020: 9f45 8f40 9b55 3a41 1c85 c4c1 3461 9140
00000030: a63e 9240 b5b1 8341 8e1e 9040 ed76 9040
00000040: 8679 b141 7175 bec0 b9f6 8f40 35a9 8f40
00000050: 6c35 66c2 091d 8e40 a564 bfc0 3b39 9240
00000060: 9889 bdc0 12ee 1640 49aa 9040 b2d2 ab40
00000070: d350 6cc0 84bf 3f3f 53fd a7c0 301d c141
00000080: d952 57c1 567a 9040 8ab3 3a40 23f8 9340
00000090: 1ac9 8d40 95c4 92c1 d4b9 86c1 4593 d8c0
000000a0: c93e bec0 e2fa 9240 80f2 5f41 2d66 8f40
000000b0: e472 1d42 2efb 8d40 bd37 acc0 3f7b 6fc0
000000c0: 6068 5442 f5d1 97c1 f55b 8e40 4c6d de41
000000d0: 40e6 5f42 75cc 3f40 8c6b bec0 2e35 8f40
000000e0: cef2 9140 6b09 e741 dbbd 9140 ed12 5e42
000000f0: a7c7 4dbd daa9 9040 d7c3 8f40 92c4 bec0
00000100: 180a 8442 90e5 81c0 5819 c4c1 10e8 9b41
00000110: 72d6 5a3d 773d e1c1 8e83 8f40 0411 8f40
00000120: 9979 f5c1 d62c 6f41 4a81 8dc0 da06 e13d
00000130: 31d4 3940 dd23 11c2 c43a 8d40 a9d2 bdc0
00000140: 7cfc 8e40 ce35 bf40 15a7 9040 8f92 84c0
00000150: ae62 b140 ee2a 77c0 202e 9040 9f55 b9c1
00000160: d00f 3940 865f 9fbf 576a 9040 d65e 83c1
00000170: de10 a940 03de 8f40 d730 fac0 ac7e 9240
00000180: 7565 da41 2445 dc41 e55c 9340 74bb 8f40
00000190: d2b1 8d40 5b78 bcc0 21f3 2141 cfcf 9340
000001a0: ec77 cd41 8167 ca41 ddc7 bb41 2a11 fcc1
000001b0: 5c4d 9140 b1c9 8342 c533 7fc2 395e 8e40
000001c0: 67c0 b140 87b8 5041 5210 9140 d22c 8b40
000001d0: 97bd b941 f4ae bdc0 ccba 8d40 31d6 8f40
000001e0: aa2b 1cc0 13a7 8e40 3d0c bec0 4f7d 8f40
000001f0: 0237 bfc0 51a5 0ac2 8218 8f40 26ef 0fc2
00000200: 11d0 b6c0 4cf6 2340 4c99 0cbd 1c20 2541
00000210: 3c0a cf3f 07f9 8640 7846 4540 e4ef 9140
00000220: 2a7c 8740 2de7 34c0 43ba 30c0 ec0c a440
00000230: 93d5 bcc0 6c38 9140 c252 8341 f824 8840
00000240: 4c9d 2442 4fe1 8e40 5abf a9c0 7888 03c1
00000250: 29ab 2442 c742 7a41 5f8d 8f40 9696 a441
00000260: 83f5 2fc2 2aa8 d9c1 d516 bec0 5329 9340
00000270: b5a1 8b40 f776 8441 15eb 8d40 4fee 6bc1
00000280: 615e 0241 cf4c 9140 0d82 9040 e47e bcc0
00000290: 48ef b841 2014 8f40 bf4d 28c0 2b44 5540
000002a0: 7eeb bdc0 a4c0 bcc0 b863 9140 6a68 8e40
000002b0: b84b 8840 1a9a e33e 623e 9442 ec3e 06c2
000002c0: 0397 d6c1 1357 63c2 029a cf41 6b37 bec0
000002d0: cf16 9040 4dce 923d ea21 9240 8541 1942
000002e0: 6b01 af40 ad88 8c40 9e3a 9040 1fea 8640
000002f0: bccc 8c41 aaf1 8e40 9721 8f40 7648 8b40
00000300: 9922 7bc2 f99a 8e40 5e59 8d40 7945 9240
00000310: 1c91 18c1 0c1c d041 7990 8f40 de69 8c40
00000320: f817 6c40 37f2 bcc0 2076 8541 d550 8f40
00000330: 047b 22c2 ecb3 b2c1 b07b 0dc2 89de 2d41
00000340: 5aff 6040 2d92 3742 ebe3 98c1 fc85 6340
00000350: 0e12 8b40 e7ea cac1 b67d 8e40 9a7c 2940
00000360: b046 f3c1 a254 bdc0 a0eb 6e40 ae72 8d40
00000370: 8c88 32c2 9a70 6f40 f8ef bec0 36d5 4f40
00000380: be58 bec0 0e4b 23c0 617f 4b40 33ba 1bc2
00000390: 0292 bec0 9f8d 72c0 8d57 abc0 477a be41
000003a0: 2e1c 6a40 9756 0cc0 d54e 0842 06e1 9340
000003b0: d692 a13e 23aa 9640 58ed 29c0 7f98 19c2
000003c0: 4fd1 bcc0 1960 8b40 695a a6c1 ebcc 7640
000003d0: ade9 16c2 dfe3 8c40 ee02 a9c0 f880 bdc0
000003e0: dad1 bbc1 55a9 bec1 d8c1 9140 cd3b 54c2
000003f0: 44ee a141 c683 a0c0 298e bdc0 9040 8f40
4.4424562 -5.9623265 -2.2043178 4.634243 -6.1058855 -11.5178385 55.092354 90.94146
4.4772487 11.6459 -24.564995 4.5431156 4.5701475 16.461771 4.50373 4.5145173
22.184338 -5.951836 4.4988675 4.489405 -57.55217 4.4410443 -5.9810357 4.569486
-5.923046 2.3582807 4.520787 5.3694696 -3.692433 0.74901605 -5.2496734 24.139252
-13.4577265 4.5149336 2.9172082 4.62404 4.4307985 -18.345987 -16.840736 -6.767977
-5.945164 4.5931253 13.996704 4.4812226 39.362198 4.4369116 -5.381804 -3.7418973
53.10193 -18.977518 4.448725 27.803368 55.974854 2.996854 -5.9506283 4.4752417
4.5608892 28.879599 4.5544257 55.518482 -0.05023923 4.520734 4.492656 -5.9614954
66.019714 -4.059273 -24.512375 19.488312 0.053427167 -28.155012 4.484809 4.470827
-30.684374 14.948446 -4.4220324 0.10987635 2.9035761 -36.285023 4.4134235 -5.9319654
4.468321 5.975318 4.5203958 -4.1428905 5.543296 -3.8619952 4.5056305 -23.166807
2.89159 -1.2451026 4.512981 -16.421307 5.283309 4.495851 -7.818462 4.577963
27.29954 27.53376 4.6050897 4.4916325 4.4279566 -5.889692 10.121858 4.6191173
25.683556 25.300539 23.47259 -31.50838 4.5406933 65.89393 -63.800556 4.449002
5.5547366 13.045051 4.533242 4.349221 23.217573 -5.9276066 4.4290524 4.4948964
-2.440165 4.457895 -5.938994 4.4840465 -5.975465 -34.66144 4.4717417 -35.983543
-5.7128987 2.5619078 -0.034325883 10.320339 1.6174998 4.217899 3.082426 4.5605335
4.2339067 -2.8266098 -2.7613685 5.1265774 -5.901071 4.5381374 16.41541 4.254513
41.15361 4.4650035 -5.3046083 -8.220818 41.16715 15.641303 4.486007 20.573528
-43.989758 -27.207111 -5.940287 4.5987945 4.3634896 16.558088 4.4349465 -14.745681
8.148042 4.540626 4.5158753 -5.8904896 23.116837 4.4712067 -2.6297452 3.3322856
-5.9349966 -5.8985157 4.5434227 4.450246 4.259243 0.44453508 74.12184 -33.561447
-26.823736 -56.835033 25.9502 -5.944265 4.5027843 0.07168255 4.56664 38.313984
5.468923 4.391684 4.5071554 4.216079 17.599968 4.467 4.4728503 4.3525953
-62.783787 4.4564176 4.417159 4.5709805 -9.535427 26.013695 4.486386 4.3879232
3.688963 -5.9045672 16.682678 4.478617 -40.620132 -22.337852 -35.37079 10.86683
3.5155854 45.89275 -19.111288 3.5550528 4.345954 -25.364698 4.4528456 2.64823
-30.409515 -5.916581 3.7331314 4.420249 -44.633347 3.7412477 -5.966793 3.2473884
-5.948333 -2.551456 3.1796496 -38.931835 -5.955323 -3.7898939 -5.3544374 23.809706
3.65797 -2.192785 34.076984 4.6212187 0.3155734 4.7082686 -2.6551113 -38.398922
-5.9005504 4.3554807 -20.794146 3.8562572 -37.7282 4.4028163 -5.2816076 -5.9219933
-23.477467 -23.832682 4.5549126 -53.0584 20.24134 -5.0160856 -5.9236035 4.476631

4.bias f4 [5]
00000000: 081a 3446 7ad1 3146 2838 3246 5fd0 3146
00000010: d9ca 3846
11526.508 11380.369 11406.039 11380.093 11826.712
