dqn_agent_state.pth (torch, 678732 bytes, 24 tensors)

0.weight f4 [150, 11]
0	0xc2399a7a	-46.400856
1	0xc24be565	-50.97402
2	0xc29ae249	-77.44196
3	0xc212eb8d	-36.73003
4	0xc0bec464	-5.9614735
5	0xc214731a	-37.112404
6	0xc28ec719	-71.38886
7	0x4180275c	16.019218
8	0x41a69fc1	20.828005
9	0x417ec950	15.924149
10	0x41017568	8.091164
11	0xc0985bb6	-4.761195
12	0xc0d58db8	-6.6735497
13	0xc0959611	-4.6745687
14	0xc185a237	-16.704206
15	0xc15e8384	-13.907108
16	0xc0e1ba04	-7.053957
17	0xc1243609	-10.263192
18	0x408ab3d5	4.334452
19	0x40c54652	6.164834
20	0x409189d3	4.5480742
21	0x4094aefa	4.6463594
22	0xc0d2cd4c	-6.5875607
23	0xc1815ea8	-16.171219
24	0xc173a9cc	-15.228954
25	0xc186f029	-16.867266
26	0xc1844509	-16.533709
27	0xc186719f	-16.80548
28	0xc12b8c99	-10.721826
29	0xc0cda168	-6.425953
30	0xc09bf51e	-4.8736715
31	0xc09b8862	-4.8603983
32	0xc08af499	-4.342358
33	0xc0e9ffd4	-7.312479
34	0xc0d062c2	-6.5120554
35	0xc087ef65	-4.247973
36	0xc093ef06	-4.6229277
37	0xc091a3e6	-4.551257
38	0xc0d65282	-6.6975718
39	0xc19772a9	-18.930986
40	0xc09172de	-4.545272
41	0x40a9f300	5.310913
42	0xc0534cfd	-3.301574
43	0xc0936bc2	-4.606904
44	0xc0d7351a	-6.725232
45	0xc0938fdb	-4.6113105
46	0xc0c7dac4	-6.245455
47	0xc1a94b28	-21.161697
48	0x40b92afd	5.7864976
49	0xc0d62330	-6.6917953
50	0xc16c0a80	-14.752563
51	0xc0c86471	-6.262261
52	0xc0cd9c91	-6.425362
53	0x40d26ac9	6.5755353
54	0xbfe0417f	-1.7519988
55	0xc11a93e6	-9.661108
56	0xc127761b	-10.466334
57	0xc12a591b	-10.646754
58	0xc116b62f	-9.419478
59	0xbe27f103	-0.16400532
60	0xc11d65f8	-9.837395
61	0xc116ae81	-9.4176035
62	0x410b6c92	8.714006
63	0x410e1041	8.878968
64	0x410e5758	8.896324
65	0x411bd3a6	9.739172
66	0x41029e03	8.163577
67	0x4250db4e	52.214165
68	0x424ce80c	51.22661
69	0x41a84907	21.035658
70	0xc1f4ab87	-30.583754
71	0x425510da	53.266457
72	0x420fdf44	35.968033
73	0x41ed4ceb	29.662558
74	0x3d8b79d2	0.06810345
75	0x41162895	9.384908
76	0xc2468966	-49.63418
77	0xc087fdb6	-4.2497206
78	0xc0c88933	-6.266748
79	0xc0885027	-4.259784
80	0xc08aa284	-4.3323383
81	0xc091be06	-4.554446
82	0xc0d508c6	-6.657321
83	0x3dd53958	0.10411328
84	0xc0d10571	-6.531914
85	0x40c8e5dc	6.278059
86	0x40ccadb2	6.396203
87	0xc08a4abc	-4.321623
88	0xc0918522	-4.5475016
89	0xc096f49d	-4.71736
90	0xc08c8f64	-4.3925037
91	0xc0ed79b8	-7.4211082
92	0xc0967576	-4.7018385
93	0xc0919562	-4.549485
94	0xc17a75bc	-15.653744
95	0xc0d594d2	-6.6744165
96	0x400f5fa7	2.2402132
97	0x408fa8a9	4.4893384
98	0x3ff5b858	1.9196882
99	0xc09291bb	-4.5802894
100	0xc0cce4b8	-6.40292
101	0xc0d30e43	-6.595491
102	0xc087e9ff	-4.247314
103	0xc091273b	-4.536039
104	0xc0d13018	-6.537121
105	0x3d99c118	0.07507533
106	0x40930e7e	4.595519
107	0x40d260ce	6.574317
108	0x40916bea	4.544423
109	0xc090eae9	-4.5286756
110	0xc0b9564a	-5.7917833
111	0xc0c517a2	-6.159135
112	0xc0bf05bb	-5.9694495
113	0xc0b62175	-5.691584
114	0xc0c50d9d	-6.157912
115	0xc0baf3cb	-5.84226
116	0x3e1b4a68	0.15165102
117	0xc0c2a59a	-6.082715
118	0x40c66504	6.199831
119	0x40b6bb9e	5.7104025
120	0xc0ba23a2	-5.8168497
121	0xc0b82dbb	-5.7555823
122	0xc0bf2c50	-5.9741592
123	0xc0bdced4	-5.9314976
124	0xc0b68707	-5.703983
125	0xc0b9d1f5	-5.8068795
126	0xc0b65b0f	-5.6986156
127	0xbe68307a	-0.22674742
128	0xc0b7c612	-5.7429285
129	0x40c3d23a	6.1194124
130	0x40bc7d6d	5.890311
131	0xc0bc7671	-5.889458
132	0xc08d5e30	-4.4177475
133	0xc08ee87f	-4.465881
134	0xc0912662	-4.5359354
135	0xc11ab0f0	-9.668198
136	0xc0b9dcd3	-5.808206
137	0xc098b07f	-4.771545
138	0xc17302e8	-15.18821
139	0xc0cfa267	-6.4885745
140	0x3f3fa7e2	0.74865544
141	0x4088251b	4.2545295
142	0x3f3f4484	0.7471392
143	0xc08a0a28	-4.31374
144	0xc0cc75be	-6.389373
145	0xc0908e54	-4.517374
146	0xc182fb1e	-16.372616
147	0xc0ec793d	-7.3897996
148	0xc0ce851a	-6.4537477
149	0xc1234f72	-10.206896
150	0x4088ef97	4.279247
151	0x40d50ab8	6.6575584
152	0x40d1e4b3	6.5591674
153	0x408df164	4.4357166
154	0xc0d477c3	-6.6396194
155	0xc0cd7467	-6.4204593
156	0xc0d083da	-6.516095
157	0xc0b61bb1	-5.6908803
158	0xc0c34188	-6.1017494
159	0xc0b6daea	-5.714223
160	0x3c68ee40	0.0142169595
161	0xc0985ab2	-4.761071
162	0x40d27339	6.5765653
163	0xc08f18d6	-4.4717817
164	0xc090dd43	-4.5270095
165	0xc09864e7	-4.762317
166	0xc090fdde	-4.5309896
167	0xc0d89d45	-6.769198
168	0xc10d319d	-8.824613
169	0xc0b450e0	-5.6348724
170	0xc08eae9e	-4.4588156
171	0xc178cd24	-15.550083
172	0xc099cdcb	-4.806371
173	0x3f4b7ae1	0.79484373
174	0x408fb04a	4.4902697
175	0x3db5341f	0.08847832
176	0xc0ba1054	-5.814493
177	0xc0c6e8b8	-6.215908
178	0xc0d7ae65	-6.7400384
179	0xc0af13ff	-5.471191
180	0xbdfe0ea8	-0.12405139
181	0xc11cfcbe	-9.811705
182	0xbe5c473a	-0.21511546
183	0x4092202f	4.5664287
184	0x40c1e4f2	6.0591974
185	0x40911760	4.5341034
186	0xbf818ba2	-1.0120738
187	0xc0d6f7a3	-6.717729
188	0xc1c714fb	-24.885244
189	0xc09299ae	-4.5812597
190	0xc08d7ffd	-4.4218736
191	0xc09353a0	-4.603958
192	0xc0cc8ba1	-6.3920445
193	0xc1942684	-18.518806
194	0xc0c37c62	-6.1089334
195	0x40d6ab3e	6.7084036
196	0xbfb7accb	-1.4349607
197	0xc0985066	-4.7598143
198	0xc08e6f93	-4.45112
199	0xc080b861	-4.022507
200	0xc07d024c	-3.9532652
201	0xc0f82995	-7.755076
202	0xc097b0f2	-4.74035
203	0xc0961ab1	-4.690758
204	0xc175bec3	-15.359073
205	0xc0e6169f	-7.1902614
206	0x3ef671df	0.48133752
207	0x4088e7fe	4.2783194
208	0xbe6a2470	-0.22865462
209	0xc0c7f073	-6.2481017
210	0xc0909846	-4.518588
211	0xc0cd68b8	-6.419033
212	0xc1c66a93	-24.802038
213	0xc0ba1367	-5.8148685
214	0xc0d660a1	-6.6992955
215	0xc19436a0	-18.526672
216	0x40cb24b3	6.34823
217	0x3fe52383	1.7901462
218	0x408cb877	4.3975177
219	0x4038e6e7	2.8890932
220	0xc0dab256	-6.8342695
221	0xc096b077	-4.709041
222	0xc0d27a1c	-6.577406
223	0xc1bac6de	-23.347103
224	0x40b7ce73	5.7439513
225	0xc0d1ed80	-6.5602417
226	0xc188d230	-17.10263
227	0xc0ca0785	-6.313418
228	0x3f33c880	0.70227814
229	0x40ca6069	6.324269
230	0x402212d4	2.5323992
231	0xc093304d	-4.599646
232	0xc0d26e1c	-6.575941
233	0xc0952dfa	-4.6618624
234	0xc08835a8	-4.25655
235	0xc09430f1	-4.6309743
236	0xc08eee07	-4.466556
237	0xbe3072f6	-0.17231354
238	0xc098b4dd	-4.772078
239	0x40d586c2	6.6727
240	0x40c78790	6.235298
241	0xc08bccba	-4.368741
242	0xc0ca71b6	-6.3263807
243	0xc094c624	-4.649187
244	0xc0d739b8	-6.7257957
245	0xc1608405	-14.032231
246	0xc0cfd8d9	-6.4952207
247	0xc0b5ed9b	-5.6852546
248	0xc197891f	-18.941954
249	0xc096fe80	-4.718567
250	0x3f17aba5	0.59246284
251	0x40966269	4.699513
252	0x3fd4f7b5	1.6638094
253	0xc08d437a	-4.414487
254	0xc0c84463	-6.258348
255	0xc08f48c7	-4.477634

0.bias f4 [150]
0	0xc29b2803	-77.57815
1	0xc09622ef	-4.6917644
2	0xc18bbae6	-17.466259
3	0xc0e116ac	-7.0340176
4	0xc1963437	-18.775496
5	0xc12c1fdf	-10.757781
6	0x424c0681	51.00635
7	0xc08b26ed	-4.3485017
8	0xc0d2aa6f	-6.583305
9	0xc0d2b134	-6.5841312
10	0xc0bf2552	-5.9733057
11	0xc0c81431	-6.252465
12	0xc1080e9d	-8.503568
13	0xc095b198	-4.677929
14	0xc0c92add	-6.2864823
15	0xc0f92061	-7.7852025
16	0xc0d57d70	-6.671562
17	0xc0dd723b	-6.920194
18	0xc0f5eb1f	-7.6849513
19	0xc11be6fc	-9.743893
20	0xc13a1464	-11.629978
21	0xc0ca4d48	-6.3219337
22	0xc137a7f8	-11.478508
23	0xc09a9029	-4.8300977
24	0xc142ee2c	-12.183147
25	0xc0c81f6d	-6.253836
26	0xc10fe996	-8.994528
27	0xc0d3bd66	-6.61687
28	0xc1134171	-9.203477
29	0xc0d93452	-6.7876368
30	0xc0d3e18a	-6.6212816
31	0xc0e9cd40	-7.306305
32	0xc0ffc9dd	-7.9933915
33	0xc0d8a5de	-6.7702475
34	0xc093a26c	-4.613577
35	0xc09951d4	-4.791239
36	0xc0d5c7e8	-6.6806526
37	0xc0bb7924	-5.8585377
38	0xc1050a06	-8.314947
39	0xc1612676	-14.07189
40	0xc0d02982	-6.505067
41	0xc124b387	-10.29383
42	0xc0fe95fb	-7.955808
43	0xc1e0f6fc	-28.120598
44	0xc1f72ed1	-30.89786
45	0xc1064537	-8.391898
46	0xc1ff6453	-31.923986
47	0x422e8b09	43.635777
48	0xc0dc34f3	-6.8814635
49	0xc098eda3	-4.7790084
50	0xc0d03924	-6.506975
51	0xc10b9032	-8.722704
52	0xc096e131	-4.714989
53	0xc18f8e88	-17.944595
54	0xc1549ca1	-13.2882395
55	0xc10010f7	-8.004142
56	0xc0d76e47	-6.7322116
57	0xc08fcf7d	-4.494078
58	0xc0d632ec	-6.693716
59	0xc10c0917	-8.752219
60	0xc09a53ee	-4.8227453
61	0xc11f9d3b	-9.975886
62	0xc0bb3ced	-5.851187
63	0xc08f371c	-4.475477
64	0xc107c0b7	-8.4845495
65	0xc0d4f3d3	-6.6547637
66	0xc13c74a7	-11.77848
67	0xc0fedd68	-7.964527
68	0xc1a9ac96	-21.20927
69	0xc0fae6d5	-7.8406777
70	0xc0cfde0b	-6.495855
71	0xbe94239b	-0.28933415
72	0xc0d6d476	-6.713435
73	0xc0cc9cba	-6.3941317
74	0xc10fc940	-8.986633
75	0xc154928c	-13.285778
76	0xc0a3afe7	-5.1152225
77	0xc091e629	-4.5593457
78	0xc0e56d40	-7.169586
79	0xc1008c6f	-8.034286
80	0xc19a2834	-19.26963
81	0xc1837242	-16.43079
82	0xc0964928	-4.69643
83	0xc0e0bef2	-7.0233088
84	0xc0f86e5b	-7.763471
85	0xc0cfb8e3	-6.491319
86	0xc219d6d0	-38.459778
87	0xc15e814f	-13.9065695
88	0xc0a42b03	-5.1302505
89	0xc1419639	-12.099175
90	0x40950b9b	4.6576667
91	0xc139771d	-11.59158
92	0xc0d8f3b3	-6.7797484
93	0xc0a032c7	-5.0061984
94	0xc0dfbcf1	-6.991814
95	0xc08ae7ff	-4.34082
96	0xc0da36f5	-6.8192086
97	0xc0d0ed54	-6.5289707
98	0xc102cc1f	-8.174834
99	0xc128c6c5	-10.548528
100	0xc0eb8281	-7.3596807
101	0xc0c5fd1c	-6.187147
102	0xc12abe92	-10.671526
103	0xc08beb8a	-4.3725023
104	0xc0d76406	-6.73096
105	0x42519d01	52.403324
106	0xc0bdef34	-5.9354496
107	0xc0dfa2ba	-6.988614
108	0x411eb5ae	9.919355
109	0xc0e5fd52	-7.187173
110	0xc0c74003	-6.226564
111	0xc145d995	-12.365621
112	0xc0cf2ad2	-6.473977
113	0xc1e03c3a	-28.029408
114	0xc141da24	-12.115757
115	0xc0cef3b1	-6.4672475
116	0xc162d9bf	-14.178161
117	0xc1763d28	-15.389931
118	0xc0c0f2a0	-6.0296173
119	0xc0da8c7c	-6.829649
120	0xc2a22301	-81.06837
121	0xc13f5f97	-11.960837
122	0xc1fceb53	-31.614904
123	0xc08db6c2	-4.4285593
124	0xc14d11a2	-12.816805
125	0xc08e92e1	-4.4554296
126	0xc093e8fc	-4.6221905
127	0xc102ccc4	-8.174992
128	0xc1190b8c	-9.565319
129	0xc21774f5	-37.864216
130	0xc0d8ba63	-6.7727523
131	0xc0d5bfd5	-6.679667
132	0xc0dc925e	-6.892867
133	0xc0ce3121	-6.443497
134	0xc0dc12ff	-6.877319
135	0xc1fe8c94	-31.818642
136	0xc0e42e30	-7.130638
137	0xc0c40eb5	-6.1267953
138	0xc1b72456	-22.892742
139	0xc0fd2182	-7.9103403
140	0xc0dc154b	-6.8775992
141	0xc0b9c1fd	-5.80493
142	0xc0e0e55e	-7.027999
143	0xc111ced3	-9.112994
144	0xc0b761c5	-5.7306848
145	0xc1234753	-10.204913
146	0xc0e487ec	-7.141592
147	0xc09ab6b5	-4.834803
148	0xc08a1b66	-4.3158445
149	0xc0d2a2b3	-6.5823607

2.weight f4 [100, 150]
0	0xc1cd9390	-25.697052
1	0xc090b1bd	-4.5216966
2	0xc0be9e9c	-5.9568615
3	0x40c0e47f	6.0278926
4	0xc0c0fdff	-6.0310054
5	0xbb4373a0	-0.0029823557
6	0xc0dd853d	-6.9225144
7	0xc08f148c	-4.471258
8	0xc0d3dc89	-6.620671
9	0xc08ff084	-4.49811
10	0x40c213f0	6.064934
11	0x40bd2acb	5.9114738
12	0xc0cf2a12	-6.4738855
13	0xc0cfeb60	-6.4974823
14	0x40c20e54	6.064249
15	0xc0bd4c27	-5.915546
16	0xc0be3f8c	-5.945257
17	0xc0d293f8	-6.5805626
18	0xc10cbb85	-8.795781
19	0xc0bfc3fb	-5.9926734
20	0x40bf0848	5.969761
21	0xc08ee910	-4.46595
22	0x40c12d74	6.0367985
23	0xc0cfc5fb	-6.4929175
24	0x40bed723	5.963762
25	0xc08f990e	-4.4874334
26	0xc0dcb0a3	-6.896562
27	0x40bedefd	5.9647202
28	0xc0cf687b	-6.481504
29	0xc0918d80	-4.548523
30	0xc0911532	-4.5338373
31	0xc0cef239	-6.467068
32	0xc0cf49b1	-6.4777455
33	0xc0bd8a4a	-5.923131
34	0xc0bf7b06	-5.9837675
35	0xc091cce8	-4.556263
36	0xc0d0a55d	-6.520186
37	0xc0bd6f6e	-5.9198523
38	0xc1021df3	-8.132312
39	0x40c0e775	6.028254
40	0xc0bd0e44	-5.9079914
41	0xc041c35a	-3.0275483
42	0xc0e02a71	-7.005181
43	0xc0927836	-4.577174
44	0xc0bf413d	-5.9767137
45	0xc0d217be	-6.565398
46	0xc0bf51b8	-5.9787254
47	0xc10987fd	-8.5957
48	0xc0d54ccf	-6.665626
49	0xc051773b	-3.2729023
50	0xc0be1b9a	-5.9408693
51	0xc1084704	-8.517338
52	0xc0be0307	-5.9378695
53	0xc0c16cb1	-6.044518
54	0x40be7c07	5.95264
55	0xc0d22622	-6.567155
56	0xc0c0cb61	-6.0248265
57	0xc0c02869	-6.004933
58	0xc0bf2dd2	-5.9743433
59	0xc09120d8	-4.5352592
60	0x40c2223f	6.0666804
61	0xc0bdc6c2	-5.9305124
62	0xc0c029c8	-6.0051003
63	0xc0d36ff8	-6.607418
64	0xc10e8bbd	-8.909116
65	0x40c0c5e7	6.024158
66	0xc0928a58	-4.5793877
67	0xc0d142a5	-6.5393853
68	0xc14cd1c3	-12.801211
69	0xc0d03462	-6.5063944
70	0x40c02f56	6.0057783
71	0xbcc7bc8c	-0.024381898
72	0xc0cfebf8	-6.497555
73	0xc0bd29e5	-5.911364
74	0xc093d522	-4.619767
75	0x40c03161	6.0060277
76	0xc0d164cf	-6.5435557
77	0xc0921e31	-4.5661855
78	0xc0d1cded	-6.5563874
79	0xc0ced861	-6.4639134
80	0xc0bdf566	-5.936206
81	0xc10496d1	-8.28682
82	0xc0bd2e35	-5.9118905
83	0xc0bdb36e	-5.928153
84	0xc0924057	-4.570354
85	0x40bf6545	5.981112
86	0xc0c0e8c9	-6.028416
87	0xc105800c	-8.343761
88	0xc0d37544	-6.6080647
89	0x40c08712	6.016488
90	0xc08f1782	-4.4716196
91	0xc08dc8ac	-4.430746
92	0xc10c5c5d	-8.77255
93	0xc0d41550	-6.6276016
94	0xc0a01fc4	-5.0038776
95	0xc0d18ec0	-6.5486755
96	0xc0925d63	-4.5738997
97	0xc0d16893	-6.5440154
98	0xc0d24458	-6.5708427
99	0xbbcfddf0	-0.0063435957
100	0xc0c07fbf	-6.015594
101	0xc0d36d42	-6.607087
102	0x40bf6912	5.981576
103	0xc0d1506a	-6.541066
104	0xc08fa01b	-4.488294
105	0xc21738b7	-37.805386
106	0x40c04427	6.0083194
107	0xc0914e6c	-4.540823
108	0xc0b3fe1b	-5.6247687
109	0xc0d21883	-6.565492
110	0xc08ed600	-4.463623
111	0x40c1cf50	6.0565567
112	0xc0bec1a9	-5.96114
113	0xc092dbf0	-4.589348
114	0xc0c20f44	-6.0643635
115	0xc0d309cf	-6.5949473
116	0xc0cfb1e7	-6.4904666
117	0x3d3183fc	0.04333876
118	0x40c23156	6.0685225
119	0xc0931353	-4.596109
120	0xc1cd68e4	-25.676216
121	0x40c0d3c3	6.02585
122	0x40bf3a10	5.9758377
123	0xc0c1e0fe	-6.058715
124	0xc0f601a6	-7.687701
125	0x40c0f90a	6.0304003
126	0xc093edcc	-4.622778
127	0xc0d19b31	-6.5501943
128	0xc0e80f71	-7.251885
129	0xc0c1dac0	-6.057953
130	0x40c1b078	6.0527916
131	0x40c006fc	6.0008526
132	0x40bd77c8	5.9208717
133	0xc0c11545	-6.0338464
134	0xc10b1a53	-8.693927
135	0xc090d883	-4.5264297
136	0xc0c03578	-6.006527
137	0xc0b22107	-5.5665317
138	0xc0d43a74	-6.6321354
139	0xc0927a5d	-4.577437
140	0xc0d0f56c	-6.5299587
141	0xc0903800	-4.506836
142	0xc0fe76c5	-7.951998
143	0x40bd72aa	5.920247
144	0xc0be792b	-5.952291
145	0xc093b4e4	-4.6158314
146	0xc10dc210	-8.859879
147	0xc0929895	-4.5811257
148	0xc0e2bc50	-7.0854874
149	0xc0909de7	-4.519275
150	0xc1cd41fc	-25.657219
151	0xc091f2da	-4.560895
152	0xc0d2488e	-6.571357
153	0xc0915cd2	-4.5425806
154	0xc0918ca4	-4.548418
155	0xbca1347a	-0.019678343
156	0xc08eee6b	-4.4666038
157	0xc08fb7bd	-4.491179
158	0xc0d0dfaa	-6.5273027
159	0xc09240e3	-4.5704207
160	0x40c0f24f	6.0295787
161	0x40bffba9	5.99947
162	0xc0cf0764	-6.469652
163	0xc0912483	-4.535707
164	0xc0931e96	-4.5974836
165	0xc0cff2bd	-6.498381
166	0xc0927a69	-4.5774426
167	0xc0d0083a	-6.501004
168	0xc0d14305	-6.539431
169	0xc0d2dd1f	-6.5894923
170	0xc09123bc	-4.535612
171	0xc08f3f1b	-4.4764533
172	0xc0b3577d	-5.6044297
173	0xc0d04b8e	-6.509223
174	0xc093c30a	-4.6175585
175	0xc091b097	-4.5528064
176	0xc093de34	-4.6208744
177	0xc0b25435	-5.572779
178	0xc093bea7	-4.617023
179	0xc090367d	-4.5066514
180	0xc092a74c	-4.582922
181	0xc0cf3950	-6.475746
182	0xc091edda	-4.5602846
183	0xc0d115ec	-6.533926
184	0xc0d0bd3b	-6.5230994
185	0xc092a431	-4.582543
186	0xc092492a	-4.571431
187	0x40bf7ba2	5.983842
188	0xc094424e	-4.633094
189	0xc093c41a	-4.617688
190	0xc0901a03	-4.5031753
191	0xc08f5fc6	-4.480441
192	0xc08ee86a	-4.465871
193	0xc08eecbf	-4.4663997
194	0xc0c233a5	-6.0688043
195	0xc0cfe859	-6.4971128
196	0xc0bf9b5c	-5.987715
197	0xc08faf9f	-4.490188
198	0xc092d36d	-4.588309
199	0xc0fe286f	-7.9424357
200	0xc0cef90c	-6.467901
201	0xc092304c	-4.5683956
202	0xc092a7bb	-4.582975
203	0xc09044c6	-4.508395
204	0xc09315f7	-4.5964313
205	0xc0d3dd94	-6.620798
206	0xc0b08bf0	-5.517082
207	0xc0d121b0	-6.5353622
208	0xc08f9121	-4.486466
209	0xc0905081	-4.509827
210	0xc093a279	-4.613583
211	0xc092538f	-4.5727
212	0x40c1b614	6.0534763
213	0xc0d0ad7f	-6.5211787
214	0xc0d1859d	-6.54756
215	0xc093a786	-4.6141996
216	0xc091b156	-4.5528975
217	0xc0d0bad9	-6.5228086
218	0xc14c1657	-12.755454
219	0xc0d1823f	-6.547149
220	0xc08f445c	-4.4770947
221	0x3ca4d610	0.020121604
222	0xc0d0aec1	-6.5213323
223	0xc09050b3	-4.509851
224	0xc0cf0fa9	-6.4706616
225	0xc0934513	-4.602182
226	0xc0d362d7	-6.6058154
227	0xc08ef195	-4.46699
228	0xc0d18137	-6.5470233
229	0xc0924ab0	-4.571617
230	0xc0920d0e	-4.5640936
231	0xc091a870	-4.551811
232	0xc0d219c9	-6.5656476
233	0xc0980188	-4.750187
234	0xc0914dd3	-4.54075
235	0xc08f934d	-4.486731
236	0xc0bedb9a	-5.964307
237	0xc090b840	-4.5224915
238	0xc09070ae	-4.513755
239	0xc08f8071	-4.484429
240	0xc08f0533	-4.4693847
241	0xc08fa7d1	-4.4892354
242	0xc0911b46	-4.5345793
243	0xc0939ea1	-4.613114
244	0xc091449a	-4.539624
245	0xc0d151da	-6.5412416
246	0xc0939cce	-4.612891
247	0xc0d25984	-6.573427
248	0xc0d0932a	-6.5179644
249	0xbd88fa75	-0.06688396
250	0xc0cecf32	-6.4627924
251	0xc0931df0	-4.5974045
252	0xc091e979	-4.55975
253	0xc0d081d0	-6.5158463
254	0xc0932f26	-4.5995054
255	0xc211292e	-36.290215

2.bias f4 [100]
0	0xc21e1703	-39.522472
1	0xc2191f26	-38.28042
2	0xc1973153	-18.899084
3	0xc1bb1ace	-23.388088
4	0xc21932fc	-38.29979
5	0xc013768f	-2.3041112
6	0xc2207fc3	-40.124767
7	0xbf9251e3	-1.143124
8	0xc1fb2d9c	-31.39727
9	0xc215493a	-37.32151
10	0xc0f11cda	-7.534772
11	0xc173ff9f	-15.2499075
12	0xc21fbbd7	-39.933437
13	0xc247e562	-49.974007
14	0xc1d75b47	-26.919569
15	0xc28ef5cc	-71.48007
16	0xc1773a1f	-15.45169
17	0xc17a0cbb	-15.628108
18	0xc176023c	-15.3755455
19	0xc1753d39	-15.327447
20	0xc22659d7	-41.587734
21	0xc1767e05	-15.4057665
22	0xc177163f	-15.442931
23	0xc0b18e1a	-5.5485964
24	0xc1af6080	-21.92212
25	0xc18414bc	-16.510124
26	0xc171c39a	-15.110254
27	0xc19f219e	-19.891415
28	0xc059cd5b	-3.403159
29	0xc19fc8d8	-19.973068
30	0xc0c1f1a7	-6.0607486
31	0xc107b895	-8.482564
32	0xc0c220b6	-6.066493
33	0xc1a16829	-20.17586
34	0xc21dbe09	-39.43558
35	0xc174b1b7	-15.293387
36	0xc1f300e9	-30.375444
37	0xc0fd78dd	-7.921004
38	0xc26db135	-59.423054
39	0xc2268030	-41.625183
40	0xc214f7a0	-37.24182
41	0xc1bce0ca	-23.60976
42	0xc0c0a226	-6.0197935
43	0xc0c1216c	-6.03533
44	0xc0cb7b03	-6.358766
45	0xc1d2e2cb	-26.360739
46	0xc0eccc67	-7.3999515
47	0xc17759f2	-15.459459
48	0xc23bf8e0	-46.993042
49	0xc0b3dee8	-5.62096
50	0xc1f85933	-31.043554
51	0xc0be41f3	-5.9455504
52	0xc0c9790e	-6.296027
53	0xbfd6265e	-1.6730459
54	0xc245621d	-49.345814
55	0xc1cd37f6	-25.652325
56	0xc17b41ac	-15.703533
57	0xc0bf0a23	-5.9699874
58	0xc2064915	-33.57137
59	0xc0ecf842	-7.405305
60	0xc0cae59c	-6.3405285
61	0xc11c4689	-9.7672205
62	0xc13bb95b	-11.732753
63	0xc1047f3c	-8.281063
64	0xc0a6a659	-5.207806
65	0xc12887be	-10.53314
66	0xc20fe874	-35.977005
67	0xc0e19e98	-7.0506096
68	0xc2514106	-52.3135
69	0xc1897056	-17.179852
70	0xc220e418	-40.222748
71	0xc0ed1cfa	-7.409787
72	0xc0b0e560	-5.528
73	0xc11dd27f	-9.863891
74	0xc1a04f38	-20.038681
75	0xc0fb40ea	-7.851674
76	0xc0e573f8	-7.1704063
77	0xc1aa438e	-21.282986
78	0xc2545558	-53.083344
79	0xc2221837	-40.523647
80	0xc2542a56	-53.041344
81	0xc19beb5c	-19.489922
82	0xc15d4b41	-13.830873
83	0xc2135b37	-36.839077
84	0xc0c1588a	-6.042058
85	0xc1771a2f	-15.4438925
86	0xc2199755	-38.397785
87	0xc19d2a4b	-19.64565
88	0xc20fc6ee	-35.944267
89	0x3fe05c78	1.7528219
90	0xc0bed2ee	-5.9632483
91	0xc1cbc53a	-25.471302
92	0xc1113406	-9.075201
93	0xc11df230	-9.871628
94	0xc2052c79	-33.29343
95	0xc22461a6	-41.09536
96	0xc24c3edf	-51.061398
97	0xc1bae005	-23.359385
98	0xc1f18202	-30.18848
99	0xc18718d9	-16.887133

4.weight f4 [5, 100]
0	0x40b73a4e	5.7258673
1	0x408ea0bc	4.457121
2	0xc1c25e8b	-24.296164
3	0xc165f31f	-14.371856
4	0x40389e03	2.8846443
5	0x3f8e9015	1.113772
6	0xc177b4a8	-15.481606
7	0xc1e8459f	-29.033995
8	0x408ea02a	4.4570513
9	0x40cf2083	6.4727187
10	0xbf915b8a	-1.135606
11	0x400ff93a	2.2495866
12	0x40466a4d	3.100238
13	0x407710f7	3.8604105
14	0xc17178a6	-15.091955
15	0xc17356a9	-15.208657
16	0x404f36e3	3.237725
17	0x403953b6	2.8957343
18	0x401689b8	2.3521557
19	0x4031de97	2.7792108
20	0x417d2859	15.8223505
21	0x401ecb1e	2.4811473
22	0x403b48ad	2.9263108
23	0x40c76225	6.2307305
24	0x3fdbdfbb	1.7177652
25	0x41282c14	10.510761
26	0x401aec78	2.420683
27	0x4039d3e4	2.9035578
28	0xc1f2114f	-30.258451
29	0x402bd1bb	2.684676
30	0x40910d17	4.532848
31	0x40512d5b	3.2683933
32	0xc0bdc212	-5.92994
33	0x3f823f2f	1.0175532
34	0x40458e08	3.086794
35	0x3fb91117	1.445834
36	0x421e9b80	39.651855
37	0x405095e7	3.2591493
38	0xc1822517	-16.26811
39	0xc14a326c	-12.63731
40	0x3ed727c5	0.4202253
41	0xc180a634	-16.081154
42	0x4044ccf1	3.0750086
43	0xc0bc9cc2	-5.8941355
44	0x40909b69	4.518971
45	0x404b8f98	3.1806393
46	0x40d35211	6.603768
47	0x404a81ce	3.1641726
48	0xc210d02d	-36.203297
49	0x40aed020	5.462906
50	0xc13c6845	-11.775456
51	0xc0c08a9f	-6.0169215
52	0x40922c9e	4.5679464
53	0x408548d5	4.1651406
54	0x4038e0d6	2.888723
55	0x4094249a	4.629468
56	0x4049fea3	3.1561668
57	0x40be4c8f	5.9468455
58	0xc18414ea	-16.510212
59	0x40d30fdf	6.5956874
60	0x4091d0b2	4.5567255
61	0x40d011b6	6.502162
62	0x405b5d97	3.4275873
63	0x40478c60	3.1179428
64	0xbd0ce22a	-0.034395374
65	0xc17e6acf	-15.901076
66	0xc176a3d2	-15.414995
67	0xc09816d9	-4.752789
68	0x4127f2c1	10.496766
69	0x40446667	3.0687501
70	0x40d0feba	6.5310946
71	0x40d08316	6.5160017
72	0x40b086aa	5.5164385
73	0x3fbe01cd	1.48443
74	0xc1329357	-11.160972
75	0x404b9b35	3.181348
76	0x4091afae	4.5526953
77	0xc1672de6	-14.448706
78	0xc1511512	-13.067644
79	0x40384ba7	2.8796175
80	0xc151d133	-13.113574
81	0x40306fe7	2.75683
82	0x40521607	3.2825944
83	0x408e8de3	4.45482
84	0xbdab2da5	-0.083583154
85	0x40485cb2	3.1306577
86	0x4092aac1	4.583344
87	0x4053c343	3.3087928
88	0x40cca188	6.394718
89	0x400b1aca	2.17351
90	0xc0bdc0a5	-5.929766
91	0x40f123a6	7.5356016
92	0xc000aef1	-2.0106776
93	0x404505cf	3.0784795
94	0x4090c02b	4.523458
95	0x409dc9fc	4.9309063
96	0x404422a5	3.0646145
97	0x40824bf9	4.071774
98	0xc12aa57a	-10.6654
99	0x4196c6e3	18.847113
100	0x4032855e	2.78939
101	0x40910bf9	4.5327115
102	0x4021b8a9	2.5268958
103	0xc14ad7cf	-12.677688
104	0xc0bdd766	-5.9325438
105	0xc18f58b0	-17.918304
106	0xc13ecda3	-11.925204
107	0xbe87ffd9	-0.26562384
108	0x408e73a2	4.4516153
109	0x408da667	4.426563
110	0x40be11df	5.9396815
111	0x408aff0a	4.3436327
112	0x4043faa6	3.0621734
113	0x408ee6b4	4.465662
114	0xc1b0719e	-22.055477
115	0xc13d3285	-11.824834
116	0x408d444a	4.414586
117	0x408d9d87	4.4254794
118	0x408aca69	4.3372083
119	0x408b370e	4.3504705
120	0x40daec21	6.8413243
121	0x408a3392	4.318795
122	0x408a8258	4.328411
123	0x402d9454	2.7121782
124	0x408b7711	4.3582845
125	0x40c99131	6.2989736
126	0x40896fef	4.294914
127	0x408aeb01	4.341187
128	0xc1cad98f	-25.35623
129	0x40893199	4.2873044
130	0x4091e256	4.558879
131	0xbf3cf9b9	-0.73818547
132	0xc0bf9f39	-5.9881864
133	0x4085916e	4.1740026
134	0x404925e3	3.1429374
135	0x40855f98	4.167919
136	0xc0bc7fc6	-5.8905973
137	0xc0e7fae6	-7.2493773
138	0xc2007cec	-32.121994
139	0x418b562b	17.417074
140	0x3f72b411	0.9480601
141	0x41939d98	18.45195
142	0xc1581972	-13.506212
143	0xc0c17857	-6.04594
144	0x40909a75	4.5188546
145	0xc0bcb58b	-5.897161
146	0x408d394a	4.4132433
147	0x408cdd22	4.4019938
148	0x41a4d519	20.604052
149	0x40b31edc	5.597517
150	0x4050330b	3.2531154
151	0xc0bf4122	-5.976701
152	0x408e668d	4.4500184
153	0x408f64cd	4.481055
154	0x408c75bb	4.3893714
155	0x40897221	4.2951818
156	0x408d452f	4.4146953
157	0xc0bd3546	-5.912753
158	0x41c3085b	24.37908
159	0x408ab54f	4.3346324
160	0x408ea55a	4.4576845
161	0x408e1cc5	4.441012
162	0xc1422985	-12.135137
163	0x4043b088	3.0576496
164	0xbd667620	-0.056264997
165	0xc1ce3c4a	-25.779438
166	0xc105e836	-8.369192
167	0xc1a605ed	-20.752893
168	0x418a375b	17.277029
169	0x408aaa2a	4.333272
170	0x408dc610	4.4304276
171	0x408ad323	4.3382735
172	0x40b2c364	5.5863514
173	0xc1a56e98	-20.679
174	0x3fc78712	1.5588095
175	0xbf3321bd	-0.69973356
176	0x408ae314	4.3402195
177	0xbfb0715f	-1.3784598
178	0xc1a5447b	-20.658438
179	0x4062dc07	3.5446794
180	0x418cd7cb	17.605368
181	0x4089edb1	4.310265
182	0x408dc2e9	4.4300427
183	0x4092b04e	4.5840216
184	0xc0c285a9	-6.078816
185	0x408dc9e8	4.4308968
186	0x4090b7ca	4.522435
187	0x408afabe	4.343108
188	0xc096f72e	-4.7176733
189	0x408aca31	4.3371816
190	0xc0c0161c	-6.002699
191	0xc0b9dfd6	-5.8085737
192	0xc1b6cbdd	-22.849543
193	0xc0440773	-3.0629547
194	0x408ecf86	4.4628325
195	0x3f4dcfe0	0.8039532
196	0x408c38dc	4.381941
197	0x408c3f1c	4.382704
198	0xc0261b65	-2.595422
199	0x4187019a	16.875782
200	0xc1e4db4b	-28.607077
201	0xc1c84b6f	-25.036833
202	0x40c21c18	6.0659294
203	0xc14e9ec7	-12.913764
204	0xc01c7d43	-2.4451454
205	0xc180880b	-16.066427
206	0xc18f8148	-17.938126
207	0xc1c0afbb	-24.085806
208	0xc1d879e4	-27.059517
209	0xc1d95eb1	-27.171236
210	0x405c3e62	3.4413075
211	0x40464281	3.097809
212	0xc1c7b290	-24.962189
213	0xc1d9c53f	-27.221312
214	0xc1af1794	-21.886513
215	0x41c7e088	24.984634
216	0x4070ed13	3.7644699
217	0xc1e040bb	-28.031607
218	0x40483243	3.1280677
219	0x405ac5ca	3.418322
220	0xc11065d6	-9.024862
221	0x404db26b	3.2140148
222	0x40629379	3.540251
223	0x3fdfed1e	1.7494237
224	0x409abf48	4.83585
225	0xbf9ef8e4	-1.2419705
226	0x404c74a1	3.1946185
227	0x40b1bfbd	5.5546556
228	0xc1506973	-13.025744
229	0x40a8a99e	5.270705
230	0x408de59d	4.434279
231	0x41ac0c05	21.505869
232	0x40be1614	5.940195
233	0x408c8ec3	4.392427
234	0xc1d2894a	-26.317036
235	0x4025fa8c	2.5934172
236	0x41b33fc2	22.406132
237	0x41f56103	30.672369
238	0x3c96761f	0.018366871
239	0x41d35ab5	26.41929
240	0x40df6571	6.981133
241	0xc173605e	-15.211027
242	0x42048a3d	33.135
243	0xc0c0e230	-6.027611
244	0x408ceb0a	4.4036913
245	0x41a16053	20.172033
246	0x40901e3e	4.5036917
247	0x406bc06d	3.6836197
248	0x4073f0fa	3.811583
249	0x3dbdb5bf	0.09263181
250	0xc05b4367	-3.425989
251	0xc0be1b36	-5.9408216
252	0x408cec40	4.403839
253	0xc19ba3d7	-19.455
254	0xc1cfd86e	-25.980679
255	0x40aa6c9b	5.3257575

4.bias f4 [5]
0	0x4539575e	2965.4604
1	0x45395575	2965.341
2	0x45393dda	2963.8657
3	0x4534c3bb	2892.2332
4	0x4546bc59	3179.7717

0.weight f4 [150, 11]
0	0xc2399a7a	-46.400856
1	0xc24be565	-50.97402
2	0xc29ae249	-77.44196
3	0xc212eb8d	-36.73003
4	0xc0bec464	-5.9614735
5	0xc214731a	-37.112404
6	0xc28ec719	-71.38886
7	0x4180275c	16.019218
8	0x41a69fc1	20.828005
9	0x417ec950	15.924149
10	0x41017568	8.091164
11	0xc0985bb6	-4.761195
12	0xc0d58db8	-6.6735497
13	0xc0959611	-4.6745687
14	0xc185a237	-16.704206
15	0xc15e8384	-13.907108
16	0xc0e1ba04	-7.053957
17	0xc1243609	-10.263192
18	0x408ab3d5	4.334452
19	0x40c54652	6.164834
20	0x409189d3	4.5480742
21	0x4094aefa	4.6463594
22	0xc0d2cd4c	-6.5875607
23	0xc1815ea8	-16.171219
24	0xc173a9cc	-15.228954
25	0xc186f029	-16.867266
26	0xc1844509	-16.533709
27	0xc186719f	-16.80548
28	0xc12b8c99	-10.721826
29	0xc0cda168	-6.425953
30	0xc09bf51e	-4.8736715
31	0xc09b8862	-4.8603983
32	0xc08af499	-4.342358
33	0xc0e9ffd4	-7.312479
34	0xc0d062c2	-6.5120554
35	0xc087ef65	-4.247973
36	0xc093ef06	-4.6229277
37	0xc091a3e6	-4.551257
38	0xc0d65282	-6.6975718
39	0xc19772a9	-18.930986
40	0xc09172de	-4.545272
41	0x40a9f300	5.310913
42	0xc0534cfd	-3.301574
43	0xc0936bc2	-4.606904
44	0xc0d7351a	-6.725232
45	0xc0938fdb	-4.6113105
46	0xc0c7dac4	-6.245455
47	0xc1a94b28	-21.161697
48	0x40b92afd	5.7864976
49	0xc0d62330	-6.6917953
50	0xc16c0a80	-14.752563
51	0xc0c86471	-6.262261
52	0xc0cd9c91	-6.425362
53	0x40d26ac9	6.5755353
54	0xbfe0417f	-1.7519988
55	0xc11a93e6	-9.661108
56	0xc127761b	-10.466334
57	0xc12a591b	-10.646754
58	0xc116b62f	-9.419478
59	0xbe27f103	-0.16400532
60	0xc11d65f8	-9.837395
61	0xc116ae81	-9.4176035
62	0x410b6c92	8.714006
63	0x410e1041	8.878968
64	0x410e5758	8.896324
65	0x411bd3a6	9.739172
66	0x41029e03	8.163577
67	0x4250db4e	52.214165
68	0x424ce80c	51.22661
69	0x41a84907	21.035658
70	0xc1f4ab87	-30.583754
71	0x425510da	53.266457
72	0x420fdf44	35.968033
73	0x41ed4ceb	29.662558
74	0x3d8b79d2	0.06810345
75	0x41162895	9.384908
76	0xc2468966	-49.63418
77	0xc087fdb6	-4.2497206
78	0xc0c88933	-6.266748
79	0xc0885027	-4.259784
80	0xc08aa284	-4.3323383
81	0xc091be06	-4.554446
82	0xc0d508c6	-6.657321
83	0x3dd53958	0.10411328
84	0xc0d10571	-6.531914
85	0x40c8e5dc	6.278059
86	0x40ccadb2	6.396203
87	0xc08a4abc	-4.321623
88	0xc0918522	-4.5475016
89	0xc096f49d	-4.71736
90	0xc08c8f64	-4.3925037
91	0xc0ed79b8	-7.4211082
92	0xc0967576	-4.7018385
93	0xc0919562	-4.549485
94	0xc17a75bc	-15.653744
95	0xc0d594d2	-6.6744165
96	0x400f5fa7	2.2402132
97	0x408fa8a9	4.4893384
98	0x3ff5b858	1.9196882
99	0xc09291bb	-4.5802894
100	0xc0cce4b8	-6.40292
101	0xc0d30e43	-6.595491
102	0xc087e9ff	-4.247314
103	0xc091273b	-4.536039
104	0xc0d13018	-6.537121
105	0x3d99c118	0.07507533
106	0x40930e7e	4.595519
107	0x40d260ce	6.574317
108	0x40916bea	4.544423
109	0xc090eae9	-4.5286756
110	0xc0b9564a	-5.7917833
111	0xc0c517a2	-6.159135
112	0xc0bf05bb	-5.9694495
113	0xc0b62175	-5.691584
114	0xc0c50d9d	-6.157912
115	0xc0baf3cb	-5.84226
116	0x3e1b4a68	0.15165102
117	0xc0c2a59a	-6.082715
118	0x40c66504	6.199831
119	0x40b6bb9e	5.7104025
120	0xc0ba23a2	-5.8168497
121	0xc0b82dbb	-5.7555823
122	0xc0bf2c50	-5.9741592
123	0xc0bdced4	-5.9314976
124	0xc0b68707	-5.703983
125	0xc0b9d1f5	-5.8068795
126	0xc0b65b0f	-5.6986156
127	0xbe68307a	-0.22674742
128	0xc0b7c612	-5.7429285
129	0x40c3d23a	6.1194124
130	0x40bc7d6d	5.890311
131	0xc0bc7671	-5.889458
132	0xc08d5e30	-4.4177475
133	0xc08ee87f	-4.465881
134	0xc0912662	-4.5359354
135	0xc11ab0f0	-9.668198
136	0xc0b9dcd3	-5.808206
137	0xc098b07f	-4.771545
138	0xc17302e8	-15.18821
139	0xc0cfa267	-6.4885745
140	0x3f3fa7e2	0.74865544
141	0x4088251b	4.2545295
142	0x3f3f4484	0.7471392
143	0xc08a0a28	-4.31374
144	0xc0cc75be	-6.389373
145	0xc0908e54	-4.517374
146	0xc182fb1e	-16.372616
147	0xc0ec793d	-7.3897996
148	0xc0ce851a	-6.4537477
149	0xc1234f72	-10.206896
150	0x4088ef97	4.279247
151	0x40d50ab8	6.6575584
152	0x40d1e4b3	6.5591674
153	0x408df164	4.4357166
154	0xc0d477c3	-6.6396194
155	0xc0cd7467	-6.4204593
156	0xc0d083da	-6.516095
157	0xc0b61bb1	-5.6908803
158	0xc0c34188	-6.1017494
159	0xc0b6daea	-5.714223
160	0x3c68ee40	0.0142169595
161	0xc0985ab2	-4.761071
162	0x40d27339	6.5765653
163	0xc08f18d6	-4.4717817
164	0xc090dd43	-4.5270095
165	0xc09864e7	-4.762317
166	0xc090fdde	-4.5309896
167	0xc0d89d45	-6.769198
168	0xc10d319d	-8.824613
169	0xc0b450e0	-5.6348724
170	0xc08eae9e	-4.4588156
171	0xc178cd24	-15.550083
172	0xc099cdcb	-4.806371
173	0x3f4b7ae1	0.79484373
174	0x408fb04a	4.4902697
175	0x3db5341f	0.08847832
176	0xc0ba1054	-5.814493
177	0xc0c6e8b8	-6.215908
178	0xc0d7ae65	-6.7400384
179	0xc0af13ff	-5.471191
180	0xbdfe0ea8	-0.12405139
181	0xc11cfcbe	-9.811705
182	0xbe5c473a	-0.21511546
183	0x4092202f	4.5664287
184	0x40c1e4f2	6.0591974
185	0x40911760	4.5341034
186	0xbf818ba2	-1.0120738
187	0xc0d6f7a3	-6.717729
188	0xc1c714fb	-24.885244
189	0xc09299ae	-4.5812597
190	0xc08d7ffd	-4.4218736
191	0xc09353a0	-4.603958
192	0xc0cc8ba1	-6.3920445
193	0xc1942684	-18.518806
194	0xc0c37c62	-6.1089334
195	0x40d6ab3e	6.7084036
196	0xbfb7accb	-1.4349607
197	0xc0985066	-4.7598143
198	0xc08e6f93	-4.45112
199	0xc080b861	-4.022507
200	0xc07d024c	-3.9532652
201	0xc0f82995	-7.755076
202	0xc097b0f2	-4.74035
203	0xc0961ab1	-4.690758
204	0xc175bec3	-15.359073
205	0xc0e6169f	-7.1902614
206	0x3ef671df	0.48133752
207	0x4088e7fe	4.2783194
208	0xbe6a2470	-0.22865462
209	0xc0c7f073	-6.2481017
210	0xc0909846	-4.518588
211	0xc0cd68b8	-6.419033
212	0xc1c66a93	-24.802038
213	0xc0ba1367	-5.8148685
214	0xc0d660a1	-6.6992955
215	0xc19436a0	-18.526672
216	0x40cb24b3	6.34823
217	0x3fe52383	1.7901462
218	0x408cb877	4.3975177
219	0x4038e6e7	2.8890932
220	0xc0dab256	-6.8342695
221	0xc096b077	-4.709041
222	0xc0d27a1c	-6.577406
223	0xc1bac6de	-23.347103
224	0x40b7ce73	5.7439513
225	0xc0d1ed80	-6.5602417
226	0xc188d230	-17.10263
227	0xc0ca0785	-6.313418
228	0x3f33c880	0.70227814
229	0x40ca6069	6.324269
230	0x402212d4	2.5323992
231	0xc093304d	-4.599646
232	0xc0d26e1c	-6.575941
233	0xc0952dfa	-4.6618624
234	0xc08835a8	-4.25655
235	0xc09430f1	-4.6309743
236	0xc08eee07	-4.466556
237	0xbe3072f6	-0.17231354
238	0xc098b4dd	-4.772078
239	0x40d586c2	6.6727
240	0x40c78790	6.235298
241	0xc08bccba	-4.368741
242	0xc0ca71b6	-6.3263807
243	0xc094c624	-4.649187
244	0xc0d739b8	-6.7257957
245	0xc1608405	-14.032231
246	0xc0cfd8d9	-6.4952207
247	0xc0b5ed9b	-5.6852546
248	0xc197891f	-18.941954
249	0xc096fe80	-4.718567
250	0x3f17aba5	0.59246284
251	0x40966269	4.699513
252	0x3fd4f7b5	1.6638094
253	0xc08d437a	-4.414487
254	0xc0c84463	-6.258348
255	0xc08f48c7	-4.477634

0.bias f4 [150]
0	0xc29b2803	-77.57815
1	0xc09622ef	-4.6917644
2	0xc18bbae6	-17.466259
3	0xc0e116ac	-7.0340176
4	0xc1963437	-18.775496
5	0xc12c1fdf	-10.757781
6	0x424c0681	51.00635
7	0xc08b26ed	-4.3485017
8	0xc0d2aa6f	-6.583305
9	0xc0d2b134	-6.5841312
10	0xc0bf2552	-5.9733057
11	0xc0c81431	-6.252465
12	0xc1080e9d	-8.503568
13	0xc095b198	-4.677929
14	0xc0c92add	-6.2864823
15	0xc0f92061	-7.7852025
16	0xc0d57d70	-6.671562
17	0xc0dd723b	-6.920194
18	0xc0f5eb1f	-7.6849513
19	0xc11be6fc	-9.743893
20	0xc13a1464	-11.629978
21	0xc0ca4d48	-6.3219337
22	0xc137a7f8	-11.478508
23	0xc09a9029	-4.8300977
24	0xc142ee2c	-12.183147
25	0xc0c81f6d	-6.253836
26	0xc10fe996	-8.994528
27	0xc0d3bd66	-6.61687
28	0xc1134171	-9.203477
29	0xc0d93452	-6.7876368
30	0xc0d3e18a	-6.6212816
31	0xc0e9cd40	-7.306305
32	0xc0ffc9dd	-7.9933915
33	0xc0d8a5de	-6.7702475
34	0xc093a26c	-4.613577
35	0xc09951d4	-4.791239
36	0xc0d5c7e8	-6.6806526
37	0xc0bb7924	-5.8585377
38	0xc1050a06	-8.314947
39	0xc1612676	-14.07189
40	0xc0d02982	-6.505067
41	0xc124b387	-10.29383
42	0xc0fe95fb	-7.955808
43	0xc1e0f6fc	-28.120598
44	0xc1f72ed1	-30.89786
45	0xc1064537	-8.391898
46	0xc1ff6453	-31.923986
47	0x422e8b09	43.635777
48	0xc0dc34f3	-6.8814635
49	0xc098eda3	-4.7790084
50	0xc0d03924	-6.506975
51	0xc10b9032	-8.722704
52	0xc096e131	-4.714989
53	0xc18f8e88	-17.944595
54	0xc1549ca1	-13.2882395
55	0xc10010f7	-8.004142
56	0xc0d76e47	-6.7322116
57	0xc08fcf7d	-4.494078
58	0xc0d632ec	-6.693716
59	0xc10c0917	-8.752219
60	0xc09a53ee	-4.8227453
61	0xc11f9d3b	-9.975886
62	0xc0bb3ced	-5.851187
63	0xc08f371c	-4.475477
64	0xc107c0b7	-8.4845495
65	0xc0d4f3d3	-6.6547637
66	0xc13c74a7	-11.77848
67	0xc0fedd68	-7.964527
68	0xc1a9ac96	-21.20927
69	0xc0fae6d5	-7.8406777
70	0xc0cfde0b	-6.495855
71	0xbe94239b	-0.28933415
72	0xc0d6d476	-6.713435
73	0xc0cc9cba	-6.3941317
74	0xc10fc940	-8.986633
75	0xc154928c	-13.285778
76	0xc0a3afe7	-5.1152225
77	0xc091e629	-4.5593457
78	0xc0e56d40	-7.169586
79	0xc1008c6f	-8.034286
80	0xc19a2834	-19.26963
81	0xc1837242	-16.43079
82	0xc0964928	-4.69643
83	0xc0e0bef2	-7.0233088
84	0xc0f86e5b	-7.763471
85	0xc0cfb8e3	-6.491319
86	0xc219d6d0	-38.459778
87	0xc15e814f	-13.9065695
88	0xc0a42b03	-5.1302505
89	0xc1419639	-12.099175
90	0x40950b9b	4.6576667
91	0xc139771d	-11.59158
92	0xc0d8f3b3	-6.7797484
93	0xc0a032c7	-5.0061984
94	0xc0dfbcf1	-6.991814
95	0xc08ae7ff	-4.34082
96	0xc0da36f5	-6.8192086
97	0xc0d0ed54	-6.5289707
98	0xc102cc1f	-8.174834
99	0xc128c6c5	-10.548528
100	0xc0eb8281	-7.3596807
101	0xc0c5fd1c	-6.187147
102	0xc12abe92	-10.671526
103	0xc08beb8a	-4.3725023
104	0xc0d76406	-6.73096
105	0x42519d01	52.403324
106	0xc0bdef34	-5.9354496
107	0xc0dfa2ba	-6.988614
108	0x411eb5ae	9.919355
109	0xc0e5fd52	-7.187173
110	0xc0c74003	-6.226564
111	0xc145d995	-12.365621
112	0xc0cf2ad2	-6.473977
113	0xc1e03c3a	-28.029408
114	0xc141da24	-12.115757
115	0xc0cef3b1	-6.4672475
116	0xc162d9bf	-14.178161
117	0xc1763d28	-15.389931
118	0xc0c0f2a0	-6.0296173
119	0xc0da8c7c	-6.829649
120	0xc2a22301	-81.06837
121	0xc13f5f97	-11.960837
122	0xc1fceb53	-31.614904
123	0xc08db6c2	-4.4285593
124	0xc14d11a2	-12.816805
125	0xc08e92e1	-4.4554296
126	0xc093e8fc	-4.6221905
127	0xc102ccc4	-8.174992
128	0xc1190b8c	-9.565319
129	0xc21774f5	-37.864216
130	0xc0d8ba63	-6.7727523
131	0xc0d5bfd5	-6.679667
132	0xc0dc925e	-6.892867
133	0xc0ce3121	-6.443497
134	0xc0dc12ff	-6.877319
135	0xc1fe8c94	-31.818642
136	0xc0e42e30	-7.130638
137	0xc0c40eb5	-6.1267953
138	0xc1b72456	-22.892742
139	0xc0fd2182	-7.9103403
140	0xc0dc154b	-6.8775992
141	0xc0b9c1fd	-5.80493
142	0xc0e0e55e	-7.027999
143	0xc111ced3	-9.112994
144	0xc0b761c5	-5.7306848
145	0xc1234753	-10.204913
146	0xc0e487ec	-7.141592
147	0xc09ab6b5	-4.834803
148	0xc08a1b66	-4.3158445
149	0xc0d2a2b3	-6.5823607

2.weight f4 [100, 150]
0	0xc1cd9390	-25.697052
1	0xc090b1bd	-4.5216966
2	0xc0be9e9c	-5.9568615
3	0x40c0e47f	6.0278926
4	0xc0c0fdff	-6.0310054
5	0xbb4373a0	-0.0029823557
6	0xc0dd853d	-6.9225144
7	0xc08f148c	-4.471258
8	0xc0d3dc89	-6.620671
9	0xc08ff084	-4.49811
10	0x40c213f0	6.064934
11	0x40bd2acb	5.9114738
12	0xc0cf2a12	-6.4738855
13	0xc0cfeb60	-6.4974823
14	0x40c20e54	6.064249
15	0xc0bd4c27	-5.915546
16	0xc0be3f8c	-5.945257
17	0xc0d293f8	-6.5805626
18	0xc10cbb85	-8.795781
19	0xc0bfc3fb	-5.9926734
20	0x40bf0848	5.969761
21	0xc08ee910	-4.46595
22	0x40c12d74	6.0367985
23	0xc0cfc5fb	-6.4929175
24	0x40bed723	5.963762
25	0xc08f990e	-4.4874334
26	0xc0dcb0a3	-6.896562
27	0x40bedefd	5.9647202
28	0xc0cf687b	-6.481504
29	0xc0918d80	-4.548523
30	0xc0911532	-4.5338373
31	0xc0cef239	-6.467068
32	0xc0cf49b1	-6.4777455
33	0xc0bd8a4a	-5.923131
34	0xc0bf7b06	-5.9837675
35	0xc091cce8	-4.556263
36	0xc0d0a55d	-6.520186
37	0xc0bd6f6e	-5.9198523
38	0xc1021df3	-8.132312
39	0x40c0e775	6.028254
40	0xc0bd0e44	-5.9079914
41	0xc041c35a	-3.0275483
42	0xc0e02a71	-7.005181
43	0xc0927836	-4.577174
44	0xc0bf413d	-5.9767137
45	0xc0d217be	-6.565398
46	0xc0bf51b8	-5.9787254
47	0xc10987fd	-8.5957
48	0xc0d54ccf	-6.665626
49	0xc051773b	-3.2729023
50	0xc0be1b9a	-5.9408693
51	0xc1084704	-8.517338
52	0xc0be0307	-5.9378695
53	0xc0c16cb1	-6.044518
54	0x40be7c07	5.95264
55	0xc0d22622	-6.567155
56	0xc0c0cb61	-6.0248265
57	0xc0c02869	-6.004933
58	0xc0bf2dd2	-5.9743433
59	0xc09120d8	-4.5352592
60	0x40c2223f	6.0666804
61	0xc0bdc6c2	-5.9305124
62	0xc0c029c8	-6.0051003
63	0xc0d36ff8	-6.607418
64	0xc10e8bbd	-8.909116
65	0x40c0c5e7	6.024158
66	0xc0928a58	-4.5793877
67	0xc0d142a5	-6.5393853
68	0xc14cd1c3	-12.801211
69	0xc0d03462	-6.5063944
70	0x40c02f56	6.0057783
71	0xbcc7bc8c	-0.024381898
72	0xc0cfebf8	-6.497555
73	0xc0bd29e5	-5.911364
74	0xc093d522	-4.619767
75	0x40c03161	6.0060277
76	0xc0d164cf	-6.5435557
77	0xc0921e31	-4.5661855
78	0xc0d1cded	-6.5563874
79	0xc0ced861	-6.4639134
80	0xc0bdf566	-5.936206
81	0xc10496d1	-8.28682
82	0xc0bd2e35	-5.9118905
83	0xc0bdb36e	-5.928153
84	0xc0924057	-4.570354
85	0x40bf6545	5.981112
86	0xc0c0e8c9	-6.028416
87	0xc105800c	-8.343761
88	0xc0d37544	-6.6080647
89	0x40c08712	6.016488
90	0xc08f1782	-4.4716196
91	0xc08dc8ac	-4.430746
92	0xc10c5c5d	-8.77255
93	0xc0d41550	-6.6276016
94	0xc0a01fc4	-5.0038776
95	0xc0d18ec0	-6.5486755
96	0xc0925d63	-4.5738997
97	0xc0d16893	-6.5440154
98	0xc0d24458	-6.5708427
99	0xbbcfddf0	-0.0063435957
100	0xc0c07fbf	-6.015594
101	0xc0d36d42	-6.607087
102	0x40bf6912	5.981576
103	0xc0d1506a	-6.541066
104	0xc08fa01b	-4.488294
105	0xc21738b7	-37.805386
106	0x40c04427	6.0083194
107	0xc0914e6c	-4.540823
108	0xc0b3fe1b	-5.6247687
109	0xc0d21883	-6.565492
110	0xc08ed600	-4.463623
111	0x40c1cf50	6.0565567
112	0xc0bec1a9	-5.96114
113	0xc092dbf0	-4.589348
114	0xc0c20f44	-6.0643635
115	0xc0d309cf	-6.5949473
116	0xc0cfb1e7	-6.4904666
117	0x3d3183fc	0.04333876
118	0x40c23156	6.0685225
119	0xc0931353	-4.596109
120	0xc1cd68e4	-25.676216
121	0x40c0d3c3	6.02585
122	0x40bf3a10	5.9758377
123	0xc0c1e0fe	-6.058715
124	0xc0f601a6	-7.687701
125	0x40c0f90a	6.0304003
126	0xc093edcc	-4.622778
127	0xc0d19b31	-6.5501943
128	0xc0e80f71	-7.251885
129	0xc0c1dac0	-6.057953
130	0x40c1b078	6.0527916
131	0x40c006fc	6.0008526
132	0x40bd77c8	5.9208717
133	0xc0c11545	-6.0338464
134	0xc10b1a53	-8.693927
135	0xc090d883	-4.5264297
136	0xc0c03578	-6.006527
137	0xc0b22107	-5.5665317
138	0xc0d43a74	-6.6321354
139	0xc0927a5d	-4.577437
140	0xc0d0f56c	-6.5299587
141	0xc0903800	-4.506836
142	0xc0fe76c5	-7.951998
143	0x40bd72aa	5.920247
144	0xc0be792b	-5.952291
145	0xc093b4e4	-4.6158314
146	0xc10dc210	-8.859879
147	0xc0929895	-4.5811257
148	0xc0e2bc50	-7.0854874
149	0xc0909de7	-4.519275
150	0xc1cd41fc	-25.657219
151	0xc091f2da	-4.560895
152	0xc0d2488e	-6.571357
153	0xc0915cd2	-4.5425806
154	0xc0918ca4	-4.548418
155	0xbca1347a	-0.019678343
156	0xc08eee6b	-4.4666038
157	0xc08fb7bd	-4.491179
158	0xc0d0dfaa	-6.5273027
159	0xc09240e3	-4.5704207
160	0x40c0f24f	6.0295787
161	0x40bffba9	5.99947
162	0xc0cf0764	-6.469652
163	0xc0912483	-4.535707
164	0xc0931e96	-4.5974836
165	0xc0cff2bd	-6.498381
166	0xc0927a69	-4.5774426
167	0xc0d0083a	-6.501004
168	0xc0d14305	-6.539431
169	0xc0d2dd1f	-6.5894923
170	0xc09123bc	-4.535612
171	0xc08f3f1b	-4.4764533
172	0xc0b3577d	-5.6044297
173	0xc0d04b8e	-6.509223
174	0xc093c30a	-4.6175585
175	0xc091b097	-4.5528064
176	0xc093de34	-4.6208744
177	0xc0b25435	-5.572779
178	0xc093bea7	-4.617023
179	0xc090367d	-4.5066514
180	0xc092a74c	-4.582922
181	0xc0cf3950	-6.475746
182	0xc091edda	-4.5602846
183	0xc0d115ec	-6.533926
184	0xc0d0bd3b	-6.5230994
185	0xc092a431	-4.582543
186	0xc092492a	-4.571431
187	0x40bf7ba2	5.983842
188	0xc094424e	-4.633094
189	0xc093c41a	-4.617688
190	0xc0901a03	-4.5031753
191	0xc08f5fc6	-4.480441
192	0xc08ee86a	-4.465871
193	0xc08eecbf	-4.4663997
194	0xc0c233a5	-6.0688043
195	0xc0cfe859	-6.4971128
196	0xc0bf9b5c	-5.987715
197	0xc08faf9f	-4.490188
198	0xc092d36d	-4.588309
199	0xc0fe286f	-7.9424357
200	0xc0cef90c	-6.467901
201	0xc092304c	-4.5683956
202	0xc092a7bb	-4.582975
203	0xc09044c6	-4.508395
204	0xc09315f7	-4.5964313
205	0xc0d3dd94	-6.620798
206	0xc0b08bf0	-5.517082
207	0xc0d121b0	-6.5353622
208	0xc08f9121	-4.486466
209	0xc0905081	-4.509827
210	0xc093a279	-4.613583
211	0xc092538f	-4.5727
212	0x40c1b614	6.0534763
213	0xc0d0ad7f	-6.5211787
214	0xc0d1859d	-6.54756
215	0xc093a786	-4.6141996
216	0xc091b156	-4.5528975
217	0xc0d0bad9	-6.5228086
218	0xc14c1657	-12.755454
219	0xc0d1823f	-6.547149
220	0xc08f445c	-4.4770947
221	0x3ca4d610	0.020121604
222	0xc0d0aec1	-6.5213323
223	0xc09050b3	-4.509851
224	0xc0cf0fa9	-6.4706616
225	0xc0934513	-4.602182
226	0xc0d362d7	-6.6058154
227	0xc08ef195	-4.46699
228	0xc0d18137	-6.5470233
229	0xc0924ab0	-4.571617
230	0xc0920d0e	-4.5640936
231	0xc091a870	-4.551811
232	0xc0d219c9	-6.5656476
233	0xc0980188	-4.750187
234	0xc0914dd3	-4.54075
235	0xc08f934d	-4.486731
236	0xc0bedb9a	-5.964307
237	0xc090b840	-4.5224915
238	0xc09070ae	-4.513755
239	0xc08f8071	-4.484429
240	0xc08f0533	-4.4693847
241	0xc08fa7d1	-4.4892354
242	0xc0911b46	-4.5345793
243	0xc0939ea1	-4.613114
244	0xc091449a	-4.539624
245	0xc0d151da	-6.5412416
246	0xc0939cce	-4.612891
247	0xc0d25984	-6.573427
248	0xc0d0932a	-6.5179644
249	0xbd88fa75	-0.06688396
250	0xc0cecf32	-6.4627924
251	0xc0931df0	-4.5974045
252	0xc091e979	-4.55975
253	0xc0d081d0	-6.5158463
254	0xc0932f26	-4.5995054
255	0xc211292e	-36.290215

2.bias f4 [100]
0	0xc21e1703	-39.522472
1	0xc2191f26	-38.28042
2	0xc1973153	-18.899084
3	0xc1bb1ace	-23.388088
4	0xc21932fc	-38.29979
5	0xc013768f	-2.3041112
6	0xc2207fc3	-40.124767
7	0xbf9251e3	-1.143124
8	0xc1fb2d9c	-31.39727
9	0xc215493a	-37.32151
10	0xc0f11cda	-7.534772
11	0xc173ff9f	-15.2499075
12	0xc21fbbd7	-39.933437
13	0xc247e562	-49.974007
14	0xc1d75b47	-26.919569
15	0xc28ef5cc	-71.48007
16	0xc1773a1f	-15.45169
17	0xc17a0cbb	-15.628108
18	0xc176023c	-15.3755455
19	0xc1753d39	-15.327447
20	0xc22659d7	-41.587734
21	0xc1767e05	-15.4057665
22	0xc177163f	-15.442931
23	0xc0b18e1a	-5.5485964
24	0xc1af6080	-21.92212
25	0xc18414bc	-16.510124
26	0xc171c39a	-15.110254
27	0xc19f219e	-19.891415
28	0xc059cd5b	-3.403159
29	0xc19fc8d8	-19.973068
30	0xc0c1f1a7	-6.0607486
31	0xc107b895	-8.482564
32	0xc0c220b6	-6.066493
33	0xc1a16829	-20.17586
34	0xc21dbe09	-39.43558
35	0xc174b1b7	-15.293387
36	0xc1f300e9	-30.375444
37	0xc0fd78dd	-7.921004
38	0xc26db135	-59.423054
39	0xc2268030	-41.625183
40	0xc214f7a0	-37.24182
41	0xc1bce0ca	-23.60976
42	0xc0c0a226	-6.0197935
43	0xc0c1216c	-6.03533
44	0xc0cb7b03	-6.358766
45	0xc1d2e2cb	-26.360739
46	0xc0eccc67	-7.3999515
47	0xc17759f2	-15.459459
48	0xc23bf8e0	-46.993042
49	0xc0b3dee8	-5.62096
50	0xc1f85933	-31.043554
51	0xc0be41f3	-5.9455504
52	0xc0c9790e	-6.296027
53	0xbfd6265e	-1.6730459
54	0xc245621d	-49.345814
55	0xc1cd37f6	-25.652325
56	0xc17b41ac	-15.703533
57	0xc0bf0a23	-5.9699874
58	0xc2064915	-33.57137
59	0xc0ecf842	-7.405305
60	0xc0cae59c	-6.3405285
61	0xc11c4689	-9.7672205
62	0xc13bb95b	-11.732753
63	0xc1047f3c	-8.281063
64	0xc0a6a659	-5.207806
65	0xc12887be	-10.53314
66	0xc20fe874	-35.977005
67	0xc0e19e98	-7.0506096
68	0xc2514106	-52.3135
69	0xc1897056	-17.179852
70	0xc220e418	-40.222748
71	0xc0ed1cfa	-7.409787
72	0xc0b0e560	-5.528
73	0xc11dd27f	-9.863891
74	0xc1a04f38	-20.038681
75	0xc0fb40ea	-7.851674
76	0xc0e573f8	-7.1704063
77	0xc1aa438e	-21.282986
78	0xc2545558	-53.083344
79	0xc2221837	-40.523647
80	0xc2542a56	-53.041344
81	0xc19beb5c	-19.489922
82	0xc15d4b41	-13.830873
83	0xc2135b37	-36.839077
84	0xc0c1588a	-6.042058
85	0xc1771a2f	-15.4438925
86	0xc2199755	-38.397785
87	0xc19d2a4b	-19.64565
88	0xc20fc6ee	-35.944267
89	0x3fe05c78	1.7528219
90	0xc0bed2ee	-5.9632483
91	0xc1cbc53a	-25.471302
92	0xc1113406	-9.075201
93	0xc11df230	-9.871628
94	0xc2052c79	-33.29343
95	0xc22461a6	-41.09536
96	0xc24c3edf	-51.061398
97	0xc1bae005	-23.359385
98	0xc1f18202	-30.18848
99	0xc18718d9	-16.887133
