dqn_agent_state_final.pth (torch, 681688 bytes, 24 tensors)

0.weight f4 [150, 11]
-4.2608204 -6.748575 -4.442126 -4.437883 -4.3090935 -4.675571 -4.8219633 -6.266348
6.2493205 -4.2979712 -4.3929443 -6.1067696 -6.7091103 -6.2723045 -5.9003987 -6.1790223
-6.3075585 -6.3787093 -4.6634007 4.2678866 -4.645431 4.2970667 -4.464465 -4.713801
-4.8485136 -4.2936726 -6.804949 -4.390666 -4.5701776 -6.4119096 4.4894485 -6.8068714
-4.4340696 -4.734253 -4.8421426 -4.3385816 -4.3016415 -4.76911 -4.61993 -4.832063
-6.5682387 4.3591905 -6.2423024 -6.6997604 -4.543258 -4.3305063 -4.538197 -4.631123
-6.4214554 -4.31981 -4.338583 -6.735414 6.7731557 -4.665594 -4.2949805 -33.44148
-21.294672 -33.442028 -33.471577 -6.132926 -33.88352 -33.453297 21.499313 21.659447
-33.805676 21.762594 -5.812695 -5.746731 -5.8958635 -5.7019973 5.8764453 -6.158977
-6.129292 6.0657077 6.244358 6.1442904 -5.797119 -4.349025 -4.783097 -4.2671123
-4.809957 -5.7796383 -4.801563 -4.6036963 -4.485251 4.595437 -4.326725 -6.736123
-33.497757 -33.38653 -33.309235 -5.805307 -21.793068 -6.0130477 -5.879812 21.76781
21.791466 -6.0348096 21.36014 -4.566797 -4.568413 -4.3039484 -4.3938737 -4.507862
-4.6169944 -4.2924304 -4.695566 4.2458816 -6.2450686 -4.7761717 -5.8048363 -6.4978857
-6.513846 -5.9599915 -6.0522857 -6.255439 -6.380206 -4.444485 4.3177 -4.827151
4.8159733 -30.970066 -30.700161 -30.640848 -33.381847 -30.83663 -33.312294 -6.0414276
18.787355 18.445467 -4.4552703 18.944344 -33.29899 -33.217674 -29.907427 -15.969442
-14.886458 -18.710463 -11.390325 16.775917 24.545303 -11.008342 18.782885 -4.732559
-4.479787 -4.743532 -4.2914824 -6.3144727 -4.395286 -4.3066764 -6.5065036 4.591357
-6.721483 -6.671378 -4.4186378 -4.6813154 -4.446783 -4.4973555 -4.8156953 -4.3073316
-4.843708 -4.2853503 6.3389153 -4.6679583 -4.7658486 -5.81335 -5.7116 -6.252991
-17.524866 -5.786772 -17.610561 -17.559237 -5.880033 5.7314277 -6.167063 -6.1445713
-4.74434 -4.59692 -4.2684803 -4.6886187 -4.543378 -4.8139024 -4.33487 -6.774814
4.2844214 -4.6477494 -4.485786 -4.254697 -4.4410286 -4.486074 -4.374203 -6.751614
-4.358647 -4.4693556 -4.753844 6.7937326 -4.8340273 -4.31146 -4.3209705 -4.608101
-4.6248536 -4.529008 -4.552988 -4.5826406 -4.506551 -6.3473754 6.4907002 -6.4430857
-4.327919 -4.2594066 -4.3287854 -4.370698 -4.5275483 -4.2628675 -4.333936 -4.801945
-4.410466 6.432085 -4.4003897 -4.6921134 -4.6712103 -6.683163 -4.405147 -4.6862426
-6.585523 -4.4117484 -4.337234 -6.808421 6.279338 -4.6649914 -4.822801 -5.817601
-5.860405 -6.094894 -6.1503534 -5.895907 -5.862749 -6.104888 6.173707 6.0858564
5.987893 -5.8846784 -4.2654862 -4.482976 -4.657335 -4.82883 -6.2797427 -4.2933593
-4.7337203 -6.6372323 6.479795 -6.4551673 -4.4376745 -5.895957 -6.0381594 -6.037892
00000000: a458 88c0 54f4 d7c0 e525 8ec0 2303 8ec0
00000010: 18e4 89c0 479e 95c0 864d 9ac0 ec85 c8c0
00000020: 6ffa c740 fb88 89c0 0093 8cc0 a86a c3c0
00000030: 08b1 d6c0 b8b6 c8c0 11d0 bcc0 8dba c5c0
00000040: 85d7 c9c0 631e ccc0 943a 95c0 8792 8840
00000050: 5fa7 94c0 9281 8940 e6dc 8ec0 75d7 96c0
00000060: 0627 9bc0 c465 89c0 24c2 d9c0 5680 8cc0
00000070: e53e 92c0 5d2e cdc0 90a9 8f40 e4d1 d9c0
00000080: e6e3 8dc0 007f 97c0 d5f2 9ac0 a9d5 8ac0
00000090: 0ca7 89c0 8d9c 98c0 77d6 93c0 43a0 9ac0
000000a0: 032f d2c0 7d7e 8b40 f1c0 c7c0 7064 d6c0
000000b0: 5f62 91c0 8293 8ac0 e938 91c0 2932 94c0
000000c0: 907c cdc0 e23b 8ac0 acd5 8ac0 8388 d7c0
000000d0: b1bd d840 8c4c 95c0 7b70 89c0 13c4 05c2
000000e0: 7d5b aac1 a3c4 05c2 e5e2 05c2 ee40 c4c0
000000f0: b988 07c2 2dd0 05c2 98fe ab41 8c46 ad41
00000100: 0339 07c2 cb19 ae41 9901 bac0 38e5 b7c0
00000110: eaaa bcc0 c376 b6c0 d70b bc40 5716 c5c0
00000120: 2923 c4c0 471a c240 c8d1 c740 079e c440
00000130: 0082 b9c0 362b 8bc0 210f 99c0 2f8c 88c0
00000140: 2beb 99c0 ccf2 b8c0 67a6 99c0 7b51 93c0
00000150: 2d87 8fc0 d20d 9340 8874 8ac0 528e d7c0
00000160: b4fd 05c2 cf8b 05c2 a83c 05c2 13c5 b9c0
00000170: 3458 aec1 e36a c0c0 6b27 bcc0 7a24 ae41
00000180: ec54 ae41 291d c1c0 91e1 aa41 3323 92c0
00000190: 7030 92c0 f2b9 89c0 9d9a 8cc0 6840 90c0
000001a0: 6bbe 93c0 975b 89c0 1442 96c0 43de 8740
000001b0: 9ad7 c7c0 66d6 98c0 38c1 b9c0 aeee cfc0
000001c0: 6d71 d0c0 40b8 bec0 53ac c1c0 8e2c c8c0
000001d0: a62a ccc0 3939 8ec0 992a 8a40 0578 9ac0
000001e0: 741c 9a40 b2c2 f7c1 ee99 f5c1 7520 f5c1
000001f0: 0387 05c2 6bb1 f6c1 ca3f 05c2 6053 c1c0
00000200: 814c 9641 5190 9341 9391 8ec0 048e 9741
00000210: 2a32 05c2 e6de 04c2 6942 efc1 d682 7fc1
00000220: ef2e 6ec1 07af 95c1 c53e 36c1 1435 8641
00000230: c85c c441 2b22 30c1 5943 9641 2071 97c0
00000240: 6a5a 8fc0 04cb 97c0 d353 89c0 2910 cac0
00000250: 2fa6 8cc0 4bd0 89c0 4735 d0c0 66ec 9240
00000260: 6416 d7c0 ee7b d5c0 7b65 8dc0 56cd 95c0
00000270: 0c4c 8ec0 56ea 8fc0 2d1a 9ac0 a9d5 89c0
00000280: a8ff 9ac0 9721 89c0 65d8 ca40 ea5f 95c0
00000290: d581 98c0 f706 bac0 6dc5 b6c0 8118 c8c0
000002a0: ed32 8cc1 3c2d b9c0 6ee2 8cc1 5179 8cc1
000002b0: 3b29 bcc0 db67 b740 9558 c5c0 54a0 c4c0
000002c0: a2d1 97c0 f819 93c0 6497 88c0 2a09 96c0
000002d0: 5a63 91c0 7d0b 9ac0 41b7 8ac0 47cb d8c0
000002e0: fb19 8940 5dba 94c0 8f8b 8fc0 7a26 88c0
000002f0: e81c 8ec0 eb8d 8fc0 79f9 8bc0 390d d8c0
00000300: 097a 8bc0 f604 8fc0 7d1f 98c0 4266 d940
00000310: 5ab0 9ac0 7bf7 89c0 6445 8ac0 9075 93c0
00000320: cdfe 93c0 a2ed 90c0 14b2 91c0 fea4 92c0
00000330: aa35 90c0 b31d cbc0 d1b3 cf40 c22d cec0
00000340: 507e 8ac0 0f4d 88c0 6985 8ac0 c2dc 8bc0
00000350: ade1 90c0 6969 88c0 9baf 8ac0 89a9 99c0
00000360: 8a22 8dc0 a4d3 cd40 fecf 8cc0 cb25 96c0
00000370: 8e7a 95c0 79dc d5c0 f7f6 8cc0 b3f5 95c0
00000380: 9bbc d2c0 0b2d 8dc0 9fca 8ac0 96de d9c0
00000390: 56f0 c840 9c47 95c0 6354 9ac0 ca29 bac0
000003a0: 7088 bbc0 5f09 c3c0 b2cf c4c0 45ab bcc0
000003b0: a49b bbc0 3e5b c3c0 028f c540 56bf c240
000003c0: d29c bf40 494f bcc0 dd7e 88c0 8a74 8fc0
000003d0: e308 95c0 c685 9ac0 a7f3 c8c0 3363 89c0
000003e0: a37a 97c0 3564 d4c0 7b5a cf40 bb90 cec0
000003f0: 6e01 8ec0 aeab bcc0 9a38 c1c0 6936 c1c0

0.bias f4 [150]
-4.8012056 -6.260341 -4.3610187 -4.6342654 -4.472327 -33.252525 -5.900309 -4.6736393
-33.62853 -4.326435 -6.4305573 -30.536148 -38.925495 -4.475878 -4.5053883 -17.316776
-4.4044466 -4.3594804 -4.7196727 -4.7810335 -4.624134 -5.8964176 -4.5135674 -5.946873
-5.998129 -4.337284 -6.529522 -4.7023106 -0.26226598 -8.681282 -4.2917466 -4.2637663
-30.765772 -4.3378854 -6.2766385 -4.473878 -22.302303 -4.266673 -4.6427927 -35.19086
-4.3057036 -4.4920835 -6.211198 -4.316302 -4.8339953 -6.606308 -4.4751225 -4.4251933
-6.054077 -4.3221383 -4.389485 -5.043634 -4.8254604 -6.270003 -12.384324 -5.966711
-4.328562 -6.1194086 -4.3111324 -5.96319 -6.611765 -4.5417857 -4.6199865 -4.578053
-5.7919464 -6.0798173 -4.695052 -6.2836823 -22.254227 -10.476917 -4.7858305 -4.519005
-4.3276496 -6.1882434 -6.6219726 -4.715317 -4.6671042 -59.383717 -4.3049088 -4.7891793
-8.768057 -4.7291493 -13.492876 -4.6335683 -30.999084 -6.1256723 -13.375769 -6.3736377
-4.810824 -5.7842 -0.11118105 -6.7009172 -4.408502 -6.8016157 -4.320056 -6.2006145
-4.2792797 -4.8180885 -5.8039746 -4.501706 -6.272757 -6.0200214 -11.44929 -4.563621
-4.476718 -27.417034 -34.64674 -4.7670493 -4.7929506 -4.456947 -4.659616 -4.3120537
-5.9102564 -6.239855 -4.5366488 -4.5159883 -4.24571 -4.607948 -30.919746 -4.3758154
-6.261369 -12.2232895 -6.136572 -6.026722 -21.976995 -4.2723613 -5.9355164 -5.976894
-4.4858265 -4.704438 -4.7106466 -4.896798 -4.663144 -4.2650027 -4.3462734 -0.27053478
3.6265259 -4.3421082 -10.473757 -4.5157204 0.08192071 -5.93679 -4.57425 -4.353819
40.252586 -19.154066 -5.9126396 -5.836517 -4.529511 -6.1710606
00000000: 7aa3 99c0 b754 c8c0 778d 8bc0 e74b 94c0
00000010: 4e1d 8fc0 9602 05c2 55cf bcc0 748e 95c0
00000020: 9d83 06c2 2872 8ac0 20c7 cdc0 084a f4c1
00000030: b5b3 1bc2 643a 8fc0 242c 90c0 c288 8ac1
00000040: 3af1 8cc0 dd80 8bc0 8f07 97c0 3afe 98c0
00000050: e8f8 93c0 74af bcc0 256f 90c0 c94c bec0
00000060: acf0 bfc0 08cb 8ac0 d8f1 d0c0 5479 96c0
00000070: ba47 86be 88e6 0ac1 fd55 89c0 c670 88c0
00000080: 4d20 f6c1 f5cf 8ac0 39da c8c0 022a 8fc0
00000090: 1e6b b2c1 9688 88c0 c291 94c0 71c3 0cc2
000000a0: 53c8 89c0 26bf 8fc0 22c2 c6c0 251f 8ac0
000000b0: 17b0 9ac0 e066 d3c0 3434 8fc0 2f9b 8dc0
000000c0: 00bb c1c0 f54e 8ac0 a976 8cc0 7365 a1c0
000000d0: 2c6a 9ac0 dda3 c8c0 3126 46c1 4cef bec0
000000e0: 9483 8ac0 32d2 c3c0 ccf4 89c0 74d2 bec0
000000f0: 9493 d3c0 4f56 91c0 eed6 93c0 697f 92c0
00000100: a057 b9c0 dd8d c2c0 de3d 96c0 ed13 c9c0
00000110: a808 b2c1 74a1 27c1 8625 99c0 b09b 90c0
00000120: 1b7c 8ac0 1706 c6c0 33e7 d3c0 e0e3 96c0
00000130: eb58 95c0 ed88 6dc2 d0c1 89c0 f540 99c0
00000140: f649 0cc1 3155 97c0 d2e2 57c1 3146 94c0
00000150: 20fe f7c1 8205 c4c0 2603 56c1 d7f4 cbc0
00000160: 45f2 99c0 2b18 b9c0 e4b2 e3bd ea6d d6c0
00000170: 7312 8dc0 d6a6 d9c0 e63d 8ac0 6f6b c6c0
00000180: dcef 88c0 c82d 9ac0 29ba b9c0 fa0d 90c0
00000190: 6dba c8c0 04a4 c0c0 4b30 37c1 2f09 92c0
000001a0: 4641 8fc0 1656 dbc1 4396 0ac2 ab8b 98c0
000001b0: da5f 99c0 4f9f 8ec0 931b 95c0 58fc 89c0
000001c0: d220 bdc0 e4ac c7c0 3a2c 91c0 fa82 90c0
000001d0: dbdc 87c0 4f74 93c0 a45b f7c1 ae06 8cc0
000001e0: 235d c8c0 9892 43c1 cc5e c4c0 e8da c0c0
000001f0: e3d0 afc1 2fb7 88c0 c0ef bdc0 b742 bfc0
00000200: e48b 8fc0 c28a 96c0 9ebd 96c0 92b2 9cc0
00000210: 7a38 95c0 e77a 88c0 ac14 8bc0 8983 8abe
00000220: 0019 6840 8df2 8ac0 8294 27c1 c880 90c0
00000230: 0cc6 a73d 2ffa bdc0 4260 92c0 7c52 8bc0
00000240: a602 2142 873b 99c1 5834 bdc0 bfc4 bac0
00000250: c1f1 90c0 5479 c5c0

2.weight f4 [100, 150]
-4.5150056 -4.508477 -4.584623 -6.551424 -4.576224 -21.543694 6.0498133 -4.623713
6.0584574 -4.469546 -4.3861403 -21.700783 -21.591217 -4.593296 -4.592045 5.9623437
-4.563511 -4.5122147 -4.4979253 -4.5662766 -4.545869 6.004203 -4.536532 -6.0029345
5.932061 -4.617281 -4.520603 -4.491403 -0.027290318 5.9798956 -4.578635 -4.6136513
-21.631952 -6.486883 6.0148306 -4.518265 -0.0070876777 -4.559571 -4.549126 -21.532457
-4.5280347 -4.4938 -5.994785 -4.4799724 -6.592635 -4.491394 -4.5450897 -4.5081744
5.9862275 -6.6114807 -4.4656577 -6.6018405 -4.5635376 -5.964238 -0.0647569 -0.014891766
-4.4967747 6.053347 -4.4748936 -5.935426 -4.546452 -6.462942 -5.543809 -4.568288
5.9379206 5.9561944 -4.4730754 5.9826636 0.06692289 -0.060452975 -6.533541 -4.619006
-4.516678 5.9191346 -4.6087904 -4.5120773 -4.615832 -21.49389 -4.5678873 -4.559326
5.954085 -4.556878 -0.039363634 -6.5508366 -21.54169 5.9739876 -0.074964955 -4.489965
-5.5981255 5.9173636 0.048523232 -4.5123053 -6.5331225 -4.355534 -4.5228786 -6.008723
-4.544474 -6.602181 5.936973 -4.5757413 -4.5094514 -5.989368 0.012073539 -6.578213
-4.471279 0.01234749 -21.502733 -6.6061096 -4.4734535 -4.5235934 -6.5590477 -4.58471
5.9214087 -4.490298 -4.512297 -4.5649734 -4.553918 -4.5688214 -21.598665 -4.5019693
-4.5394225 0.03473054 6.04475 -6.0220857 0.07418907 -4.510433 6.0222106 5.9941792
-4.5380044 -4.493942 -4.516179 -5.583177 -6.463501 -4.534431 -4.5800653 -0.06688876
-15.824609 -4.5432076 -0.07359694 -4.5875583 -0.05920934 6.038652 -4.573968 -4.536766
-21.52045 -27.433393 5.9076 5.9246755 -6.537753 5.9343987 -4.632038 -4.5007567
-4.540045 -5.523254 -4.553875 -21.545883 5.937096 -5.4723105 5.9123435 -4.6068754
-4.5385656 -21.550148 -21.528019 -4.4877486 -4.531827 5.9585805 -5.5728064 -4.629021
-5.539072 -4.5675073 -4.488695 6.0047255 -4.564615 -0.07855608 -0.07430491 -4.651589
-4.5170803 -4.5930634 -0.07492648 6.014046 -4.579056 -4.6380563 -21.705736 -5.61836
5.088932 -5.552586 0.072821856 -4.558561 -4.5714264 -27.458532 -4.5112286 -4.645195
6.015502 -4.516919 -5.5229616 -4.5633097 -4.548464 -4.5532584 6.003143 -5.5139747
-5.56364 -5.500585 -4.611645 4.486233 0.065908134 0.025375128 -4.5166197 5.9772267
-4.4982347 5.9401636 -5.475148 -4.481441 -5.606077 -4.508754 5.235755 5.990994
-4.576558 6.048561 -0.04007241 0.0036951154 -4.558073 -4.539542 -4.5995617 5.9656734
-4.6081247 -5.5612245 -4.554593 -21.547325 -4.5395885 -5.4843802 5.9121857 -4.6240234
0.052992582 -5.4797797 -21.494238 0.077207014 -0.07808249 -4.573472 -5.577869 6.059314
0.042306587 -5.5105586 -4.5756063 -4.5933046 -4.508006 0.0039281547 -4.5862174 -4.600052
5.992018 -4.571803 -4.5693035 5.959965 -0.01587464 -4.581749 -4.622641 0.009700425
00000000: ed7a 90c0 7245 90c0 3bb5 92c0 44a5 d1c0
00000010: 6d70 92c0 7c59 acc1 1298 c140 75f5 93c0
00000020: e2de c140 8506 8fc0 435b 8cc0 349b adc1
00000030: d0ba acc1 48fc 92c0 08f2 92c0 85cb be40
00000040: 4808 92c0 1064 90c0 01ef 8fc0 f01e 92c0
00000050: c277 91c0 6e22 c040 452b 91c0 0a18 c0c0
00000060: 72d3 bd40 c4c0 93c0 c8a8 90c0 93b9 8fc0
00000070: f28f dfbc 4e5b bf40 2e84 92c0 08a3 93c0
00000080: 3d0e adc1 8c94 cfc0 7e79 c040 a095 90c0
00000090: c03f e8bb 01e8 91c0 7192 91c0 7942 acc1
000000a0: a9e5 90c0 36cd 8fc0 47d5 bfc0 ef5b 8fc0
000000b0: def6 d2c0 80b9 8fc0 6071 91c0 f742 90c0
000000c0: 2d8f bf40 4091 d3c0 abe6 8ec0 4742 d3c0
000000d0: 8008 92c0 0adb bec0 449f 84bd 98fc 73bc
000000e0: 94e5 8fc0 05b5 c140 5432 8fc0 03ef bdc0
000000f0: 897c 91c0 6cd0 cec0 e266 b1c0 6a2f 92c0
00000100: 7203 be40 2599 be40 6f23 8fc0 fb71 bf40
00000110: de0e 893d 8a9d 77bd c512 d1c0 e6ce 93c0
00000120: a088 90c0 8d69 bd40 367b 93c0 f062 90c0
00000130: e5b4 93c0 7df3 abc1 222c 92c0 00e6 91c0
00000140: dd87 be40 f2d1 91c0 c33b 21bd 74a0 d1c0
00000150: 6255 acc1 e82a bf40 3a87 99bd cbad 8fc0
00000160: d823 b3c0 0b5b bd40 4cc0 463d ce64 90c0
00000170: 570f d1c0 8960 8bc0 6cbb 90c0 7547 c0c0
00000180: 556c 91c0 1145 d3c0 affb bd40 796c 92c0
00000190: 6d4d 90c0 e7a8 bfc0 18d0 453c b980 d2c0
000001a0: b814 8fc0 204d 4a3c 9905 acc1 4065 d3c0
000001b0: 8826 8fc0 47c1 90c0 b8e3 d1c0 f2b5 92c0
000001c0: 2e7c bd40 85b0 8fc0 bd64 90c0 4314 92c0
000001d0: b2b9 91c0 c933 92c0 11ca acc1 2210 90c0
000001e0: f342 91c0 9c41 0e3d 986e c140 edb4 c0c0
000001f0: 70f0 973d 7855 90c0 f3b5 c040 51d0 bf40
00000200: 5537 91c0 5fce 8fc0 8a84 90c0 63a9 b2c0
00000210: 00d5 cec0 0f1a 91c0 e58f 92c0 f9fc 88bd
00000220: 9931 7dc1 f561 91c0 feb9 96bd 47cd 92c0
00000230: 7e85 72bd a33c c140 f25d 92c0 302d 91c0
00000240: e229 acc1 9777 dbc1 0f0b bd40 f196 bd40
00000250: 4635 d1c0 98e6 bd40 a839 94c0 3306 90c0
00000260: 0c48 91c0 7fbe b0c0 58b9 91c0 f85d acc1
00000270: b1fc bd40 2b1d afc0 eb31 bd40 866b 93c0
00000280: ee3b 91c0 b466 acc1 6239 acc1 a39b 8fc0
00000290: ba04 91c0 b1ac be40 6e54 b2c0 f120 94c0
000002a0: 1440 b1c0 0529 92c0 64a3 8fc0 b626 c040
000002b0: 5311 92c0 03e2 a0bd 2c2d 98bd d1d9 94c0
000002c0: ec8b 90c0 60fa 92c0 0e73 99bd 1173 c040
000002d0: a087 92c0 f56a 94c0 59a5 adc1 9bc9 b3c0
000002e0: 88d8 a240 c9ae b1c0 a023 953d bbdf 91c0
000002f0: 2049 92c0 13ab dbc1 fc5b 90c0 70a5 94c0
00000300: fe7e c040 9a8a 90c0 1abc b0c0 a206 92c0
00000310: 048d 91c0 4bb4 91c0 bf19 c040 7b72 b0c0
00000320: 5709 b2c0 cb04 b0c0 9992 93c0 398f 8f40
00000330: d8fa 863d 80df cf3c 2688 90c0 7145 bf40
00000340: 8af1 8fc0 d215 be40 6a34 afc0 f767 8fc0
00000350: fc64 b3c0 b647 90c0 4e8b a740 39b6 bf40
00000360: 2a73 92c0 d08d c140 f822 24bd c029 723b
00000370: bcdb 91c0 ee43 91c0 9c2f 93c0 cce6 be40
00000380: c275 93c0 8df5 b1c0 3abf 91c0 ec60 acc1
00000390: 4f44 91c0 0b80 afc0 a030 bd40 00f8 93c0
000003a0: c00e 593d 5b5a afc0 33f4 abc1 b61e 9e3d
000003b0: b6e9 9fbd e259 92c0 e77d b2c0 e6e5 c140
000003c0: ac49 2d3d 7f56 b0c0 5e6b 92c0 5afc 92c0
000003d0: 9641 90c0 c0b7 803b 4bc2 92c0 a033 93c0
000003e0: 9dbe bf40 364c 92c0 bc37 92c0 09b8 be40
000003f0: 880b 82bc b09d 92c0 adec 93c0 88ee 1e3c

2.bias f4 [100]
-26.84086 -46.897198 -5.567412 -5.984615 -5.9629354 -6.007753 -27.263077 -6.0497947
-17.43426 -5.9731627 -32.728474 -5.9758267 -35.46187 -10.68915 -6.060181 -32.499733
-27.571018 -26.433664 -25.044067 -25.430334 -8.379038 263.09726 232.05652 -34.433907
-6.0021243 -5.610549 -5.986684 -5.5680456 -27.523413 -25.976068 -17.551407 -5.9760127
-5.1666636 -26.256794 -26.073227 -7.005317 -26.47614 -22.579979 -7.6324124 -21.873264
-6.048616 -26.97019 -25.900904 -25.799433 -22.28248 -30.710327 -24.48915 -7.4127603
-21.859173 -26.03091 -46.617302 -27.484552 -35.285496 -25.290783 -26.091791 -41.408546
-30.36232 -30.828972 -5.370145 -7.4768353 -5.9284577 -32.896027 -25.877182 -5.384234
-25.381428 -4.563749 -47.227154 -6.0471773 -21.846275 -21.336086 -27.795158 -45.940475
-36.22101 -27.760435 -52.64229 -26.4066 -6.9663396 -28.077616 -34.51743 -8.423152
-25.80352 -21.366713 -22.38194 -25.907871 -6.003683 -22.08635 -21.636436 -27.630524
-27.427572 -33.438225 -8.580832 -33.008274 -31.181944 -35.775333 -26.85573 -27.882496
-25.497387 -27.272064 -27.41602 -16.661375
00000000: 15ba d6c1 bb96 3bc2 3d28 b2c0 f781 bfc0
00000010: 5ed0 bec0 833f c0c0 c81a dac1 eb97 c1c0
00000020: 5d79 8bc1 2624 bfc0 f5e9 02c2 f939 bfc0
00000030: f4d8 0dc2 c206 2bc1 01ed c1c0 baff 01c2
00000040: 7291 dcc1 2578 d3c1 405a c8c1 5371 cbc1
00000050: 8a10 06c1 738c 8343 780e 6843 52bc 09c2
00000060: 6711 c0c0 9e89 b3c0 ea92 bfc0 6e2d b2c0
00000070: f32f dcc1 fdce cfc1 4869 8cc1 7f3b bfc0
00000080: 4f55 a5c0 ea0d d2c1 f895 d0c1 8f2b e0c0
00000090: 22cf d3c1 cca3 b4c1 b93c f4c0 72fc aec1
000000a0: 438e c1c0 f3c2 d7c1 0d35 cfc1 3d65 cec1
000000b0: 8542 b2c1 c0ae f5c1 c7e9 c3c1 5535 edc0
000000c0: 96df aec1 4e3f d0c1 1e78 3ac2 5de0 dbc1
000000d0: 5924 0dc2 8653 cac1 fdbb d0c1 5aa2 25c2
000000e0: 08e6 f2c1 bca1 f6c1 3ad8 abc0 3c42 efc0
000000f0: edb5 bdc0 8895 03c2 7804 cfc1 a54b acc0
00000100: 2a0d cbc1 3b0a 92c0 9be8 3cc2 7a82 c1c0
00000110: 2cc5 aec1 4eb0 aac1 7c5c dec1 0cc3 37c2
00000120: 50e2 10c2 5f15 dec1 b491 52c2 b840 d3c1
00000130: 41ec dec0 f59e e0c1 d911 0ac2 3bc5 06c1
00000140: 9c6d cec1 07ef aac1 370e b3c1 5243 cfc1
00000150: 2c1e c0c0 d8b0 b0c1 6c17 adc1 500b ddc1
00000160: ab6b dbc1 bec0 05c2 164b 09c1 7908 04c2
00000170: 9f74 f9c1 f119 0fc2 89d8 d6c1 5a0f dfc1
00000180: a6fa cbc1 302d dac1 0254 dbc1 7f4a 85c1

4.weight f4 [5, 100]
-4.254158 -1.1320547 5.459326 -6.035278 -5.919852 -6.0177913 -1.385799 0.008683421
-5.325444 -6.034578 -1.0901527 -6.0067124 5.3514695 4.467605 -6.0253177 -0.051413193
-6.6597075 -1.5508488 -4.1613355 -1.2175881 -0.07340751 139.99463 113.272026 -3.340917
-5.9912634 5.5523124 -5.966203 5.48434 0.02668517 21.476072 12.8883 -5.941752
4.8461714 -2.090443 -1.0413495 3.619652 -2.081746 -11.916914 4.5305376 -9.519034
-6.0642467 -3.4072075 21.578787 -1.5443914 -2.151609 -18.8588 27.492214 3.0629928
4.93875 -0.90936285 -2.4735749 27.482904 -8.459289 -8.335778 -4.729831 -3.4995267
5.6078744 -24.71936 -5.3441 -0.06118083 0.059162073 -0.03980557 21.502518 -5.2472415
-1.4285467 4.5266194 -4.1154814 -5.984399 -2.7710085 -11.538262 18.801044 -8.637374
5.3874116 -10.397671 27.818045 -3.9777646 3.6393862 -4.755191 3.7024138 4.484071
21.587132 -7.0704975 -11.21615 -2.3736238 -5.9701324 -3.107546 0.7753454 -1.3211131
-0.8616308 21.541592 5.513138 4.2206697 -3.1043763 3.9829044 -1.1597809 -6.399508
-11.623215 -3.8540869 -3.8307054 -15.997893 -11.671683 -8.086673 5.518409 6.0593615
5.96268 6.0236526 -4.163279 0.026658602 -5.289313 5.9555244 -8.084049 6.0774045
-26.337103 -4.7254825 6.079231 -6.3067822 -13.936071 -1.9192176 -13.521851 -5.997152
-27.627277 212.19434 209.02148 -6.9536114 -5.9899473 5.548768 5.9994564 5.630567
-27.43767 18.948652 8.08092 6.0700183 4.5704703 -7.7833166 -13.571679 3.6844687
-7.761805 -14.680357 1.4544202 -11.891264 -5.9124312 -12.443282 12.845145 -6.340473
-2.7814827 -24.881212 24.618391 2.9914422 4.4146323 -6.624753 -4.7370005 -0.06439523
-13.230913 -18.978466 -12.327834 -10.901367 1.7204143 -24.786009 -5.278912 -5.902958
-5.9989033 -20.72007 12.940555 -5.32931 -7.5712485 6.532971 -9.844018 -5.9304805
-4.88814 -13.902589 20.999521 -15.7214775 -22.335882 -20.496763 0.39077863 -11.071209
3.691125 -10.621609 -23.936844 2.9910476 12.813956 -9.4757 -14.435049 -9.370515
6.0419083 -4.1663218 0.3815623 -5.0868783 -3.1850872 27.513575 2.6903467 -23.203173
-13.062388 -23.270498 -3.739303 -13.142059 -29.02105 -9.88412 -10.14114 -18.152864
-3.2906654 -0.86131793 0.030281372 -5.909559 6.0760107 -5.8989882 -0.22944053 0.061963625
-5.2590647 6.0453124 -1.0622092 -5.942407 6.259861 4.4684744 -5.960142 -0.20145229
-6.3421416 -1.6305867 -2.7512982 -0.10270611 -0.05835085 45.247612 29.028503 -2.096467
-5.962814 5.5569506 -5.9963813 5.614437 0.06282557 21.524807 5.7151146 -5.9662004
4.6516104 -1.2205459 -0.21013124 3.616311 -1.05758 -12.593478 4.509038 -7.12279
-5.9244814 -2.5934024 21.575829 -0.36284968 -0.7591353 -24.873474 27.501204 3.0745544
4.8336234 0.041048836 0.72360426 27.562248 -5.4152155 -6.3678403 -2.4564958 -2.44899
00000000: 1022 88c0 2be7 90bf ccb2 ae40 ff20 c1c0
00000010: 6d6f bdc0 bf91 c0c0 dd61 b1bf e844 0e3c
00000020: 0a6a aac0 431b c1c0 208a 8bbf fd36 c0c0
00000030: 3d3f ab40 9ff6 8e40 67cf c0c0 a496 52bd
00000040: 531c d5c0 3782 c6bf a929 85c0 edd9 9bbf
00000050: ad56 96bd a0fe 0b43 478b e242 96d1 55c0
00000060: 6eb8 bfc0 8bac b140 23eb bec0 b77f af40
00000070: dc9a da3c ffce ab41 7a36 4e41 d522 bec0
00000080: d613 9b40 d1c9 05c0 f14a 85bf 61a8 6740
00000090: 543b 05c0 aeab 3ec1 2afa 9040 f74d 18c1
000000a0: 4f0e c2c0 b00f 5ac0 5ba1 ac41 9eae c5bf
000000b0: f6b3 09c0 d3de 96c1 0ef0 db41 1308 4440
000000c0: 3d0a 9e40 01cc 68bf 0d4f 1ec0 fddc db41
000000d0: 3f59 07c1 595f 05c1 c75a 97c0 3ff8 5fc0
000000e0: b573 b340 40c1 c5c1 de02 abc0 c098 7abd
000000f0: ee53 723d 2a0b 23bd 2805 ac41 67e9 a7c0
00000100: 9eda b6bf 11da 9040 06b2 83c0 3280 bfc0
00000110: 3458 31c0 b99c 38c1 8a68 9641 af32 0ac1
00000120: ad65 ac40 dc5c 26c1 5b8b de41 b293 7ec0
00000130: b4eb 6840 862a 98c0 59f4 6c40 827d 8f40
00000140: 72b2 ac41 8441 e2c0 5a75 33c1 74e9 17c0
00000150: 530b bfc0 09e2 46c0 097d 463f 3c1a a9bf
00000160: d693 5cbf 2e55 ac41 a06b b040 ba0f 8740
00000170: 1aae 46c0 e8e7 7e40 b373 94bf c5c8 ccc0
00000180: b0f8 39c1 5ca9 76c0 472a 75c0 5ff7 7fc1
00000190: 37bf 3ac1 0363 01c1 ce96 b040 4ae6 c140
000001a0: 46ce be40 c3c1 c040 9539 85c0 2463 da3c
000001b0: 0d42 a9c0 a893 be40 4458 01c1 197a c240
000001c0: 63b2 d2c1 2737 97c0 0f89 c240 29d1 c9c0
000001d0: 26fa 5ec1 eca8 f5bf 8059 58c1 abe8 bfc0
000001e0: aa04 ddc1 c031 5443 8005 5143 fc83 dec0
000001f0: a6ad bfc0 828f b140 8cfb bf40 9b2d b440
00000200: 5980 dbc1 d796 9741 734b 0141 973d c240
00000210: 4b41 9240 ee10 f9c0 9925 59c1 56ce 6b40
00000220: b560 f8c0 bee2 6ac1 712a ba3f 9e42 3ec1
00000230: a332 bdc0 af17 47c1 b785 4d41 28e5 cac0
00000240: d003 32c0 b90c c7c1 77f2 c441 ca73 3f40
00000250: ab44 8d40 fafd d3c0 8295 97c0 a5e1 83bd
00000260: d2b1 53c1 e6d3 97c1 cf3e 45c1 006c 2ec1
00000270: 8936 dc3f bf49 c6c1 d9ec a8c0 08e5 bcc0
00000280: 04f7 bfc0 b4c2 a5c1 830c 4f41 b589 aac0
00000290: ab47 f2c0 190e d140 1981 1dc1 7fc6 bdc0
000002a0: a56b 9cc0 0171 5ec1 05ff a741 2c8b 7bc1
000002b0: e3af b2c1 5ff9 a3c1 2314 c83e ac23 31c1
000002c0: 643b 6c40 1cf2 29c1 a87e bfc1 536d 3f40
000002d0: f705 4d41 789c 17c1 f6f5 66c1 a1ed 15c1
000002e0: 5057 c140 8252 85c0 225c c33e b5c7 a2c0
000002f0: 78d8 4bc0 cd1b dc41 a42e 2c40 19a0 b9c1
00000300: 8bff 50c1 fb29 bac1 be50 6fc0 e045 52c1
00000310: 1c2b e8c1 5b25 1ec1 1c42 22c1 1139 91c1
00000320: 439a 52c0 557f 5cbf a410 f83c 1b1b bdc0
00000330: ae6e c240 83c4 bcc0 75f2 6abe 92cd 7d3d
00000340: 424a a8c0 3373 c140 79f6 87bf 3328 bec0
00000350: c850 c840 befd 8e40 7cb9 bec0 8249 4ebe
00000360: d3f2 cac0 11b7 d0bf 4515 30c0 9557 d2bd
00000370: 4d01 6fbd 8efd 3442 603a e841 842c 06c0
00000380: 5fcf bec0 8ad2 b140 5be2 bfc0 78a9 b340
00000390: b1aa 803d ce32 ac41 38e2 b640 1deb bec0
000003a0: fed9 9440 d93a 9cbf a52c 57be a471 6740
000003b0: c85e 87bf e37e 49c1 0a4a 9040 e5ed e3c0
000003c0: 5a95 bdc0 4efa 25c0 4c9b ac41 6fc7 b9be
000003d0: b156 42bf e0fc c6c1 7702 dc41 80c5 4440
000003e0: 0bad 9a40 d322 283d 213e 393f 7c7f dc41
000003f0: 7249 adc0 59c5 cbc0 3a37 1dc0 41bc 1cc0

4.bias f4 [5]
1254.1069 1231.8246 1293.1171 1296.6011 1427.8136
00000000: 6cc3 9c44 63fa 9944 bfa3 a144 3c13 a244
00000010: 097a b244

0.weight f4 [150, 11]
-4.2608204 -6.748575 -4.442126 -4.437883 -4.3090935 -4.675571 -4.8219633 -6.266348
6.2493205 -4.2979712 -4.3929443 -6.1067696 -6.7091103 -6.2723045 -5.9003987 -6.1790223
-6.3075585 -6.3787093 -4.6634007 4.2678866 -4.645431 4.2970667 -4.464465 -4.713801
-4.8485136 -4.2936726 -6.804949 -4.390666 -4.5701776 -6.4119096 4.4894485 -6.8068714
-4.4340696 -4.734253 -4.8421426 -4.3385816 -4.3016415 -4.76911 -4.61993 -4.832063
-6.5682387 4.3591905 -6.2423024 -6.6997604 -4.543258 -4.3305063 -4.538197 -4.631123
-6.4214554 -4.31981 -4.338583 -6.735414 6.7731557 -4.665594 -4.2949805 -33.44148
-21.294672 -33.442028 -33.471577 -6.132926 -33.88352 -33.453297 21.499313 21.659447
-33.805676 21.762594 -5.812695 -5.746731 -5.8958635 -5.7019973 5.8764453 -6.158977
-6.129292 6.0657077 6.244358 6.1442904 -5.797119 -4.349025 -4.783097 -4.2671123
-4.809957 -5.7796383 -4.801563 -4.6036963 -4.485251 4.595437 -4.326725 -6.736123
-33.497757 -33.38653 -33.309235 -5.805307 -21.793068 -6.0130477 -5.879812 21.76781
21.791466 -6.0348096 21.36014 -4.566797 -4.568413 -4.3039484 -4.3938737 -4.507862
-4.6169944 -4.2924304 -4.695566 4.2458816 -6.2450686 -4.7761717 -5.8048363 -6.4978857
-6.513846 -5.9599915 -6.0522857 -6.255439 -6.380206 -4.444485 4.3177 -4.827151
4.8159733 -30.970066 -30.700161 -30.640848 -33.381847 -30.83663 -33.312294 -6.0414276
18.787355 18.445467 -4.4552703 18.944344 -33.29899 -33.217674 -29.907427 -15.969442
-14.886458 -18.710463 -11.390325 16.775917 24.545303 -11.008342 18.782885 -4.732559
-4.479787 -4.743532 -4.2914824 -6.3144727 -4.395286 -4.3066764 -6.5065036 4.591357
-6.721483 -6.671378 -4.4186378 -4.6813154 -4.446783 -4.4973555 -4.8156953 -4.3073316
-4.843708 -4.2853503 6.3389153 -4.6679583 -4.7658486 -5.81335 -5.7116 -6.252991
-17.524866 -5.786772 -17.610561 -17.559237 -5.880033 5.7314277 -6.167063 -6.1445713
-4.74434 -4.59692 -4.2684803 -4.6886187 -4.543378 -4.8139024 -4.33487 -6.774814
4.2844214 -4.6477494 -4.485786 -4.254697 -4.4410286 -4.486074 -4.374203 -6.751614
-4.358647 -4.4693556 -4.753844 6.7937326 -4.8340273 -4.31146 -4.3209705 -4.608101
-4.6248536 -4.529008 -4.552988 -4.5826406 -4.506551 -6.3473754 6.4907002 -6.4430857
-4.327919 -4.2594066 -4.3287854 -4.370698 -4.5275483 -4.2628675 -4.333936 -4.801945
-4.410466 6.432085 -4.4003897 -4.6921134 -4.6712103 -6.683163 -4.405147 -4.6862426
-6.585523 -4.4117484 -4.337234 -6.808421 6.279338 -4.6649914 -4.822801 -5.817601
-5.860405 -6.094894 -6.1503534 -5.895907 -5.862749 -6.104888 6.173707 6.0858564
5.987893 -5.8846784 -4.2654862 -4.482976 -4.657335 -4.82883 -6.2797427 -4.2933593
-4.7337203 -6.6372323 6.479795 -6.4551673 -4.4376745 -5.895957 -6.0381594 -6.037892
00000000: a458 88c0 54f4 d7c0 e525 8ec0 2303 8ec0
00000010: 18e4 89c0 479e 95c0 864d 9ac0 ec85 c8c0
00000020: 6ffa c740 fb88 89c0 0093 8cc0 a86a c3c0
00000030: 08b1 d6c0 b8b6 c8c0 11d0 bcc0 8dba c5c0
00000040: 85d7 c9c0 631e ccc0 943a 95c0 8792 8840
00000050: 5fa7 94c0 9281 8940 e6dc 8ec0 75d7 96c0
00000060: 0627 9bc0 c465 89c0 24c2 d9c0 5680 8cc0
00000070: e53e 92c0 5d2e cdc0 90a9 8f40 e4d1 d9c0
00000080: e6e3 8dc0 007f 97c0 d5f2 9ac0 a9d5 8ac0
00000090: 0ca7 89c0 8d9c 98c0 77d6 93c0 43a0 9ac0
000000a0: 032f d2c0 7d7e 8b40 f1c0 c7c0 7064 d6c0
000000b0: 5f62 91c0 8293 8ac0 e938 91c0 2932 94c0
000000c0: 907c cdc0 e23b 8ac0 acd5 8ac0 8388 d7c0
000000d0: b1bd d840 8c4c 95c0 7b70 89c0 13c4 05c2
000000e0: 7d5b aac1 a3c4 05c2 e5e2 05c2 ee40 c4c0
000000f0: b988 07c2 2dd0 05c2 98fe ab41 8c46 ad41
00000100: 0339 07c2 cb19 ae41 9901 bac0 38e5 b7c0
00000110: eaaa bcc0 c376 b6c0 d70b bc40 5716 c5c0
00000120: 2923 c4c0 471a c240 c8d1 c740 079e c440
00000130: 0082 b9c0 362b 8bc0 210f 99c0 2f8c 88c0
00000140: 2beb 99c0 ccf2 b8c0 67a6 99c0 7b51 93c0
00000150: 2d87 8fc0 d20d 9340 8874 8ac0 528e d7c0
00000160: b4fd 05c2 cf8b 05c2 a83c 05c2 13c5 b9c0
00000170: 3458 aec1 e36a c0c0 6b27 bcc0 7a24 ae41
00000180: ec54 ae41 291d c1c0 91e1 aa41 3323 92c0
00000190: 7030 92c0 f2b9 89c0 9d9a 8cc0 6840 90c0
000001a0: 6bbe 93c0 975b 89c0 1442 96c0 43de 8740
000001b0: 9ad7 c7c0 66d6 98c0 38c1 b9c0 aeee cfc0
000001c0: 6d71 d0c0 40b8 bec0 53ac c1c0 8e2c c8c0
000001d0: a62a ccc0 3939 8ec0 992a 8a40 0578 9ac0
000001e0: 741c 9a40 b2c2 f7c1 ee99 f5c1 7520 f5c1
000001f0: 0387 05c2 6bb1 f6c1 ca3f 05c2 6053 c1c0
00000200: 814c 9641 5190 9341 9391 8ec0 048e 9741
00000210: 2a32 05c2 e6de 04c2 6942 efc1 d682 7fc1
00000220: ef2e 6ec1 07af 95c1 c53e 36c1 1435 8641
00000230: c85c c441 2b22 30c1 5943 9641 2071 97c0
00000240: 6a5a 8fc0 04cb 97c0 d353 89c0 2910 cac0
00000250: 2fa6 8cc0 4bd0 89c0 4735 d0c0 66ec 9240
00000260: 6416 d7c0 ee7b d5c0 7b65 8dc0 56cd 95c0
00000270: 0c4c 8ec0 56ea 8fc0 2d1a 9ac0 a9d5 89c0
00000280: a8ff 9ac0 9721 89c0 65d8 ca40 ea5f 95c0
00000290: d581 98c0 f706 bac0 6dc5 b6c0 8118 c8c0
000002a0: ed32 8cc1 3c2d b9c0 6ee2 8cc1 5179 8cc1
000002b0: 3b29 bcc0 db67 b740 9558 c5c0 54a0 c4c0
000002c0: a2d1 97c0 f819 93c0 6497 88c0 2a09 96c0
000002d0: 5a63 91c0 7d0b 9ac0 41b7 8ac0 47cb d8c0
000002e0: fb19 8940 5dba 94c0 8f8b 8fc0 7a26 88c0
000002f0: e81c 8ec0 eb8d 8fc0 79f9 8bc0 390d d8c0
00000300: 097a 8bc0 f604 8fc0 7d1f 98c0 4266 d940
00000310: 5ab0 9ac0 7bf7 89c0 6445 8ac0 9075 93c0
00000320: cdfe 93c0 a2ed 90c0 14b2 91c0 fea4 92c0
00000330: aa35 90c0 b31d cbc0 d1b3 cf40 c22d cec0
00000340: 507e 8ac0 0f4d 88c0 6985 8ac0 c2dc 8bc0
00000350: ade1 90c0 6969 88c0 9baf 8ac0 89a9 99c0
00000360: 8a22 8dc0 a4d3 cd40 fecf 8cc0 cb25 96c0
00000370: 8e7a 95c0 79dc d5c0 f7f6 8cc0 b3f5 95c0
00000380: 9bbc d2c0 0b2d 8dc0 9fca 8ac0 96de d9c0
00000390: 56f0 c840 9c47 95c0 6354 9ac0 ca29 bac0
000003a0: 7088 bbc0 5f09 c3c0 b2cf c4c0 45ab bcc0
000003b0: a49b bbc0 3e5b c3c0 028f c540 56bf c240
000003c0: d29c bf40 494f bcc0 dd7e 88c0 8a74 8fc0
000003d0: e308 95c0 c685 9ac0 a7f3 c8c0 3363 89c0
000003e0: a37a 97c0 3564 d4c0 7b5a cf40 bb90 cec0
000003f0: 6e01 8ec0 aeab bcc0 9a38 c1c0 6936 c1c0

0.bias f4 [150]
-4.8012056 -6.260341 -4.3610187 -4.6342654 -4.472327 -33.252525 -5.900309 -4.6736393
-33.62853 -4.326435 -6.4305573 -30.536148 -38.925495 -4.475878 -4.5053883 -17.316776
-4.4044466 -4.3594804 -4.7196727 -4.7810335 -4.624134 -5.8964176 -4.5135674 -5.946873
-5.998129 -4.337284 -6.529522 -4.7023106 -0.26226598 -8.681282 -4.2917466 -4.2637663
-30.765772 -4.3378854 -6.2766385 -4.473878 -22.302303 -4.266673 -4.6427927 -35.19086
-4.3057036 -4.4920835 -6.211198 -4.316302 -4.8339953 -6.606308 -4.4751225 -4.4251933
-6.054077 -4.3221383 -4.389485 -5.043634 -4.8254604 -6.270003 -12.384324 -5.966711
-4.328562 -6.1194086 -4.3111324 -5.96319 -6.611765 -4.5417857 -4.6199865 -4.578053
-5.7919464 -6.0798173 -4.695052 -6.2836823 -22.254227 -10.476917 -4.7858305 -4.519005
-4.3276496 -6.1882434 -6.6219726 -4.715317 -4.6671042 -59.383717 -4.3049088 -4.7891793
-8.768057 -4.7291493 -13.492876 -4.6335683 -30.999084 -6.1256723 -13.375769 -6.3736377
-4.810824 -5.7842 -0.11118105 -6.7009172 -4.408502 -6.8016157 -4.320056 -6.2006145
-4.2792797 -4.8180885 -5.8039746 -4.501706 -6.272757 -6.0200214 -11.44929 -4.563621
-4.476718 -27.417034 -34.64674 -4.7670493 -4.7929506 -4.456947 -4.659616 -4.3120537
-5.9102564 -6.239855 -4.5366488 -4.5159883 -4.24571 -4.607948 -30.919746 -4.3758154
-6.261369 -12.2232895 -6.136572 -6.026722 -21.976995 -4.2723613 -5.9355164 -5.976894
-4.4858265 -4.704438 -4.7106466 -4.896798 -4.663144 -4.2650027 -4.3462734 -0.27053478
3.6265259 -4.3421082 -10.473757 -4.5157204 0.08192071 -5.93679 -4.57425 -4.353819
40.252586 -19.154066 -5.9126396 -5.836517 -4.529511 -6.1710606
00000000: 7aa3 99c0 b754 c8c0 778d 8bc0 e74b 94c0
00000010: 4e1d 8fc0 9602 05c2 55cf bcc0 748e 95c0
00000020: 9d83 06c2 2872 8ac0 20c7 cdc0 084a f4c1
00000030: b5b3 1bc2 643a 8fc0 242c 90c0 c288 8ac1
00000040: 3af1 8cc0 dd80 8bc0 8f07 97c0 3afe 98c0
00000050: e8f8 93c0 74af bcc0 256f 90c0 c94c bec0
00000060: acf0 bfc0 08cb 8ac0 d8f1 d0c0 5479 96c0
00000070: ba47 86be 88e6 0ac1 fd55 89c0 c670 88c0
00000080: 4d20 f6c1 f5cf 8ac0 39da c8c0 022a 8fc0
00000090: 1e6b b2c1 9688 88c0 c291 94c0 71c3 0cc2
000000a0: 53c8 89c0 26bf 8fc0 22c2 c6c0 251f 8ac0
000000b0: 17b0 9ac0 e066 d3c0 3434 8fc0 2f9b 8dc0
000000c0: 00bb c1c0 f54e 8ac0 a976 8cc0 7365 a1c0
000000d0: 2c6a 9ac0 dda3 c8c0 3126 46c1 4cef bec0
000000e0: 9483 8ac0 32d2 c3c0 ccf4 89c0 74d2 bec0
000000f0: 9493 d3c0 4f56 91c0 eed6 93c0 697f 92c0
00000100: a057 b9c0 dd8d c2c0 de3d 96c0 ed13 c9c0
00000110: a808 b2c1 74a1 27c1 8625 99c0 b09b 90c0
00000120: 1b7c 8ac0 1706 c6c0 33e7 d3c0 e0e3 96c0
00000130: eb58 95c0 ed88 6dc2 d0c1 89c0 f540 99c0
00000140: f649 0cc1 3155 97c0 d2e2 57c1 3146 94c0
00000150: 20fe f7c1 8205 c4c0 2603 56c1 d7f4 cbc0
00000160: 45f2 99c0 2b18 b9c0 e4b2 e3bd ea6d d6c0
00000170: 7312 8dc0 d6a6 d9c0 e63d 8ac0 6f6b c6c0
00000180: dcef 88c0 c82d 9ac0 29ba b9c0 fa0d 90c0
00000190: 6dba c8c0 04a4 c0c0 4b30 37c1 2f09 92c0
000001a0: 4641 8fc0 1656 dbc1 4396 0ac2 ab8b 98c0
000001b0: da5f 99c0 4f9f 8ec0 931b 95c0 58fc 89c0
000001c0: d220 bdc0 e4ac c7c0 3a2c 91c0 fa82 90c0
000001d0: dbdc 87c0 4f74 93c0 a45b f7c1 ae06 8cc0
000001e0: 235d c8c0 9892 43c1 cc5e c4c0 e8da c0c0
000001f0: e3d0 afc1 2fb7 88c0 c0ef bdc0 b742 bfc0
00000200: e48b 8fc0 c28a 96c0 9ebd 96c0 92b2 9cc0
00000210: 7a38 95c0 e77a 88c0 ac14 8bc0 8983 8abe
00000220: 0019 6840 8df2 8ac0 8294 27c1 c880 90c0
00000230: 0cc6 a73d 2ffa bdc0 4260 92c0 7c52 8bc0
00000240: a602 2142 873b 99c1 5834 bdc0 bfc4 bac0
00000250: c1f1 90c0 5479 c5c0

2.weight f4 [100, 150]
-4.5150056 -4.508477 -4.584623 -6.551424 -4.576224 -21.543694 6.0498133 -4.623713
6.0584574 -4.469546 -4.3861403 -21.700783 -21.591217 -4.593296 -4.592045 5.9623437
-4.563511 -4.5122147 -4.4979253 -4.5662766 -4.545869 6.004203 -4.536532 -6.0029345
5.932061 -4.617281 -4.520603 -4.491403 -0.027290318 5.9798956 -4.578635 -4.6136513
-21.631952 -6.486883 6.0148306 -4.518265 -0.0070876777 -4.559571 -4.549126 -21.532457
-4.5280347 -4.4938 -5.994785 -4.4799724 -6.592635 -4.491394 -4.5450897 -4.5081744
5.9862275 -6.6114807 -4.4656577 -6.6018405 -4.5635376 -5.964238 -0.0647569 -0.014891766
-4.4967747 6.053347 -4.4748936 -5.935426 -4.546452 -6.462942 -5.543809 -4.568288
5.9379206 5.9561944 -4.4730754 5.9826636 0.06692289 -0.060452975 -6.533541 -4.619006
-4.516678 5.9191346 -4.6087904 -4.5120773 -4.615832 -21.49389 -4.5678873 -4.559326
5.954085 -4.556878 -0.039363634 -6.5508366 -21.54169 5.9739876 -0.074964955 -4.489965
-5.5981255 5.9173636 0.048523232 -4.5123053 -6.5331225 -4.355534 -4.5228786 -6.008723
-4.544474 -6.602181 5.936973 -4.5757413 -4.5094514 -5.989368 0.012073539 -6.578213
-4.471279 0.01234749 -21.502733 -6.6061096 -4.4734535 -4.5235934 -6.5590477 -4.58471
5.9214087 -4.490298 -4.512297 -4.5649734 -4.553918 -4.5688214 -21.598665 -4.5019693
-4.5394225 0.03473054 6.04475 -6.0220857 0.07418907 -4.510433 6.0222106 5.9941792
-4.5380044 -4.493942 -4.516179 -5.583177 -6.463501 -4.534431 -4.5800653 -0.06688876
-15.824609 -4.5432076 -0.07359694 -4.5875583 -0.05920934 6.038652 -4.573968 -4.536766
-21.52045 -27.433393 5.9076 5.9246755 -6.537753 5.9343987 -4.632038 -4.5007567
-4.540045 -5.523254 -4.553875 -21.545883 5.937096 -5.4723105 5.9123435 -4.6068754
-4.5385656 -21.550148 -21.528019 -4.4877486 -4.531827 5.9585805 -5.5728064 -4.629021
-5.539072 -4.5675073 -4.488695 6.0047255 -4.564615 -0.07855608 -0.07430491 -4.651589
-4.5170803 -4.5930634 -0.07492648 6.014046 -4.579056 -4.6380563 -21.705736 -5.61836
5.088932 -5.552586 0.072821856 -4.558561 -4.5714264 -27.458532 -4.5112286 -4.645195
6.015502 -4.516919 -5.5229616 -4.5633097 -4.548464 -4.5532584 6.003143 -5.5139747
-5.56364 -5.500585 -4.611645 4.486233 0.065908134 0.025375128 -4.5166197 5.9772267
-4.4982347 5.9401636 -5.475148 -4.481441 -5.606077 -4.508754 5.235755 5.990994
-4.576558 6.048561 -0.04007241 0.0036951154 -4.558073 -4.539542 -4.5995617 5.9656734
-4.6081247 -5.5612245 -4.554593 -21.547325 -4.5395885 -5.4843802 5.9121857 -4.6240234
0.052992582 -5.4797797 -21.494238 0.077207014 -0.07808249 -4.573472 -5.577869 6.059314
0.042306587 -5.5105586 -4.5756063 -4.5933046 -4.508006 0.0039281547 -4.5862174 -4.600052
5.992018 -4.571803 -4.5693035 5.959965 -0.01587464 -4.581749 -4.622641 0.009700425
00000000: ed7a 90c0 7245 90c0 3bb5 92c0 44a5 d1c0
00000010: 6d70 92c0 7c59 acc1 1298 c140 75f5 93c0
00000020: e2de c140 8506 8fc0 435b 8cc0 349b adc1
00000030: d0ba acc1 48fc 92c0 08f2 92c0 85cb be40
00000040: 4808 92c0 1064 90c0 01ef 8fc0 f01e 92c0
00000050: c277 91c0 6e22 c040 452b 91c0 0a18 c0c0
00000060: 72d3 bd40 c4c0 93c0 c8a8 90c0 93b9 8fc0
00000070: f28f dfbc 4e5b bf40 2e84 92c0 08a3 93c0
00000080: 3d0e adc1 8c94 cfc0 7e79 c040 a095 90c0
00000090: c03f e8bb 01e8 91c0 7192 91c0 7942 acc1
000000a0: a9e5 90c0 36cd 8fc0 47d5 bfc0 ef5b 8fc0
000000b0: def6 d2c0 80b9 8fc0 6071 91c0 f742 90c0
000000c0: 2d8f bf40 4091 d3c0 abe6 8ec0 4742 d3c0
000000d0: 8008 92c0 0adb bec0 449f 84bd 98fc 73bc
000000e0: 94e5 8fc0 05b5 c140 5432 8fc0 03ef bdc0
000000f0: 897c 91c0 6cd0 cec0 e266 b1c0 6a2f 92c0
00000100: 7203 be40 2599 be40 6f23 8fc0 fb71 bf40
00000110: de0e 893d 8a9d 77bd c512 d1c0 e6ce 93c0
00000120: a088 90c0 8d69 bd40 367b 93c0 f062 90c0
00000130: e5b4 93c0 7df3 abc1 222c 92c0 00e6 91c0
00000140: dd87 be40 f2d1 91c0 c33b 21bd 74a0 d1c0
00000150: 6255 acc1 e82a bf40 3a87 99bd cbad 8fc0
00000160: d823 b3c0 0b5b bd40 4cc0 463d ce64 90c0
00000170: 570f d1c0 8960 8bc0 6cbb 90c0 7547 c0c0
00000180: 556c 91c0 1145 d3c0 affb bd40 796c 92c0
00000190: 6d4d 90c0 e7a8 bfc0 18d0 453c b980 d2c0
000001a0: b814 8fc0 204d 4a3c 9905 acc1 4065 d3c0
000001b0: 8826 8fc0 47c1 90c0 b8e3 d1c0 f2b5 92c0
000001c0: 2e7c bd40 85b0 8fc0 bd64 90c0 4314 92c0
000001d0: b2b9 91c0 c933 92c0 11ca acc1 2210 90c0
000001e0: f342 91c0 9c41 0e3d 986e c140 edb4 c0c0
000001f0: 70f0 973d 7855 90c0 f3b5 c040 51d0 bf40
00000200: 5537 91c0 5fce 8fc0 8a84 90c0 63a9 b2c0
00000210: 00d5 cec0 0f1a 91c0 e58f 92c0 f9fc 88bd
00000220: 9931 7dc1 f561 91c0 feb9 96bd 47cd 92c0
00000230: 7e85 72bd a33c c140 f25d 92c0 302d 91c0
00000240: e229 acc1 9777 dbc1 0f0b bd40 f196 bd40
00000250: 4635 d1c0 98e6 bd40 a839 94c0 3306 90c0
00000260: 0c48 91c0 7fbe b0c0 58b9 91c0 f85d acc1
00000270: b1fc bd40 2b1d afc0 eb31 bd40 866b 93c0
00000280: ee3b 91c0 b466 acc1 6239 acc1 a39b 8fc0
00000290: ba04 91c0 b1ac be40 6e54 b2c0 f120 94c0
000002a0: 1440 b1c0 0529 92c0 64a3 8fc0 b626 c040
000002b0: 5311 92c0 03e2 a0bd 2c2d 98bd d1d9 94c0
000002c0: ec8b 90c0 60fa 92c0 0e73 99bd 1173 c040
000002d0: a087 92c0 f56a 94c0 59a5 adc1 9bc9 b3c0
000002e0: 88d8 a240 c9ae b1c0 a023 953d bbdf 91c0
000002f0: 2049 92c0 13ab dbc1 fc5b 90c0 70a5 94c0
00000300: fe7e c040 9a8a 90c0 1abc b0c0 a206 92c0
00000310: 048d 91c0 4bb4 91c0 bf19 c040 7b72 b0c0
00000320: 5709 b2c0 cb04 b0c0 9992 93c0 398f 8f40
00000330: d8fa 863d 80df cf3c 2688 90c0 7145 bf40
00000340: 8af1 8fc0 d215 be40 6a34 afc0 f767 8fc0
00000350: fc64 b3c0 b647 90c0 4e8b a740 39b6 bf40
00000360: 2a73 92c0 d08d c140 f822 24bd c029 723b
00000370: bcdb 91c0 ee43 91c0 9c2f 93c0 cce6 be40
00000380: c275 93c0 8df5 b1c0 3abf 91c0 ec60 acc1
00000390: 4f44 91c0 0b80 afc0 a030 bd40 00f8 93c0
000003a0: c00e 593d 5b5a afc0 33f4 abc1 b61e 9e3d
000003b0: b6e9 9fbd e259 92c0 e77d b2c0 e6e5 c140
000003c0: ac49 2d3d 7f56 b0c0 5e6b 92c0 5afc 92c0
000003d0: 9641 90c0 c0b7 803b 4bc2 92c0 a033 93c0
000003e0: 9dbe bf40 364c 92c0 bc37 92c0 09b8 be40
000003f0: 880b 82bc b09d 92c0 adec 93c0 88ee 1e3c

2.bias f4 [100]
-26.84086 -46.897198 -5.567412 -5.984615 -5.9629354 -6.007753 -27.263077 -6.0497947
-17.43426 -5.9731627 -32.728474 -5.9758267 -35.46187 -10.68915 -6.060181 -32.499733
-27.571018 -26.433664 -25.044067 -25.430334 -8.379038 263.09726 232.05652 -34.433907
-6.0021243 -5.610549 -5.986684 -5.5680456 -27.523413 -25.976068 -17.551407 -5.9760127
-5.1666636 -26.256794 -26.073227 -7.005317 -26.47614 -22.579979 -7.6324124 -21.873264
-6.048616 -26.97019 -25.900904 -25.799433 -22.28248 -30.710327 -24.48915 -7.4127603
-21.859173 -26.03091 -46.617302 -27.484552 -35.285496 -25.290783 -26.091791 -41.408546
-30.36232 -30.828972 -5.370145 -7.4768353 -5.9284577 -32.896027 -25.877182 -5.384234
-25.381428 -4.563749 -47.227154 -6.0471773 -21.846275 -21.336086 -27.795158 -45.940475
-36.22101 -27.760435 -52.64229 -26.4066 -6.9663396 -28.077616 -34.51743 -8.423152
-25.80352 -21.366713 -22.38194 -25.907871 -6.003683 -22.08635 -21.636436 -27.630524
-27.427572 -33.438225 -8.580832 -33.008274 -31.181944 -35.775333 -26.85573 -27.882496
-25.497387 -27.272064 -27.41602 -16.661375
00000000: 15ba d6c1 bb96 3bc2 3d28 b2c0 f781 bfc0
00000010: 5ed0 bec0 833f c0c0 c81a dac1 eb97 c1c0
00000020: 5d79 8bc1 2624 bfc0 f5e9 02c2 f939 bfc0
00000030: f4d8 0dc2 c206 2bc1 01ed c1c0 baff 01c2
00000040: 7291 dcc1 2578 d3c1 405a c8c1 5371 cbc1
00000050: 8a10 06c1 738c 8343 780e 6843 52bc 09c2
00000060: 6711 c0c0 9e89 b3c0 ea92 bfc0 6e2d b2c0
00000070: f32f dcc1 fdce cfc1 4869 8cc1 7f3b bfc0
00000080: 4f55 a5c0 ea0d d2c1 f895 d0c1 8f2b e0c0
00000090: 22cf d3c1 cca3 b4c1 b93c f4c0 72fc aec1
000000a0: 438e c1c0 f3c2 d7c1 0d35 cfc1 3d65 cec1
000000b0: 8542 b2c1 c0ae f5c1 c7e9 c3c1 5535 edc0
000000c0: 96df aec1 4e3f d0c1 1e78 3ac2 5de0 dbc1
000000d0: 5924 0dc2 8653 cac1 fdbb d0c1 5aa2 25c2
000000e0: 08e6 f2c1 bca1 f6c1 3ad8 abc0 3c42 efc0
000000f0: edb5 bdc0 8895 03c2 7804 cfc1 a54b acc0
00000100: 2a0d cbc1 3b0a 92c0 9be8 3cc2 7a82 c1c0
00000110: 2cc5 aec1 4eb0 aac1 7c5c dec1 0cc3 37c2
00000120: 50e2 10c2 5f15 dec1 b491 52c2 b840 d3c1
00000130: 41ec dec0 f59e e0c1 d911 0ac2 3bc5 06c1
00000140: 9c6d cec1 07ef aac1 370e b3c1 5243 cfc1
00000150: 2c1e c0c0 d8b0 b0c1 6c17 adc1 500b ddc1
00000160: ab6b dbc1 bec0 05c2 164b 09c1 7908 04c2
00000170: 9f74 f9c1 f119 0fc2 89d8 d6c1 5a0f dfc1
00000180: a6fa cbc1 302d dac1 0254 dbc1 7f4a 85c1

4.weight f4 [5, 100]
-4.254158 -1.1320547 5.459326 -6.035278 -5.919852 -6.0177913 -1.385799 0.008683421
-5.325444 -6.034578 -1.0901527 -6.0067124 5.3514695 4.467605 -6.0253177 -0.051413193
-6.6597075 -1.5508488 -4.1613355 -1.2175881 -0.07340751 139.99463 113.272026 -3.340917
-5.9912634 5.5523124 -5.966203 5.48434 0.02668517 21.476072 12.8883 -5.941752
4.8461714 -2.090443 -1.0413495 3.619652 -2.081746 -11.916914 4.5305376 -9.519034
-6.0642467 -3.4072075 21.578787 -1.5443914 -2.151609 -18.8588 27.492214 3.0629928
4.93875 -0.90936285 -2.4735749 27.482904 -8.459289 -8.335778 -4.729831 -3.4995267
5.6078744 -24.71936 -5.3441 -0.06118083 0.059162073 -0.03980557 21.502518 -5.2472415
-1.4285467 4.5266194 -4.1154814 -5.984399 -2.7710085 -11.538262 18.801044 -8.637374
5.3874116 -10.397671 27.818045 -3.9777646 3.6393862 -4.755191 3.7024138 4.484071
21.587132 -7.0704975 -11.21615 -2.3736238 -5.9701324 -3.107546 0.7753454 -1.3211131
-0.8616308 21.541592 5.513138 4.2206697 -3.1043763 3.9829044 -1.1597809 -6.399508
-11.623215 -3.8540869 -3.8307054 -15.997893 -11.671683 -8.086673 5.518409 6.0593615
5.96268 6.0236526 -4.163279 0.026658602 -5.289313 5.9555244 -8.084049 6.0774045
-26.337103 -4.7254825 6.079231 -6.3067822 -13.936071 -1.9192176 -13.521851 -5.997152
-27.627277 212.19434 209.02148 -6.9536114 -5.9899473 5.548768 5.9994564 5.630567
-27.43767 18.948652 8.08092 6.0700183 4.5704703 -7.7833166 -13.571679 3.6844687
-7.761805 -14.680357 1.4544202 -11.891264 -5.9124312 -12.443282 12.845145 -6.340473
-2.7814827 -24.881212 24.618391 2.9914422 4.4146323 -6.624753 -4.7370005 -0.06439523
-13.230913 -18.978466 -12.327834 -10.901367 1.7204143 -24.786009 -5.278912 -5.902958
-5.9989033 -20.72007 12.940555 -5.32931 -7.5712485 6.532971 -9.844018 -5.9304805
-4.88814 -13.902589 20.999521 -15.7214775 -22.335882 -20.496763 0.39077863 -11.071209
3.691125 -10.621609 -23.936844 2.9910476 12.813956 -9.4757 -14.435049 -9.370515
6.0419083 -4.1663218 0.3815623 -5.0868783 -3.1850872 27.513575 2.6903467 -23.203173
-13.062388 -23.270498 -3.739303 -13.142059 -29.02105 -9.88412 -10.14114 -18.152864
-3.2906654 -0.86131793 0.030281372 -5.909559 6.0760107 -5.8989882 -0.22944053 0.061963625
-5.2590647 6.0453124 -1.0622092 -5.942407 6.259861 4.4684744 -5.960142 -0.20145229
-6.3421416 -1.6305867 -2.7512982 -0.10270611 -0.05835085 45.247612 29.028503 -2.096467
-5.962814 5.5569506 -5.9963813 5.614437 0.06282557 21.524807 5.7151146 -5.9662004
4.6516104 -1.2205459 -0.21013124 3.616311 -1.05758 -12.593478 4.509038 -7.12279
-5.9244814 -2.5934024 21.575829 -0.36284968 -0.7591353 -24.873474 27.501204 3.0745544
4.8336234 0.041048836 0.72360426 27.562248 -5.4152155 -6.3678403 -2.4564958 -2.44899
00000000: 1022 88c0 2be7 90bf ccb2 ae40 ff20 c1c0
00000010: 6d6f bdc0 bf91 c0c0 dd61 b1bf e844 0e3c
00000020: 0a6a aac0 431b c1c0 208a 8bbf fd36 c0c0
00000030: 3d3f ab40 9ff6 8e40 67cf c0c0 a496 52bd
00000040: 531c d5c0 3782 c6bf a929 85c0 edd9 9bbf
00000050: ad56 96bd a0fe 0b43 478b e242 96d1 55c0
00000060: 6eb8 bfc0 8bac b140 23eb bec0 b77f af40
00000070: dc9a da3c ffce ab41 7a36 4e41 d522 bec0
00000080: d613 9b40 d1c9 05c0 f14a 85bf 61a8 6740
00000090: 543b 05c0 aeab 3ec1 2afa 9040 f74d 18c1
000000a0: 4f0e c2c0 b00f 5ac0 5ba1 ac41 9eae c5bf
000000b0: f6b3 09c0 d3de 96c1 0ef0 db41 1308 4440
000000c0: 3d0a 9e40 01cc 68bf 0d4f 1ec0 fddc db41
000000d0: 3f59 07c1 595f 05c1 c75a 97c0 3ff8 5fc0
000000e0: b573 b340 40c1 c5c1 de02 abc0 c098 7abd
000000f0: ee53 723d 2a0b 23bd 2805 ac41 67e9 a7c0
00000100: 9eda b6bf 11da 9040 06b2 83c0 3280 bfc0
00000110: 3458 31c0 b99c 38c1 8a68 9641 af32 0ac1
00000120: ad65 ac40 dc5c 26c1 5b8b de41 b293 7ec0
00000130: b4eb 6840 862a 98c0 59f4 6c40 827d 8f40
00000140: 72b2 ac41 8441 e2c0 5a75 33c1 74e9 17c0
00000150: 530b bfc0 09e2 46c0 097d 463f 3c1a a9bf
00000160: d693 5cbf 2e55 ac41 a06b b040 ba0f 8740
00000170: 1aae 46c0 e8e7 7e40 b373 94bf c5c8 ccc0
00000180: b0f8 39c1 5ca9 76c0 472a 75c0 5ff7 7fc1
00000190: 37bf 3ac1 0363 01c1 ce96 b040 4ae6 c140
000001a0: 46ce be40 c3c1 c040 9539 85c0 2463 da3c
000001b0: 0d42 a9c0 a893 be40 4458 01c1 197a c240
000001c0: 63b2 d2c1 2737 97c0 0f89 c240 29d1 c9c0
000001d0: 26fa 5ec1 eca8 f5bf 8059 58c1 abe8 bfc0
000001e0: aa04 ddc1 c031 5443 8005 5143 fc83 dec0
000001f0: a6ad bfc0 828f b140 8cfb bf40 9b2d b440
00000200: 5980 dbc1 d796 9741 734b 0141 973d c240
00000210: 4b41 9240 ee10 f9c0 9925 59c1 56ce 6b40
00000220: b560 f8c0 bee2 6ac1 712a ba3f 9e42 3ec1
00000230: a332 bdc0 af17 47c1 b785 4d41 28e5 cac0
00000240: d003 32c0 b90c c7c1 77f2 c441 ca73 3f40
00000250: ab44 8d40 fafd d3c0 8295 97c0 a5e1 83bd
00000260: d2b1 53c1 e6d3 97c1 cf3e 45c1 006c 2ec1
00000270: 8936 dc3f bf49 c6c1 d9ec a8c0 08e5 bcc0
00000280: 04f7 bfc0 b4c2 a5c1 830c 4f41 b589 aac0
00000290: ab47 f2c0 190e d140 1981 1dc1 7fc6 bdc0
000002a0: a56b 9cc0 0171 5ec1 05ff a741 2c8b 7bc1
000002b0: e3af b2c1 5ff9 a3c1 2314 c83e ac23 31c1
000002c0: 643b 6c40 1cf2 29c1 a87e bfc1 536d 3f40
000002d0: f705 4d41 789c 17c1 f6f5 66c1 a1ed 15c1
000002e0: 5057 c140 8252 85c0 225c c33e b5c7 a2c0
000002f0: 78d8 4bc0 cd1b dc41 a42e 2c40 19a0 b9c1
00000300: 8bff 50c1 fb29 bac1 be50 6fc0 e045 52c1
00000310: 1c2b e8c1 5b25 1ec1 1c42 22c1 1139 91c1
00000320: 439a 52c0 557f 5cbf a410 f83c 1b1b bdc0
00000330: ae6e c240 83c4 bcc0 75f2 6abe 92cd 7d3d
00000340: 424a a8c0 3373 c140 79f6 87bf 3328 bec0
00000350: c850 c840 befd 8e40 7cb9 bec0 8249 4ebe
00000360: d3f2 cac0 11b7 d0bf 4515 30c0 9557 d2bd
00000370: 4d01 6fbd 8efd 3442 603a e841 842c 06c0
00000380: 5fcf bec0 8ad2 b140 5be2 bfc0 78a9 b340
00000390: b1aa 803d ce32 ac41 38e2 b640 1deb bec0
000003a0: fed9 9440 d93a 9cbf a52c 57be a471 6740
000003b0: c85e 87bf e37e 49c1 0a4a 9040 e5ed e3c0
000003c0: 5a95 bdc0 4efa 25c0 4c9b ac41 6fc7 b9be
000003d0: b156 42bf e0fc c6c1 7702 dc41 80c5 4440
000003e0: 0bad 9a40 d322 283d 213e 393f 7c7f dc41
000003f0: 7249 adc0 59c5 cbc0 3a37 1dc0 41bc 1cc0

4.bias f4 [5]
1165.2327 1151.1477 1160.373 1165.1373 1366.1028
00000000: 72a7 9144 bae4 8f44 f00b 9144 65a4 9144
00000010: 4ac3 aa44
