dqn_agent_full_state.pth (torch, 460918 bytes, 24 tensors)

0.weight f4 [150, 11]
00000000: a4ab 9ac0 5e63 93c0 b26c 8ec0 5aaa 96c0
00000010: 551c 8ec0 3b54 b9c0 f129 8dc0 14fd cbc0
00000020: 256e 9740 f90a 8e40 eae8 9240 70e2 96c0
00000030: addd 90c0 740b 90c0 d380 9bc0 2d5d 8bc0
00000040: f840 8fc0 c634 97c0 246b 8bc0 5105 8f40
00000050: e9b5 9140 c706 cfc0 a61f 8ec0 c735 93c0
00000060: 540b 8cc0 783d 9bc0 75bf 9bc0 83ab 94c0
00000070: 4c73 89c0 d2e3 8ec0 4572 d240 7440 9840
00000080: 8740 91c0 028a b8c0 ef3e c8c0 331f bbc0
00000090: c390 b9c0 15f5 b7c0 5afd bfc0 6e50 bec0
000000a0: 5003 c6c0 be77 bac0 ff74 b8c0 346d c2c0
000000b0: 1440 93c0 fc35 94c0 54ff 96c0 fce9 9ac0
000000c0: c32c 8ac0 2a05 95c0 6986 8dc0 2de6 c7c0
000000d0: 5d7d d840 4d06 9540 6949 dac0 d2fe b8c0
000000e0: a5cb bec0 819a c8c0 ed48 c9c0 8685 8bc0
000000f0: 0c63 d5c0 0426 bac0 9f05 9bc0 ba0f b840
00000100: c4c2 b740 1043 88c0 aa31 8ec0 fdb9 94c0
00000110: 6488 98c0 40ba 92c0 038a 8dc0 a4c9 d8c0
00000120: a45e 8dc0 218b d2c0 f3b5 9540 aba3 9c40
00000130: d685 9840 ec25 90c0 b93c 96c0 65f4 8ac0
00000140: ccab 95c0 e7b0 9cc0 a5c6 8fc0 80d3 9dc0
00000150: 1cea 99c0 13ee f73e aef1 9340 5d71 dac0
00000160: 11ce 94c0 6b7f 8cc0 a1db 98c0 4aef 91c0
00000170: 24b3 9ac0 9ca5 8bc0 7441 97c0 22b8 d6c0
00000180: 4c42 9240 903a 8940 9e9e cec0 8523 c3c0
00000190: c999 bfc0 8d2b b9c0 6733 b9c0 53e7 c8c0
000001a0: 1755 bbc0 8f9f b7c0 ecc1 b740 000d bcc0
000001b0: ff33 c340 a8bb c5c0 cf82 c0c0 ac6b c8c0
000001c0: 748e bcc0 a2d3 c7c0 19b5 c2c0 4fcb c8c0
000001d0: e998 b6c0 2ad8 c140 f01a bac0 b121 b640
000001e0: ab63 bec0 ac9e 9bc0 c514 97c0 e239 8fc0
000001f0: b929 8ac0 7f48 8dc0 6f86 98c0 0ca6 95c0
00000200: ea3c 98c0 0b51 c740 8233 cd40 4e6b 9ac0
00000210: e1f8 c9c0 3b20 98c0 3af1 d2c0 af4b 96c0
00000220: eb2c 89c0 7d72 99c0 03f4 d7c0 baa2 96c0
00000230: 11f8 9040 859d 9440 1e88 89c0 3669 d6c0
00000240: e544 8dc0 ed31 96c0 ff85 96c0 92f4 8bc0
00000250: db06 93c0 7fbd 8ac0 80cd 8dc0 d629 9440
00000260: 3e5b cc40 7d14 8b40 cd58 c3c0 1114 c3c0
00000270: 465e c8c0 e6be bbc0 6bd2 bec0 569c bbc0
00000280: 0c08 bbc0 65e8 b8c0 46a0 bfc0 0850 c440
00000290: 194c c0c0 7173 95c0 b4f9 88c0 819e 92c0
000002a0: 336e 8ec0 f072 89c0 d9db 98c0 bd95 8ec0
000002b0: 08a6 d7c0 ff1d 9a40 45e4 9240 a254 9540
000002c0: b985 93c0 83f7 8ac0 f8e2 d1c0 8e38 95c0
000002d0: ef91 93c0 1d90 cec0 e70d 96c0 5e64 9540
000002e0: efa1 9640 9b54 8c40 5155 8c40 492a 8bc0
000002f0: f8ee 90c0 5d07 d1c0 e629 97c0 09ef d1c0
00000300: 2a8d 99c0 ec35 d8c0 6d11 9bc0 b48a 9140
00000310: 0be2 8740 00ce 8ac0 2719 8ec0 9df0 8ac0
00000320: e067 97c0 3bfa 90c0 1d59 89c0 34e8 94c0
00000330: c730 90c0 a2f4 95c0 a97f 8740 cb69 9040
00000340: e55e 9cc0 8083 bfc0 fa5b c7c0 fd21 bac0
00000350: b761 b8c0 af07 c2c0 fa10 bec0 dffb c1c0
00000360: c5af b7c0 84c8 bd40 e7c4 b740 690b bd40
00000370: 9c2a cac0 d716 d2c0 8c64 c1c0 8648 c9c0
00000380: 2a68 ccc0 86a7 8bc0 2402 b7c0 8775 9ac0
00000390: 8809 9040 2b3b 9040 61f3 95c0 3af9 cec0
000003a0: c0f4 ccc0 a5ec 91c0 ec64 8cc0 681d 88c0
000003b0: b77b 88c0 be6b 8fc0 a7e8 90c0 9e2f 99c0
000003c0: e3d1 98c0 52fd 90c0 4cc8 cfc0 3b84 b8c0
000003d0: 71ed c4c0 dc93 c9c0 f350 c8c0 b88d cac0
000003e0: 1b65 bac0 e14f 8d40 032b b940 3aaa 9840
000003f0: 4167 97c0 62b1 d6c0 f90b 99c0 bb94 92c0
-4.833452 -4.60588 -4.4507685 -4.708295 -4.4409585 -5.791532 -4.41137 -6.3746433
4.7321954 4.4388394 4.590932 -4.7151413 -4.52706 -4.501398 -4.8594756 -4.355124
-4.4766808 -4.725192 -4.3568287 4.469399 4.553456 -6.4695773 -4.4413633 -4.6003146
-4.376383 -4.8512535 -4.867121 -4.6459365 -4.2953243 -4.46531 6.576449 4.757868
-4.539127 -5.7668467 -6.2576823 -5.8475585 -5.798921 -5.7486672 -5.9996767 -5.947318
-6.1879044 -5.827117 -5.7642817 -6.0758305 -4.601572 -4.63159 -4.718668 -4.8410625
-4.317964 -4.6568804 -4.4226575 -6.2468476 6.765303 4.657019 -6.821461 -5.781106
-5.962359 -6.2688603 -6.290152 -4.3600492 -6.6683407 -5.8171406 -4.844436 5.7519197
5.742525 -4.2581863 -4.4435625 -4.6477036 -4.7666492 -4.5852356 -4.423097 -6.7746143
-4.417803 -6.5794835 4.6784606 4.894979 4.7663374 -4.504629 -4.6949124 -4.3423333
-4.6772213 -4.8965945 -4.4929986 -4.932068 -4.809828 0.48423824 4.623252 -6.8263383
-4.6501546 -4.390554 -4.77681 -4.56046 -4.8343678 -4.363966 -4.72674 -6.709977
4.570593 4.2883987 -6.4568624 -6.098086 -5.9875226 -5.7865663 -5.7875247 -6.278238
-5.854137 -5.7382274 5.742422 -5.876587 6.100097 -6.1791573 -6.015968 -6.2631435
-5.8923893 -6.244584 -6.0846066 -6.274818 -5.706166 6.057637 -5.8157883 5.6916127
-5.9496665 -4.863119 -4.7212853 -4.475816 -4.317593 -4.4150996 -4.7664104 -4.6765194
-4.757436 6.228643 6.4125376 -4.8255987 -6.3116307 -4.7539344 -6.5919466 -4.6967387
-4.286733 -4.7952256 -6.7485366 -4.707364 4.5302815 4.6442285 -4.297866 -6.700343
-4.41466 -4.6935945 -4.703857 -4.373605 -4.594587 -4.335632 -4.4313354 4.630107
6.386138 4.346251 -6.10459 -6.0961995 -6.261508 -5.867053 -5.963186 -5.862834
-5.8447323 -5.7783685 -5.9883146 6.1347694 -6.0092893 -4.670342 -4.2804813 -4.5818486
-4.450952 -4.2952805 -4.776837 -4.4557786 -6.7390175 4.8161616 4.590365 4.666581
-4.6100736 -4.342714 -6.558956 -4.6631536 -4.611564 -6.455092 -4.689197 4.668502
4.7072673 4.385328 4.3854146 -4.348912 -4.529171 -6.532149 -4.7238646 -6.560429
-4.798482 -6.7565823 -4.845877 4.5481815 4.246343 -4.3376465 -4.4405704 -4.3418717
-4.73143 -4.5305457 -4.292128 -4.653345 -4.5059543 -4.6861124 4.2343335 4.512914
-4.886584 -5.9848022 -6.2299776 -5.816649 -5.761928 -6.063438 -5.9395723 -6.061996
-5.7402062 5.930727 5.742786 5.907643 -6.3177013 -6.565288 -6.043524 -6.290103
-6.3877153 -4.3641996 -5.7190113 -4.8268466 4.5011635 4.5072227 -4.6859593 -6.467923
-6.4048767 -4.5601373 -4.3873196 -4.2535896 -4.265102 -4.481902 -4.5284 -4.7870626
-4.775621 -4.530923 -6.4932003 -5.7661414 -6.1539845 -6.2992992 -6.2598815 -6.3297997
-5.824842 4.416001 5.7865005 4.7707796 -4.731354 -6.709153 -4.7827115 -4.5806556

0.bias f4 [150]
00000000: 69e4 96c0 49ca 89c0 aba1 89c0 d266 c3c0
00000010: 908b 90c0 4ca6 c8c0 ef08 89c0 4958 8fc0
00000020: 1a35 8ec0 88d5 c1c0 ad03 c5c0 2bbe 8ac0
00000030: ea61 88c0 8442 8bc0 5578 bec0 fc8f 92c0
00000040: 2d69 92c0 1b9a 96c0 d787 8ac0 5656 bdc0
00000050: 5d95 cac0 47d8 8cc0 ac88 d0c0 aeab 8bc0
00000060: 9464 91c0 59be d7c0 f941 f8c0 bad4 bfc0
00000070: f9ea d6c0 e8a8 8cc1 8c66 d7c0 ac7e bbc0
00000080: 776e 9ac0 1e2e c6c0 d403 91c0 9e21 d1c0
00000090: ca51 b8c0 f0f4 90c0 e812 91c0 e6d0 93c0
000000a0: 2a47 8fc0 5f5e 8bc0 c94a d3c0 f04f 95c0
000000b0: cb25 d0c0 21e5 24c1 fca2 d7c0 9321 95c0
000000c0: 1545 b7c0 a487 88c0 3cf4 bcc0 e13b ccc0
000000d0: 9ac2 89c0 db37 90c0 7014 43c1 a71f 8ec0
000000e0: 1ae9 97c0 e8e3 d4c0 d4b2 8ec0 6db8 8ac0
000000f0: 4696 d7c0 889e c7c0 1f0a 94c0 4054 cfc0
00000100: f710 8dc0 6945 d4c0 8f63 31be bd01 91c0
00000110: 1051 c2c0 fad7 c3c0 e1f5 94c0 5189 8fc0
00000120: 16c9 9bc0 3aa2 c8c0 35c0 bdc0 fdeb 8ac0
00000130: fec9 b1c0 6824 d5c0 212a 8fc0 a0bc 99c0
00000140: f234 c8c0 d7e3 8cc0 ff15 cac0 6804 d9c0
00000150: 4b77 90c0 42e1 8dc0 5dc6 c9c0 b015 cec0
00000160: 0a49 d9c0 e1c9 90c0 208f 97c0 0899 88c0
00000170: 7e4c 8ec0 67c9 c0c0 e93f c9c0 2c17 bfc0
00000180: 9f2b b7c0 8366 d9c0 6d20 d2c0 e29d d3c0
00000190: 231d 91c0 507a cac0 07c9 88c0 6c89 8fc0
000001a0: ee53 95c0 e4b2 bfc0 d1c0 d1c0 4ee2 bac0
000001b0: dbb3 92c0 95e9 8cc0 8a7e c8c0 b489 21be
000001c0: 216c cbc0 42d5 bcc0 806f e6c0 ab08 97c0
000001d0: 6752 cdc0 6064 c7c0 8936 90c0 7590 bac0
000001e0: 6597 8dc0 ed46 9bc0 677e bac0 ee81 96c0
000001f0: 6b60 d5c0 ac01 98c0 a2b9 89c0 675d 89c0
00000200: 0d42 8fc0 5783 ccc0 4633 c5c0 ebe3 98c0
00000210: d0ee 8dc0 e0fd 8ac0 e59e 95c0 87d5 94c0
00000220: c9b1 d5c0 09a6 96c0 d636 9ac0 d31d 90c0
00000230: 57e4 94c0 a331 bbc0 1e4d 96c0 8317 c9c0
00000240: c245 8ec0 dba7 cbc0 15aa c7c0 326d 24c1
00000250: 7cf7 89c0 2c51 cfc0
-4.715382 -4.305943 -4.300985 -6.1063013 -4.5170364 -6.2703 -4.2823405 -4.479527
-4.443982 -6.057316 -6.1566987 -4.335714 -4.2619524 -4.3518696 -5.952189 -4.580076
-4.575339 -4.7063117 -4.329082 -5.916789 -6.330733 -4.401401 -6.5166836 -4.364707
-4.5435276 -6.741986 -7.7580533 -5.9947176 -6.716183 -17.582474 -6.731268 -5.859213
-4.8259845 -6.1931295 -4.5317173 -6.5353537 -5.759984 -4.5298996 -4.533558 -4.6192503
-4.477437 -4.35527 -6.602879 -4.666008 -6.5046134 -10.30594 -6.7386456 -4.6603484
-5.727183 -4.2665577 -5.904814 -6.3823094 -4.305005 -4.5068183 -12.19249 -4.441364
-4.747205 -6.6528206 -4.4593296 -4.335013 -6.737094 -6.238102 -4.6262355 -6.4790344
-4.408321 -6.633473 -0.17323135 -4.531462 -6.0723953 -6.1201143 -4.6550145 -4.4855123
-4.8682966 -6.269803 -5.929713 -4.341307 -5.5559072 -6.660694 -4.4738927 -4.8042755
-6.256463 -4.4028125 -6.315185 -6.781788 -4.514562 -4.4337473 -6.3054643 -6.4401474
-6.790166 -4.5246434 -4.7362213 -4.2686806 -4.4468374 -6.0245852 -6.2890515 -5.9715786
-5.724075 -6.7937636 -6.566458 -6.613023 -4.5348067 -6.3274307 -4.2745395 -4.485525
-4.6664953 -5.990587 -6.554787 -5.840125 -4.584455 -4.4035134 -6.2654467 -0.15775186
-6.3569493 -5.9010324 -7.201111 -4.719808 -6.416309 -6.231003 -4.506657 -5.830134
-4.424731 -4.852408 -5.82793 -4.7033606 -6.66802 -4.750204 -4.3039103 -4.2926517
-4.476813 -6.3910327 -6.162509 -4.777822 -4.435402 -4.3434906 -4.6756463 -4.6510653
-6.6779523 -4.707768 -4.819194 -4.5036407 -4.6528735 -5.849809 -4.6969137 -6.28412
-4.4460154 -6.36424 -6.239512 -10.276659 -4.3114605 -6.4786587

2.weight f4 [100, 150]
00000000: b5db 90c0 c413 90c0 d95f 92c0 a047 be40
00000010: c850 93c0 98bb 91c0 bfb8 91c0 2a32 93c0
00000020: df6d 94c0 893a bd40 bb79 be40 51be 8fc0
00000030: 8f86 91c0 02a9 91c0 4444 be40 403b 91c0
00000040: 689a 94c0 478c 92c0 ad11 91c0 4cfc c140
00000050: 180f 8fc0 5135 8fc0 2cb0 44bf 2530 90c0
00000060: 63bc 92c0 fc09 abc0 6e2a b2c0 43e9 c040
00000070: f154 93c0 1b70 acc0 229f d3c0 c2a8 be40
00000080: 738d 90c0 62d3 bd40 5b56 90c0 108a 8fc0
00000090: d2ad be40 0904 91c0 46db 90c0 7b96 93c0
000000a0: 6f7d 91c0 c9f3 cfc0 98b0 91c0 593c 91c0
000000b0: 927d 92c0 288c 3abc 7542 90c0 da9c 92c0
000000c0: 2f08 bf40 bcf0 93c0 7d2a c040 5f42 91c0
000000d0: abec 92c0 aae6 8fc0 6801 7e3d 5d68 92c0
000000e0: 289f 92c0 10aa 93c0 d4c9 94c0 5918 94c0
000000f0: 326e 93c0 7e53 93c0 8eff 93c0 4bc6 93c0
00000100: bbbb 92c0 9224 92c0 c09b ee3a 230c 91c0
00000110: 5a94 bd40 e466 c040 e3f0 90c0 1001 94c0
00000120: ac11 90c0 1791 bf40 dd82 be40 f6d8 90c0
00000130: f061 0841 e619 91c0 6664 8fc0 94d9 92c0
00000140: 16d1 92c0 c463 8fc0 e4ef 91c0 ce84 d0c0
00000150: 1f2e 91c0 404b 90c0 400b 92c0 0ee8 93c0
00000160: e550 cfc0 1b1e 93c0 6312 91c0 5d5d 8fc0
00000170: 8382 90c0 6ebe c140 3db5 91c0 a6c5 bd40
00000180: ab1e c040 bb16 91c0 361a 93c0 42c8 90c0
00000190: e00e 95c0 7371 90c0 43f4 91c0 18de 8fc0
000001a0: f92b 92c0 a20f c140 ba2c 8fc0 fd5e bdc0
000001b0: b596 92c0 8634 91c0 02a3 90c0 d2c3 8dbd
000001c0: 22a3 8fc0 7e04 c240 0265 96bd 2b81 91c0
000001d0: 33f3 8fc0 07a4 bec0 2152 93c0 6533 bd40
000001e0: 6c52 93c0 79d1 91c0 71d9 bd40 04b0 d2c0
000001f0: be67 91c0 49f4 8fc0 ffe1 92c0 89b4 b0c0
00000200: afc9 93c0 2f8f 93c0 1e4d be40 8c64 93c0
00000210: e312 93c0 d6aa 93c0 4eed 91c0 2e96 93c0
00000220: 0361 90c0 58ab 92c0 b592 91c0 808e 90c0
00000230: 7d8b 91c0 7c81 c140 26e7 90c0 b172 90c0
00000240: 96e2 8fc0 e3a1 92c0 c06a 19c0 3c91 2c3d
00000250: 43df 91c0 4ac3 93c0 4482 b2c0 8041 8fc0
00000260: d0c9 8ec0 10c1 c040 6f85 90c0 8e39 93c0
00000270: 359f 8fc0 1c59 91c0 a080 8fc0 b2db be40
00000280: 6093 69bd 95a5 8ec0 cf10 90c0 aa7d 8fc0
00000290: 0514 c240 07a1 90c0 e374 91c0 baa0 91c0
000002a0: e8aa 8ec0 2b06 be40 6773 92c0 961a 90c0
000002b0: 0766 89c0 ecef 93c0 231c 91c0 f6d4 e140
000002c0: badf d0c0 bf1e bd40 e4af 8fc0 b80e aec0
000002d0: 8f5f 92c0 0780 c140 fa2b 93c0 c5db c140
000002e0: df31 8fc0 8961 8fc0 205a bd40 a3b9 8fc0
000002f0: 8604 8fc0 721e b3c0 6193 91c0 ff78 8ec0
00000300: ef2a 91c0 3718 93c0 dd25 91c0 24dc 6a3d
00000310: 89b8 90c0 35ee 8fc0 dc07 c040 cc18 8fc0
00000320: bc0c be40 6481 90c0 fd78 92c0 d3cf 92c0
00000330: 8cfa 8b3c 1071 8fc0 cf64 8fc0 ebd9 93c0
00000340: 84b8 93c0 3fa9 aec0 7965 93c0 27ee 90c0
00000350: bdf2 8ec0 b335 93c0 6169 92c0 3f7c 92c0
00000360: 30db 42bd 01c6 8fc0 36e5 be40 f3c9 c040
00000370: ed6a 90c0 6832 93c0 3f1c 93c0 e8a9 9bbd
00000380: ba20 bf40 7e5e 92c0 6621 fa40 66ed 8fc0
00000390: 32be 91c0 ed9b 8fc0 13c9 91c0 4646 91c0
000003a0: 821a 92c0 b3cb 92c0 b6d2 90c0 9c4f 90c0
000003b0: 6f0d 8fc0 8821 91c0 baf1 91c0 88a6 8ec0
000003c0: 64b7 8fc0 d974 91c0 da36 91c0 aa4d bf40
000003d0: 94ca 92c0 be27 bf40 395f be40 db51 8fc0
000003e0: 27d8 93c0 e7ed 90c0 2351 d0c0 3ded 91c0
000003f0: 96f4 92c0 5a3e 8fc0 52a9 93c0 c070 be40
-4.5268197 -4.502413 -4.5742 5.9462433 -4.603611 -4.5541496 -4.553802 -4.5998735
-4.638412 5.9133954 5.9523597 -4.491982 -4.5476756 -4.551881 5.945833 -4.5384827
-4.6438484 -4.5796237 -4.5334077 6.062048 -4.4705925 -4.4752584 -0.76831317 -4.505877
-4.5854964 -5.344969 -5.5676794 6.0284743 -4.604119 -5.3886847 -6.6131754 5.9581003
-4.5172668 5.9320536 -4.5105414 -4.4856033 5.9587183 -4.5317426 -4.526767 -4.612119
-4.5465617 -6.498509 -4.552807 -4.5386167 -4.5778284 -0.011385955 -4.5081124 -4.581647
5.969749 -4.6231365 6.0051866 -4.539352 -4.59139 -4.496907 0.06201306 -4.5752397
-4.5819283 -4.6145096 -4.649637 -4.627972 -4.6072016 -4.603942 -4.6249456 -4.6179557
-4.5854163 -4.566964 0.0018204376 -4.5327315 5.9243593 6.01256 -4.529405 -4.6251297
-4.502157 5.986461 5.9534745 -4.5264845 8.5239105 -4.5344114 -4.4810057 -4.58906
-4.588023 -4.4809284 -4.5605335 -6.5162115 -4.53688 -4.509186 -4.5638733 -4.622077
-6.478625 -4.597425 -4.5334945 -4.480147 -4.5159316 6.054496 -4.553374 5.930377
6.0037436 -4.5340247 -4.5969496 -4.5244455 -4.658066 -4.513849 -4.561067 -4.495861
-4.5678678 6.0331583 -4.47421 -5.9178452 -4.580897 -4.5376616 -4.5198984 -0.069221154
-4.4886637 6.0630484 -0.073434845 -4.5470176 -4.4984374 -5.957523 -4.6037755 5.9125237
-4.6038113 -4.5568204 5.932793 -6.5839863 -4.543914 -4.49857 -4.5900874 -5.522038
-4.6183696 -4.6112285 5.9469137 -4.606024 -4.5960555 -4.614604 -4.560218 -4.6120825
-4.5118423 -4.583416 -4.5491586 -4.517395 -4.5482774 6.047056 -4.5282164 -4.5140004
-4.4964094 -4.5822616 -2.3971405 0.042130694 -4.5585036 -4.617589 -5.5784016 -4.4767456
-4.4621353 6.023567 -4.5162883 -4.6007757 -4.4881845 -4.5421276 -4.4844513 5.9643183
-0.057025313 -4.4577127 -4.502052 -4.48409 6.064944 -4.5196567 -4.5455184 -4.55087
-4.4583626 5.938253 -4.576587 -4.5032454 -4.2937045 -4.6230373 -4.5346847 7.057246
-6.5273104 5.910003 -4.490221 -5.4392967 -4.574165 6.0468783 -4.599118 6.0580773
-4.474838 -4.480656 5.9172516 -4.4914107 -4.469302 -5.5974665 -4.5492406 -4.45227
-4.536491 -4.596706 -4.535872 0.05733885 -4.5225263 -4.497828 6.0009594 -4.471777
5.9390545 -4.5157948 -4.577269 -4.587869 0.017087243 -4.4825516 -4.4810557 -4.6203513
-4.616274 -5.45816 -4.606137 -4.5290713 -4.467131 -4.600305 -4.5753636 -4.5776668
-0.047572315 -4.4929204 5.96548 6.024652 -4.5130525 -4.599903 -4.597198 -0.076007664
5.972745 -4.5740347 7.816577 -4.4977293 -4.554467 -4.487784 -4.555795 -4.5398283
-4.565736 -4.5873656 -4.5257215 -4.509718 -4.47039 -4.535343 -4.5607576 -4.4578285
-4.4911366 -4.5455136 -4.5379457 5.9782305 -4.587229 5.9736013 5.949124 -4.478742
-4.620136 -4.529041 -6.5099044 -4.5602098 -4.5923567 -4.4763613 -4.614419 5.9512634

2.bias f4 [100]
00000000: f28a 99c0 76fe 93c0 0743 d6c0 0e6c 6ac0
00000010: 99bf a1c0 bce2 9fc0 5d17 e6c0 a423 abc0
00000020: a608 0ec1 78fc 8bc0 5cfe c0c0 4416 b0c0
00000030: c13a 8fc0 d71b a7c0 a4cf f4c0 faaa 96c0
00000040: 270c 9ac0 15a2 d7c0 def3 bdc0 0b1c 96c0
00000050: 74ad 10c1 c6f1 94c0 1a14 f5c0 0d7f 91c0
00000060: db9b a53f 2525 c0c0 896b f0c0 9309 92c0
00000070: 2293 0ec1 3541 a1c0 8f15 97c0 ec65 bfc0
00000080: f5cb 70bf 757c c1c0 b687 aac0 20a1 8dc1
00000090: 8521 c2c0 764e dcc0 0936 97c0 9a02 05c1
000000a0: 58a2 1ac1 8989 96c0 06bb 7a40 9a2a 91c0
000000b0: 10d2 0840 70b4 d3c0 ac49 96c0 8e6d 84c0
000000c0: 1cac b3c0 8815 ecc0 b2b1 8fc0 6bc2 bfc0
000000d0: 6750 99c0 6763 94c0 220f bdc0 2bc7 b13f
000000e0: a52b 1fc1 5bf0 96c0 ccae d0c0 00c9 8ec0
000000f0: 2e6b d9c0 1d65 99c0 f863 95c0 905a 93c0
00000100: 1904 98c0 9cff 01c1 b675 9ac0 8901 abc0
00000110: f466 b2c0 1a92 8fc0 9c17 d7c0 768f 97c0
00000120: da2e 92c0 258e 20c1 d030 fcc0 d168 8cc1
00000130: d397 bfc0 f618 90c0 bdad 1bc1 c3e5 fbc0
00000140: 37ba d6c0 7aec 95c0 fe06 a5c0 5117 d7c0
00000150: 3c2c c0c0 9858 50c0 a125 95c0 095b bec0
00000160: 5841 d7c0 9482 90c0 aa21 92c0 6c76 c2c0
00000170: f700 d5c0 bbf8 bbc0 ec8c 98c0 e4f5 93c0
00000180: 2fcb a7c0 11ad c0c0 94f2 c0c0 97b9 97c0
-4.798211 -4.624812 -6.695682 -3.6628451 -5.0546384 -4.9964275 -7.190352 -5.3481007
-8.877111 -4.374569 -6.0310497 -5.502718 -4.475922 -5.2221484 -7.6503468 -4.708371
-4.8139834 -6.7385354 -5.936019 -4.690923 -9.042347 -4.6545134 -7.658704 -4.546759
1.2938188 -6.0045342 -7.513127 -4.5636687 -8.910921 -5.03921 -4.7213817 -5.9811916
-0.94061214 -6.0464425 -5.3290663 -17.703674 -6.0665917 -6.8845778 -4.725346 -8.313135
-9.664635 -4.704289 3.917665 -4.5364504 2.1378212 -6.615776 -4.696493 -4.1383734
-5.6147594 -7.3776283 -4.4904413 -5.9924827 -4.7910647 -4.637134 -5.9080973 1.3888906
-9.948155 -4.7168403 -6.5213375 -4.462036 -6.7943335 -4.793593 -4.668453 -4.604805
-4.7505 -8.124905 -4.826869 -5.3439374 -5.5750675 -4.4865847 -6.721632 -4.7362623
-4.568219 -10.034703 -7.8809586 -17.55118 -5.987283 -4.503047 -9.729917 -7.871797
-6.7102313 -4.685117 -5.1571035 -6.7215962 -6.0053997 -3.2554073 -4.6608434 -5.9486127
-6.7267265 -4.5159397 -4.5666094 -6.076956 -6.656368 -5.8741126 -4.7672024 -4.623766
-5.2435527 -6.0211263 -6.0296116 -4.741405

4.weight f4 [5, 100]
00000000: d58d d140 8144 8f40 fafb 8e40 8993 5641
00000010: ed1e cf40 465f ffc0 72f4 c240 03b2 a9c0
00000020: 310b bec0 cac3 8fc0 7b7b bec0 8cb0 ae40
00000030: 78d3 9040 9ae8 a340 6658 77c0 454d 9340
00000040: a12e d140 157d d340 2d7b bfbd 879d 8f40
00000050: 167d be40 1d19 8e40 ddfc bdc0 b51e a8c0
00000060: 9dcf 5c3f 8391 c0c0 4211 2fc0 0aa2 9240
00000070: fa9c bdc0 0ae8 db40 610e d240 8554 c1c0
00000080: 362b 85c0 938c bcc0 1940 a9c0 69c4 c1c0
00000090: b038 bf40 e92a 9140 22a0 9040 3f83 60c0
000000a0: 4f8d bc40 f1bd 9340 74e6 4bc0 9c32 85c0
000000b0: 7cb3 6640 7538 3a41 2eb0 8f40 4be9 d240
000000c0: a26d af40 5568 ce40 c2e3 92c0 5aa8 bc40
000000d0: 5a88 8f40 7aec 8f40 f859 bfc0 c46f ea3e
000000e0: a7a1 bd40 41f2 d040 7e3a 9240 70fd 9240
000000f0: 9650 8f40 c323 d240 b153 8f40 e930 9440
00000100: 6909 9140 6d0e 3cc0 71ed d040 7d13 aac0
00000110: 5492 b240 057e 9340 3c28 ce40 d76c 9040
00000120: 7f68 9240 ef44 e9c0 bbca 9440 e474 c2c0
00000130: 53fe bcc0 0aaf 9240 707b bd40 6f18 9040
00000140: 6b43 c0c0 496d 8f40 abdd f73e 2b5b 9240
00000150: 89e0 bdc0 0fe8 45c0 31c9 8e40 1ad5 0cbd
00000160: caff ce40 2e9a 9140 e8bd 8f40 14ba 8940
00000170: f503 d240 7ec9 5fc0 3772 9240 e5e6 d040
00000180: b522 a4c0 e06b bcc0 1d9e c0c0 2233 ce40
00000190: 907e 9340 fcaa 9240 2b89 d040 3e01 2d40
000001a0: 891f d340 36b4 01c1 f7e3 0e41 d982 abc0
000001b0: c85f a540 e373 8ec0 61af c0c0 f3ce 7abd
000001c0: b525 d440 297c aa3d 2b6b f0c0 ba0d 9240
000001d0: b598 9140 1ac4 ce40 fe2d c0c0 20ed d040
000001e0: 0c0d 00c1 1921 8f40 43ae 09c0 0cb1 b1c0
000001f0: 3a05 c83f 4d6f bcc0 c675 3e40 0997 8e40
00000200: e3a0 a940 b179 d640 ef56 8e40 5e5b bdc0
00000210: ef9d 52c0 94bc bcc0 3787 adc0 cbe8 d340
00000220: f05b c0c0 2354 ce40 9197 8e40 0146 6e3f
00000230: fd5e dfc0 194d 9140 a92a acbf 0b4e 8ac0
00000240: 6bab 4840 7fd9 ea40 c23d 9040 fc2c 403f
00000250: db7b b140 3b18 9340 85bd a7c0 dfb1 bdc0
00000260: b13c 8f40 ce75 9040 36f2 bfc0 a0b6 e33e
00000270: f93e 7040 708b 8e40 0395 8f40 338d 8f40
00000280: c811 cf40 a9f4 9140 8507 9040 eb71 9040
00000290: 5071 d040 9f66 adc0 a511 9340 8153 aac0
000002a0: b1e5 af40 6a21 d240 8b46 9240 900d b140
000002b0: e366 9440 3903 fb3f fd3e 03c1 86d4 d340
000002c0: 59d6 be40 5d72 d340 e4fa c6c0 dd2f 9240
000002d0: 1580 9140 cb40 d240 00ac 0f40 2099 8e40
000002e0: 9ec4 bdc0 4e7f e4bf 59ac d140 9ac7 c140
000002f0: 55ec 9040 e13b 9440 8572 d340 033d a9c0
00000300: adb8 9040 80c5 11c1 700a d040 4643 9140
00000310: 1d26 b43d d87d bcc0 478d bcc0 b33f 9340
00000320: cd7b 8e40 bb31 8f40 6a3d 9140 3958 a8c0
00000330: 8659 9340 3e35 c3c0 3e23 3d40 6a91 a9c0
00000340: bcb1 3bc0 2c98 a9c0 c36f bcc0 6c2d af40
00000350: 7662 8f40 c865 87bd a12a c53e bced 8f40
00000360: 67bd 9040 ab7b 8f40 4ff8 bdc0 087c 9240
00000370: 7c11 b5bf df64 8e40 7b5f 3f40 4401 a6c0
00000380: b79c b6c0 b9bf bdc0 9c58 3d40 bb73 8e40
00000390: 0bee bdc0 f58c 3e41 52fe 8f40 b5c7 bcc0
000003a0: 7b52 d33e 5ae1 c0c0 7fe9 abc0 321e a6c0
000003b0: 184d bdc0 6d5d 9140 779d 9040 1f90 d2c0
000003c0: bd8c a6c0 cb4e 8e40 ffa1 1240 21c2 60c0
000003d0: de21 7dc0 848c de40 d7c7 8e40 afcf 6340
000003e0: 3e55 ae40 e65f 9240 1dce 91c0 f060 c0c0
000003f0: 6353 b340 7a96 8f40 01c0 bec0 8ed3 97c0
6.5485635 4.4771123 4.468259 13.411019 6.472525 -7.98038 6.0923395 -5.30298
-5.938866 -4.49265 -5.9525733 5.459051 4.525814 5.1221437 -3.8647704 4.6031823
6.536942 6.609019 -0.09349666 4.4879794 5.9527693 4.4405656 -5.937117 -5.2537484
0.8625429 -6.0177627 -2.7354283 4.58228 -5.925412 6.872075 6.564255 -6.0415673
-4.161525 -5.89216 -5.2890744 -6.055226 5.97567 4.536488 4.5195475 -3.5080106
5.8922496 4.616936 -3.1859407 -4.162428 3.6047049 11.638783 4.4902563 6.590978
5.482133 6.450236 -4.5903025 5.8955507 4.4853945 4.497617 -5.9797325 0.45788395
5.925983 6.529572 4.56964 4.593437 4.478587 6.5668654 4.478966 4.6309705
4.5323987 -2.9383805 6.5289845 -5.314879 5.5803623 4.6091332 6.4424114 4.513286
4.575256 -7.2896647 4.6497474 -6.076769 -5.9060454 4.583867 5.921318 4.5029826
-6.0082297 4.4820905 0.48411307 4.573629 -5.933659 -3.0922887 4.4620595 -0.034382917
6.4687243 4.550071 4.491932 4.3039646 6.562983 -3.496673 4.5764422 6.5281854
-5.1292367 -5.8881683 -6.019301 6.443742 4.6091995 4.583372 6.516744 2.7032008
6.5975995 -8.106497 8.9306555 -5.3597226 5.167942 -4.4516463 -6.0214086 -0.06123252
6.629603 0.08324463 -7.513082 4.5641756 4.549891 6.461438 -6.0056143 6.528946
-8.003185 4.4727902 -2.151261 -5.552862 1.5626595 -5.8885865 2.9759383 4.455937
5.3008895 6.702355 4.448112 -5.917403 -3.2908895 -5.89802 -5.4227557 6.622167
-6.011223 6.4477706 4.4560018 0.9307557 -6.9803452 4.5406613 -1.3450519 -4.3220267
3.1354625 7.33905 4.507539 0.7506864 5.546369 4.596708 -5.2418847 -5.927963
4.4761586 4.5143805 -5.998317 0.4447527 3.7538435 4.454521 4.48694 4.485986
6.4709206 4.5611157 4.500918 4.513906 6.513832 -5.418777 4.595904 -5.3226933
5.4967885 6.566579 4.571111 5.5329056 4.6375594 1.9610358 -8.202878 6.619693
5.9636655 6.6077104 -6.2181263 4.5683427 4.546885 6.5704093 2.244873 4.456192
-5.930251 -1.785135 6.5522885 6.0556154 4.528849 4.6323094 6.6077294 -5.2886977
4.5225434 -9.110718 6.501274 4.539462 0.08796332 -5.890362 -5.892246 4.601526
4.4526124 4.4748206 4.538747 -5.2607694 4.604678 -6.1002493 2.955276 -5.2990007
-2.932723 -5.2998257 -5.888643 5.4742947 4.480769 -0.0661121 0.38509086 4.4977703
4.5231204 4.483846 -5.936561 4.5776405 -1.4145961 4.4498134 2.9902027 -5.1876545
-5.70663 -5.9296536 2.9585333 4.4516273 -5.935308 11.909413 4.499795 -5.8993783
0.41273865 -6.0275087 -5.372253 -5.191186 -5.915661 4.5426545 4.519222 -6.580093
-5.20468 4.4471183 2.2911375 -3.5118487 -3.955192 6.954653 4.4618945 3.559551
5.4479055 4.5742064 -4.5564103 -6.011833 5.603929 4.4871187 -5.960938 -4.7445745

4.bias f4 [5]
00000000: 2699 be40 d7ef d040 d87a 9040 b743 9040
00000010: f3a7 91bf
5.956195 6.5292773 4.5149956 4.508266 -1.1379379

0.weight f4 [150, 11]
00000000: 9a2a 6cbe d067 dabc 78f8 e63d 31ea 07be
00000010: d818 0a3e 467b 6ebe 0836 253e b18f 02be
00000020: 6065 003e 4292 6dbe b7e0 29be 6827 14be
00000030: d8de 213d 6091 6d3d 87b3 98be 8849 513e
00000040: c47c a93d 8dae 28be 66c0 343e b035 2bbe
00000050: 187b 62bd 98be 213d b4ca 073e 18df 27bd
00000060: a4b4 553e 7f7c 92be eabf 8ebe f27d 9dbd
00000070: 88a3 963e b8bf a33d 90ca 3f3e 6cc6 523e
00000080: 0aaf 483e 7cef 613e 0857 8abe 4a49 0f3e
00000090: 8217 413e 3c8d 743e a0b4 47bc a888 243d
000000a0: 363a 4dbe d837 243e 748b 643e 58ed b4bd
000000b0: 206a 9bbc 4804 88bd aa4b 07be f27d 8cbe
000000c0: d82d 8c3e ce83 afbd 0a4b 2b3e a6a2 803e
000000d0: ea50 8d3e dc91 a43d c2bd e0bd a055 533e
000000e0: 70db cd3c fe0f 90be cc1a 7f3e 5a45 3d3e
000000f0: 161b 04be a46f 2e3e d968 99be 8a38 71be
00000100: 20d7 7abe 68a9 923e d8c3 0b3e 78ad a6bd
00000110: 7f27 5abe 101a aabc cac7 0f3e 264a 67be
00000120: c8e8 103e cb84 96be 38b1 b43d 607a 8d3e
00000130: 6007 d73d 0099 c23d b0f8 dbbd 483f 933e
00000140: 8c50 b6bd e5cd 87be ec03 e03d 19b9 98be
00000150: 4e31 4cbe b4e1 353e 3a4f 083e 7349 74be
00000160: a027 bdbd aa5e 283e f622 61be a014 14bc
00000170: 27fc 8dbe 6651 403e 93be 2bbe a7cf 41be
00000180: 7059 ec3c 28af 8abe e050 013c 7481 e2bd
00000190: 00e0 10b8 7cbe 4d3e 1cc3 4c3e 34dd 94be
000001a0: 328d 083e 183e 7f3e c2f1 7abe 481f e33d
000001b0: 6ca0 e63d b045 44be e053 e9bc 1d23 8dbe
000001c0: 54c2 c23d 6fa2 83be f2eb c6bd b321 93be
000001d0: 5c09 903e 48ab 8f3d ecd1 2f3e 5e7b 97be
000001e0: 98e2 1a3d cfd5 8fbe dd6d 18be 68cd 023e
000001f0: 34fd 823e 6afb 363e 9040 39be 3299 93bd
00000200: 560e 25be 80fc e13b 462f d7bd 6c94 74be
00000210: 549c 6f3e 2bb8 4dbe d8fa 57bd 252b 13be
00000220: 8620 863e a681 7bbe 2c57 56be 7f94 23be
00000230: 2836 1cbd a0af 403d 3092 823e bd10 1fbe
00000240: 4067 103e 20f6 08be f2ca 19be cc79 413e
00000250: 6865 17bd fcfd 633e 3eac 0e3e d806 a63d
00000260: c8cd 01be e6c7 7abe fcd3 efbd cca4 debd
00000270: a84c 8cbe 74a6 f63d 9013 c73c a84a ff3d
00000280: 302e 123e 3023 563e 001c 5fba 2ed2 163e
00000290: f099 b2bc 7858 babd 449f 983e 0071 d6ba
000002a0: 1047 f43d c845 913e e8bb 50be fe61 003e
000002b0: 2c77 61be 4cf6 783e 20e2 463c c452 97be
000002c0: 90cf 5fbd 1c12 583e e075 4bbc 0890 e6bd
000002d0: 7cee 57bd 3c8f b03d 5273 07be 78cc 333d
000002e0: 1eb0 213e b350 30be 3837 58be d063 403e
000002f0: 4002 553c 409c e73b 3352 3abe 30de b9bc
00000300: 15ca 82be cd94 5ebe 938b 6bbe 8070 033c
00000310: c929 92be 2424 433e 6c3f 023e 6c46 603e
00000320: ac7a 1fbe a0a9 fe3c 5296 8e3e 5a3a b2bd
00000330: c06d 903d 1a7f 04be 6366 8fbe a808 31bd
00000340: 226e 8dbe 8004 303b 264f 78be 34f0 2e3e
00000350: 58f9 663e d892 9bbd a843 443d fa97 98bd
00000360: 6037 7d3e 887e 68bd ed92 7abe 1085 a3bd
00000370: d8d9 623e 30b9 d4bc 6086 65bd d81a 7f3e
00000380: 36a3 1b3e dc59 393e cc75 893e 753a 90be
00000390: 2868 34bd 008a 1bbd 0d2b 10be f0d2 9e3d
000003a0: cebb 0c3e c016 abbb b69d 283e 1e16 983e
000003b0: 0e26 943e 2cdb 933d 2020 eb3c 244e 62be
000003c0: 7ebc 58be 08ba 0f3d f072 3c3d 90a8 623e
000003d0: 617e 2abe ccc3 753e f078 8bbe 8c80 563e
000003e0: a08c 263e d049 04be fdcd 4dbe 3003 673e
000003f0: 12b0 3ebe d502 2ebe b333 73be 702a 11bd
-0.23063126 -0.02666083 0.112778604 -0.1327293 0.1348604 -0.23289213 0.16133893 -0.12750126
0.12538671 -0.23200324 -0.16589628 -0.14468157 0.03951916 0.05799997 -0.29824468 0.20438206
0.0827575 -0.16472836 0.17651519 -0.16719699 -0.055293173 0.039488405 0.13260919 -0.040984243
0.2086969 -0.28610608 -0.27880794 -0.07690038 0.2942164 0.07995552 0.18729615 0.20583504
0.19598022 0.22064012 -0.27019525 0.13992801 0.18856624 0.23882002 -0.01218906 0.040169388
-0.20041737 0.16036928 0.22318822 -0.08834332 -0.018971503 -0.066414416 -0.13212457 -0.2743984
0.27378726 -0.085700616 0.16727844 0.2512409 0.27600795 0.08035633 -0.109736934 0.20638132
0.02512905 -0.281372 0.24912566 0.18483487 -0.12900957 0.17034775 -0.29962805 -0.23556724
-0.24496126 0.28644872 0.13648927 -0.08138555 -0.21304129 -0.02076438 0.14041057 -0.22586879
0.14151299 -0.29398188 0.08822864 0.27632427 0.104994535 0.09501839 -0.10740793 0.28759217
-0.08902082 -0.26524273 0.10938248 -0.29828718 -0.19940683 0.1776188 0.13311473 -0.23856144
-0.092360735 0.16442361 -0.21985993 -0.0090381205 -0.2773144 0.18781051 -0.16771917 -0.1892687
0.02885124 -0.2708676 0.007892817 -0.110598475 -3.454089e-05 0.20092195 0.19996303 -0.29075015
0.13335112 0.2492603 -0.24506286 0.11089951 0.11261067 -0.19167209 -0.028482378 -0.27565852
0.095097214 -0.25709864 -0.09712972 -0.28736648 0.2813214 0.07015091 0.17169923 -0.2958631
0.037813753 -0.2809281 -0.1488566 0.12773669 0.25583804 0.17869344 -0.18091035 -0.07206954
-0.1611875 0.0068965554 -0.105070636 -0.23884743 0.23399478 -0.20089786 -0.052729458 -0.14371927
0.26196688 -0.24561176 -0.20931691 -0.15974616 -0.038137585 0.04704249 0.25502157 -0.15533729
0.14101887 -0.13375139 -0.15018824 0.18894118 -0.036961943 0.22264856 0.13932893 0.08106774
-0.12676156 -0.24490318 -0.11710355 -0.10871276 -0.27402234 0.12043467 0.02430132 0.124654114
0.14275432 0.2091186 -0.0008510947 0.14728615 -0.021801919 -0.09098905 0.2980901 -0.0016360581
0.119276166 0.2837355 -0.2038418 0.12537381 -0.22018117 0.24312705 0.012138873 -0.29555333
-0.054641306 0.21100658 -0.01241824 -0.112579405 -0.05271767 0.0862107 -0.13227585 0.04389617
0.1578984 -0.17218284 -0.21114814 0.18788075 0.013001025 0.007068187 -0.18195419 -0.022688955
-0.255448 -0.2173645 -0.23002462 0.008022428 -0.28547505 0.19056755 0.12719506 0.21901864
-0.1557414 0.031086743 0.2784906 -0.08702536 0.07052183 -0.1293911 -0.28007802 -0.043221146
-0.27623087 0.002685815 -0.24248943 0.17083818 0.22556055 -0.075963676 0.047916085 -0.07450862
0.24728155 -0.056761295 -0.2447011 -0.07984364 0.22153413 -0.02596721 -0.056036353 0.24912584
0.15198979 0.18100685 0.26847684 -0.281696 -0.044044644 -0.037973404 -0.14078923 0.07755077
0.13743517 -0.005221218 0.16466412 0.29704374 0.28935283 0.07219538 0.028701842 -0.22100121
-0.21165654 0.035089523 0.04600805 0.22134614 -0.16649772 0.24000472 -0.27240705 0.20947474
0.16264582 -0.12918782 -0.2009811 0.2255981 -0.18621853 -0.16993268 -0.2375019 -0.035440862

0.bias f4 [150]
00000000: 0380 0bbe 0cef 823e 7825 893e 0e55 f3bd
00000010: a006 573d 54c7 893e 0670 913e a07d e93d
00000020: 30ab de3d 1802 8fbd 1b46 2dbe 4418 763e
00000030: bc06 953e 303b 4e3e a894 103d c08b 0fbc
00000040: 10f6 bbbc ca56 28be 0477 6f3e 48ca 903d
00000050: 7c84 553e 16cf 193e f0b0 b93c 10d7 383e
00000060: 0070 6e3b 183e 823e 14f6 5f3e c0ec ecbb
00000070: f654 31be 5f8c 1dbe d168 45be 185a 033e
00000080: c55b 8ebe d193 52be c01f 7f3c 804d 7e3b
00000090: 94f6 683e e0e7 853c 202c 693c 7067 4abd
000000a0: 8049 903d d006 4a3e f658 82bd aed6 f1bd
000000b0: 08bd 0d3d 28e0 be3d 6aab 4abe 72b5 afbd
000000c0: 9e46 853e 00ed 8e3e 2c46 a93d f8b7 203e
000000d0: 4cf5 753e a0d4 343d 3859 55be 9e8e 023e
000000e0: 5d2a 49be baa4 e8bd d464 e93d 001a 5a3e
000000f0: ce9e 4abe 6e2d 9a3e c2bd 8cbd c8a4 763d
00000100: a27d 293e 30c8 c0bd 8f63 31be 306d 8c3c
00000110: d6e3 adbd eed3 07be 4ef9 cebd 20f0 783d
00000120: e91d 98be db8b 90be 08a5 6c3d ac04 613e
00000130: fc9c e13d c6c6 f8bd c422 9e3d 3c75 7ebe
00000140: e47f 923e de49 123e 0041 653e 4565 78be
00000150: a8d5 103d e47b 0e3e b0b4 723e 20e9 ca3d
00000160: b847 80be 1099 c33c 1439 41be d27b 943e
00000170: 08cb d23d 78f4 17bd f639 803e e051 823c
00000180: f4dd 863e 0254 82be 40f0 d9bc 2e23 97bd
00000190: 4081 153d 7ce0 583e 2ad5 913e 487f 7e3d
000001a0: d4df e3bd 8022 4bbb a017 7fbc bae5 163e
000001b0: f06c d5bc 88b0 203e 1634 8c3e b489 21be
000001c0: 1ea5 3b3e 940f b13d 7002 51bd bb6f 27be
000001d0: 28c4 fc3d b25d 79be b8cf 6c3d 2e21 213e
000001e0: deb0 003e 9c0c 86be 0a63 233e 18a8 10be
000001f0: d5e4 03be 349f 45be 504b 7a3e 180a 853e
00000200: 6411 c93d 90cc 173e 5239 33be f660 6cbe
00000210: b083 e33d 984b 4e3e cceb d0bd 2a9d b5bd
00000220: 61f6 0dbe 5d94 1dbe 3a24 8cbe e864 2f3d
00000230: 744c c0bd acfb 0c3e 569d 1abe 409c 823e
00000240: 00ca cc3d 5c7f 333e c563 2fbe 10ca 99bc
00000250: 0470 743e 088e a43d
-0.13623051 0.25573003 0.267864 -0.11881457 0.052496552 0.26909888 0.2840578 0.11400914
0.10872495 -0.06982821 -0.16921274 0.24032694 0.291067 0.20139766 0.03529802 -0.008761346
-0.02294448 -0.16439357 0.23385245 0.07069832 0.2085132 0.15020403 0.022667378 0.1805079
0.0036382675 0.25438 0.21871215 -0.0072303712 -0.17317566 -0.15385579 -0.19278266 0.12827337
-0.2780439 -0.205642 0.015571535 0.0038803518 0.22750312 0.016345918 0.014231712 -0.049415052
0.07045269 0.19729161 -0.06364624 -0.11808525 0.034604102 0.09320098 -0.19791952 -0.0857953
0.2603044 0.27915192 0.08265337 0.15695179 0.24019355 0.044148088 -0.20834816 0.12749717
-0.19645067 -0.11359544 0.113961846 0.2129898 -0.19787142 0.30112785 -0.06872131 0.06021574
0.16551831 -0.09413183 -0.17323135 0.017141908 -0.08490722 -0.13264439 -0.10106145 0.060775876
-0.2971032 -0.282317 0.057774574 0.21974438 0.110162705 -0.12147288 0.07721475 -0.24849409
0.28613198 0.1428599 0.22388077 -0.24257381 0.03536001 0.13914448 0.2370174 0.09907746
-0.25054717 0.023876697 -0.1886943 0.29000717 0.102926314 -0.037098378 0.2504422 0.015908182
0.26341212 -0.25454718 -0.026603818 -0.07379757 0.036500216 0.21179384 0.28482944 0.062133104
-0.11126676 -0.0030995905 -0.0155695975 0.14736071 -0.026052922 0.15692341 0.27383488 -0.15775186
0.18324706 0.086455494 -0.051027715 -0.16351216 0.12342101 -0.24352148 0.057815284 0.15735313
0.1256747 -0.26181495 0.15955749 -0.14126623 -0.12880261 -0.19299012 0.24442792 0.25984263
0.0981777 0.14824128 -0.17502335 -0.23083863 0.11109102 0.20146024 -0.10201225 -0.08867867
-0.13863517 -0.15388627 -0.2737139 0.04282084 -0.09389582 0.1376788 -0.15099081 0.25509834
0.09999466 0.17529052 -0.17127903 -0.018773109 0.23870856 0.08034903

2.weight f4 [100, 150]
00000000: 7ac2 863d 940c 9c3d b8d3 06bc 7aef 28bd
00000010: b86c 7bbc e893 f6bc 60f8 2f3d e6e4 cabc
00000020: ef5e 0bbd d9bd 97bd 22e0 0fbd a8c6 823d
00000030: 8092 45bb 00b3 efb9 cd8e 2abd 9842 7e3d
00000040: e491 a0bd a039 b3bb 0827 463d 92b3 983d
00000050: 9e8e 883d 40d5 873d f2d4 933d 920c 213d
00000060: d802 b1bc c8b6 64bc ac93 d0bc cce1 273d
00000070: ee27 6bbd 6413 853d dc79 97bd ec80 dfbc
00000080: ce13 2b3d aaf9 62bd c03c 2d3d b4ad 733d
00000090: 78ab ebbc e03c 223d d017 913c 836a 09bd
000000a0: 0080 02bb 5870 5e3d a0fe fabb 5c8d 073d
000000b0: 11a9 05bd 288c 3abc 1444 313d 504e e7bc
000000c0: 284f 91bc d9c5 9fbd 90fc 903c 40e7 513b
000000d0: 211a 3fbd 546f 593d 6801 7e3d 606c 0fbb
000000e0: 8033 dcbc 8ef9 8dbd 0612 9fbd 6e60 6fbd
000000f0: 6bed 7dbd c636 71bd 4468 83bd 9b7f 98bd
00000100: 80ac 27bb 0eea ddbc c09b ee3a 583e a83c
00000110: 2549 81bd 3041 ce3c b405 8b3c 6cf6 a3bd
00000120: a4c6 313d 0022 86ba 1a4d 0bbd b85a 983c
00000130: c8b8 243c e861 213c 9a33 9e3d c061 45bc
00000140: 26c4 edbc 92d9 803d 905d 82bc d039 bc3c
00000150: b829 e23c 9026 723d 88b4 4abc c77e 9dbd
00000160: d005 843d e4e6 ffbc 88f7 3b3c 9ac7 a03d
00000170: b437 eb3c 263c 893d f643 afbc 84eb 69bd
00000180: 142c 853c e064 373c 42fc 54bd 1828 aa3c
00000190: 72e4 99bd 3e57 003d 6857 2e3c d6b6 a63d
000001a0: 708e 153c e812 3b3d 3432 913d f69a 8e3d
000001b0: de02 a7bc 0e41 123d 4007 cf3c d2c3 8dbd
000001c0: 20e7 543d c6bf 9a3d 0265 96bd 6024 533c
000001d0: b66b c2bc 2464 f53c 557f 35bd 0780 99bd
000001e0: 60e6 2cbd 94d7 a03c 5807 60bd 2c58 98bc
000001f0: 80f1 a13a c44b 993d 080c 66bc 6c5d c73c
00000200: 888f 1bbd d131 87bd 162f 26bd aba7 78bd
00000210: 1943 51bd 05ab 8ebd a87b 363c bc13 96bc
00000220: 32cb 023d 2047 7cbc 40a5 88bb dc00 e33c
00000230: 90bb 803c 2412 743d c4f4 883c 1066 ff3c
00000240: 98f4 3d3d 6b46 18bd 6c38 db3c 3c91 2c3d
00000250: 8063 a83b bc97 54bd 4fad 4abd b415 6f3d
00000260: e42f 853d 94c9 133d 485c 463c e499 95bd
00000270: 9415 2c3d 78c2 41bc 00aa 3b3d 92cb bdbc
00000280: 6093 69bd f493 923d 50c3 2b3d d848 563d
00000290: 12a2 9e3d e046 213c 80fe 9ebb b0a3 53bc
000002a0: 0027 983d a4a9 49bd 37a4 11bd 7c8c 1a3d
000002b0: 90e7 873d a85f 9fbd d015 b03b bc3b 743d
000002c0: 60af fb3b 8db0 9ebd 24f7 5e3d c05a 6b3c
000002d0: 9626 edbc f44b 733d 2d5f 67bd 0693 903d
000002e0: bc61 8c3d 860b 843d ba52 7bbd b4d5 3e3d
000002f0: 7c36 993d 99ed 8dbd c079 a7bb bcbd a13d
00000300: d051 0d3c 9e8d 6ebd c07a 183c 24dc 6a3d
00000310: 3496 b23c f425 fd3c 50c0 5c3c 561a 963d
00000320: f060 46bd c073 d83c 3316 05bd 4aff 32bd
00000330: 8cfa 8b3c 7824 473d 0cc6 7d3d 52e6 99bd
00000340: a7cd a5bd a45c 953d 128d 79bd 749a 833c
00000350: 64f7 8b3d a950 66bd edf6 4abd bae7 38bd
00000360: 30db 42bd 74dc 4e3d e248 b4bc 4cc3 183d
00000370: f2fa 013d 3880 60bd 20f4 6fbd e8a9 9bbd
00000380: f884 71bc e5f5 10bd 1038 59bd 2422 403d
00000390: 481c 49bc d0c0 433d 20dd 50bc e0a7 843b
000003a0: 38b0 abbc 35a6 2cbd 086f 4a3c e805 da3c
000003b0: f412 973d b875 213c 2416 88bc 4029 9b3d
000003c0: c4de 5c3d 30ec 9fbb 2068 b03b 68a3 17bc
000003d0: 4ad5 51bd f07b 63bc 2823 1dbd 7c20 883d
000003e0: fbc4 99bd cc7f 843c 0040 563c c8b5 76bc
000003f0: ec18 66bd 4c08 773d 8331 a4bd 015e 14bd
0.06580062 0.076195866 -0.008229189 -0.041244008 -0.015345745 -0.030099824 0.04296148 -0.02476735
-0.034026083 -0.074092574 -0.03512586 0.06385547 -0.0030147135 -0.00045718998 -0.04164009 0.062075227
-0.078403264 -0.005469516 0.048377067 0.07456125 0.06667827 0.06632471 0.072183505 0.03931863
-0.021607801 -0.013959594 -0.02546104 0.04098682 -0.057411127 0.06497839 -0.0739629 -0.027283154
0.041766934 -0.05541388 0.042294264 0.059491828 -0.028768286 0.039608836 0.01771155 -0.033548843
-0.001991272 0.054306358 -0.007659748 0.033093795 -0.032631937 -0.011385955 0.043277815 -0.028235584
-0.01773794 -0.07801408 0.017698556 0.0032028705 -0.046655778 0.053084686 0.06201306 -0.0021884665
-0.026880026 -0.069323644 -0.077671096 -0.058441572 -0.061993998 -0.058890127 -0.064163715 -0.07446214
-0.0025584996 -0.027089145 0.0018204376 0.02053754 -0.06312779 0.025177568 0.016970493 -0.080059856
0.04340233 -0.0010233521 -0.034009077 0.018597946 0.010053821 0.009850003 0.07724686 -0.012047231
-0.029024195 0.06291498 -0.015913755 0.022976786 0.027607784 0.059118807 -0.012372144 -0.076901965
0.06446421 -0.031238027 0.01147259 0.07850571 0.028713085 0.067009255 -0.021394711 -0.05710937
0.01625637 0.011193484 -0.051998384 0.020771071 -0.075142756 0.0313332 0.010640956 0.08140342
0.009128198 0.045672327 0.070896536 0.0696315 -0.02038711 0.035706572 0.025272012 -0.069221154
0.05197823 0.07556109 -0.073434845 0.01288709 -0.023733001 0.029954977 -0.044310886 -0.074951224
-0.04221189 0.019634046 -0.054694504 -0.018596731 0.0012355298 0.07485154 -0.014040954 0.02433654
-0.03797868 -0.066012986 -0.04057225 -0.060706776 -0.05108938 -0.06966213 0.01113788 -0.018319957
0.031932063 -0.015397817 -0.00417009 0.02771037 0.015714437 0.059587613 0.016718276 0.031176597
0.04637584 -0.03717653 0.026760302 0.042130694 0.0051388144 -0.051902518 -0.049481686 0.058370307
0.06503275 0.03608091 0.0121069625 -0.07304743 0.042012766 -0.01182615 0.04581642 -0.023168359
-0.057025313 0.07157126 0.04193431 0.052315563 0.07745756 0.009843558 -0.004852116 -0.012917444
0.07429314 -0.049234048 -0.035556998 0.037731633 0.06635964 -0.07781917 0.005373694 0.05962728
0.0076808184 -0.07748518 0.05443491 0.014364898 -0.028949063 0.059398606 -0.05648725 0.070592925
0.06854579 0.064475104 -0.06135819 0.046590522 0.07481095 -0.06930084 -0.0051109493 0.07897517
0.008625463 -0.058240525 0.00930661 0.05733885 0.021800138 0.030901887 0.013473585 0.07329242
-0.04843229 0.026422381 -0.032491874 -0.043700494 0.017087243 0.048618764 0.06195645 -0.07514633
-0.08095866 0.072930604 -0.06092555 0.01606486 0.068342954 -0.056229267 -0.049551893 -0.045142867
-0.047572315 0.05050321 -0.02200741 0.037295625 0.03173346 -0.05480978 -0.058582425 -0.076007664
-0.014741175 -0.035390753 -0.05303198 0.04690756 -0.012274809 0.047791302 -0.012748033 0.0040483326
-0.020958051 -0.042150695 0.0123555735 0.026614144 0.07376662 0.0098547265 -0.01661212 0.07576227
0.053923383 -0.0048804507 0.0053835064 -0.009255268 -0.0512288 -0.0138845295 -0.038363606 0.06646821
-0.07508274 0.01617422 0.013076782 -0.015057988 -0.05617611 0.060310647 -0.08017256 -0.03622246

2.bias f4 [100]
00000000: 622b b9bc 280a 16bc 887d 3c3c 5e8f acbc
00000010: 34fc 363d c520 30bd 7cb7 7d3d c402 8cbc
00000020: f4dd 86bc 71a2 7cbd c86f 32bd d2c9 213d
00000030: 4460 823d 5f0b 9cbd 1e61 84bd f639 7dbd
00000040: e2cf fabc 26d2 013d 4cd0 523d e8b3 b63c
00000050: f480 933c b8a2 d5bc e88d 463d 846d 9d3d
00000060: 30ca 62bd b8a6 8bbc 4821 1b3c ba8f 843d
00000070: b8ff 35bc 5002 5fbd 5287 973d b04a ce3b
00000080: 2ba2 0abd cc7a 71bd c093 fe3a d4ea ebbc
00000090: 3301 a2bd 18a7 a0bc f3d8 22bd bcab af3c
000000a0: 3056 6c3c 16c4 75bd 71d1 2cbd 3edf d5bc
000000b0: 7b43 2cbd ac09 8d3d f3b2 1cbd 9d69 36bd
000000c0: b590 94bd 65f6 30bd a175 5abd 40b7 a3bb
000000d0: beb0 73bd a004 7c3c 0a97 a23d a089 13bb
000000e0: 32ea 143d e0eb b8bb ece9 933c 7419 953d
000000f0: f693 20bd 368e a6bc c343 70bd b031 7abd
00000100: 00e6 463c 8e9a 133d 9cd8 3bbd 78d0 53bc
00000110: c78d 06bd d0d6 693d a01f b7bc cd7b 73bd
00000120: 2490 bebc 45f4 a1bd 08ca d53c 18a6 ad3c
00000130: 00f4 4839 e220 203d aa32 9dbd 92dd a1bd
00000140: 8cc8 663d 3424 fe3c d4a7 853d fc3e 8cbd
00000150: 3cbb 92bc f025 32bc 5019 823d 7e38 1f3d
00000160: 59d2 35bd c854 793d 86b7 2e3d a0e9 3dbb
00000170: 24e4 ce3c b973 94bd c850 2bbc 0a05 a1bd
00000180: b6d4 f9bc 76c8 09bd ed89 2cbd 4788 6cbd
-0.022603694 -0.009157695 0.011504538 -0.021064457 0.044674113 -0.043 0.061942562 -0.017091163
-0.016463257 -0.061678354 -0.043563634 0.03949911 0.063660175 -0.07619356 -0.06463836 -0.061822854
-0.030616704 0.031694554 0.05146818 0.022302583 0.018005826 -0.026078567 0.048475176 0.07686904
-0.055368602 -0.017047271 0.009468384 0.06472726 -0.011108331 -0.054445565 0.07398857 0.0062955245
-0.03384606 -0.058955 0.0019422695 -0.028798498 -0.07910385 -0.019610927 -0.03975768 0.021444194
0.014424846 -0.060001455 -0.042191926 -0.026107427 -0.042056542 0.068866104 -0.038256597 -0.044534314
-0.07254163 -0.04320373 -0.053334836 -0.0049962103 -0.059494726 0.015381962 0.07938965 -0.002251245
0.03635616 -0.005643353 0.018055879 0.072802454 -0.039203607 -0.020331483 -0.058658373 -0.061082542
0.012139797 0.036036067 -0.04586087 -0.012928121 -0.032850053 0.057089627 -0.022353947 -0.059444238
-0.023262091 -0.07907919 0.026097313 0.021197364 0.00019164383 0.03909386 -0.07675679 -0.07903589
0.0563436 0.031023122 0.06526151 -0.06847951 -0.017911546 -0.010873303 0.06352484 0.038872235
-0.044390056 0.06087187 0.04265549 -0.0028978363 0.02525527 -0.07248635 -0.0104562715 -0.07862289
-0.030496936 -0.03363844 -0.042123724 -0.05774715

4.weight f4 [5, 100]
00000000: 261f 013d bae9 3cbd e287 9dbd ca5d a1bd
00000010: 8ea6 89bd 8085 4ebc e233 433d 849d e53c
00000020: 4228 473d 5615 063d 5e01 0f3d 0053 aabd
00000030: a8e2 9ebc 7427 c3bc 5c71 ed3c 8d40 823d
00000040: f4af ae3c 9104 8f3d 2d7b bfbd 2058 6abd
00000050: cc35 0ebd 67a6 babd ae50 4e3d 813b 9e3d
00000060: 05f4 9ebd f402 f8bc 8d07 843d 8630 343d
00000070: 5e42 7e3d fb90 a6bd 363f 3a3d 6a86 5dbd
00000080: 0ab1 2ebd 3d3b c33d 82c3 2b3d d5b9 8abd
00000090: 10a3 41bc 98d4 0bbc 78ee 95bc 5f0c c1bd
000000a0: ea0b c3bd 1f70 9b3d 4a31 19bd 97ab be3d
000000b0: f3f8 7fbd c02c 303c 6a0c 61bd 0bfe 863d
000000c0: f01a 76bd 1a9f b6bd c3f7 2dbd 35ff bbbd
000000d0: 23d4 74bd 809b 42bd b01c fe3b 3aaf b2bd
000000e0: 93ec 7bbd e06a ecbb 682c c83c e651 563d
000000f0: 8253 88bd 3216 243d 70b6 15bd 21bb af3d
00000100: 90b8 093c 4370 813d ecae a73c 3823 843c
00000110: ba3d 1c3d e707 833d 0778 c6bd 948d 02bd
00000120: a4d2 f73c 2eb4 533d f273 593d 7ada b6bd
00000130: dfc5 a63d 5aa2 203d d583 87bd 0017 2cbd
00000140: a8ea a9bc 802a 81bd 5af4 3ebd 84c9 e83c
00000150: ce7a 5c3d eae0 b4bd ad33 aabd 1ad5 0cbd
00000160: cb7a 90bd 20ab cc3b 5a7e 59bd b038 6dbc
00000170: 5881 c23c 6537 c93d 52ee 773d 68ef 34bc
00000180: a1a6 ab3d 5750 cb3d 664e 02bd 359b c3bd
00000190: 23a4 913d f61d 403d 6036 b8bc d821 8ebd
000001a0: d651 6f3d 0f7f b53d 8e8b acbd 4038 ebbc
000001b0: 58eb a73c 0df0 ab3d dcf1 0abd f3ce 7abd
000001c0: dfac b83d 297c aa3d 0f6e c53d f8b4 ad3c
000001d0: 10c6 663c f836 9fbd 7490 94bc 304d 28bc
000001e0: 88bb a83c 02e8 8cbd a065 49bb 5d1e 8fbd
000001f0: e138 993d a98c ca3d 80d5 90bc b013 b1bd
00000200: 5834 c7bc 4306 94bd a3fb b7bd d987 8f3d
00000210: 54fa f4bc 0f3b b73d 1be5 bbbd 5bd3 a63d
00000220: 0c71 c2bc ca5a bbbd ca65 b2bd d0ce ab3b
00000230: 5fd8 aa3d c0c8 5cbb 8930 883d 62ce 4b3d
00000240: 2e21 89bd f0ff 01bd 3351 1abd 9923 c33d
00000250: d00c 883b 7af4 523d fdd3 b93d 0acf 733d
00000260: dedc 8dbd 3861 fcbc 1070 31bc 76d4 a5bd
00000270: 2b4f bf3d 6fc6 b7bd 7aeb 6ebd ea91 6ebd
00000280: b803 8cbd d4aa 993c 2a46 0abd 3816 febc
00000290: 40f6 87bc 0044 89ba 62e7 7b3d 103e 083c
000002a0: 6d13 3abd 54b9 e03c 4435 d43c c02b 19bc
000002b0: 6f2d bd3d b798 47bd 2d61 9b3d 754b a43d
000002c0: 18af bdbc 5191 8c3d 82c1 3e3d 0c88 be3c
000002d0: b091 103c e4e4 fd3c 1751 3dbd ad52 b6bd
000002e0: d270 6a3d db7e bd3d d869 563c f708 903d
000002f0: 1811 86bc 558e b63d 8fc0 8c3d 55e0 9abd
00000300: 98d1 b9bc b9c0 843d b81e debc b088 bcbb
00000310: 1d26 b43d 75e6 c63d e50d c33d 72ad 663d
00000320: 3a29 b9bd a0d2 8bbd 60b0 d3bb 2d9b 9b3d
00000330: 620d 733d 938d ccbd 225a 333d c21b 033d
00000340: 8ef2 8cbd 82f3 5b3d 296f ca3d b21a 8bbd
00000350: 0af4 83bd c865 87bd 008b 80b9 fa17 40bd
00000360: 0873 9fbc 1d7b 7bbd a697 503d f6e0 043d
00000370: 3277 473d 98bf c1bd 4ae0 463d 3211 033d
00000380: 7000 5c3c eee2 6c3d 0f0f 8d3d 1209 bebd
00000390: 66ba 553d 2a60 433d 37e1 30bd a96b b43d
000003a0: 677d 893d e7ec 23bd 7aef 28bd 1076 72bc
000003b0: 271a 933d 00b4 24bb 48d1 cfbc 6c0d efbc
000003c0: 998d b33d 2731 c8bd 141a bfbc 7d20 69bd
000003d0: 1a9b 9dbd fa79 633d 62a2 aabd 26d4 473d
000003e0: ba26 c1bd 6cf9 f13c 125d 3c3d 5471 c7bc
000003f0: 46b8 7c3d ad14 6ebd dc7b d93c ce31 363d
0.031523846 -0.046121337 -0.07691933 -0.07879217 -0.06721221 -0.012605071 0.0476569 0.02802921
0.048622377 0.03273519 0.034913413 -0.08316612 -0.019395187 -0.023822524 0.028984718 0.06359968
0.021324135 0.06983293 -0.09349666 -0.05721295 -0.034719273 -0.0911377 0.05036991 0.07726193
-0.07761387 -0.030274846 0.06446753 0.043991588 0.06207501 -0.081331216 0.04547044 -0.054083265
-0.042649306 0.09532783 0.041934498 -0.06773726 -0.011818662 -0.008534573 -0.018302187 -0.09426188
-0.09523757 0.07589745 -0.03740052 0.09310072 -0.062493276 0.010752857 -0.05494348 0.065914236
-0.060084283 -0.08917065 -0.042472612 -0.09179536 -0.05977262 -0.047511578 0.0077548847 -0.08724828
-0.06150491 -0.007214889 0.024435237 0.0523242 -0.06656553 0.04006023 -0.03655094 0.08580614
0.00840582 0.0632024 0.020469151 0.016130075 0.038144805 0.063979916 -0.09690862 -0.0318733
0.030251808 0.051685505 0.05308909 -0.0892839 0.0814321 0.03921733 -0.06616942 -0.042014122
-0.020741776 -0.06306934 -0.04661975 0.028416403 0.053828053 -0.088319615 -0.083106376 -0.034382917
-0.07054671 0.0062459856 -0.053099014 -0.014478847 0.023743317 0.09825019 0.060530014 -0.011043407
0.08381391 0.09927433 -0.031813048 -0.09551088 0.07111385 0.046903573 -0.022486866 -0.06940049
0.058427654 0.08862125 -0.084250554 -0.028713346 0.020497963 0.083953954 -0.03392206 -0.06123252
0.090173475 0.08324463 0.09640133 0.021204457 0.014085308 -0.07774156 -0.018135287 -0.010272309
0.020597234 -0.068801895 -0.003073074 -0.06988213 0.07481552 0.0989011 -0.01767993 -0.08646333
-0.024316952 -0.07227757 -0.08983543 0.07008333 -0.029904522 0.089468114 -0.09174558 0.081457816
-0.023735546 -0.09148176 -0.08710821 0.00524316 0.08342051 -0.0033688992 0.06649882 0.04975737
-0.06695782 -0.03173822 -0.037675094 0.09528274 0.004151918 0.051502682 0.09073637 0.05952362
-0.06926893 -0.030808076 -0.01082994 -0.08097164 0.09341272 -0.08973395 -0.058330037 -0.058244623
-0.06836647 0.018758215 -0.03375832 -0.031016454 -0.016596913 -0.0010472536 0.06149996 0.008315578
-0.045428682 0.027432121 0.025904305 -0.00934881 0.092371814 -0.048729625 0.07586894 0.08022205
-0.02315478 0.068636544 0.046571262 0.023258232 0.008823797 0.030992933 -0.04621991 -0.08902488
0.0572365 0.092527114 0.013086759 0.0703296 -0.016365573 0.089138664 0.06872665 -0.07562319
-0.02268295 0.064820714 -0.027114257 -0.005753599 0.08796332 0.09711925 0.095241345 0.056317754
-0.090410665 -0.06827283 -0.0064602345 0.07597957 0.059338935 -0.09987941 0.04378713 0.032008894
-0.06882201 0.053699024 0.09884483 -0.06792201 -0.06443031 -0.0661121 -0.00024517626 -0.046897866
-0.01946403 -0.061396707 0.050925873 0.032441102 0.048697658 -0.09460372 0.048553742 0.03199882
0.013427839 0.057833605 0.06887638 -0.09279074 0.052179717 0.04769913 -0.04318353 0.08809597
0.06713372 -0.04002085 -0.041244008 -0.014798656 0.071827225 -0.0025131702 -0.025368348 -0.029181205
0.08767242 -0.09775 -0.023327865 -0.05691575 -0.07695599 0.055536248 -0.08331753 0.048786305
-0.09431215 0.029537879 0.045987196 -0.024346031 0.061699174 -0.058125187 0.026548319 0.04448109

4.bias f4 [5]
00000000: 4568 aabd 12c2 7a3d 74a0 acbc 9890 2c3c
00000010: dd53 1cbd
-0.08320669 0.061220236 -0.021072604 0.010532521 -0.038165916
