dqn_agent_full_state_further_trained.pth (torch, 659734 bytes, 24 tensors)

0.weight f4 [150, 11]
00000000: 8788 bec0 5252 b6c0 8195 bfc0 acb2 b7c0
00000010: b0bf e43c f0f0 cdbc 3fe6 11be d04d 4d3d
00000020: a7e6 89be 86a5 993e c862 bebd 1472 ccc0
00000030: 59ae 8dc0 551c 8bc0 de22 8dc0 7ceb 9cbd
00000040: 2082 2f3e dc5d 7d3e 2f98 75be 5834 13bd
00000050: 186d 883d 5cbe ca3d 3974 b6c0 c341 bec0
00000060: 9d75 bbc0 2c6b bdc0 106f fabc b2ab 9bbd
00000070: be1e 13be e426 98be bcbe f93d 8017 7a3b
00000080: 9ca3 abbd dffe 97c0 0edd 8bc0 a946 92c0
00000090: 26e3 95c0 96dc 80bd 801e 0d3b 1470 5b3e
000000a0: d07d 42be 8bce 42be 93b8 28be 2820 893e
000000b0: b02c 8ac0 9dad 8ac0 df96 9bc0 4e7a 92c0
000000c0: fb4f 86be 6cf1 93bd 80e7 61bd e013 eabc
000000d0: ac71 4b3e 3cb3 7c3e dae6 373e 8b1f b8c0
000000e0: 4a96 bac0 bffa bac0 a8d0 b7c0 f607 4cbe
000000f0: 74a1 8d3e 22df 40be b04a e8bc 55c6 37be
00000100: 94db 383e c0fe ce3d 122a 8ac0 f730 99c0
00000110: 1216 94c0 afef 89c0 e069 4dbc b2f6 37be
00000120: 8a73 2e3e 84ec 993d 20b4 61bd 6c7b 78be
00000130: 5499 263e 78b4 8fc0 ef68 97c0 09a6 8dc0
00000140: 0cc8 8cc0 e888 a43d a29c 86bd 98a0 51be
00000150: af5a 7ebe bcd3 d1bd 781d 42bd 9cbf 7fbd
00000160: 343a a9c0 e0bd 7fbd 3f9a b6c0 de8c b7c0
00000170: 2c01 b43d 18c0 e0bd 5076 6abd 00d0 b539
00000180: 16e5 b0bd f016 933e 40ee db3d d28d c0c0
00000190: 8e94 bec0 6a50 b6c0 f9ba c4c0 2826 0b3d
000001a0: 244a 92be 1710 94be 6464 2abe d2b1 973e
000001b0: 4e34 bbbd 20a3 28bc 2775 c1c0 fa94 9ebf
000001c0: 56f9 53c1 e5ab 53c1 5859 91be aca7 b03d
000001d0: ef8d 0dbe 7e61 b8bd 4a16 933e 54bf 3d3e
000001e0: 2f81 1bbe aa84 d3c0 b135 95c0 a749 8ec0
000001f0: 33fb 8dc0 e05d 8a3d 2878 243e 4944 1fbe
00000200: 550d 2cbe f0a8 c53c 98f4 333d 3081 7b3e
00000210: c497 8cc0 f707 8dc0 49b7 88c0 60e3 90c0
00000220: 5b8b 06be 284d 41be 66a9 8bbe dc52 213e
00000230: da98 2a3e 6065 793c 6624 06be 71fe bac0
00000240: 7648 bcc0 d81a b6c0 6a70 bcc0 3597 69be
00000250: 9c7c 823d 4462 cb3d f004 ee3d a04d 5f3c
00000260: 5853 593e e467 153e 989c bdbd 0cc1 aac0
00000270: 6e19 b0c0 acb5 a5c0 40a1 2f3e bdbc 06be
00000280: 307c 8d3c 28e3 1cbd 90f9 993e c82a 41be
00000290: 386d 98be 1c0c 8ec0 5411 92c0 2737 8ec0
000002a0: 3adc 92c0 bc52 4f3e c456 99be f82b fabd
000002b0: 74d5 153e 5cbf 7cbd e2d1 203e 9f59 25be
000002c0: 3699 98c0 b5fa 99c0 3856 88c0 0fd0 8fc0
000002d0: d038 a7bc 18b0 7dbe 04cb 393e e0c4 26bd
000002e0: d951 94be f0bc 76bd 00ba 70ba 6bcf bec0
000002f0: 2604 b7c0 24c9 bbc0 6d50 c3c0 8ccd 5e3e
00000300: f419 993e b452 403e 8061 acbb 0eb1 dfbd
00000310: 4045 2f3e f42d 5fbd 5c7b b1c1 0af9 7dbe
00000320: fe3a b4c1 7be9 1cbe 39ba b0c1 0c01 103e
00000330: 90bf 703e 4e7c 1f3e cda4 12be 2c59 55be
00000340: 552a 2bbe 3bf6 94c0 e07c b2c0 26e4 a6c0
00000350: 93ed a5c0 c963 b9c0 6046 b33d 549d 0e3e
00000360: e0a5 babd e056 4dbd 662e 8ebe 78c4 803d
00000370: 1b0e 91c0 6c7b cec0 c467 89c0 8cf1 8ec0
00000380: 0092 b6bc 00ba 703c 9416 673e 62ed 913e
00000390: a474 8a3d 602b 49be c8ff cd3d d67d 19be
000003a0: f6d8 49be a610 c6c0 e1d7 b7c0 1077 64bd
000003b0: f053 8d3e 4a25 80be 70b0 923c faa1 26be
000003c0: 908c b4bc 2ae7 823e 78b8 1ebe 7d48 31be
000003d0: de7c c8bd c0ac 983c f2a6 98bd 10d1 9d3c
000003e0: 7001 983d 02bb 873e a8d2 2ebe b086 21be
000003f0: 1d1c 25be c2df c6c0 8a36 c1c0 b499 bac0
-5.954166 -5.697549 -5.987 -5.7405605 0.027923435 -0.025139302 -0.14247988 0.050123036
-0.26933786 0.30009097 -0.09296185 -6.3889256 -4.4275327 -4.3472085 -4.4105062 -0.076621026
0.17139482 0.24742836 -0.23983835 -0.03593859 0.06661433 0.098995894 -5.7016873 -5.9455276
-5.858107 -5.9193325 -0.030570537 -0.07601108 -0.14367196 -0.2971717 0.12194583 0.003816098
-0.083808154 -4.749862 -4.370734 -4.5711255 -4.683978 -0.062920734 0.0021533072 0.21429473
-0.18993306 -0.19024102 -0.1647666 0.26782346 -4.317955 -4.333693 -4.862167 -4.57743
-0.26232895 -0.07223782 -0.055152416 -0.02857393 0.19867581 0.24677747 0.17959157 -5.7538505
-5.830846 -5.8431087 -5.7442207 -0.19924912 0.2766224 -0.18835118 -0.028355926 -0.17946751
0.18052512 0.101071835 -4.3176355 -4.787227 -4.627694 -4.3105083 -0.01253745 -0.179652
0.17036262 0.07515815 -0.05510342 -0.24265832 0.16269428 -4.49078 -4.7315593 -4.426518
-4.39942 0.08033925 -0.06572844 -0.20471418 -0.2483928 -0.10245463 -0.047391385 -0.062438592
-5.288355 -0.06243694 -5.706329 -5.7359457 0.08789286 -0.10974139 -0.057241738 0.00034677982
-0.08637445 0.28728437 0.10738802 -6.017312 -5.955634 -5.697316 -6.147824 0.033971936
-0.2857219 -0.28918526 -0.16639858 0.29627854 -0.09140836 -0.010292798 -6.045551 -1.2389214
-13.248373 -13.229466 -0.28388476 0.08625731 -0.13823675 -0.0900297 0.28727943 0.18530017
-0.15185998 -6.6099443 -4.662804 -4.446491 -4.436914 0.067561865 0.16061461 -0.15553392
-0.16801961 0.024128407 0.043934435 0.24561 -4.393526 -4.4072223 -4.2723737 -4.5277557
-0.13139097 -0.18877089 -0.27277678 0.15754265 0.1665987 0.015221924 -0.13099822 -5.8435597
-5.8838453 -5.690777 -5.8887224 -0.22811587 0.063714236 0.09930852 0.116220355 0.013629347
0.212232 0.14590412 -0.092583835 -5.3360653 -5.503104 -5.1784267 0.17151356 -0.13157935
0.017271131 -0.03830257 0.30073214 -0.18863976 -0.29770827 -4.438978 -4.5646152 -4.4442325
-4.589383 0.20246404 -0.2994901 -0.122154176 0.14632207 -0.061705932 0.15705064 -0.16147469
-4.7687025 -4.811854 -4.2605247 -4.494148 -0.020412832 -0.24774206 0.1814385 -0.0407151
-0.28968695 -0.06023878 -0.00091829896 -5.9628196 -5.7192564 -5.8683033 -6.1035676 0.21758097
0.29902613 0.18781549 -0.0052606463 -0.109224424 0.1711626 -0.054487184 -22.185234 -0.24802032
-22.528805 -0.1532344 -22.090929 0.140629 0.23510575 0.15574762 -0.14320679 -0.20834798
-0.16715367 -4.6550574 -5.5777435 -5.21535 -5.1852508 -5.793431 0.08753657 0.13927203
-0.091136694 -0.05013168 -0.27769774 0.062874734 -4.532972 -6.452566 -4.2939167 -4.4669857
-0.022286415 0.014692783 0.22567207 0.2850142 0.06760529 -0.19645452 0.10058552 -0.14989409
-0.1971167 -6.1895323 -5.7451024 -0.05577761 0.27603102 -0.2502845 0.017906398 -0.16272727
-0.022039682 0.2556699 -0.15500057 -0.17312808 -0.097894415 0.018637061 -0.07453717 0.019264728
0.07422149 0.26509863 -0.17072546 -0.15774035 -0.16124006 -6.214814 -6.0379076 -5.8312626

0.bias f4 [150]
00000000: ba91 b9c0 8f00 9bc0 ff69 c2c0 3eae 8ec0
00000010: b1cc 8bc0 26ea bbc0 cf86 8ac0 3451 8ac0
00000020: 600f b6c0 4c32 c6c0 a7f4 53c1 c50d 94c0
00000030: de47 8ac0 b9f7 c8c0 b695 a3c0 025f 8ec0
00000040: 25dd 89c0 9a16 c4c0 dd53 b3c1 4080 a8c0
00000050: ff96 95c0 78a5 b8c0 5bf0 03be f44e c4c0
00000060: 3d97 c1c0 1acc 1ac1 58cf c8c0 6408 71be
00000070: 18dd c8c0 9910 c0c0 31d2 c6c0 e08f c6c0
00000080: 65a5 bac0 9d7a 8ac0 50d5 88c0 bf73 9bc0
00000090: c643 8fc0 86e1 92c0 8f33 e3c1 e871 c8c0
000000a0: 450e 50c1 c16e 62c1 a430 c1c0 e34c 8bc0
000000b0: 6de3 bdc0 b770 8fc0 6673 97bd fd99 57be
000000c0: 3800 db3d 24e7 c2c0 0079 c8c0 44e4 98bd
000000d0: d644 fdc0 ee2d cec0 fa68 bcc0 d3f1 96c0
000000e0: e5cf c6c0 f969 99c0 cd29 bdc0 6127 b8c0
000000f0: 5d0a 31c1 b778 c0c0 4384 98c0 6898 8cc0
00000100: 9475 c1c0 f0ec 973c 60f9 8bc0 f76b 9bc0
00000110: 346f bebd a5eb 9ec1 00e1 fdba 8a53 92c0
00000120: 7333 2dc1 4dd8 a3c1 b8de 70bd aa8e 88c0
00000130: fcb7 c7c0 fd35 b7c0 71be 92c0 813a 89c0
00000140: d525 a4c0 5301 8bc0 50aa 91c0 d717 2bc1
00000150: 4de6 c1c0 7acc 92c0 bb50 96c0 6c03 8fc0
00000160: dda8 adc0 fdb9 29c1 eaac 8dc0 dae2 b9c0
00000170: cbe8 bfc0 c0cf 8cc0 c437 94c0 98d1 9ac0
00000180: 0743 c1c0 6447 ccbd f2ee 80be c26e b8c0
00000190: 1174 24c1 b951 bcc0 215c bfc0 caf5 cfc0
000001a0: 03e3 bac0 e065 103c 890c 8fc0 cf88 8fc0
000001b0: 9028 c9c0 795d 92c0 6c3a b8c0 612a 0bc1
000001c0: e84a 98c0 f112 86c1 ef20 95c0 1faa 20c1
000001d0: f803 e4c1 b3ab b1c1 c598 c1c0 16a0 c5c0
000001e0: b278 b5bd c351 c0c0 3e4c 89c0 e47c 8ec0
000001f0: 8263 94c0 88ba 8ac0 1c1f 99c0 74dd b6c0
00000200: 34d5 8dc0 f275 99c0 1eec 55c1 7158 21c1
00000210: 4b00 bfc0 443e c8c0 4561 4abe 532f 30c1
00000220: bb93 bfc0 ceab bac0 4a58 dcbd 2560 b9c0
00000230: a688 99c0 0734 b9c0 13b0 99c0 e1b3 c2c0
00000240: d6a6 3ebe de08 b2c0 81c5 95c0 d12a 8bc0
00000250: 34a0 b3c0 95d1 2cc1
-5.799039 -4.843818 -6.075439 -4.45877 -4.3687367 -5.8723326 -4.328956 -4.3224125
-5.689377 -6.1936398 -13.24723 -4.626681 -4.321273 -6.2802396 -5.1120253 -4.4490976
-4.308245 -6.127759 -22.415949 -5.2656555 -4.674682 -5.770199 -0.12884657 -6.134638
-6.0497117 -9.6748295 -6.2753105 -0.23538357 -6.276989 -6.002026 -6.213158 -6.205063
-5.83269 -4.3274674 -4.276039 -4.857879 -4.477023 -4.5900297 -28.400175 -6.2639046
-13.003484 -14.15204 -6.0371876 -4.3531356 -5.934012 -4.482509 -0.073950574 -0.21054836
0.10693401 -6.0907154 -6.2647705 -0.07465413 -7.914653 -6.4431067 -5.8878145 -4.7170196
-6.2128778 -4.794186 -5.9113526 -5.754807 -11.06503 -6.0147357 -4.766145 -4.3936043
-6.045603 0.018545598 -4.3741913 -4.8569293 -0.09298554 -19.86506 -0.0019369423 -4.5726976
-10.825061 -20.480616 -0.05880615 -4.267415 -6.241209 -5.7253404 -4.5857472 -4.2883916
-5.129618 -4.3439116 -4.55204 -10.69332 -6.059363 -4.5874605 -4.697355 -4.4691677
-5.426863 -10.607907 -4.4273577 -5.808942 -5.997167 -4.40036 -4.6318073 -4.838085
-6.039432 -0.09974554 -0.251823 -5.7635202 -10.278337 -5.884976 -5.979996 -6.4987535
-5.8402114 0.008813351 -4.47028 -4.4854503 -6.2862015 -4.57391 -5.7571316 -8.697846
-4.759144 -16.759249 -4.66027 -10.041533 -28.501938 -22.208838 -6.0498986 -6.1757917
-0.088609114 -6.0099807 -4.290557 -4.4527454 -4.637147 -4.33527 -4.7850475 -5.714533
-4.432276 -4.7956476 -13.370146 -10.084092 -5.968786 -6.257601 -0.19763668 -11.011554
-5.9867835 -5.8334723 -0.10759027 -5.7929864 -4.7979307 -5.787601 -4.8027434 -6.084458
-0.1861833 -5.5635824 -4.6803594 -4.3489766 -5.613306 -10.8011675

2.weight f4 [100, 150]
00000000: ec29 bf40 14b5 8fc0 eb03 be40 14de b2c0
00000010: d47d afc0 b67f c040 624a 90c0 d73f 8fc0
00000020: 14f3 cbbc f909 bf40 6194 abbf 2a9d 92c0
00000030: 7bc4 92c0 cb8b bd40 a83f bb3c 66b8 90c0
00000040: b7e6 8ec0 e497 2dbd 37d8 9abd c0db ecba
00000050: 06fd 8fc0 de39 be40 e3f2 43bd 4e2b bf40
00000060: 697b c140 68d9 54bc 6e4f 9b3d 9033 6e3d
00000070: fb4c bf40 663e 00bd 060e c040 aa06 be40
00000080: e0d6 6c3d f8bd 92c0 2203 b1c0 74f9 383d
00000090: 7f4b b1c0 5394 afc0 1c7f 82c1 7ed8 c140
000000a0: ec78 afbf a8fa 883d 5c67 4b3d a4de 91c0
000000b0: ece5 bf40 efe4 8fc0 a446 a63d faa4 a13d
000000c0: 9885 14bd cc4e 34bd 10da 6f3c f8ea 403d
000000d0: ae0c 02bd 4e68 93c0 a087 7d3d acd4 98bd
000000e0: 5ec1 bf40 9210 91c0 15d2 8abd 0fd2 c040
000000f0: e041 36bb 7b96 9dbd 30b7 afc0 ed92 91c0
00000100: e3e9 a4bd 7823 a4bc 8e1e 963d 83b9 b0c0
00000110: 6602 293d 642f 103d 7091 a3bd 4405 8fc0
00000120: 0062 8cb9 00da 9f3d e254 833d c4eb 91c0
00000130: e3f8 bd40 280b 8b3d 0749 b1c0 bf83 91c0
00000140: cdee 46bd 49e9 90c0 313b 90c0 6e31 c040
00000150: efd0 bd40 c474 91c0 ce1a b3c0 99c5 8fc0
00000160: d6b6 88bd e994 85bd 9da4 90c0 00ab e13a
00000170: cb2e bd40 b526 93c0 37ce 92c0 32d8 afc0
00000180: 9007 d23c f4ea 92bc caf2 6bbd 8122 c040
00000190: 7442 bf40 b9be bf40 6952 be40 85f5 93c0
000001a0: 4a69 bd40 8cee 7d3d a50c 93c0 bcda 8fc0
000001b0: f019 a03d 8f53 b2c0 c9c2 bf40 39db 2ebd
000001c0: fed1 b3c0 1209 993d 6cf3 93c0 7cc0 593d
000001d0: 21fd 82c1 00c6 6639 f02a bbbb ba34 2e3d
000001e0: 7847 8d3d 1a24 c140 c720 b3c0 4508 90c0
000001f0: 847b 93c0 bbfa 8fc0 8391 b1c0 08e1 bd40
00000200: 4ebc b2c0 16fe b2c0 70d3 bebf b2a5 2bbd
00000210: ca05 a23d 815e a6bd 79c8 32bd 18c8 093c
00000220: 4b89 be40 f091 bf40 d813 37bd 78fd 213c
00000230: 6f9d 8fc0 e370 bf40 6ad8 aec0 30cb bd40
00000240: 82e9 05bd 900d a23b a5b5 92c0 2083 b0c0
00000250: 9845 6abd 5444 a13d 97fd c040 893d 92c0
00000260: 1946 bf40 2489 d3c0 6d10 8fc0 c79b bf40
00000270: 2735 8fc0 5f72 92c0 ee0c 12bd d101 c240
00000280: 7c41 bfc0 3179 93c0 0766 93c0 beed bf40
00000290: e10e 8abd 30ff 93c0 e3bc 90c0 1972 c1c0
000002a0: 8ce2 b83c 28f6 42bc ac61 92c0 9e31 bdc0
000002b0: d0b7 a13c c790 c0c0 4cb4 bdc0 a881 033d
000002c0: 2579 c140 ca83 9f3d e6b7 c0c0 e39a bf40
000002d0: 23bd c1c0 85be bd40 90da 27bd 30b5 8fc0
000002e0: 20cb 90c0 8cf4 38bd bfa2 93c0 8ef6 cec0
000002f0: 2e74 82c1 f6ee bfc0 d022 c140 40d8 043b
00000300: 1665 bdc0 90b9 d1c0 fede c140 b049 92c0
00000310: 106d a6bd 9e4c 243d deb4 b6bc 12f9 c0c0
00000320: 8c4f bdc0 40d4 b93c 429a 4cbd c8a1 8fc0
00000330: 327a 8f3d a67f 5dbd f88c bdc0 f7ce 91c0
00000340: 962c c1c0 ab4c be40 66c7 a2bc b4b4 c1c0
00000350: 38f9 93c0 abc9 92c0 7f8e be40 1768 98bd
00000360: fc2d 96bd 1a08 8fc0 b0f3 253d f48f fdbc
00000370: 8035 70bc 91db d0c0 89c9 96bd 40ed 3bbc
00000380: 2a2b 5abd cdc6 cfc0 d28a bfc0 60d5 bfbc
00000390: 7dea 8ec0 f394 91c0 b89e febc f1ab d2c0
000003a0: 105d 90c0 dba2 bf40 ecc5 c0c0 b006 90c0
000003b0: b947 91c0 b904 94c0 4aec 4fbd 0b86 c140
000003c0: b517 93c0 423f 973d 8cec bf40 37d5 8fc0
000003d0: 1089 d1c0 8d9f d0c0 d05a be40 e0de da3c
000003e0: 2c19 9abd ac42 bdc0 0cff bcc0 566e be40
000003f0: eabf be40 1493 8fc0 204f c040 d45e 0fbd
5.9738674 -4.4908543 5.9379783 -5.589609 -5.48411 6.0155897 -4.50908 -4.476543
-0.024896182 5.9699674 -1.3404657 -4.581685 -4.5864844 5.9233146 0.022857502 -4.5225096
-4.4656634 -0.042381182 -0.07560771 -0.0018070862 -4.4996367 5.944564 -0.047839057 5.974036
6.0463147 -0.012991287 0.075835094 0.058154643 5.978147 -0.031309508 6.001712 5.9383135
0.05782211 -4.5856895 -5.5316324 0.045159772 -5.540466 -5.486856 -16.312065 6.0576773
-1.3708777 0.06688434 0.049659118 -4.558428 5.9968166 -4.496696 0.081189424 0.07892795
-0.036260217 -0.04402046 0.0146393925 0.047099084 -0.031750374 -4.6064825 0.06189692 -0.07462439
5.9923544 -4.5332727 -0.06778351 6.025642 -0.002781026 -0.076947175 -5.4911118 -4.5491853
-0.08052423 -0.020036444 0.073300466 -5.5226455 0.041262053 0.035201445 -0.079867244 -4.469393
-0.00026775897 0.07805252 0.064126745 -4.56003 5.9366317 0.06789237 -5.5401645 -4.5473323
-0.048567582 -4.528477 -4.5072255 6.006034 5.9317546 -4.5455036 -5.597022 -4.492871
-0.06675498 -0.06522543 -4.5200944 0.00172171 5.911962 -4.598475 -4.5876727 -5.495141
0.025638372 -0.0179343 -0.05760459 6.004212 5.976862 5.9920316 5.94756 -4.6237206
5.9191027 0.061995074 -4.5952935 -4.495451 0.07817447 -5.5727 5.9925275 -0.042689536
-5.619384 0.07472433 -4.6234646 0.053162083 -16.373598 0.0002200827 -0.0057119057 0.042530753
0.06898397 6.035657 -5.597751 -4.5010095 -4.6088276 -4.4993567 -5.5490127 5.9337196
-5.5854864 -5.5935163 -1.4908276 -0.041906066 0.079112604 -0.08123494 -0.043648217 0.0084095225
5.9542594 5.9865646 -0.04469666 0.009887092 -4.487968 5.98253 -5.4639177 5.931053
-0.032693394 0.0049454644 -4.5846734 -5.5160065 -0.057195276 0.07874361 6.030956 -4.5700116
5.977307 -6.610491 -4.470755 5.987766 -4.4752383 -4.5764613 -0.035656862 6.0627217
-5.9767437 -4.608544 -4.6062045 5.9977713 -0.06741119 -4.624901 -4.5230575 -6.045178
0.022568963 -0.011899509 -4.574423 -5.912307 0.019740969 -6.017673 -5.928259 0.03210607
6.046038 0.07788809 -6.0224485 5.987657 -6.054338 5.929507 -0.04097992 -4.4908676
-4.5247955 -0.045155093 -4.6136165 -6.467597 -16.306728 -5.99792 6.0354996 0.0020270497
-5.9185896 -6.5539017 6.0584707 -4.571495 -0.08126271 0.04011213 -0.022303041 -6.030404
-5.9159603 0.022684216 -0.0499518 -4.4884987 0.07005729 -0.054076813 -5.923458 -4.5565143
-6.0366926 5.946859 -0.019870471 -6.0533085 -4.624172 -4.5871177 5.9548945 -0.074417286
-0.073329896 -4.469739 0.0405156 -0.030952431 -0.014661193 -6.5268025 -0.073626585 -0.011470139
-0.05326382 -6.4930177 -5.985696 -0.023417175 -4.466124 -4.5494323 -0.031081542 -6.583489
-4.51136 5.98863 -6.0241604 -4.5008163 -4.540005 -4.6255765 -0.050762452 6.0476127
-4.596644 0.07385112 5.9976254 -4.494777 -6.5479813 -6.5194764 5.9485855 0.026717603
-0.075243324 -5.9143887 -5.9061337 5.9509687 5.960927 -4.486704 6.009659 -0.035002545

2.bias f4 [100]
00000000: d3b2 4ac1 951b ebc0 47ef a5c0 0a7a c0c0
00000010: 12f8 85c1 526b ebc0 f121 70c0 092a c7bf
00000020: d0cb acc0 c961 92c0 71cb bec0 4fa8 bec0
00000030: 0536 efc0 24c9 99c0 e5e6 15c1 fa36 fdbf
00000040: a9ce abc0 4726 2cc1 de2a bdc0 a126 91c0
00000050: f581 eac0 cee4 a4c0 2a24 bdc0 f568 b2c0
00000060: 27c8 efc0 6d9d acc0 cd55 bdc0 cb22 c0c0
00000070: e6d4 99c0 0ebb a9c0 296b bdc0 0d38 bec0
00000080: 6f2a aac0 b5a8 56c1 6b02 c1c0 d840 efc0
00000090: 0e8c bec0 3c9a 34c1 6abe 7abf acf5 f0c0
000000a0: e96e ecc0 5c0c 0ac1 91b2 e7c0 d611 c1c0
000000b0: 793e 93c0 891e 80c0 ef38 a4c0 1e42 bfc0
000000c0: 5b59 c0c0 534c eac0 e553 edc0 3a0e 95c0
000000d0: f286 eec0 6a94 efc0 647f b3c0 974e ecc0
000000e0: 7763 edc0 c5c7 c0c0 455e 92c0 dc0a 98bf
000000f0: d11f edc0 0b49 fbc0 9005 edc0 589d adc0
00000100: e35f ebc0 6468 eec0 1ae7 35c1 263f 94c0
00000110: 3105 a3c0 62de eac0 c811 c0c0 466a aac0
00000120: 9d01 bec0 8c4e 39c1 fe5f 16c1 ed74 a5c0
00000130: 7aef bec0 df3f 11c1 d054 74c0 8b04 edc0
00000140: 2b60 b2c0 8a6d ecc0 5126 bec0 8ea1 bec0
00000150: c2a3 bec0 0cf5 c1c0 aefc 71c0 ffd8 eec0
00000160: 23fd f0c0 efe6 95c0 4e40 01c1 7a6a c0c0
00000170: 4ea0 dac0 8675 f1c0 7b8d e8c0 55c0 0ac1
00000180: 09a9 0fc0 f2d5 94c0 e1ca dd41 bb08 0ec1
-12.668658 -7.347117 -5.1854587 -6.0148973 -16.746128 -7.3568506 -3.7520716 -1.5559703
-5.3998795 -4.5744367 -5.962334 -5.9580455 -7.475344 -4.8058033 -9.368871 -1.9782403
-5.368977 -10.759345 -5.911483 -4.5359654 -7.328364 -5.1529303 -5.9106646 -5.575312
-7.4931827 -5.394217 -5.9167237 -6.004247 -4.8072386 -5.304084 -5.919331 -5.944342
-5.31768 -13.416188 -6.031545 -7.4766655 -5.9545965 -11.287655 -0.979468 -7.5299892
-7.388539 -8.628017 -7.2405477 -6.0334272 -4.601376 -4.0037274 -5.13195 -5.976821
-6.0109076 -7.321817 -7.416491 -4.6579866 -7.453973 -7.486867 -5.6093006 -7.3845935
-7.4183917 -6.024386 -4.5740075 -1.1878314 -7.410134 -7.8526664 -7.406929 -5.425457
-7.355455 -7.450243 -11.368921 -4.6327085 -5.0943837 -7.3396463 -6.0021706 -5.325473
-5.937697 -11.5816765 -9.398436 -5.170523 -5.966733 -9.078094 -3.8176765 -7.4068046
-5.5742393 -7.3883715 -5.9421773 -5.957221 -5.95749 -6.061163 -3.7810473 -7.463989
-7.5309005 -4.68444 -8.078199 -6.0129976 -6.8320684 -7.545596 -7.2672706 -8.671956
-2.244692 -4.6511164 27.724062 -8.877131

4.weight f4 [5, 100]
00000000: 1a95 ae40 a670 9040 e64c aabf d588 bdc0
00000010: f280 4bbf 86bb 9640 1487 a240 82bd 6a40
00000020: 8eb1 abc0 defd 9140 1feb cbbd 8f1f bdc0
00000030: 8256 9040 5a1e 5ebf 3963 9a41 d958 5cc0
00000040: 2d5b 96bf 371c 4ec0 88af c0c0 aee0 9140
00000050: 7dba 8e40 df16 a8c0 c397 4bbd f0da b0bf
00000060: 9157 9040 91dd a8c0 ab1e bec0 113f bec0
00000070: 0893 acc0 d6ae 8fbd a2b9 bcc0 f3e2 bcc0
00000080: 9d66 c140 b208 4a3f 58a7 c1c0 c152 8f40
00000090: 88b3 bcc0 6db0 8e40 ae5d 45c0 e12a 9040
000000a0: f866 8f40 1ac4 b240 4f53 9040 11bd bfc0
000000b0: 77b7 8f40 d12b 62bf 2ac4 a4c0 ac4d bec0
000000c0: f41e 10bd 7d4d 8e40 7308 9140 5aa1 55bf
000000d0: c25b 9040 429f 8e40 4182 ae40 6c91 8f40
000000e0: 9843 8e40 3f8d bcc0 92dd 9040 8306 c1be
000000f0: 217c 8e40 d78e 693f f921 9040 2303 adc0
00000100: 2673 8e40 95f8 8f40 50fc 8f40 a0e9 9040
00000110: 6fd8 95bf 1b4f 9240 096e c0c0 53be adc0
00000120: e9ba bcc0 99dc 8e40 3a37 8941 fbde a4c0
00000130: 33a1 bcc0 16e9 9040 a46d 4d3f 66db 8f40
00000140: 8c17 b040 36b1 9040 58e1 d0bc be76 bcc0
00000150: a25e bdc0 5d6c bfc0 b313 61bf 905e 8f40
00000160: 6c48 9840 fe2a 84bf 651e 9340 8a63 bfc0
00000170: e526 8040 f650 9440 d5ec 8f40 4c28 8e40
00000180: 8331 81bf 890d 9240 6f7d c641 4b8b 8e40
00000190: 115d 8f40 0fd8 9340 7b37 75be bb1f c0c0
000001a0: 1631 90bf 4d30 e940 9fc4 3441 111b d6bf
000001b0: 9c2e a840 72b4 9040 d066 bdc0 9b6c bdc0
000001c0: 35ce 8f40 7dcc a73e 7a9d 9640 2c17 2ac0
000001d0: 468b a33e 2f85 f8bf f64d bdc0 9dd2 8e40
000001e0: 611f 9040 2f86 a8c0 963d bdc0 244d 183d
000001f0: 135b 9140 1479 a7c0 9e32 bdc0 e515 bfc0
00000200: a524 ac40 b7d5 21bd 697f c0c0 2a14 c0c0
00000210: d3c9 3a40 bfa1 ee3e e08e bdc0 ade2 9340
00000220: c6c8 bdc0 f3b2 b340 65dc 68c0 3379 9340
00000230: 0141 9140 77c1 9340 dd4b 8e40 d8e7 bfc0
00000240: 0149 9240 eb3e 93be cda5 a4c0 ba9c bec0
00000250: 1d37 c0c0 8bf9 8f40 de2c 8e40 c429 ed3e
00000260: 9e3b 8f40 9483 9240 2e9d af40 392b 9240
00000270: 110d 8f40 1778 bcc0 d7ec 8f40 d8f5 e6bd
00000280: 821e 8f40 2f00 9fc0 c77e 9440 ae75 ab40
00000290: bf79 9340 e932 9040 9342 b440 1719 9340
000002a0: 111f e9bd 2ca4 8e40 b912 bfc0 a3b8 56bd
000002b0: 0be9 bcc0 dd04 b240 7e26 8640 4570 a4c0
000002c0: fb0b c2c0 af1f 9440 d52d 1b3f 2b0b 9240
000002d0: 25eb b040 b9b4 9040 7197 bec0 5e5d c1c0
000002e0: 923f bdc0 659d bdc0 f329 5fbe 31a3 9340
000002f0: 57c9 a03f 56ee 453e fe2e 9040 b60c bec0
00000300: 0f88 b140 e775 9040 4578 9040 3440 8f40
00000310: 9ee9 093f 6858 9140 218f c941 6dc6 9240
00000320: 478c 9640 3e10 6940 9d8f b0c0 94cc c0c0
00000330: 61c3 72bf 749a a140 4674 48c1 cdf8 ecbe
00000340: 1222 abc0 83f1 9140 9ba0 bcc0 8bdd 803d
00000350: f178 7840 a60a 96c0 f2d7 e0c1 b9d2 0fc0
00000360: ecc8 adc0 270a 59c0 87b6 bdc0 dd84 9240
00000370: 81f3 7d40 e7ca a5c0 2888 bcc0 cf34 b7c0
00000380: 4130 6b40 1ea9 033d e8b6 c0c0 a429 bdc0
00000390: f8ca 98c0 6f53 a740 2c22 c1c0 a6d8 bec0
000003a0: e318 b440 e616 7d3f 7f08 bfc0 b232 923f
000003b0: d2f2 bcc0 f1b8 8740 1915 43c0 41bf 8640
000003c0: 97e9 7e40 5107 6b40 d3c6 7c40 459f bdc0
000003d0: 9992 9040 9b17 50c0 8b26 a5c0 6313 bec0
000003e0: 7ad9 bdc0 2f24 8040 1691 8040 7392 97c0
000003f0: 2e00 8040 7cc4 7640 c818 b140 6613 7d40
5.455701 4.513751 -1.3304718 -5.922953 -0.7949363 4.710391 5.078989 3.6678166
-5.365424 4.5622396 -0.09956955 -5.9101024 4.51056 -0.8676506 19.298449 -3.4429228
-1.1746575 -3.220472 -6.021427 4.5586767 4.4602647 -5.252792 -0.049705278 -1.3816814
4.5106893 -5.2770467 -5.9412436 -5.9451985 -5.392948 -0.07015769 -5.8976603 -5.902704
6.043776 0.7891952 -6.0516777 4.478852 -5.8969154 4.4590364 -3.0838428 4.5052342
4.4813194 5.586438 4.5101695 -5.9918294 4.4911456 -0.8834811 -5.148946 -5.9469814
-0.03518577 4.446959 4.5322814 -0.8344933 4.511201 4.4569407 5.4534 4.4865017
4.445751 -5.892242 4.527047 -0.3770028 4.4526525 0.9123358 4.504147 -5.406633
4.451556 4.4990945 4.49955 4.5285187 -1.1706675 4.5721564 -6.013432 -5.429483
-5.897816 4.4644284 17.151966 -5.1522193 -5.8946776 4.528453 0.80245423 4.495532
5.5028744 4.521632 -0.025498077 -5.889495 -5.917802 -5.981978 -0.87920684 4.4802933
4.7588406 -1.032562 4.5974603 -5.980901 4.004748 4.634883 4.49766 4.442419
-1.0093235 4.5641522 24.811247 4.4545035 4.4801106 4.6201243 -0.23946945 -6.0038733
-1.126498 7.287146 11.298003 -1.672701 5.2556896 4.522027 -5.9188004 -5.9195075
4.4939218 0.327732 4.706723 -2.6576643 0.31942195 -1.9415644 -5.9157667 4.4632096
4.5038304 -5.26638 -5.913768 0.037182942 4.5423675 -5.23353 -5.912429 -5.9714227
5.379473 -0.039510455 -6.015553 -6.0024614 2.9185684 0.46607777 -5.923691 4.6214204
-5.9307585 5.6155944 -3.6384518 4.608545 4.539185 4.6173663 4.4467607 -5.9970512
4.5714116 -0.2875894 -5.1452394 -5.9566317 -6.0067277 4.499212 4.442977 0.46320927
4.4760275 4.578562 5.487937 4.567776 4.470345 -5.8896594 4.497661 -0.1127736
4.472474 -4.9687724 4.6404757 5.358115 4.6086116 4.5062146 5.6331267 4.5968127
-0.113828786 4.4575405 -5.9710355 -0.052422177 -5.9034476 5.5630937 4.1921988 -5.138705
-6.0639625 4.6288676 0.6061681 4.5638633 5.528704 4.522061 -5.9559865 -6.0426474
-5.91401 -5.925463 -0.21793346 4.613671 1.2561444 0.19329199 4.5057364 -5.9390516
5.5478587 4.5143924 4.5146813 4.4765873 0.53872097 4.542042 25.194887 4.586722
4.7046237 3.6416163 -5.517531 -6.024973 -0.94829375 5.050104 -12.528387 -0.4628357
-5.347909 4.5607314 -5.894605 0.06292256 3.8823817 -4.6888 -28.105442 -2.2472365
-5.4307766 -3.3912446 -5.928531 4.5787187 3.9679873 -5.1810184 -5.8916206 -5.7251964
3.6748202 0.032143705 -6.0223274 -5.911333 -4.7747765 5.228935 -6.0354214 -5.9639463
5.628038 0.98863065 -5.969787 1.1421721 -5.904641 4.241326 -3.0481627 4.2108464
3.9830072 3.6723216 3.9496353 -5.925692 4.517895 -3.2514408 -5.160955 -5.9398665
-5.9327974 4.004417 4.0177107 -4.736627 4.000022 3.8557425 5.534275 3.954309

4.bias f4 [5]
00000000: 56f6 0e41 f505 f840 b717 3d41 b2dc 2741
00000010: 4c57 4942
8.935141 7.750727 11.81829 10.491381 50.33525

0.weight f4 [150, 11]
00000000: 8788 bec0 5252 b6c0 8195 bfc0 acb2 b7c0
00000010: b0bf e43c f0f0 cdbc 3fe6 11be d04d 4d3d
00000020: a7e6 89be 86a5 993e c862 bebd 1472 ccc0
00000030: 59ae 8dc0 551c 8bc0 de22 8dc0 7ceb 9cbd
00000040: 2082 2f3e dc5d 7d3e 2f98 75be 5834 13bd
00000050: 186d 883d 5cbe ca3d 3974 b6c0 c341 bec0
00000060: 9d75 bbc0 2c6b bdc0 106f fabc b2ab 9bbd
00000070: be1e 13be e426 98be bcbe f93d 8017 7a3b
00000080: 9ca3 abbd dffe 97c0 0edd 8bc0 a946 92c0
00000090: 26e3 95c0 96dc 80bd 801e 0d3b 1470 5b3e
000000a0: d07d 42be 8bce 42be 93b8 28be 2820 893e
000000b0: b02c 8ac0 9dad 8ac0 df96 9bc0 4e7a 92c0
000000c0: fb4f 86be 6cf1 93bd 80e7 61bd e013 eabc
000000d0: ac71 4b3e 3cb3 7c3e dae6 373e 8b1f b8c0
000000e0: 4a96 bac0 bffa bac0 a8d0 b7c0 f607 4cbe
000000f0: 74a1 8d3e 22df 40be b04a e8bc 55c6 37be
00000100: 94db 383e c0fe ce3d 122a 8ac0 f730 99c0
00000110: 1216 94c0 afef 89c0 e069 4dbc b2f6 37be
00000120: 8a73 2e3e 84ec 993d 20b4 61bd 6c7b 78be
00000130: 5499 263e 78b4 8fc0 ef68 97c0 09a6 8dc0
00000140: 0cc8 8cc0 e888 a43d a29c 86bd 98a0 51be
00000150: af5a 7ebe bcd3 d1bd 781d 42bd 9cbf 7fbd
00000160: 343a a9c0 e0bd 7fbd 3f9a b6c0 de8c b7c0
00000170: 2c01 b43d 18c0 e0bd 5076 6abd 00d0 b539
00000180: 16e5 b0bd f016 933e 40ee db3d d28d c0c0
00000190: 8e94 bec0 6a50 b6c0 f9ba c4c0 2826 0b3d
000001a0: 244a 92be 1710 94be 6464 2abe d2b1 973e
000001b0: 4e34 bbbd 20a3 28bc 2775 c1c0 fa94 9ebf
000001c0: 56f9 53c1 e5ab 53c1 5859 91be aca7 b03d
000001d0: ef8d 0dbe 7e61 b8bd 4a16 933e 54bf 3d3e
000001e0: 2f81 1bbe aa84 d3c0 b135 95c0 a749 8ec0
000001f0: 33fb 8dc0 e05d 8a3d 2878 243e 4944 1fbe
00000200: 550d 2cbe f0a8 c53c 98f4 333d 3081 7b3e
00000210: c497 8cc0 f707 8dc0 49b7 88c0 60e3 90c0
00000220: 5b8b 06be 284d 41be 66a9 8bbe dc52 213e
00000230: da98 2a3e 6065 793c 6624 06be 71fe bac0
00000240: 7648 bcc0 d81a b6c0 6a70 bcc0 3597 69be
00000250: 9c7c 823d 4462 cb3d f004 ee3d a04d 5f3c
00000260: 5853 593e e467 153e 989c bdbd 0cc1 aac0
00000270: 6e19 b0c0 acb5 a5c0 40a1 2f3e bdbc 06be
00000280: 307c 8d3c 28e3 1cbd 90f9 993e c82a 41be
00000290: 386d 98be 1c0c 8ec0 5411 92c0 2737 8ec0
000002a0: 3adc 92c0 bc52 4f3e c456 99be f82b fabd
000002b0: 74d5 153e 5cbf 7cbd e2d1 203e 9f59 25be
000002c0: 3699 98c0 b5fa 99c0 3856 88c0 0fd0 8fc0
000002d0: d038 a7bc 18b0 7dbe 04cb 393e e0c4 26bd
000002e0: d951 94be f0bc 76bd 00ba 70ba 6bcf bec0
000002f0: 2604 b7c0 24c9 bbc0 6d50 c3c0 8ccd 5e3e
00000300: f419 993e b452 403e 8061 acbb 0eb1 dfbd
00000310: 4045 2f3e f42d 5fbd 4b7b b1c1 0af9 7dbe
00000320: ed3a b4c1 7be9 1cbe 28ba b0c1 0c01 103e
00000330: 90bf 703e 4e7c 1f3e cda4 12be 2c59 55be
00000340: 552a 2bbe 3bf6 94c0 e07c b2c0 26e4 a6c0
00000350: 93ed a5c0 c963 b9c0 6046 b33d 549d 0e3e
00000360: e0a5 babd e056 4dbd 662e 8ebe 78c4 803d
00000370: 1b0e 91c0 6c7b cec0 c467 89c0 8cf1 8ec0
00000380: 0092 b6bc 00ba 703c 9416 673e 62ed 913e
00000390: a474 8a3d 602b 49be c8ff cd3d d67d 19be
000003a0: f6d8 49be a610 c6c0 e1d7 b7c0 1077 64bd
000003b0: f053 8d3e 4a25 80be 70b0 923c faa1 26be
000003c0: 908c b4bc 2ae7 823e 78b8 1ebe 7d48 31be
000003d0: de7c c8bd c0ac 983c f2a6 98bd 10d1 9d3c
000003e0: 7001 983d 02bb 873e a8d2 2ebe b086 21be
000003f0: 1d1c 25be c2df c6c0 8a36 c1c0 b499 bac0
-5.954166 -5.697549 -5.987 -5.7405605 0.027923435 -0.025139302 -0.14247988 0.050123036
-0.26933786 0.30009097 -0.09296185 -6.3889256 -4.4275327 -4.3472085 -4.4105062 -0.076621026
0.17139482 0.24742836 -0.23983835 -0.03593859 0.06661433 0.098995894 -5.7016873 -5.9455276
-5.858107 -5.9193325 -0.030570537 -0.07601108 -0.14367196 -0.2971717 0.12194583 0.003816098
-0.083808154 -4.749862 -4.370734 -4.5711255 -4.683978 -0.062920734 0.0021533072 0.21429473
-0.18993306 -0.19024102 -0.1647666 0.26782346 -4.317955 -4.333693 -4.862167 -4.57743
-0.26232895 -0.07223782 -0.055152416 -0.02857393 0.19867581 0.24677747 0.17959157 -5.7538505
-5.830846 -5.8431087 -5.7442207 -0.19924912 0.2766224 -0.18835118 -0.028355926 -0.17946751
0.18052512 0.101071835 -4.3176355 -4.787227 -4.627694 -4.3105083 -0.01253745 -0.179652
0.17036262 0.07515815 -0.05510342 -0.24265832 0.16269428 -4.49078 -4.7315593 -4.426518
-4.39942 0.08033925 -0.06572844 -0.20471418 -0.2483928 -0.10245463 -0.047391385 -0.062438592
-5.288355 -0.06243694 -5.706329 -5.7359457 0.08789286 -0.10974139 -0.057241738 0.00034677982
-0.08637445 0.28728437 0.10738802 -6.017312 -5.955634 -5.697316 -6.147824 0.033971936
-0.2857219 -0.28918526 -0.16639858 0.29627854 -0.09140836 -0.010292798 -6.045551 -1.2389214
-13.248373 -13.229466 -0.28388476 0.08625731 -0.13823675 -0.0900297 0.28727943 0.18530017
-0.15185998 -6.6099443 -4.662804 -4.446491 -4.436914 0.067561865 0.16061461 -0.15553392
-0.16801961 0.024128407 0.043934435 0.24561 -4.393526 -4.4072223 -4.2723737 -4.5277557
-0.13139097 -0.18877089 -0.27277678 0.15754265 0.1665987 0.015221924 -0.13099822 -5.8435597
-5.8838453 -5.690777 -5.8887224 -0.22811587 0.063714236 0.09930852 0.116220355 0.013629347
0.212232 0.14590412 -0.092583835 -5.3360653 -5.503104 -5.1784267 0.17151356 -0.13157935
0.017271131 -0.03830257 0.30073214 -0.18863976 -0.29770827 -4.438978 -4.5646152 -4.4442325
-4.589383 0.20246404 -0.2994901 -0.122154176 0.14632207 -0.061705932 0.15705064 -0.16147469
-4.7687025 -4.811854 -4.2605247 -4.494148 -0.020412832 -0.24774206 0.1814385 -0.0407151
-0.28968695 -0.06023878 -0.00091829896 -5.9628196 -5.7192564 -5.8683033 -6.1035676 0.21758097
0.29902613 0.18781549 -0.0052606463 -0.109224424 0.1711626 -0.054487184 -22.185202 -0.24802032
-22.528772 -0.1532344 -22.090897 0.140629 0.23510575 0.15574762 -0.14320679 -0.20834798
-0.16715367 -4.6550574 -5.5777435 -5.21535 -5.1852508 -5.793431 0.08753657 0.13927203
-0.091136694 -0.05013168 -0.27769774 0.062874734 -4.532972 -6.452566 -4.2939167 -4.4669857
-0.022286415 0.014692783 0.22567207 0.2850142 0.06760529 -0.19645452 0.10058552 -0.14989409
-0.1971167 -6.1895323 -5.7451024 -0.05577761 0.27603102 -0.2502845 0.017906398 -0.16272727
-0.022039682 0.2556699 -0.15500057 -0.17312808 -0.097894415 0.018637061 -0.07453717 0.019264728
0.07422149 0.26509863 -0.17072546 -0.15774035 -0.16124006 -6.214814 -6.0379076 -5.8312626

0.bias f4 [150]
00000000: ba91 b9c0 8f00 9bc0 ff69 c2c0 3eae 8ec0
00000010: b1cc 8bc0 26ea bbc0 cf86 8ac0 3451 8ac0
00000020: 600f b6c0 4c32 c6c0 a7f4 53c1 c50d 94c0
00000030: de47 8ac0 b9f7 c8c0 b695 a3c0 025f 8ec0
00000040: 25dd 89c0 9a16 c4c0 cc53 b3c1 4080 a8c0
00000050: ff96 95c0 78a5 b8c0 5bf0 03be f44e c4c0
00000060: 3d97 c1c0 1acc 1ac1 58cf c8c0 6408 71be
00000070: 18dd c8c0 9910 c0c0 31d2 c6c0 e08f c6c0
00000080: 65a5 bac0 9d7a 8ac0 50d5 88c0 bf73 9bc0
00000090: c643 8fc0 86e1 92c0 7c33 e3c1 e871 c8c0
000000a0: 450e 50c1 c16e 62c1 a430 c1c0 e34c 8bc0
000000b0: 6de3 bdc0 b770 8fc0 6673 97bd fd99 57be
000000c0: 3800 db3d 24e7 c2c0 0079 c8c0 44e4 98bd
000000d0: d644 fdc0 ee2d cec0 fa68 bcc0 d3f1 96c0
000000e0: e5cf c6c0 f969 99c0 cd29 bdc0 6127 b8c0
000000f0: 5d0a 31c1 b778 c0c0 4384 98c0 6898 8cc0
00000100: 9475 c1c0 f0ec 973c 60f9 8bc0 f76b 9bc0
00000110: 346f bebd a4eb 9ec1 00e1 fdba 8a53 92c0
00000120: 7333 2dc1 4dd8 a3c1 b8de 70bd aa8e 88c0
00000130: fcb7 c7c0 fd35 b7c0 71be 92c0 813a 89c0
00000140: d525 a4c0 5301 8bc0 50aa 91c0 d717 2bc1
00000150: 4de6 c1c0 7acc 92c0 bb50 96c0 6c03 8fc0
00000160: dda8 adc0 fdb9 29c1 eaac 8dc0 dae2 b9c0
00000170: cbe8 bfc0 c0cf 8cc0 c437 94c0 98d1 9ac0
00000180: 0743 c1c0 6447 ccbd f2ee 80be c26e b8c0
00000190: 1174 24c1 b951 bcc0 215c bfc0 caf5 cfc0
000001a0: 03e3 bac0 e065 103c 890c 8fc0 cf88 8fc0
000001b0: 9028 c9c0 795d 92c0 6c3a b8c0 612a 0bc1
000001c0: e84a 98c0 f112 86c1 ef20 95c0 1faa 20c1
000001d0: e503 e4c1 adab b1c1 c598 c1c0 16a0 c5c0
000001e0: b278 b5bd c351 c0c0 3e4c 89c0 e47c 8ec0
000001f0: 8263 94c0 88ba 8ac0 1c1f 99c0 74dd b6c0
00000200: 34d5 8dc0 f275 99c0 1eec 55c1 7158 21c1
00000210: 4b00 bfc0 443e c8c0 4561 4abe 532f 30c1
00000220: bb93 bfc0 ceab bac0 4a58 dcbd 2560 b9c0
00000230: a688 99c0 0734 b9c0 13b0 99c0 e1b3 c2c0
00000240: d6a6 3ebe de08 b2c0 81c5 95c0 d12a 8bc0
00000250: 34a0 b3c0 95d1 2cc1
-5.799039 -4.843818 -6.075439 -4.45877 -4.3687367 -5.8723326 -4.328956 -4.3224125
-5.689377 -6.1936398 -13.24723 -4.626681 -4.321273 -6.2802396 -5.1120253 -4.4490976
-4.308245 -6.127759 -22.415916 -5.2656555 -4.674682 -5.770199 -0.12884657 -6.134638
-6.0497117 -9.6748295 -6.2753105 -0.23538357 -6.276989 -6.002026 -6.213158 -6.205063
-5.83269 -4.3274674 -4.276039 -4.857879 -4.477023 -4.5900297 -28.400139 -6.2639046
-13.003484 -14.15204 -6.0371876 -4.3531356 -5.934012 -4.482509 -0.073950574 -0.21054836
0.10693401 -6.0907154 -6.2647705 -0.07465413 -7.914653 -6.4431067 -5.8878145 -4.7170196
-6.2128778 -4.794186 -5.9113526 -5.754807 -11.06503 -6.0147357 -4.766145 -4.3936043
-6.045603 0.018545598 -4.3741913 -4.8569293 -0.09298554 -19.865059 -0.0019369423 -4.5726976
-10.825061 -20.480616 -0.05880615 -4.267415 -6.241209 -5.7253404 -4.5857472 -4.2883916
-5.129618 -4.3439116 -4.55204 -10.69332 -6.059363 -4.5874605 -4.697355 -4.4691677
-5.426863 -10.607907 -4.4273577 -5.808942 -5.997167 -4.40036 -4.6318073 -4.838085
-6.039432 -0.09974554 -0.251823 -5.7635202 -10.278337 -5.884976 -5.979996 -6.4987535
-5.8402114 0.008813351 -4.47028 -4.4854503 -6.2862015 -4.57391 -5.7571316 -8.697846
-4.759144 -16.759249 -4.66027 -10.041533 -28.501902 -22.208826 -6.0498986 -6.1757917
-0.088609114 -6.0099807 -4.290557 -4.4527454 -4.637147 -4.33527 -4.7850475 -5.714533
-4.432276 -4.7956476 -13.370146 -10.084092 -5.968786 -6.257601 -0.19763668 -11.011554
-5.9867835 -5.8334723 -0.10759027 -5.7929864 -4.7979307 -5.787601 -4.8027434 -6.084458
-0.1861833 -5.5635824 -4.6803594 -4.3489766 -5.613306 -10.8011675

2.weight f4 [100, 150]
00000000: ec29 bf40 14b5 8fc0 eb03 be40 14de b2c0
00000010: d47d afc0 b67f c040 624a 90c0 d73f 8fc0
00000020: 14f3 cbbc f909 bf40 6194 abbf 2a9d 92c0
00000030: 7bc4 92c0 cb8b bd40 a83f bb3c 66b8 90c0
00000040: b7e6 8ec0 e497 2dbd 37d8 9abd c0db ecba
00000050: 06fd 8fc0 de39 be40 e3f2 43bd 4e2b bf40
00000060: 697b c140 68d9 54bc 6e4f 9b3d 9033 6e3d
00000070: fb4c bf40 663e 00bd 060e c040 aa06 be40
00000080: e0d6 6c3d f8bd 92c0 2203 b1c0 74f9 383d
00000090: 7f4b b1c0 5394 afc0 097f 82c1 7ed8 c140
000000a0: ec78 afbf a8fa 883d 5c67 4b3d a4de 91c0
000000b0: ece5 bf40 efe4 8fc0 a446 a63d faa4 a13d
000000c0: 9885 14bd cc4e 34bd 10da 6f3c f8ea 403d
000000d0: ae0c 02bd 4e68 93c0 a087 7d3d acd4 98bd
000000e0: 5ec1 bf40 9210 91c0 15d2 8abd 0fd2 c040
000000f0: e041 36bb 7b96 9dbd 30b7 afc0 ed92 91c0
00000100: e3e9 a4bd 7823 a4bc 8e1e 963d 83b9 b0c0
00000110: 6602 293d 642f 103d 7091 a3bd 4405 8fc0
00000120: 0062 8cb9 00da 9f3d e254 833d c4eb 91c0
00000130: e3f8 bd40 280b 8b3d 0749 b1c0 bf83 91c0
00000140: cdee 46bd 49e9 90c0 313b 90c0 6e31 c040
00000150: efd0 bd40 c474 91c0 ce1a b3c0 99c5 8fc0
00000160: d6b6 88bd e994 85bd 9da4 90c0 00ab e13a
00000170: cb2e bd40 b526 93c0 37ce 92c0 32d8 afc0
00000180: 9007 d23c f4ea 92bc caf2 6bbd 8122 c040
00000190: 7442 bf40 b9be bf40 6952 be40 85f5 93c0
000001a0: 4a69 bd40 8cee 7d3d a50c 93c0 bcda 8fc0
000001b0: f019 a03d 8f53 b2c0 c9c2 bf40 39db 2ebd
000001c0: fed1 b3c0 1209 993d 6cf3 93c0 7cc0 593d
000001d0: 0efd 82c1 00c6 6639 f02a bbbb ba34 2e3d
000001e0: 7847 8d3d 1a24 c140 c720 b3c0 4508 90c0
000001f0: 847b 93c0 bbfa 8fc0 8391 b1c0 08e1 bd40
00000200: 4ebc b2c0 16fe b2c0 70d3 bebf b2a5 2bbd
00000210: ca05 a23d 815e a6bd 79c8 32bd 18c8 093c
00000220: 4b89 be40 f091 bf40 d813 37bd 78fd 213c
00000230: 6f9d 8fc0 e370 bf40 6ad8 aec0 30cb bd40
00000240: 82e9 05bd 900d a23b a5b5 92c0 2083 b0c0
00000250: 9845 6abd 5444 a13d 97fd c040 893d 92c0
00000260: 1946 bf40 2489 d3c0 6d10 8fc0 c79b bf40
00000270: 2735 8fc0 5f72 92c0 ee0c 12bd d101 c240
00000280: 7c41 bfc0 3179 93c0 0766 93c0 beed bf40
00000290: e10e 8abd 30ff 93c0 e3bc 90c0 1972 c1c0
000002a0: 8ce2 b83c 28f6 42bc ac61 92c0 9e31 bdc0
000002b0: d0b7 a13c c790 c0c0 4cb4 bdc0 a881 033d
000002c0: 2579 c140 ca83 9f3d e6b7 c0c0 e39a bf40
000002d0: 23bd c1c0 85be bd40 90da 27bd 30b5 8fc0
000002e0: 20cb 90c0 8cf4 38bd bfa2 93c0 8ef6 cec0
000002f0: 1b74 82c1 f6ee bfc0 d022 c140 40d8 043b
00000300: 1665 bdc0 90b9 d1c0 fede c140 b049 92c0
00000310: 106d a6bd 9e4c 243d deb4 b6bc 12f9 c0c0
00000320: 8c4f bdc0 40d4 b93c 429a 4cbd c8a1 8fc0
00000330: 327a 8f3d a67f 5dbd f88c bdc0 f7ce 91c0
00000340: 962c c1c0 ab4c be40 66c7 a2bc b4b4 c1c0
00000350: 38f9 93c0 abc9 92c0 7f8e be40 1768 98bd
00000360: fc2d 96bd 1a08 8fc0 b0f3 253d f48f fdbc
00000370: 8035 70bc 91db d0c0 89c9 96bd 40ed 3bbc
00000380: 2a2b 5abd cdc6 cfc0 d28a bfc0 60d5 bfbc
00000390: 7dea 8ec0 f394 91c0 b89e febc f1ab d2c0
000003a0: 105d 90c0 dba2 bf40 ecc5 c0c0 b006 90c0
000003b0: b947 91c0 b904 94c0 4aec 4fbd 0b86 c140
000003c0: b517 93c0 423f 973d 8cec bf40 37d5 8fc0
000003d0: 1089 d1c0 8d9f d0c0 d05a be40 e0de da3c
000003e0: 2c19 9abd ac42 bdc0 0cff bcc0 566e be40
000003f0: eabf be40 1493 8fc0 204f c040 d45e 0fbd
5.9738674 -4.4908543 5.9379783 -5.589609 -5.48411 6.0155897 -4.50908 -4.476543
-0.024896182 5.9699674 -1.3404657 -4.581685 -4.5864844 5.9233146 0.022857502 -4.5225096
-4.4656634 -0.042381182 -0.07560771 -0.0018070862 -4.4996367 5.944564 -0.047839057 5.974036
6.0463147 -0.012991287 0.075835094 0.058154643 5.978147 -0.031309508 6.001712 5.9383135
0.05782211 -4.5856895 -5.5316324 0.045159772 -5.540466 -5.486856 -16.312029 6.0576773
-1.3708777 0.06688434 0.049659118 -4.558428 5.9968166 -4.496696 0.081189424 0.07892795
-0.036260217 -0.04402046 0.0146393925 0.047099084 -0.031750374 -4.6064825 0.06189692 -0.07462439
5.9923544 -4.5332727 -0.06778351 6.025642 -0.002781026 -0.076947175 -5.4911118 -4.5491853
-0.08052423 -0.020036444 0.073300466 -5.5226455 0.041262053 0.035201445 -0.079867244 -4.469393
-0.00026775897 0.07805252 0.064126745 -4.56003 5.9366317 0.06789237 -5.5401645 -4.5473323
-0.048567582 -4.528477 -4.5072255 6.006034 5.9317546 -4.5455036 -5.597022 -4.492871
-0.06675498 -0.06522543 -4.5200944 0.00172171 5.911962 -4.598475 -4.5876727 -5.495141
0.025638372 -0.0179343 -0.05760459 6.004212 5.976862 5.9920316 5.94756 -4.6237206
5.9191027 0.061995074 -4.5952935 -4.495451 0.07817447 -5.5727 5.9925275 -0.042689536
-5.619384 0.07472433 -4.6234646 0.053162083 -16.373562 0.0002200827 -0.0057119057 0.042530753
0.06898397 6.035657 -5.597751 -4.5010095 -4.6088276 -4.4993567 -5.5490127 5.9337196
-5.5854864 -5.5935163 -1.4908276 -0.041906066 0.079112604 -0.08123494 -0.043648217 0.0084095225
5.9542594 5.9865646 -0.04469666 0.009887092 -4.487968 5.98253 -5.4639177 5.931053
-0.032693394 0.0049454644 -4.5846734 -5.5160065 -0.057195276 0.07874361 6.030956 -4.5700116
5.977307 -6.610491 -4.470755 5.987766 -4.4752383 -4.5764613 -0.035656862 6.0627217
-5.9767437 -4.608544 -4.6062045 5.9977713 -0.06741119 -4.624901 -4.5230575 -6.045178
0.022568963 -0.011899509 -4.574423 -5.912307 0.019740969 -6.017673 -5.928259 0.03210607
6.046038 0.07788809 -6.0224485 5.987657 -6.054338 5.929507 -0.04097992 -4.4908676
-4.5247955 -0.045155093 -4.6136165 -6.467597 -16.306692 -5.99792 6.0354996 0.0020270497
-5.9185896 -6.5539017 6.0584707 -4.571495 -0.08126271 0.04011213 -0.022303041 -6.030404
-5.9159603 0.022684216 -0.0499518 -4.4884987 0.07005729 -0.054076813 -5.923458 -4.5565143
-6.0366926 5.946859 -0.019870471 -6.0533085 -4.624172 -4.5871177 5.9548945 -0.074417286
-0.073329896 -4.469739 0.0405156 -0.030952431 -0.014661193 -6.5268025 -0.073626585 -0.011470139
-0.05326382 -6.4930177 -5.985696 -0.023417175 -4.466124 -4.5494323 -0.031081542 -6.583489
-4.51136 5.98863 -6.0241604 -4.5008163 -4.540005 -4.6255765 -0.050762452 6.0476127
-4.596644 0.07385112 5.9976254 -4.494777 -6.5479813 -6.5194764 5.9485855 0.026717603
-0.075243324 -5.9143887 -5.9061337 5.9509687 5.960927 -4.486704 6.009659 -0.035002545

2.bias f4 [100]
00000000: c6b2 4ac1 8c1b ebc0 47ef a5c0 0a7a c0c0
00000010: 12f8 85c1 526b ebc0 f121 70c0 092a c7bf
00000020: d0cb acc0 c961 92c0 71cb bec0 4fa8 bec0
00000030: fc35 efc0 24c9 99c0 c7e6 15c1 fa36 fdbf
00000040: a9ce abc0 4726 2cc1 de2a bdc0 a126 91c0
00000050: ed81 eac0 cee4 a4c0 2a24 bdc0 f568 b2c0
00000060: 1fc8 efc0 6d9d acc0 cd55 bdc0 cb22 c0c0
00000070: e6d4 99c0 0ebb a9c0 296b bdc0 0d38 bec0
00000080: 6f2a aac0 b5a8 56c1 6b02 c1c0 cf40 efc0
00000090: 0e8c bec0 329a 34c1 6abe 7abf a3f5 f0c0
000000a0: e16e ecc0 570c 0ac1 89b2 e7c0 d611 c1c0
000000b0: 793e 93c0 891e 80c0 ef38 a4c0 1e42 bfc0
000000c0: 5b59 c0c0 4b4c eac0 dd53 edc0 3a0e 95c0
000000d0: ea86 eec0 6194 efc0 647f b3c0 8f4e ecc0
000000e0: 6e63 edc0 c5c7 c0c0 455e 92c0 dc0a 98bf
000000f0: c91f edc0 0b49 fbc0 8705 edc0 589d adc0
00000100: db5f ebc0 5c68 eec0 10e7 35c1 263f 94c0
00000110: 3105 a3c0 5ade eac0 c811 c0c0 466a aac0
00000120: 9d01 bec0 824e 39c1 e05f 16c1 ed74 a5c0
00000130: 7aef bec0 d93f 11c1 d054 74c0 8304 edc0
00000140: 2b60 b2c0 826d ecc0 5126 bec0 8ea1 bec0
00000150: c2a3 bec0 0cf5 c1c0 aefc 71c0 f7d8 eec0
00000160: 23fd f0c0 efe6 95c0 4a40 01c1 7a6a c0c0
00000170: 4ea0 dac0 7d75 f1c0 738d e8c0 50c0 0ac1
00000180: 09a9 0fc0 f2d5 94c0 6181 ba41 b508 0ec1
-12.668646 -7.3471127 -5.1854587 -6.0148973 -16.746128 -7.3568506 -3.7520716 -1.5559703
-5.3998795 -4.5744367 -5.962334 -5.9580455 -7.47534 -4.8058033 -9.368842 -1.9782403
-5.368977 -10.759345 -5.911483 -4.5359654 -7.32836 -5.1529303 -5.9106646 -5.575312
-7.493179 -5.394217 -5.9167237 -6.004247 -4.8072386 -5.304084 -5.919331 -5.944342
-5.31768 -13.416188 -6.031545 -7.476661 -5.9545965 -11.287645 -0.979468 -7.529985
-7.388535 -8.628013 -7.240544 -6.0334272 -4.601376 -4.0037274 -5.13195 -5.976821
-6.0109076 -7.321813 -7.416487 -4.6579866 -7.453969 -7.4868627 -5.6093006 -7.3845897
-7.4183874 -6.024386 -4.5740075 -1.1878314 -7.41013 -7.8526664 -7.4069247 -5.425457
-7.355451 -7.450239 -11.368912 -4.6327085 -5.0943837 -7.3396425 -6.0021706 -5.325473
-5.937697 -11.581667 -9.398407 -5.170523 -5.966733 -9.078088 -3.8176765 -7.4068007
-5.5742393 -7.3883677 -5.9421773 -5.957221 -5.95749 -6.061163 -3.7810473 -7.463985
-7.5309005 -4.68444 -8.078196 -6.0129976 -6.8320684 -7.545592 -7.2672668 -8.671951
-2.244692 -4.6511164 23.313173 -8.877126

4.weight f4 [5, 100]
00000000: 1a95 ae40 a670 9040 e64c aabf d588 bdc0
00000010: f280 4bbf 86bb 9640 1487 a240 82bd 6a40
00000020: 8eb1 abc0 defd 9140 1feb cbbd 8f1f bdc0
00000030: 8256 9040 5a1e 5ebf 1763 9a41 d958 5cc0
00000040: 2d5b 96bf 371c 4ec0 88af c0c0 aee0 9140
00000050: 7dba 8e40 df16 a8c0 c397 4bbd f0da b0bf
00000060: 9157 9040 91dd a8c0 ab1e bec0 113f bec0
00000070: 0893 acc0 d6ae 8fbd a2b9 bcc0 f3e2 bcc0
00000080: 9d66 c140 b208 4a3f 58a7 c1c0 c152 8f40
00000090: 88b3 bcc0 6db0 8e40 ae5d 45c0 e12a 9040
000000a0: f866 8f40 1ac4 b240 4f53 9040 11bd bfc0
000000b0: 77b7 8f40 d12b 62bf 2ac4 a4c0 ac4d bec0
000000c0: f41e 10bd 7d4d 8e40 7308 9140 5aa1 55bf
000000d0: c25b 9040 429f 8e40 4182 ae40 6c91 8f40
000000e0: 9843 8e40 3f8d bcc0 92dd 9040 8306 c1be
000000f0: 217c 8e40 d78e 693f f921 9040 2303 adc0
00000100: 2673 8e40 95f8 8f40 50fc 8f40 a0e9 9040
00000110: 6fd8 95bf 1b4f 9240 096e c0c0 53be adc0
00000120: e9ba bcc0 99dc 8e40 1937 8941 fbde a4c0
00000130: 33a1 bcc0 16e9 9040 a46d 4d3f 66db 8f40
00000140: 8c17 b040 36b1 9040 58e1 d0bc be76 bcc0
00000150: a25e bdc0 5d6c bfc0 b313 61bf 905e 8f40
00000160: 6c48 9840 fe2a 84bf 651e 9340 8a63 bfc0
00000170: e526 8040 f650 9440 d5ec 8f40 4c28 8e40
00000180: 8331 81bf 890d 9240 6abf b241 4b8b 8e40
00000190: 115d 8f40 0fd8 9340 7b37 75be bb1f c0c0
000001a0: 1631 90bf 4d30 e940 9fc4 3441 111b d6bf
000001b0: 9c2e a840 72b4 9040 d066 bdc0 9b6c bdc0
000001c0: 35ce 8f40 7dcc a73e 489d 9640 2c17 2ac0
000001d0: 468b a33e 2f85 f8bf f64d bdc0 9dd2 8e40
000001e0: 611f 9040 2f86 a8c0 963d bdc0 244d 183d
000001f0: 135b 9140 1479 a7c0 9e32 bdc0 e515 bfc0
00000200: a524 ac40 b7d5 21bd 697f c0c0 2a14 c0c0
00000210: d3c9 3a40 bfa1 ee3e e08e bdc0 ade2 9340
00000220: c6c8 bdc0 f3b2 b340 65dc 68c0 3379 9340
00000230: 0141 9140 77c1 9340 dd4b 8e40 d8e7 bfc0
00000240: 0149 9240 eb3e 93be cda5 a4c0 ba9c bec0
00000250: 1d37 c0c0 8bf9 8f40 de2c 8e40 c429 ed3e
00000260: 9e3b 8f40 9483 9240 2e9d af40 392b 9240
00000270: 110d 8f40 1778 bcc0 d7ec 8f40 d8f5 e6bd
00000280: 821e 8f40 2f00 9fc0 c77e 9440 ae75 ab40
00000290: bf79 9340 e932 9040 9342 b440 1719 9340
000002a0: 111f e9bd 2ca4 8e40 b912 bfc0 a3b8 56bd
000002b0: 0be9 bcc0 dd04 b240 4c26 8640 4570 a4c0
000002c0: fb0b c2c0 af1f 9440 d52d 1b3f 2b0b 9240
000002d0: 25eb b040 b9b4 9040 7197 bec0 5e5d c1c0
000002e0: 923f bdc0 659d bdc0 f329 5fbe 31a3 9340
000002f0: 57c9 a03f 56ee 453e fe2e 9040 b60c bec0
00000300: 0f88 b140 e775 9040 4578 9040 3440 8f40
00000310: 9ee9 093f 6858 9140 6ff6 af41 6dc6 9240
00000320: 478c 9640 4210 6940 9d8f b0c0 94cc c0c0
00000330: 61c3 72bf 749a a140 4674 48c1 cdf8 ecbe
00000340: 1222 abc0 83f1 9140 9ba0 bcc0 8bdd 803d
00000350: f378 7840 a60a 96c0 dfd7 e0c1 b9d2 0fc0
00000360: ecc8 adc0 270a 59c0 87b6 bdc0 dd84 9240
00000370: 81f3 7d40 e7ca a5c0 2888 bcc0 cf34 b7c0
00000380: 4430 6b40 1ea9 033d e8b6 c0c0 a429 bdc0
00000390: f8ca 98c0 6f53 a740 2c22 c1c0 a6d8 bec0
000003a0: e318 b440 e616 7d3f 7f08 bfc0 e532 923f
000003b0: d2f2 bcc0 f1b8 8740 1915 43c0 41bf 8640
000003c0: 97e9 7e40 5407 6b40 d3c6 7c40 459f bdc0
000003d0: 9992 9040 9b17 50c0 8b26 a5c0 6313 bec0
000003e0: 7ad9 bdc0 2f24 8040 1691 8040 7392 97c0
000003f0: 2e00 8040 7ec4 7640 c818 b140 6613 7d40
5.455701 4.513751 -1.3304718 -5.922953 -0.7949363 4.710391 5.078989 3.6678166
-5.365424 4.5622396 -0.09956955 -5.9101024 4.51056 -0.8676506 19.298384 -3.4429228
-1.1746575 -3.220472 -6.021427 4.5586767 4.4602647 -5.252792 -0.049705278 -1.3816814
4.5106893 -5.2770467 -5.9412436 -5.9451985 -5.392948 -0.07015769 -5.8976603 -5.902704
6.043776 0.7891952 -6.0516777 4.478852 -5.8969154 4.4590364 -3.0838428 4.5052342
4.4813194 5.586438 4.5101695 -5.9918294 4.4911456 -0.8834811 -5.148946 -5.9469814
-0.03518577 4.446959 4.5322814 -0.8344933 4.511201 4.4569407 5.4534 4.4865017
4.445751 -5.892242 4.527047 -0.3770028 4.4526525 0.9123358 4.504147 -5.406633
4.451556 4.4990945 4.49955 4.5285187 -1.1706675 4.5721564 -6.013432 -5.429483
-5.897816 4.4644284 17.151903 -5.1522193 -5.8946776 4.528453 0.80245423 4.495532
5.5028744 4.521632 -0.025498077 -5.889495 -5.917802 -5.981978 -0.87920684 4.4802933
4.7588406 -1.032562 4.5974603 -5.980901 4.004748 4.634883 4.49766 4.442419
-1.0093235 4.5641522 22.343464 4.4545035 4.4801106 4.6201243 -0.23946945 -6.0038733
-1.126498 7.287146 11.298003 -1.672701 5.2556896 4.522027 -5.9188004 -5.9195075
4.4939218 0.327732 4.7066994 -2.6576643 0.31942195 -1.9415644 -5.9157667 4.4632096
4.5038304 -5.26638 -5.913768 0.037182942 4.5423675 -5.23353 -5.912429 -5.9714227
5.379473 -0.039510455 -6.015553 -6.0024614 2.9185684 0.46607777 -5.923691 4.6214204
-5.9307585 5.6155944 -3.6384518 4.608545 4.539185 4.6173663 4.4467607 -5.9970512
4.5714116 -0.2875894 -5.1452394 -5.9566317 -6.0067277 4.499212 4.442977 0.46320927
4.4760275 4.578562 5.487937 4.567776 4.470345 -5.8896594 4.497661 -0.1127736
4.472474 -4.9687724 4.6404757 5.358115 4.6086116 4.5062146 5.6331267 4.5968127
-0.113828786 4.4575405 -5.9710355 -0.052422177 -5.9034476 5.5630937 4.192175 -5.138705
-6.0639625 4.6288676 0.6061681 4.5638633 5.528704 4.522061 -5.9559865 -6.0426474
-5.91401 -5.925463 -0.21793346 4.613671 1.2561444 0.19329199 4.5057364 -5.9390516
5.5478587 4.5143924 4.5146813 4.4765873 0.53872097 4.542042 21.995329 4.586722
4.7046237 3.6416173 -5.517531 -6.024973 -0.94829375 5.050104 -12.528387 -0.4628357
-5.347909 4.5607314 -5.894605 0.06292256 3.8823822 -4.6888 -28.105406 -2.2472365
-5.4307766 -3.3912446 -5.928531 4.5787187 3.9679873 -5.1810184 -5.8916206 -5.7251964
3.674821 0.032143705 -6.0223274 -5.911333 -4.7747765 5.228935 -6.0354214 -5.9639463
5.628038 0.98863065 -5.969787 1.1421782 -5.904641 4.241326 -3.0481627 4.2108464
3.9830072 3.6723223 3.9496353 -5.925692 4.517895 -3.2514408 -5.160955 -5.9398665
-5.9327974 4.004417 4.0177107 -4.736627 4.000022 3.855743 5.534275 3.954309

4.bias f4 [5]
00000000: 2292 0641 946c e340 8207 3041 5c75 0441
00000010: 20c0 3f42
8.410677 7.107004 11.001833 8.278652 47.937622
