trained_dqn_agent.pth (torch, 680144 bytes, 24 tensors)

0.weight f4 [150, 11]
0	0x4075ee36	3.8426642
1	0x41e75852	28.918125
2	0x41bddf5c	23.734062
3	0x404750d6	3.1143088
4	0xbdcb9c22	-0.09941889
5	0xc1903fbb	-18.031118
6	0xc1ce6551	-25.79947
7	0xc1934fc8	-18.413956
8	0xc2218323	-40.378063
9	0x4181d678	16.229721
10	0xc1e922ba	-29.141956
11	0xc0cec4d4	-6.461527
12	0xc0c89ca9	-6.2691236
13	0xc0c9937e	-6.2992544
14	0xc08f95cd	-4.487036
15	0xc0c7347a	-6.225156
16	0xc0d3b83e	-6.6162405
17	0xc09619c4	-4.690645
18	0xc08bfd82	-4.374696
19	0xc088507b	-4.2598243
20	0x4094c1c7	4.6486545
21	0xc0946920	-4.6378326
22	0xc0c8a2fe	-6.2698965
23	0xc0b6703c	-5.7012005
24	0xc0c8d4e3	-6.275987
25	0xc0b95d1c	-5.792616
26	0xbe791343	-0.24323754
27	0xc0bfdac9	-5.995457
28	0xc0bedcc2	-5.964448
29	0xc0c7b238	-6.240505
30	0x40bb5c82	5.8550425
31	0x40c5c999	6.180859
32	0xc0bef63e	-5.967559
33	0xc0c0b572	-6.022149
34	0xc0ced49a	-6.4634523
35	0xc0c2ffc0	-6.0937195
36	0xc0bc1447	-5.8774753
37	0xc0b6bde3	-5.7106795
38	0xc0ca4db0	-6.3219833
39	0xc08c902a	-4.392598
40	0xc099b2a3	-4.8030562
41	0x40d471cb	6.6388907
42	0x40b7b076	5.7402906
43	0x4090fd14	4.5308933
44	0xc0945f09	-4.636601
45	0xc09424d0	-4.6294937
46	0xc0884a27	-4.259052
47	0xc0cd208b	-6.4102225
48	0xc08023a4	-4.0043507
49	0xc0cd2cb1	-6.4117055
50	0xc0c92073	-6.285211
51	0xc0dc718e	-6.8888617
52	0x408f2586	4.4733305
53	0x40cbd313	6.369516
54	0x409854f6	4.760371
55	0x41cfa2f1	25.954561
56	0xc15c9b3a	-13.787897
57	0xc15c5662	-13.77109
58	0xc0beaf5d	-5.9589067
59	0x3d9aa3ab	0.075507484
60	0xc15f76d2	-13.966509
61	0x41cf0d00	25.881348
62	0xc206a73c	-33.663315
63	0x40de0da9	6.9391675
64	0xc12072fe	-10.028074
65	0x3fdf6425	1.7452437
66	0xc0d67994	-6.702341
67	0xc08ac56f	-4.336601
68	0xc0d512d2	-6.6585474
69	0xc097dd45	-4.7457604
70	0xc0be10de	-5.939559
71	0xc0d1099e	-6.532424
72	0xc0c98aca	-6.298192
73	0xc098ad81	-4.7711797
74	0x408d6fb7	4.419887
75	0xc09aaba5	-4.8334527
76	0x4099abb8	4.8022118
77	0xc090d750	-4.5262833
78	0xc08e0da6	-4.439166
79	0xc0948434	-4.641138
80	0xc0921e97	-4.566234
81	0xc0d806f4	-6.750849
82	0xc0989b9b	-4.768995
83	0xc0d87627	-6.764423
84	0xc0d97254	-6.795206
85	0x40982d7d	4.755553
86	0x40cf8105	6.4844995
87	0xc096e052	-4.714883
88	0xc0924849	-4.571324
89	0x41b8ee15	23.116251
90	0x41193ada	9.576868
91	0xc09653f0	-4.6977463
92	0xc09e2706	-4.9422636
93	0x410054a8	8.020668
94	0x4120047d	10.001096
95	0x41e07719	28.058153
96	0xc2165028	-37.578278
97	0x4185d715	16.73002
98	0xc2283c9c	-42.05919
99	0xc0bf449b	-5.9771247
100	0xc0c050b6	-6.0098524
101	0xc0b7b645	-5.7409997
102	0xc0b8b280	-5.7717896
103	0xc0c86417	-6.262218
104	0xc0c588cf	-6.1729503
105	0xc0c57205	-6.1701684
106	0x40c6057a	6.1881685
107	0x40bab3e5	5.83446
108	0x40c6cb88	6.212345
109	0xc0bf5a11	-5.9797444
110	0x40a6467b	5.1961036
111	0x42183647	38.053005
112	0x41d63329	26.77498
113	0x409333ad	4.600058
114	0x407be188	3.9356403
115	0x419ae266	19.360546
116	0x414a788c	12.65443
117	0x424b7c73	50.871532
118	0xc20d676c	-35.350998
119	0x41b78489	22.939714
120	0xc1d3a588	-26.455826
121	0xc0cd4f26	-6.4159117
122	0xc0b7c083	-5.74225
123	0xc08cdb2c	-4.4017544
124	0xc0d9e640	-6.8093567
125	0xbde322f4	-0.11090651
126	0xc0d2bf41	-6.5858464
127	0xc0d4fc20	-6.655777
128	0xc08aa32a	-4.3324175
129	0x40965f20	4.699112
130	0xc092729e	-4.5764914
131	0x40955af0	4.667351
132	0xc0c264c2	-6.0747995
133	0xc0c58f7c	-6.173765
134	0xbe2edad6	-0.17075667
135	0xc0c2d2c8	-6.08823
136	0x3e6ada2a	0.22934785
137	0xc0ba3cac	-5.819906
138	0xc0c53904	-6.16321
139	0xc0bd8a64	-5.9231434
140	0x40b9cac2	5.8060007
141	0x40b8bef6	5.7733107
142	0xc0bba7ad	-5.864218
143	0xc08b2a1d	-4.348891
144	0xc08ed963	-4.4640365
145	0xc0919652	-4.5495996
146	0xc09081f7	-4.515865
147	0xc0c0c6b5	-6.024256
148	0xc0979a09	-4.737553
149	0xc08ee06e	-4.464896
150	0xc0852452	-4.1606836
151	0x4068ec76	3.6394324
152	0x40db2e0b	6.8493705
153	0xc0cfafc0	-6.490204
154	0xc0c577ca	-6.1708727
155	0xc0ba15f2	-5.815179
156	0xc0b60925	-5.6886163
157	0xc0bb903f	-5.861358
158	0xc0c62d8e	-6.193061
159	0xc0c6f373	-6.217218
160	0xc0bbc7b5	-5.8681283
161	0xc0b8ad7f	-5.7711787
162	0x40c71c68	6.2222176
163	0x40c8566e	6.2605505
164	0xc0b5fad3	-5.686868
165	0xc0bc2ca0	-5.8804474
166	0xc14061f3	-12.023913
167	0xc14acaae	-12.674482
168	0xc0c0056a	-6.000661
169	0xc0c64542	-6.1959543
170	0xc14fd5ed	-12.989728
171	0xc0bed586	-5.963565
172	0xbf2eebff	-0.6832885
173	0x3dd2c26f	0.102909915
174	0xbf1e9411	-0.6194468
175	0x3f17bdb3	0.59273833
176	0xc0b998f4	-5.799921
177	0xc0c15699	-6.041821
178	0xc0b89476	-5.7681227
179	0xc0c33211	-6.0998616
180	0x40c58071	6.171929
181	0xc0ba46ca	-5.8211412
182	0xc0c4dbd6	-6.1518354
183	0xc0bab541	-5.8346257
184	0x40c07088	6.0137367
185	0x40c3077d	6.094664
186	0xc0c814f3	-6.2525573
187	0xc0b6773b	-5.7020545
188	0xc1402654	-12.009357
189	0xc1491d2a	-12.56962
190	0xc0bdc775	-5.930598
191	0xc0c023c8	-6.004368
192	0xc14fd677	-12.98986
193	0xc0c1723b	-6.045194
194	0xbf6d4da4	-0.92696595
195	0x3ee79e14	0.45237792
196	0xbf7e49a7	-0.99331135
197	0x3f1d1ad8	0.61369085
198	0xc090ec50	-4.5288467
199	0xc092299b	-4.567579
200	0xc08d57be	-4.4169607
201	0xc0903442	-4.506379
202	0xc08479e3	-4.1398787
203	0xc090c25f	-4.523727
204	0xc0925735	-4.5731454
205	0xc085a7ef	-4.1767497
206	0x4081be2d	4.054465
207	0x40d56075	6.6680245
208	0xc08bb05f	-4.3652797
209	0xc0b65323	-5.6976485
210	0xc0b8f721	-5.780167
211	0xc0c22cc4	-6.0679646
212	0xc0bb7cb9	-5.858975
213	0x40c7050b	6.2193656
214	0xc0c0b801	-6.0224614
215	0xc0c03de5	-6.0075555
216	0xc0c0844a	-6.0161486
217	0x40c57749	6.170811
218	0x40ba9b96	5.8314924
219	0xc0bfec4b	-5.9975944
220	0xc0934caa	-4.6031084
221	0xc1e377e6	-28.433544
222	0xc1ab864c	-21.440575
223	0xc08ef1ab	-4.4670005
224	0xc0ba0068	-5.8125496
225	0xc080cedb	-4.025251
226	0xc0d48a3f	-6.6418757
227	0xbeb45fd2	-0.35229355
228	0x4168dfcb	14.554637
229	0xc0e6ad91	-7.2086873
230	0x41991e43	19.139776
231	0xc090d1c5	-4.5256066
232	0xc093d937	-4.6202655
233	0xc08fa045	-4.488314
234	0xc0d06813	-6.5127044
235	0xc0874464	-4.2270985
236	0xc0ce6fc2	-6.4511423
237	0xc0d2496b	-6.571462
238	0xc0da0eb1	-6.8142934
239	0x4097d708	4.744999
240	0x40d7a33e	6.738677
241	0x40953848	4.6631203
242	0xc0958710	-4.672737
243	0xc092cbd5	-4.587382
244	0xc093f17f	-4.6232295
245	0xc086ea0f	-4.2160716
246	0xc0b3a2d0	-5.6136246
247	0xc089cf6c	-4.30657
248	0xc0915e7d	-4.542784
249	0xc091a7fc	-4.551756
250	0x40c71e69	6.222462
251	0x408b0b47	4.3451266
252	0xc08d4ca0	-4.4156036
253	0xc09521e5	-4.6603875
254	0xc088f271	-4.279595
255	0xc0b920c9	-5.785252

0.bias f4 [150]
0	0x41fd1109	31.633318
1	0xc0cf1b6d	-6.472098
2	0xc0befd7a	-5.968442
3	0xc0d63921	-6.6944737
4	0xc08948c8	-4.2901344
5	0xc0ee8ace	-7.454444
6	0xc0ca2086	-6.31647
7	0xc09040bb	-4.5079017
8	0x412f3b9f	10.952056
9	0xc0b8d207	-5.775638
10	0x41e1b8ce	28.215237
11	0xc0d84bc7	-6.75925
12	0xc0c2ed7e	-6.0914907
13	0xc0901980	-4.503113
14	0xc0bd94f2	-5.924432
15	0xc148658e	-12.524794
16	0xc0c6323a	-6.193631
17	0xc14a5e82	-12.648073
18	0xc08e3e9f	-4.445144
19	0xc0b7c946	-5.7433195
20	0xc1c4a4fc	-24.580559
21	0xc0907341	-4.514069
22	0xc0939fa1	-4.613236
23	0xc0985c22	-4.7612467
24	0x426ffa6c	59.994553
25	0xc0c21dba	-6.0661287
26	0xc234309d	-45.047474
27	0xc0cdd987	-6.4328036
28	0xc0b37885	-5.608462
29	0xc0d8b098	-6.771557
30	0xc0f4eee4	-7.6541615
31	0xc08e7b56	-4.4525557
32	0xc066c204	-3.6055918
33	0xc09055cd	-4.5104737
34	0xc0890abd	-4.282561
35	0xc0da0e00	-6.814209
36	0xc2152299	-37.283787
37	0xc08e8659	-4.4539
38	0xc235fc0a	-45.49613
39	0xc092f3a4	-4.5922413
40	0xc09ac670	-4.8367233
41	0xc15753b8	-13.457939
42	0xc104d677	-8.30236
43	0xc0c73d7f	-6.226257
44	0xc0908535	-4.5162606
45	0xc0c22ed9	-6.0682187
46	0xc0ca8fc4	-6.3300495
47	0xc092c9eb	-4.587148
48	0xc0c248a7	-6.0713687
49	0xc0963362	-4.6937723
50	0xc0cb2b26	-6.349017
51	0xc0c2ae10	-6.083748
52	0xc16673d0	-14.403275
53	0xc16fb082	-14.980593
54	0xc08e7edb	-4.4529853
55	0xc08734b5	-4.225184
56	0xbe50d7cb	-0.20394818
57	0xc0cc9baf	-6.3940043
58	0xc096513d	-4.697417
59	0xc0c1f22c	-6.060812
60	0x420e27bc	35.538803
61	0xc090fdd3	-4.5309844
62	0xc168cd96	-14.550192
63	0xc0a479c2	-5.139863
64	0xc0c09722	-6.018449
65	0xc0d523c2	-6.660615
66	0xc0996314	-4.7933445
67	0xc0d857d0	-6.7607193
68	0xc08965dd	-4.2936845
69	0xc0d36efb	-6.6072974
70	0xc08b4a8f	-4.3528514
71	0xc0cdb1a4	-6.4279346
72	0xc086bf01	-4.210816
73	0x3cb9a50c	0.022661708
74	0xc15fee42	-13.995668
75	0xc23545e4	-45.318253
76	0xc08dce55	-4.431437
77	0xc0290ded	-2.641475
78	0xc0902595	-4.5045877
79	0x41c7f520	24.99469
80	0xc088aafc	-4.270872
81	0xc0cfe61a	-6.4968386
82	0xc0923dfd	-4.570067
83	0xc0c49e2c	-6.144308
84	0xbe8e5190	-0.27796602
85	0xbe84994b	-0.25898203
86	0x41ca3d2e	25.279873
87	0xc0b9897f	-5.798034
88	0xc0c7e77b	-6.247007
89	0xc1835e7d	-16.421137
90	0xc08b2733	-4.348535
91	0xc0d060b9	-6.511807
92	0xc0926ca8	-4.5757637
93	0xc08f0837	-4.469753
94	0xc2170a0b	-37.759808
95	0xc14c195e	-12.756193
96	0xc234b06d	-45.17229
97	0xc0c073c5	-6.014132
98	0xc08ff6a7	-4.498859
99	0xc0cce6cb	-6.403173
100	0xc086993b	-4.206205
101	0xc0bd10f1	-5.908318
102	0xc0cced80	-6.4039917
103	0xc2369fa7	-45.65591
104	0x4210cbdc	36.19908
105	0xc219b308	-38.424835
106	0xc0b89c44	-5.7690754
107	0xc087c5fb	-4.2429175
108	0xc0be1c11	-5.940926
109	0xc06b9e24	-3.6815271
110	0xc094ec16	-4.653819
111	0x41cc7dc3	25.561407
112	0xc0911dbc	-4.5348797
113	0xc09398ce	-4.612403
114	0xc0c72b2f	-6.2240214
115	0xbd920b33	-0.07131042
116	0x421d287c	39.289536
117	0xc0c78e81	-6.2361455
118	0xc238d5ee	-46.208916
119	0xc0d3bd02	-6.6168222
120	0xc23724d5	-45.78597
121	0xc08c3ef5	-4.382685
122	0xc0457786	-3.0854201
123	0xc0ca055e	-6.313155
124	0xc0909b74	-4.518976
125	0xc08fd104	-4.4942646
126	0xc0c1f7c2	-6.061494
127	0xc08f82b1	-4.4847035
128	0xc087ddcf	-4.2458262
129	0xc0d3421a	-6.601819
130	0xc0c36417	-6.105968
131	0xc0898bf5	-4.2983346
132	0x41c6658b	24.799582
133	0xc0c1068e	-6.03205
134	0xc095d389	-4.682072
135	0xc096ff89	-4.7186933
136	0xc09e3201	-4.943604
137	0xc088e06a	-4.2773943
138	0xc09cd85a	-4.90141
139	0xc098e097	-4.7774158
140	0x421d79c6	39.36892
141	0xc0ccc096	-6.398509
142	0xc0bd5189	-5.916203
143	0xc0bff41b	-5.998548
144	0xc090a249	-4.51981
145	0xc236f3dd	-45.738148
146	0xc0874926	-4.2276793
147	0xc0d7afad	-6.740195
148	0xc098fe3b	-4.781034
149	0xc0c16e6b	-6.0447288

2.weight f4 [100, 150]
0	0xc0b6c47b	-5.7114844
1	0xc0c0f0af	-6.0293803
2	0x40bf7228	5.982685
3	0x40c1efc3	6.060518
4	0xc0e16717	-7.043834
5	0xc0c1a5ce	-6.05149
6	0x40c1edfa	6.0603
7	0xc0e42800	-7.129883
8	0xc0f2d9f1	-7.589104
9	0x40c0d777	6.026302
10	0xc0b83879	-5.7568936
11	0xc0bfa3a0	-5.9887238
12	0x40bd01b3	5.9064574
13	0xc0ed0248	-7.4065285
14	0xc0bd535c	-5.9164257
15	0x40be8b49	5.9545026
16	0xc0be7454	-5.9517
17	0xc0be3813	-5.944345
18	0xc0eb338c	-7.3500423
19	0x40be1d2c	5.941061
20	0xc0e0c7cb	-7.024389
21	0xc0df2425	-6.973162
22	0xc06f6e21	-3.7410967
23	0xc0d2b23c	-6.584257
24	0xc0bf918a	-5.986516
25	0xc0c0b386	-6.0219145
26	0x40be0a18	5.938732
27	0xc0be1250	-5.9397354
28	0x40c225d6	6.0671186
29	0xc0e01943	-7.0030837
30	0xc0e08e87	-7.0173984
31	0xc0e94179	-7.2892423
32	0xbd6c558d	-0.057698775
33	0xc065f334	-3.592969
34	0xc0df7a73	-6.9836974
35	0xc0c03d18	-6.0074577
36	0xc0c09f59	-6.0194516
37	0xc0dfcfd6	-6.9941206
38	0xc0c00d3f	-6.001617
39	0xc0ec85c4	-7.391329
40	0xc067a29b	-3.6192997
41	0xc0a8bd3d	-5.2731004
42	0xc0c1ca8d	-6.0559754
43	0xc0c1148b	-6.0337577
44	0xc0725f7b	-3.7870777
45	0xc0c06a4f	-6.012977
46	0xc0bf5a9c	-5.9798107
47	0xc0e351fa	-7.103757
48	0xc0bf0e99	-5.970532
49	0xc0e4554b	-7.1354117
50	0x40c024f8	6.004513
51	0xc0c0c825	-6.0244317
52	0xc0e13acf	-7.038429
53	0xc111f469	-9.12217
54	0xc071402f	-3.7695425
55	0xc0e2c49e	-7.086501
56	0x3cf2ad01	0.02962351
57	0x406ab00a	3.6669946
58	0xc0beff89	-5.9686933
59	0xc0be60bd	-5.949309
60	0xc0bae339	-5.840237
61	0xc0773fda	-3.8632722
62	0xc0c1b7c2	-6.0536814
63	0xc06b8305	-3.6798718
64	0xc0c09130	-6.017723
65	0xc0c0cc69	-6.0249524
66	0xc0720247	-3.781389
67	0xc0bf2024	-5.9726734
68	0xc06b8e72	-3.6805692
69	0xc0687fcc	-3.6328
70	0xc0dcf0d9	-6.9044003
71	0xc0bd042f	-5.9067607
72	0xc0e1fae1	-7.061875
73	0xbd7bfff3	-0.06152339
74	0xc0c212f7	-6.064815
75	0x40c19241	6.0491033
76	0xc0e31dcd	-7.097388
77	0xc0bc1c29	-5.8784375
78	0xc091b877	-4.5537677
79	0xc0bf496d	-5.977713
80	0xc0ddd4e6	-6.9322386
81	0xc0bf2ee0	-5.974472
82	0xc0700b4a	-3.750689
83	0xc0c18e5f	-6.0486293
84	0x3c6391da	0.013889754
85	0x3c2cea14	0.010553855
86	0x40c0fde8	6.0309944
87	0x40c059cb	6.010961
88	0x4019604d	2.3965027
89	0x3d429639	0.047506545
90	0xc10b0472	-8.688585
91	0xc0bdd5e7	-5.932361
92	0xc070a841	-3.7602694
93	0xc0dff0f7	-6.9981647
94	0xc0bd0feb	-5.908193
95	0xc0bdd846	-5.9326506
96	0xc0bd2eed	-5.9119782
97	0x40c095ac	6.0182705
98	0xc0e6ecf0	-7.216423
99	0x40c0360a	6.0065966
100	0xc0f4c8f8	-7.6495323
101	0xc0bf8a13	-5.985605
102	0xc084b084	-4.1465473
103	0xc0c0c738	-6.0243187
104	0xc0b7ff6b	-5.749929
105	0xc0bfc682	-5.992982
106	0x40be14ba	5.94003
107	0xc0e49fa4	-7.1444874
108	0x3c830ac9	0.015996354
109	0x40bf3b3e	5.9759817
110	0xc0e06a3d	-7.0129685
111	0xc08bec1c	-4.372572
112	0xc076833e	-3.8517604
113	0xc0640cfc	-3.5632925
114	0xc0c23060	-6.068405
115	0xbbde4d29	-0.0067841006
116	0xc0f0e0ed	-7.5274568
117	0xc0bdce26	-5.9314146
118	0xbc547d0c	-0.012969267
119	0xc0c15b43	-6.0423903
120	0xc0c22a46	-6.0676603
121	0xc0e0da18	-7.026623
122	0x3d151657	0.036398258
123	0xc06c90ed	-3.6963456
124	0xc0e72d50	-7.2242813
125	0xc06abd2c	-3.6677961
126	0x3bdabd8b	0.0066754273
127	0xc0e2b237	-7.0842547
128	0xc069dba8	-3.6540318
129	0x40bf7606	5.983157
130	0xc0683d40	-3.6287384
131	0xc0bf3bba	-5.976041
132	0xc0c08e6a	-6.0173845
133	0xc0be8473	-5.953668
134	0xc0dde818	-6.9345818
135	0xc073a557	-3.8069665
136	0xc0e283de	-7.078597
137	0xc0e1efd1	-7.0605245
138	0xc0694109	-3.6445944
139	0xc0e2eadc	-7.0911694
140	0xc0f194a1	-7.549393
141	0xc0c069cc	-6.0129147
142	0xc0bd24f1	-5.9107594
143	0x40c0f276	6.0295973
144	0xc0f7c9c5	-7.74338
145	0xc0beb7ab	-5.9599204
146	0xc06e6841	-3.7251132
147	0xc0c12cad	-6.0367036
148	0xc0ded5fe	-6.963622
149	0xc0c17bf7	-6.0463824
150	0xc0b2c036	-5.5859632
151	0xc08f151f	-4.4713283
152	0xc0bfc46f	-5.9927287
153	0xc0917e0d	-4.546637
154	0xc08f9f6c	-4.4882107
155	0x40c126bf	6.0359797
156	0xc093e456	-4.621623
157	0xc093ee7e	-4.622863
158	0xc0b1b7df	-5.553695
159	0xc0c18030	-6.046898
160	0xc0b0b70c	-5.5223446
161	0xc091de70	-4.558403
162	0x40c0a100	6.0196533
163	0xc0d23fe6	-6.5703
164	0xc0be0f69	-5.939381
165	0xc0bf820c	-5.984625
166	0x40bfe76b	5.9969993
167	0x40bdf930	5.9366684
168	0xc0d1abad	-6.5522065
169	0x40bf0dba	5.9704256
170	0xc0af9fe0	-5.488266
171	0xc0d14b31	-6.5404286
172	0xc09274c0	-4.5767517
173	0xc0cf6b3a	-6.481839
174	0xc0d0384f	-6.5068736
175	0x40c17f7e	6.046813
176	0xc0be351b	-5.9439826
177	0xc09087b9	-4.5165677
178	0xc0cef90e	-6.467902
179	0xc09001f8	-4.5002403
180	0xc090c493	-4.523996
181	0xc092f8e4	-4.592882
182	0x3c52223a	0.012825543
183	0xc0906495	-4.512278
184	0xc091adb5	-4.5524545
185	0xc09050c4	-4.509859
186	0xc0c069f7	-6.012935
187	0xc0924e2d	-4.572043
188	0xc0c1c87b	-6.0557227
189	0xc0cfb993	-6.491403
190	0xc0d113da	-6.5336733
191	0xc090a176	-4.5197096
192	0xc0bfcee4	-5.994005
193	0x40bd1b5f	5.909591
194	0xc091f613	-4.5612884
195	0x40c09150	6.0177383
196	0xc0b26897	-5.5752673
197	0xc090b5dd	-4.5222
198	0x40becf4c	5.962805
199	0xc0909962	-4.5187235
200	0xc08f7f8e	-4.4843206
201	0x40c0bc32	6.022973
202	0xc0b325e4	-5.5983753
203	0xc091f3c4	-4.5610065
204	0xc090ec3c	-4.528837
205	0xc0d237a5	-6.5692925
206	0xb9ff7df3	-0.0004873123
207	0xc08f86d3	-4.485208
208	0xc0d32879	-6.5986905
209	0xc0bf7b70	-5.983818
210	0xc08facce	-4.4898443
211	0xc0d2bfaf	-6.585899
212	0xc091420f	-4.539314
213	0xc0cfe25e	-6.4963827
214	0x40c1403a	6.03909
215	0xc0b3ac1a	-5.6147585
216	0xc091a938	-4.5519066
217	0xc092ec71	-4.5913625
218	0xc0926646	-4.5749846
219	0xc0932f7d	-4.599547
220	0xc09280a7	-4.5782046
221	0xc093c8bc	-4.6182537
222	0xc090d5af	-4.5260844
223	0x3d4e92a3	0.050432812
224	0x40bea5c0	5.957733
225	0x40c00ecd	6.0018067
226	0xc09050b0	-4.5098495
227	0xc0b0640e	-5.5122137
228	0xc08f06a7	-4.469562
229	0xc0cf301b	-6.4746222
230	0xc092edd8	-4.5915337
231	0xc0926311	-4.574593
232	0xc0d2e7fe	-6.5908194
233	0x40c10c80	6.032776
234	0xbd83d52e	-0.06437145
235	0x3d59a677	0.05313727
236	0xc0d200b4	-6.562586
237	0xbc93b7b7	-0.018031938
238	0xc09107a1	-4.5321813
239	0x3d9e728c	0.07736692
240	0xc08fc8cf	-4.493263
241	0xc0935226	-4.603778
242	0xc0d3990b	-6.612432
243	0xc09090a6	-4.5176573
244	0x3d501567	0.05080166
245	0x40bdf8f0	5.936638
246	0xc0bd5390	-5.9164505
247	0xc0c0ec48	-6.028843
248	0xc0d19d31	-6.5504384
249	0xc0d18922	-6.54799
250	0xc090aa71	-4.520806
251	0x40c0bcc1	6.0230412
252	0xc0ceda0a	-6.464116
253	0x40c00bc8	6.001438
254	0xc0b05f25	-5.5116143
255	0xc0bd2ec1	-5.9119573

2.bias f4 [100]
0	0xc0bed63f	-5.963653
1	0xc0914511	-4.539681
2	0xc093fe26	-4.624774
3	0xc0eb483c	-7.3525677
4	0xc0ea9e6f	-7.33184
5	0xc0907607	-4.5144076
6	0xc09473e7	-4.639148
7	0xc08fd265	-4.494433
8	0xc091adb8	-4.552456
9	0xc0904f64	-4.509691
10	0xc1076dca	-8.464304
11	0xc20d1ce3	-35.27821
12	0xc090643e	-4.5122366
13	0xc0933c0b	-4.6010795
14	0xc08ef834	-4.467798
15	0xc09a1e6e	-4.8162146
16	0xc09999ab	-4.8000083
17	0xc1054f7f	-8.331908
18	0xc093afba	-4.615201
19	0xc21b6f6c	-38.85881
20	0xc0d3969e	-6.612136
21	0xc0c0def5	-6.0272164
22	0xc0ec4d71	-7.3844533
23	0xc09a4526	-4.820941
24	0xc1fdb4bb	-31.713247
25	0xc0be1ae9	-5.940785
26	0xc08f7db3	-4.484094
27	0xc0d32951	-6.5987935
28	0xc0eee542	-7.4654856
29	0xc0ebaadd	-7.3646073
30	0xc0909081	-4.5176396
31	0xc18044dd	-16.033625
32	0xc2165184	-37.579605
33	0xc093bc66	-4.616748
34	0xc093a5ed	-4.6140046
35	0xc0b73f67	-5.7264895
36	0xc0cf7c25	-6.4839044
37	0xc0f12577	-7.5358233
38	0xc08f401c	-4.476576
39	0xc097c1f7	-4.7424273
40	0xc209a033	-34.406445
41	0xc0ea32c6	-7.318698
42	0xc0918cf1	-4.5484548
43	0xc093a1ba	-4.613492
44	0xc0ec9092	-7.3926477
45	0xc0987d5d	-4.765303
46	0xc09bffcd	-4.8749757
47	0xc0bf0640	-5.969513
48	0xc0ee7d9f	-7.4528346
49	0xc09adc45	-4.8393884
50	0xc0c04d2c	-6.0094204
51	0xc0bdbd6c	-5.929373
52	0xc0c14af7	-6.040401
53	0xc20c4589	-35.067905
54	0xc090dd3b	-4.5270057
55	0xc09ae47d	-4.8403916
56	0xc098439c	-4.758253
57	0xc0ea9aba	-7.3313875
58	0xc21522f8	-37.28415
59	0xc1170789	-9.43934
60	0xc16712d2	-14.442095
61	0xc095a2b8	-4.676113
62	0xc112e658	-9.181236
63	0xc08f1a0f	-4.471931
64	0xc216e767	-37.72598
65	0xc1028b08	-8.158943
66	0xc0946297	-4.637035
67	0xc0bf0412	-5.969247
68	0xc092b7ef	-4.584953
69	0xc092892e	-4.5792456
70	0xc0d0357f	-6.5065303
71	0xc097fe62	-4.7498026
72	0xc0a08228	-5.015888
73	0xc0eed29b	-7.4632087
74	0xc02ca1a9	-2.697367
75	0xc1125afd	-9.147214
76	0xc091356d	-4.5377717
77	0xc1082f21	-8.511506
78	0xc0b9a975	-5.8019357
79	0xc09a56fe	-4.823119
80	0xc0eea262	-7.457322
81	0xc0915b17	-4.5423694
82	0xc09305e2	-4.594468
83	0xc090a317	-4.5199084
84	0xc08f0712	-4.469613
85	0xc09363e1	-4.6059422
86	0xc0d0775f	-6.5145717
87	0xc0900558	-4.5006523
88	0xc0df60b2	-6.9805536
89	0xc097cc0e	-4.743659
90	0xc0914ff5	-4.5410104
91	0xc216cb23	-37.698376
92	0xc09158ae	-4.542075
93	0xc0c0392a	-6.006978
94	0xc0d21d45	-6.566073
95	0xc08ef319	-4.467175
96	0xc0bee66d	-5.965628
97	0xc0f387d4	-7.6103306
98	0xc09d77a3	-4.920854
99	0xc0c0f8da	-6.0303774

4.weight f4 [5, 100]
0	0xc081797d	-4.04608
1	0x40931d8c	4.597357
2	0x40d2fd69	6.593434
3	0xc0416db5	-3.022321
4	0xc0ec5812	-7.385751
5	0x4092e10b	4.589971
6	0x40cf1970	6.471855
7	0x40b3a608	5.6140175
8	0x40900e69	4.501759
9	0x40d13425	6.5376153
10	0xbfcef331	-1.6167966
11	0xc1c7abea	-24.958942
12	0x40d3eb0b	6.622442
13	0xc0689897	-3.6343133
14	0x40d33103	6.599733
15	0x408eafb5	4.4589486
16	0x4093a2f9	4.613644
17	0xbfc75f32	-1.5575926
18	0x408f0813	4.4697356
19	0xc03bca61	-2.9342272
20	0x40ce507b	6.4473243
21	0xc0be8abf	-5.954437
22	0xc046fcf0	-3.109188
23	0x408f5e63	4.480272
24	0xbd3256f7	-0.043539967
25	0x3d133b80	0.035945415
26	0x40d199ad	6.5500093
27	0x40cea8c4	6.4581013
28	0xc0eea26b	-7.4573264
29	0xc041a415	-3.0256398
30	0x4092142e	4.5649633
31	0xc0811a28	-4.034443
32	0xc0c0225f	-6.0041957
33	0x40cf139e	6.4711447
34	0x408f12ac	4.4710293
35	0x3fbfd424	1.4986615
36	0x40cf9127	6.486469
37	0xc1136d94	-9.214252
38	0x409118b1	4.534264
39	0x4092dbaa	4.5893145
40	0x40983ee0	4.757675
41	0xc0c16f8a	-6.0448656
42	0x40d444f6	6.633418
43	0x40923269	4.5686536
44	0xc03afcb5	-2.921674
45	0x40919274	4.5491276
46	0x40c63a88	6.194645
47	0xc0c11dea	-6.0349016
48	0xc1040d3b	-8.25323
49	0x40d0ca09	6.5246625
50	0x40be2289	5.9417157
51	0xc0bee844	-5.9658527
52	0x40be3c7e	5.9448843
53	0x40268a23	2.6021812
54	0x409065c2	4.5124216
55	0x40d461e4	6.6369495
56	0x40d2bca6	6.5855284
57	0xc03c2077	-2.9394815
58	0xc1c9b0e4	-25.211372
59	0xc1246a3b	-10.275935
60	0xc0bdb03e	-5.927764
61	0x40ce8dd5	6.4548135
62	0xc0bd20b6	-5.910243
63	0x40915a11	4.5422444
64	0x41cdd209	25.727556
65	0xc097abd5	-4.7397256
66	0x40d0002f	6.5000224
67	0x40bcede2	5.9040384
68	0x408eed99	4.4665036
69	0x40d36949	6.606602
70	0x40ce4085	6.445376
71	0x40917acb	4.5462394
72	0x40c0e709	6.0282025
73	0xc0ea6fb3	-7.326135
74	0x40a5d03b	5.1816688
75	0xc0aaee50	-5.341591
76	0x40948fdd	4.6425614
77	0x3db61cf0	0.08892238
78	0x4004b606	2.0736098
79	0x40ceb468	6.4595222
80	0xc04406c6	-3.0629134
81	0x40934a99	4.602856
82	0x40d0157d	6.502623
83	0x40b229d0	5.567604
84	0x40addd19	5.4332395
85	0x40926004	4.5742207
86	0xc0c20bf5	-6.0639596
87	0x40cf85ff	6.485107
88	0xc07000fb	-3.7500598
89	0x40ce3a80	6.444641
90	0x408fc26d	4.4924836
91	0x40c06ea5	6.0135064
92	0x408f097e	4.4699087
93	0x3e0b301a	0.13592568
94	0x40ce97e1	6.45604
95	0x40d1d914	6.557749
96	0x40be992a	5.956197
97	0xc109105f	-8.566497
98	0x407aadd9	3.9168608
99	0xc0becd76	-5.9625807
100	0x40b1b429	5.553242
101	0x4092b6a2	4.584794
102	0x40906989	4.5128827
103	0x4046dff7	3.1074197
104	0x403e0cd2	2.9695325
105	0x408f826c	4.4846706
106	0x408f5800	4.479492
107	0x40b026a4	5.504717
108	0x408f793a	4.483548
109	0x409183e8	4.547352
110	0x3fc60014	1.5468774
111	0x40902217	4.5041614
112	0x40911b9a	4.5346193
113	0x40ad849d	5.422438
114	0x40935ec8	4.60532
115	0x40920b7a	4.563901
116	0x408f0a08	4.4699745
117	0x3fb8e401	1.4444581
118	0x408fe5f0	4.4968185
119	0x4043c36e	3.058803
120	0x40917d34	4.5465336
121	0xc0befcaf	-5.968345
122	0x403ea5b0	2.9788628
123	0x409169e1	4.5441747
124	0xc1fcf1a9	-31.617998
125	0xc0be0c36	-5.9389906
126	0x408ef951	4.467934
127	0x409178b2	4.5459833
128	0x4041189f	3.0171278
129	0x403e6bce	2.9753299
130	0x4093c1d3	4.61741
131	0xc0bc67c7	-5.887668
132	0x41cdadb6	25.70982
133	0x408f003b	4.468778
134	0x4091be0a	4.554448
135	0x40241137	2.5635507
136	0x409177f7	4.545894
137	0x4090b223	4.521745
138	0x4093c4e9	4.617787
139	0x40939434	4.611841
140	0x41d59074	26.695534
141	0xc0c0a20b	-6.0197806
142	0x409417e6	4.6279173
143	0x4093681f	4.60646
144	0x40462f21	3.0966265
145	0x4090f5ef	4.530021
146	0x40903a0b	4.5070853
147	0xc0c0ce34	-6.0251713
148	0x40428c4e	3.0398135
149	0x408e6af5	4.4505563
150	0xc0be69ac	-5.9503994
151	0xc0bcc81e	-5.8994284
152	0xc0bdf5b0	-5.936241
153	0x408ee851	4.465859
154	0x409131b4	4.5373173
155	0x408ef6d3	4.46763
156	0x408f5a77	4.479793
157	0x4043c92d	3.0591538
158	0x408f2a0a	4.4738817
159	0xc1248eec	-10.284893
160	0xc0bf2ac7	-5.973972
161	0x408f8824	4.4853687
162	0x3f932571	1.1495801
163	0x4092acdc	4.583601
164	0xc2167c89	-37.621616
165	0x40889b6d	4.268973
166	0x408ed1c5	4.4631066
167	0xc0c11fc9	-6.03513
168	0x40922fd6	4.5683393
169	0x4092273a	4.5672884
170	0x4093d7bf	4.620086
171	0x40935a9a	4.6048098
172	0x3eb61a96	0.35567158
173	0x40446e9c	3.069251
174	0xc033113f	-2.7979276
175	0x40958fdb	4.6738105
176	0x4091c778	4.555599
177	0x3dc4f873	0.096177004
178	0x40226469	2.5373785
179	0x408ee9a2	4.4660196
180	0x40484037	3.1289194
181	0x408f7377	4.482845
182	0x4091c2fa	4.555051
183	0x40907e9c	4.5154552
184	0xc085d213	-4.181894
185	0x4093e613	4.621835
186	0x408fe1ed	4.496329
187	0x4091efe1	4.560532
188	0x4064302b	3.56544
189	0x408e8b20	4.454483
190	0x40911ab1	4.534508
191	0x41ce3a16	25.778362
192	0x4090cfbe	4.525359
193	0x4037fb36	2.8747077
194	0x409128fc	4.536253
195	0x4091059a	4.531934
196	0xc0bc781f	-5.889663
197	0x40fa822b	7.8283896
198	0xc06f143b	-3.7356098
199	0xc0bd9d58	-5.925457
200	0x40b7d64f	5.7449107
201	0x408f5940	4.479645
202	0x4091e7eb	4.5595603
203	0x4045c38c	3.0900602
204	0x404554ad	3.0832932
205	0x4093b774	4.616144
206	0x408f0868	4.469776
207	0x40afc87e	5.493224
208	0x408f1150	4.4708633
209	0x40902a29	4.5051465
210	0x3fcf4131	1.619177
211	0x40905c4e	4.5112677
212	0x408e7c10	4.4526443
213	0x40698040	3.6484528
214	0x4091036a	4.5316668
215	0x4090d2a8	4.525715
216	0x408e5918	4.4483757
217	0x3fcd2e06	1.602967
218	0x40910110	4.5313797
219	0xc1e532b7	-28.649763
220	0x40922da1	4.56807
221	0xc0bdc9ff	-5.9309077
222	0x40422357	3.033407
223	0x408d7fe3	4.421861
224	0xbd03b64d	-0.032156277
225	0xbd2ad43a	-0.0417063
226	0x4092f739	4.5926785
227	0x408f32db	4.474958
228	0x4046e8ca	3.1079583
229	0x4043d464	3.0598383
230	0x409049c1	4.509003
231	0xc0c19f47	-6.050693
232	0xc0c1dd9c	-6.058302
233	0x408f0c1e	4.470229
234	0x40915093	4.5410857
235	0x402c09e4	2.6881037
236	0x408e6d80	4.4508667
237	0x408caba3	4.3959517
238	0x4091078d	4.5321717
239	0x40916551	4.5436177
240	0xc06179c7	-3.5230577
241	0xc0a7bd5c	-5.241865
242	0x4090abc8	4.5209694
243	0x408f1360	4.471115
244	0x403fdd28	2.9978733
245	0x4090b318	4.521862
246	0x40911bbb	4.534635
247	0xc0bfccf3	-5.993768
248	0x4043a459	3.056906
249	0x4090eb98	4.528759
250	0xc0c014dc	-6.0025463
251	0xc0bd14fc	-5.9088116
252	0xc0bfb3e0	-5.9907074
253	0x4091c6f0	4.5555344
254	0x4090abd1	4.5209737
255	0x4090e311	4.527718

4.bias f4 [5]
0	0x45686a52	3718.645
1	0x4568fdfa	3727.8735
2	0x45690ec6	3728.9233
3	0x456887ce	3720.4878
4	0x45759859	3929.5217

0.weight f4 [150, 11]
0	0x4075ee36	3.8426642
1	0x41e75852	28.918125
2	0x41bddf5c	23.734062
3	0x404750d6	3.1143088
4	0xbdcb9c22	-0.09941889
5	0xc1903fbb	-18.031118
6	0xc1ce6551	-25.79947
7	0xc1934fc8	-18.413956
8	0xc2218323	-40.378063
9	0x4181d678	16.229721
10	0xc1e922ba	-29.141956
11	0xc0cec4d4	-6.461527
12	0xc0c89ca9	-6.2691236
13	0xc0c9937e	-6.2992544
14	0xc08f95cd	-4.487036
15	0xc0c7347a	-6.225156
16	0xc0d3b83e	-6.6162405
17	0xc09619c4	-4.690645
18	0xc08bfd82	-4.374696
19	0xc088507b	-4.2598243
20	0x4094c1c7	4.6486545
21	0xc0946920	-4.6378326
22	0xc0c8a2fe	-6.2698965
23	0xc0b6703c	-5.7012005
24	0xc0c8d4e3	-6.275987
25	0xc0b95d1c	-5.792616
26	0xbe791343	-0.24323754
27	0xc0bfdac9	-5.995457
28	0xc0bedcc2	-5.964448
29	0xc0c7b238	-6.240505
30	0x40bb5c82	5.8550425
31	0x40c5c999	6.180859
32	0xc0bef63e	-5.967559
33	0xc0c0b572	-6.022149
34	0xc0ced49a	-6.4634523
35	0xc0c2ffc0	-6.0937195
36	0xc0bc1447	-5.8774753
37	0xc0b6bde3	-5.7106795
38	0xc0ca4db0	-6.3219833
39	0xc08c902a	-4.392598
40	0xc099b2a3	-4.8030562
41	0x40d471cb	6.6388907
42	0x40b7b076	5.7402906
43	0x4090fd14	4.5308933
44	0xc0945f09	-4.636601
45	0xc09424d0	-4.6294937
46	0xc0884a27	-4.259052
47	0xc0cd208b	-6.4102225
48	0xc08023a4	-4.0043507
49	0xc0cd2cb1	-6.4117055
50	0xc0c92073	-6.285211
51	0xc0dc718e	-6.8888617
52	0x408f2586	4.4733305
53	0x40cbd313	6.369516
54	0x409854f6	4.760371
55	0x41cfa2f1	25.954561
56	0xc15c9b3a	-13.787897
57	0xc15c5662	-13.77109
58	0xc0beaf5d	-5.9589067
59	0x3d9aa3ab	0.075507484
60	0xc15f76d2	-13.966509
61	0x41cf0d00	25.881348
62	0xc206a73c	-33.663315
63	0x40de0da9	6.9391675
64	0xc12072fe	-10.028074
65	0x3fdf6425	1.7452437
66	0xc0d67994	-6.702341
67	0xc08ac56f	-4.336601
68	0xc0d512d2	-6.6585474
69	0xc097dd45	-4.7457604
70	0xc0be10de	-5.939559
71	0xc0d1099e	-6.532424
72	0xc0c98aca	-6.298192
73	0xc098ad81	-4.7711797
74	0x408d6fb7	4.419887
75	0xc09aaba5	-4.8334527
76	0x4099abb8	4.8022118
77	0xc090d750	-4.5262833
78	0xc08e0da6	-4.439166
79	0xc0948434	-4.641138
80	0xc0921e97	-4.566234
81	0xc0d806f4	-6.750849
82	0xc0989b9b	-4.768995
83	0xc0d87627	-6.764423
84	0xc0d97254	-6.795206
85	0x40982d7d	4.755553
86	0x40cf8105	6.4844995
87	0xc096e052	-4.714883
88	0xc0924849	-4.571324
89	0x41b8ee15	23.116251
90	0x41193ada	9.576868
91	0xc09653f0	-4.6977463
92	0xc09e2706	-4.9422636
93	0x410054a8	8.020668
94	0x4120047d	10.001096
95	0x41e07719	28.058153
96	0xc2165028	-37.578278
97	0x4185d715	16.73002
98	0xc2283c9c	-42.05919
99	0xc0bf449b	-5.9771247
100	0xc0c050b6	-6.0098524
101	0xc0b7b645	-5.7409997
102	0xc0b8b280	-5.7717896
103	0xc0c86417	-6.262218
104	0xc0c588cf	-6.1729503
105	0xc0c57205	-6.1701684
106	0x40c6057a	6.1881685
107	0x40bab3e5	5.83446
108	0x40c6cb88	6.212345
109	0xc0bf5a11	-5.9797444
110	0x40a6467b	5.1961036
111	0x42183647	38.053005
112	0x41d63329	26.77498
113	0x409333ad	4.600058
114	0x407be188	3.9356403
115	0x419ae266	19.360546
116	0x414a788c	12.65443
117	0x424b7c73	50.871532
118	0xc20d676c	-35.350998
119	0x41b78489	22.939714
120	0xc1d3a588	-26.455826
121	0xc0cd4f26	-6.4159117
122	0xc0b7c083	-5.74225
123	0xc08cdb2c	-4.4017544
124	0xc0d9e640	-6.8093567
125	0xbde322f4	-0.11090651
126	0xc0d2bf41	-6.5858464
127	0xc0d4fc20	-6.655777
128	0xc08aa32a	-4.3324175
129	0x40965f20	4.699112
130	0xc092729e	-4.5764914
131	0x40955af0	4.667351
132	0xc0c264c2	-6.0747995
133	0xc0c58f7c	-6.173765
134	0xbe2edad6	-0.17075667
135	0xc0c2d2c8	-6.08823
136	0x3e6ada2a	0.22934785
137	0xc0ba3cac	-5.819906
138	0xc0c53904	-6.16321
139	0xc0bd8a64	-5.9231434
140	0x40b9cac2	5.8060007
141	0x40b8bef6	5.7733107
142	0xc0bba7ad	-5.864218
143	0xc08b2a1d	-4.348891
144	0xc08ed963	-4.4640365
145	0xc0919652	-4.5495996
146	0xc09081f7	-4.515865
147	0xc0c0c6b5	-6.024256
148	0xc0979a09	-4.737553
149	0xc08ee06e	-4.464896
150	0xc0852452	-4.1606836
151	0x4068ec76	3.6394324
152	0x40db2e0b	6.8493705
153	0xc0cfafc0	-6.490204
154	0xc0c577ca	-6.1708727
155	0xc0ba15f2	-5.815179
156	0xc0b60925	-5.6886163
157	0xc0bb903f	-5.861358
158	0xc0c62d8e	-6.193061
159	0xc0c6f373	-6.217218
160	0xc0bbc7b5	-5.8681283
161	0xc0b8ad7f	-5.7711787
162	0x40c71c68	6.2222176
163	0x40c8566e	6.2605505
164	0xc0b5fad3	-5.686868
165	0xc0bc2ca0	-5.8804474
166	0xc14061f3	-12.023913
167	0xc14acaae	-12.674482
168	0xc0c0056a	-6.000661
169	0xc0c64542	-6.1959543
170	0xc14fd5ed	-12.989728
171	0xc0bed586	-5.963565
172	0xbf2eebff	-0.6832885
173	0x3dd2c26f	0.102909915
174	0xbf1e9411	-0.6194468
175	0x3f17bdb3	0.59273833
176	0xc0b998f4	-5.799921
177	0xc0c15699	-6.041821
178	0xc0b89476	-5.7681227
179	0xc0c33211	-6.0998616
180	0x40c58071	6.171929
181	0xc0ba46ca	-5.8211412
182	0xc0c4dbd6	-6.1518354
183	0xc0bab541	-5.8346257
184	0x40c07088	6.0137367
185	0x40c3077d	6.094664
186	0xc0c814f3	-6.2525573
187	0xc0b6773b	-5.7020545
188	0xc1402654	-12.009357
189	0xc1491d2a	-12.56962
190	0xc0bdc775	-5.930598
191	0xc0c023c8	-6.004368
192	0xc14fd677	-12.98986
193	0xc0c1723b	-6.045194
194	0xbf6d4da4	-0.92696595
195	0x3ee79e14	0.45237792
196	0xbf7e49a7	-0.99331135
197	0x3f1d1ad8	0.61369085
198	0xc090ec50	-4.5288467
199	0xc092299b	-4.567579
200	0xc08d57be	-4.4169607
201	0xc0903442	-4.506379
202	0xc08479e3	-4.1398787
203	0xc090c25f	-4.523727
204	0xc0925735	-4.5731454
205	0xc085a7ef	-4.1767497
206	0x4081be2d	4.054465
207	0x40d56075	6.6680245
208	0xc08bb05f	-4.3652797
209	0xc0b65323	-5.6976485
210	0xc0b8f721	-5.780167
211	0xc0c22cc4	-6.0679646
212	0xc0bb7cb9	-5.858975
213	0x40c7050b	6.2193656
214	0xc0c0b801	-6.0224614
215	0xc0c03de5	-6.0075555
216	0xc0c0844a	-6.0161486
217	0x40c57749	6.170811
218	0x40ba9b96	5.8314924
219	0xc0bfec4b	-5.9975944
220	0xc0934caa	-4.6031084
221	0xc1e377e6	-28.433544
222	0xc1ab864c	-21.440575
223	0xc08ef1ab	-4.4670005
224	0xc0ba0068	-5.8125496
225	0xc080cedb	-4.025251
226	0xc0d48a3f	-6.6418757
227	0xbeb45fd2	-0.35229355
228	0x4168dfcb	14.554637
229	0xc0e6ad91	-7.2086873
230	0x41991e43	19.139776
231	0xc090d1c5	-4.5256066
232	0xc093d937	-4.6202655
233	0xc08fa045	-4.488314
234	0xc0d06813	-6.5127044
235	0xc0874464	-4.2270985
236	0xc0ce6fc2	-6.4511423
237	0xc0d2496b	-6.571462
238	0xc0da0eb1	-6.8142934
239	0x4097d708	4.744999
240	0x40d7a33e	6.738677
241	0x40953848	4.6631203
242	0xc0958710	-4.672737
243	0xc092cbd5	-4.587382
244	0xc093f17f	-4.6232295
245	0xc086ea0f	-4.2160716
246	0xc0b3a2d0	-5.6136246
247	0xc089cf6c	-4.30657
248	0xc0915e7d	-4.542784
249	0xc091a7fc	-4.551756
250	0x40c71e69	6.222462
251	0x408b0b47	4.3451266
252	0xc08d4ca0	-4.4156036
253	0xc09521e5	-4.6603875
254	0xc088f271	-4.279595
255	0xc0b920c9	-5.785252

0.bias f4 [150]
0	0x41fd1109	31.633318
1	0xc0cf1b6d	-6.472098
2	0xc0befd7a	-5.968442
3	0xc0d63921	-6.6944737
4	0xc08948c8	-4.2901344
5	0xc0ee8ace	-7.454444
6	0xc0ca2086	-6.31647
7	0xc09040bb	-4.5079017
8	0x412f3b9f	10.952056
9	0xc0b8d207	-5.775638
10	0x41e1b8ce	28.215237
11	0xc0d84bc7	-6.75925
12	0xc0c2ed7e	-6.0914907
13	0xc0901980	-4.503113
14	0xc0bd94f2	-5.924432
15	0xc148658e	-12.524794
16	0xc0c6323a	-6.193631
17	0xc14a5e82	-12.648073
18	0xc08e3e9f	-4.445144
19	0xc0b7c946	-5.7433195
20	0xc1c4a4fc	-24.580559
21	0xc0907341	-4.514069
22	0xc0939fa1	-4.613236
23	0xc0985c22	-4.7612467
24	0x426ffa6c	59.994553
25	0xc0c21dba	-6.0661287
26	0xc234309d	-45.047474
27	0xc0cdd987	-6.4328036
28	0xc0b37885	-5.608462
29	0xc0d8b098	-6.771557
30	0xc0f4eee4	-7.6541615
31	0xc08e7b56	-4.4525557
32	0xc066c204	-3.6055918
33	0xc09055cd	-4.5104737
34	0xc0890abd	-4.282561
35	0xc0da0e00	-6.814209
36	0xc2152299	-37.283787
37	0xc08e8659	-4.4539
38	0xc235fc0a	-45.49613
39	0xc092f3a4	-4.5922413
40	0xc09ac670	-4.8367233
41	0xc15753b8	-13.457939
42	0xc104d677	-8.30236
43	0xc0c73d7f	-6.226257
44	0xc0908535	-4.5162606
45	0xc0c22ed9	-6.0682187
46	0xc0ca8fc4	-6.3300495
47	0xc092c9eb	-4.587148
48	0xc0c248a7	-6.0713687
49	0xc0963362	-4.6937723
50	0xc0cb2b26	-6.349017
51	0xc0c2ae10	-6.083748
52	0xc16673d0	-14.403275
53	0xc16fb082	-14.980593
54	0xc08e7edb	-4.4529853
55	0xc08734b5	-4.225184
56	0xbe50d7cb	-0.20394818
57	0xc0cc9baf	-6.3940043
58	0xc096513d	-4.697417
59	0xc0c1f22c	-6.060812
60	0x420e27bc	35.538803
61	0xc090fdd3	-4.5309844
62	0xc168cd96	-14.550192
63	0xc0a479c2	-5.139863
64	0xc0c09722	-6.018449
65	0xc0d523c2	-6.660615
66	0xc0996314	-4.7933445
67	0xc0d857d0	-6.7607193
68	0xc08965dd	-4.2936845
69	0xc0d36efb	-6.6072974
70	0xc08b4a8f	-4.3528514
71	0xc0cdb1a4	-6.4279346
72	0xc086bf01	-4.210816
73	0x3cb9a50c	0.022661708
74	0xc15fee42	-13.995668
75	0xc23545e4	-45.318253
76	0xc08dce55	-4.431437
77	0xc0290ded	-2.641475
78	0xc0902595	-4.5045877
79	0x41c7f520	24.99469
80	0xc088aafc	-4.270872
81	0xc0cfe61a	-6.4968386
82	0xc0923dfd	-4.570067
83	0xc0c49e2c	-6.144308
84	0xbe8e5190	-0.27796602
85	0xbe84994b	-0.25898203
86	0x41ca3d2e	25.279873
87	0xc0b9897f	-5.798034
88	0xc0c7e77b	-6.247007
89	0xc1835e7d	-16.421137
90	0xc08b2733	-4.348535
91	0xc0d060b9	-6.511807
92	0xc0926ca8	-4.5757637
93	0xc08f0837	-4.469753
94	0xc2170a0b	-37.759808
95	0xc14c195e	-12.756193
96	0xc234b06d	-45.17229
97	0xc0c073c5	-6.014132
98	0xc08ff6a7	-4.498859
99	0xc0cce6cb	-6.403173
100	0xc086993b	-4.206205
101	0xc0bd10f1	-5.908318
102	0xc0cced80	-6.4039917
103	0xc2369fa7	-45.65591
104	0x4210cbdc	36.19908
105	0xc219b308	-38.424835
106	0xc0b89c44	-5.7690754
107	0xc087c5fb	-4.2429175
108	0xc0be1c11	-5.940926
109	0xc06b9e24	-3.6815271
110	0xc094ec16	-4.653819
111	0x41cc7dc3	25.561407
112	0xc0911dbc	-4.5348797
113	0xc09398ce	-4.612403
114	0xc0c72b2f	-6.2240214
115	0xbd920b33	-0.07131042
116	0x421d287c	39.289536
117	0xc0c78e81	-6.2361455
118	0xc238d5ee	-46.208916
119	0xc0d3bd02	-6.6168222
120	0xc23724d5	-45.78597
121	0xc08c3ef5	-4.382685
122	0xc0457786	-3.0854201
123	0xc0ca055e	-6.313155
124	0xc0909b74	-4.518976
125	0xc08fd104	-4.4942646
126	0xc0c1f7c2	-6.061494
127	0xc08f82b1	-4.4847035
128	0xc087ddcf	-4.2458262
129	0xc0d3421a	-6.601819
130	0xc0c36417	-6.105968
131	0xc0898bf5	-4.2983346
132	0x41c6658b	24.799582
133	0xc0c1068e	-6.03205
134	0xc095d389	-4.682072
135	0xc096ff89	-4.7186933
136	0xc09e3201	-4.943604
137	0xc088e06a	-4.2773943
138	0xc09cd85a	-4.90141
139	0xc098e097	-4.7774158
140	0x421d79c6	39.36892
141	0xc0ccc096	-6.398509
142	0xc0bd5189	-5.916203
143	0xc0bff41b	-5.998548
144	0xc090a249	-4.51981
145	0xc236f3dd	-45.738148
146	0xc0874926	-4.2276793
147	0xc0d7afad	-6.740195
148	0xc098fe3b	-4.781034
149	0xc0c16e6b	-6.0447288

2.weight f4 [100, 150]
0	0xc0b6c47b	-5.7114844
1	0xc0c0f0af	-6.0293803
2	0x40bf7228	5.982685
3	0x40c1efc3	6.060518
4	0xc0e16717	-7.043834
5	0xc0c1a5ce	-6.05149
6	0x40c1edfa	6.0603
7	0xc0e42800	-7.129883
8	0xc0f2d9f1	-7.589104
9	0x40c0d777	6.026302
10	0xc0b83879	-5.7568936
11	0xc0bfa3a0	-5.9887238
12	0x40bd01b3	5.9064574
13	0xc0ed0248	-7.4065285
14	0xc0bd535c	-5.9164257
15	0x40be8b49	5.9545026
16	0xc0be7454	-5.9517
17	0xc0be3813	-5.944345
18	0xc0eb338c	-7.3500423
19	0x40be1d2c	5.941061
20	0xc0e0c7cb	-7.024389
21	0xc0df2425	-6.973162
22	0xc06f6e21	-3.7410967
23	0xc0d2b23c	-6.584257
24	0xc0bf918a	-5.986516
25	0xc0c0b386	-6.0219145
26	0x40be0a18	5.938732
27	0xc0be1250	-5.9397354
28	0x40c225d6	6.0671186
29	0xc0e01943	-7.0030837
30	0xc0e08e87	-7.0173984
31	0xc0e94179	-7.2892423
32	0xbd6c558d	-0.057698775
33	0xc065f334	-3.592969
34	0xc0df7a73	-6.9836974
35	0xc0c03d18	-6.0074577
36	0xc0c09f59	-6.0194516
37	0xc0dfcfd6	-6.9941206
38	0xc0c00d3f	-6.001617
39	0xc0ec85c4	-7.391329
40	0xc067a29b	-3.6192997
41	0xc0a8bd3d	-5.2731004
42	0xc0c1ca8d	-6.0559754
43	0xc0c1148b	-6.0337577
44	0xc0725f7b	-3.7870777
45	0xc0c06a4f	-6.012977
46	0xc0bf5a9c	-5.9798107
47	0xc0e351fa	-7.103757
48	0xc0bf0e99	-5.970532
49	0xc0e4554b	-7.1354117
50	0x40c024f8	6.004513
51	0xc0c0c825	-6.0244317
52	0xc0e13acf	-7.038429
53	0xc111f469	-9.12217
54	0xc071402f	-3.7695425
55	0xc0e2c49e	-7.086501
56	0x3cf2ad01	0.02962351
57	0x406ab00a	3.6669946
58	0xc0beff89	-5.9686933
59	0xc0be60bd	-5.949309
60	0xc0bae339	-5.840237
61	0xc0773fda	-3.8632722
62	0xc0c1b7c2	-6.0536814
63	0xc06b8305	-3.6798718
64	0xc0c09130	-6.017723
65	0xc0c0cc69	-6.0249524
66	0xc0720247	-3.781389
67	0xc0bf2024	-5.9726734
68	0xc06b8e72	-3.6805692
69	0xc0687fcc	-3.6328
70	0xc0dcf0d9	-6.9044003
71	0xc0bd042f	-5.9067607
72	0xc0e1fae1	-7.061875
73	0xbd7bfff3	-0.06152339
74	0xc0c212f7	-6.064815
75	0x40c19241	6.0491033
76	0xc0e31dcd	-7.097388
77	0xc0bc1c29	-5.8784375
78	0xc091b877	-4.5537677
79	0xc0bf496d	-5.977713
80	0xc0ddd4e6	-6.9322386
81	0xc0bf2ee0	-5.974472
82	0xc0700b4a	-3.750689
83	0xc0c18e5f	-6.0486293
84	0x3c6391da	0.013889754
85	0x3c2cea14	0.010553855
86	0x40c0fde8	6.0309944
87	0x40c059cb	6.010961
88	0x4019604d	2.3965027
89	0x3d429639	0.047506545
90	0xc10b0472	-8.688585
91	0xc0bdd5e7	-5.932361
92	0xc070a841	-3.7602694
93	0xc0dff0f7	-6.9981647
94	0xc0bd0feb	-5.908193
95	0xc0bdd846	-5.9326506
96	0xc0bd2eed	-5.9119782
97	0x40c095ac	6.0182705
98	0xc0e6ecf0	-7.216423
99	0x40c0360a	6.0065966
100	0xc0f4c8f8	-7.6495323
101	0xc0bf8a13	-5.985605
102	0xc084b084	-4.1465473
103	0xc0c0c738	-6.0243187
104	0xc0b7ff6b	-5.749929
105	0xc0bfc682	-5.992982
106	0x40be14ba	5.94003
107	0xc0e49fa4	-7.1444874
108	0x3c830ac9	0.015996354
109	0x40bf3b3e	5.9759817
110	0xc0e06a3d	-7.0129685
111	0xc08bec1c	-4.372572
112	0xc076833e	-3.8517604
113	0xc0640cfc	-3.5632925
114	0xc0c23060	-6.068405
115	0xbbde4d29	-0.0067841006
116	0xc0f0e0ed	-7.5274568
117	0xc0bdce26	-5.9314146
118	0xbc547d0c	-0.012969267
119	0xc0c15b43	-6.0423903
120	0xc0c22a46	-6.0676603
121	0xc0e0da18	-7.026623
122	0x3d151657	0.036398258
123	0xc06c90ed	-3.6963456
124	0xc0e72d50	-7.2242813
125	0xc06abd2c	-3.6677961
126	0x3bdabd8b	0.0066754273
127	0xc0e2b237	-7.0842547
128	0xc069dba8	-3.6540318
129	0x40bf7606	5.983157
130	0xc0683d40	-3.6287384
131	0xc0bf3bba	-5.976041
132	0xc0c08e6a	-6.0173845
133	0xc0be8473	-5.953668
134	0xc0dde818	-6.9345818
135	0xc073a557	-3.8069665
136	0xc0e283de	-7.078597
137	0xc0e1efd1	-7.0605245
138	0xc0694109	-3.6445944
139	0xc0e2eadc	-7.0911694
140	0xc0f194a1	-7.549393
141	0xc0c069cc	-6.0129147
142	0xc0bd24f1	-5.9107594
143	0x40c0f276	6.0295973
144	0xc0f7c9c5	-7.74338
145	0xc0beb7ab	-5.9599204
146	0xc06e6841	-3.7251132
147	0xc0c12cad	-6.0367036
148	0xc0ded5fe	-6.963622
149	0xc0c17bf7	-6.0463824
150	0xc0b2c036	-5.5859632
151	0xc08f151f	-4.4713283
152	0xc0bfc46f	-5.9927287
153	0xc0917e0d	-4.546637
154	0xc08f9f6c	-4.4882107
155	0x40c126bf	6.0359797
156	0xc093e456	-4.621623
157	0xc093ee7e	-4.622863
158	0xc0b1b7df	-5.553695
159	0xc0c18030	-6.046898
160	0xc0b0b70c	-5.5223446
161	0xc091de70	-4.558403
162	0x40c0a100	6.0196533
163	0xc0d23fe6	-6.5703
164	0xc0be0f69	-5.939381
165	0xc0bf820c	-5.984625
166	0x40bfe76b	5.9969993
167	0x40bdf930	5.9366684
168	0xc0d1abad	-6.5522065
169	0x40bf0dba	5.9704256
170	0xc0af9fe0	-5.488266
171	0xc0d14b31	-6.5404286
172	0xc09274c0	-4.5767517
173	0xc0cf6b3a	-6.481839
174	0xc0d0384f	-6.5068736
175	0x40c17f7e	6.046813
176	0xc0be351b	-5.9439826
177	0xc09087b9	-4.5165677
178	0xc0cef90e	-6.467902
179	0xc09001f8	-4.5002403
180	0xc090c493	-4.523996
181	0xc092f8e4	-4.592882
182	0x3c52223a	0.012825543
183	0xc0906495	-4.512278
184	0xc091adb5	-4.5524545
185	0xc09050c4	-4.509859
186	0xc0c069f7	-6.012935
187	0xc0924e2d	-4.572043
188	0xc0c1c87b	-6.0557227
189	0xc0cfb993	-6.491403
190	0xc0d113da	-6.5336733
191	0xc090a176	-4.5197096
192	0xc0bfcee4	-5.994005
193	0x40bd1b5f	5.909591
194	0xc091f613	-4.5612884
195	0x40c09150	6.0177383
196	0xc0b26897	-5.5752673
197	0xc090b5dd	-4.5222
198	0x40becf4c	5.962805
199	0xc0909962	-4.5187235
200	0xc08f7f8e	-4.4843206
201	0x40c0bc32	6.022973
202	0xc0b325e4	-5.5983753
203	0xc091f3c4	-4.5610065
204	0xc090ec3c	-4.528837
205	0xc0d237a5	-6.5692925
206	0xb9ff7df3	-0.0004873123
207	0xc08f86d3	-4.485208
208	0xc0d32879	-6.5986905
209	0xc0bf7b70	-5.983818
210	0xc08facce	-4.4898443
211	0xc0d2bfaf	-6.585899
212	0xc091420f	-4.539314
213	0xc0cfe25e	-6.4963827
214	0x40c1403a	6.03909
215	0xc0b3ac1a	-5.6147585
216	0xc091a938	-4.5519066
217	0xc092ec71	-4.5913625
218	0xc0926646	-4.5749846
219	0xc0932f7d	-4.599547
220	0xc09280a7	-4.5782046
221	0xc093c8bc	-4.6182537
222	0xc090d5af	-4.5260844
223	0x3d4e92a3	0.050432812
224	0x40bea5c0	5.957733
225	0x40c00ecd	6.0018067
226	0xc09050b0	-4.5098495
227	0xc0b0640e	-5.5122137
228	0xc08f06a7	-4.469562
229	0xc0cf301b	-6.4746222
230	0xc092edd8	-4.5915337
231	0xc0926311	-4.574593
232	0xc0d2e7fe	-6.5908194
233	0x40c10c80	6.032776
234	0xbd83d52e	-0.06437145
235	0x3d59a677	0.05313727
236	0xc0d200b4	-6.562586
237	0xbc93b7b7	-0.018031938
238	0xc09107a1	-4.5321813
239	0x3d9e728c	0.07736692
240	0xc08fc8cf	-4.493263
241	0xc0935226	-4.603778
242	0xc0d3990b	-6.612432
243	0xc09090a6	-4.5176573
244	0x3d501567	0.05080166
245	0x40bdf8f0	5.936638
246	0xc0bd5390	-5.9164505
247	0xc0c0ec48	-6.028843
248	0xc0d19d31	-6.5504384
249	0xc0d18922	-6.54799
250	0xc090aa71	-4.520806
251	0x40c0bcc1	6.0230412
252	0xc0ceda0a	-6.464116
253	0x40c00bc8	6.001438
254	0xc0b05f25	-5.5116143
255	0xc0bd2ec1	-5.9119573

2.bias f4 [100]
0	0xc0bed63f	-5.963653
1	0xc0914511	-4.539681
2	0xc093fe26	-4.624774
3	0xc0eb483c	-7.3525677
4	0xc0ea9e6f	-7.33184
5	0xc0907607	-4.5144076
6	0xc09473e7	-4.639148
7	0xc08fd265	-4.494433
8	0xc091adb8	-4.552456
9	0xc0904f64	-4.509691
10	0xc1076dca	-8.464304
11	0xc20d1ce3	-35.27821
12	0xc090643e	-4.5122366
13	0xc0933c0b	-4.6010795
14	0xc08ef834	-4.467798
15	0xc09a1e6e	-4.8162146
16	0xc09999ab	-4.8000083
17	0xc1054f7f	-8.331908
18	0xc093afba	-4.615201
19	0xc21b6f6c	-38.85881
20	0xc0d3969e	-6.612136
21	0xc0c0def5	-6.0272164
22	0xc0ec4d71	-7.3844533
23	0xc09a4526	-4.820941
24	0xc1fdb4bb	-31.713247
25	0xc0be1ae9	-5.940785
26	0xc08f7db3	-4.484094
27	0xc0d32951	-6.5987935
28	0xc0eee542	-7.4654856
29	0xc0ebaadd	-7.3646073
30	0xc0909081	-4.5176396
31	0xc18044dd	-16.033625
32	0xc2165184	-37.579605
33	0xc093bc66	-4.616748
34	0xc093a5ed	-4.6140046
35	0xc0b73f67	-5.7264895
36	0xc0cf7c25	-6.4839044
37	0xc0f12577	-7.5358233
38	0xc08f401c	-4.476576
39	0xc097c1f7	-4.7424273
40	0xc209a033	-34.406445
41	0xc0ea32c6	-7.318698
42	0xc0918cf1	-4.5484548
43	0xc093a1ba	-4.613492
44	0xc0ec9092	-7.3926477
45	0xc0987d5d	-4.765303
46	0xc09bffcd	-4.8749757
47	0xc0bf0640	-5.969513
48	0xc0ee7d9f	-7.4528346
49	0xc09adc45	-4.8393884
50	0xc0c04d2c	-6.0094204
51	0xc0bdbd6c	-5.929373
52	0xc0c14af7	-6.040401
53	0xc20c4589	-35.067905
54	0xc090dd3b	-4.5270057
55	0xc09ae47d	-4.8403916
56	0xc098439c	-4.758253
57	0xc0ea9aba	-7.3313875
58	0xc21522f8	-37.28415
59	0xc1170789	-9.43934
60	0xc16712d2	-14.442095
61	0xc095a2b8	-4.676113
62	0xc112e658	-9.181236
63	0xc08f1a0f	-4.471931
64	0xc216e767	-37.72598
65	0xc1028b08	-8.158943
66	0xc0946297	-4.637035
67	0xc0bf0412	-5.969247
68	0xc092b7ef	-4.584953
69	0xc092892e	-4.5792456
70	0xc0d0357f	-6.5065303
71	0xc097fe62	-4.7498026
72	0xc0a08228	-5.015888
73	0xc0eed29b	-7.4632087
74	0xc02ca1a9	-2.697367
75	0xc1125afd	-9.147214
76	0xc091356d	-4.5377717
77	0xc1082f21	-8.511506
78	0xc0b9a975	-5.8019357
79	0xc09a56fe	-4.823119
80	0xc0eea262	-7.457322
81	0xc0915b17	-4.5423694
82	0xc09305e2	-4.594468
83	0xc090a317	-4.5199084
84	0xc08f0712	-4.469613
85	0xc09363e1	-4.6059422
86	0xc0d0775f	-6.5145717
87	0xc0900558	-4.5006523
88	0xc0df60b2	-6.9805536
89	0xc097cc0e	-4.743659
90	0xc0914ff5	-4.5410104
91	0xc216cb23	-37.698376
92	0xc09158ae	-4.542075
93	0xc0c0392a	-6.006978
94	0xc0d21d45	-6.566073
95	0xc08ef319	-4.467175
96	0xc0bee66d	-5.965628
97	0xc0f387d4	-7.6103306
98	0xc09d77a3	-4.920854
99	0xc0c0f8da	-6.0303774
