trained_buffer/dqn_agent_state_truncated_step25.pth (torch, 679822 bytes, 24 tensors)

0.weight f4 [150, 11]
-37.274406 -36.86253 -6.3239346 -6.5472775 -6.1882014 -6.4131813 -6.3890257 -4.6062665
-4.322935 -4.7989593 -4.482925 -5.705762 -16.083765 -15.9533415 -16.021803 -3.1209636
-16.046618 -6.2459335 -3.9375484 4.153753 -4.0635414 -4.2194467 -6.147304 -5.741
-5.789462 -6.1366367 5.9773393 -6.101894 -5.7760243 -5.952907 -6.2630854 5.9415054
5.9603977 -6.2868156 -5.704827 -5.831376 -5.787142 5.837832 -6.175254 -6.0551915
-5.7552333 -5.983852 5.8084164 6.003641 -6.2560196 -6.0955563 -5.974637 -5.913449
-6.132578 -5.766721 -6.461135 4.5904183 -4.7509165 4.778641 6.150085 -14.693632
-5.808399 -5.7490387 -5.726851 -0.26379177 -6.4471893 -14.7008505 -4.5722723 4.7540054
-4.6588 5.7070656 -5.8560934 -5.86283 -5.9788065 -6.0391226 6.0849113 -5.7668376
-5.8803015 -6.124921 -6.1172886 6.2539787 5.8332496 -25.123135 -16.651018 -18.660448
-25.781385 -5.5790195 -7.424864 -26.067726 4.1699696 -7.833458 1.8973866 -8.476844
-16.423769 7.909048 -30.518625 0.039464563 -145.76378 -30.601122 -5.991644 -11.958691
-0.4623024 -8.395563 8.901421 -5.873285 -5.7429543 -6.1658025 -6.083371 -5.775992
-5.8566127 -6.2786913 5.6884995 6.0477066 5.9784446 6.138546 -33.142338 -60.98799
-60.597878 -33.308643 5.7218328 -33.437958 -33.483177 -5.7006707 7.1886096 -2.5550072
6.984836 -28.847424 -12.45134 -126.688446 7.7221985 -45.058353 -72.52246 -36.415825
-12.569004 -37.51598 -16.864138 25.075869 -5.8352003 -5.849107 -6.02872 -6.129454
-0.15795591 -5.974063 -6.2295523 6.1340866 5.790274 5.818452 5.8025618 -6.2961698
-6.7540026 -6.709483 -6.641388 -5.814027 -4.5038137 -4.7372155 -4.743585 -4.708574
4.441943 4.7105002 -33.582237 -60.613525 -60.63168 -33.54483 -5.6924562 -33.68982
-33.26637 -5.6864905 7.4856033 -3.3210588 6.8636827 -5.544336 -4.474957 -4.4377623
-5.0463443 -4.758302 -4.5198755 -5.057342 -2.4050105 3.7100463 2.2886674 3.7260585
-5.959124 -5.7753386 -5.8631334 -5.843311 -5.7841654 -5.8815517 -5.950606 6.078068
5.9874883 5.837778 5.879478 -6.165075 -4.2818284 -5.0702295 -5.301556 -6.4503603
-4.6659284 -5.8107553 -3.383562 -1.000467 -3.8132129 -5.37894 -5.027255 -4.4936805
-4.73609 -4.898818 -4.8441877 -4.429448 -4.809106 -3.1397848 2.4104862 2.697733
3.4127455 -4.5240755 -6.492177 -4.3625016 -6.553832 6.152953 -6.407176 -6.4476266
4.3492584 4.709575 4.626409 4.5269103 -4.3940806 -4.478486 -5.619828 -5.8095636
-5.282602 -4.717436 -4.7175426 4.5653567 -4.627354 4.446044 4.670311 -5.434286
-4.293215 -4.5995297 -4.5667114 -6.3529015 -4.4592066 -5.329245 -2.39683 0.4827718
0.55007046 3.3673606 -5.933002 -6.032423 -6.002487 -6.1464314 -5.8796053 -6.2154055
-5.7064514 5.7598276 -5.687425 5.897167 6.140583 -5.9380155 -6.1046915 -6.2729454
00000000: fe18 15c2 3b73 13c2 ac5d cac0 4c83 d1c0
00000010: bf05 c6c0 c838 cdc0 e672 ccc0 8966 93c0
00000020: 7c55 8ac0 1391 99c0 1f74 8fc0 9a95 b6c0
00000030: 8dab 80c1 e340 7fc1 a72c 80c1 debd 47c0
00000040: 795f 80c1 b0de c7c0 cb00 7cc0 8beb 8440
00000050: 8808 82c0 b505 87c0 b7b6 c4c0 46b6 b7c0
00000060: 4643 b9c0 545f c4c0 5d46 bf40 b742 c3c0
00000070: 31d5 b8c0 377e bec0 326b c8c0 d020 be40
00000080: 94bb be40 982d c9c0 f18d b6c0 a29a bac0
00000090: 4430 b9c0 85cf ba40 ae9b c5c0 21c4 c1c0
000000a0: df2a b8c0 b77b bfc0 8cde b940 d41d c040
000000b0: 5031 c8c0 cc0e c3c0 3a30 bfc0 f93a bdc0
000000c0: 143e c4c0 fa88 b8c0 9ec1 cec0 b5e4 9240
000000d0: 8207 98c0 a1ea 9840 7fcd c440 1e19 6bc1
000000e0: 68de b9c0 20f8 b7c0 5d42 b7c0 b70f 87be
000000f0: 604f cec0 af36 6bc1 0e50 92c0 d020 9840
00000100: e414 95c0 48a0 b640 1e65 bbc0 4e9c bbc0
00000110: 6252 bfc0 7e40 c1c0 98b7 c240 ef89 b8c0
00000120: 6e2b bcc0 5aff c3c0 d4c0 c3c0 9820 c840
00000130: fba9 ba40 2efc c8c1 4935 85c1 9948 95c1
00000140: 4740 cec1 5487 b2c0 7c98 edc0 b48a d0c1
00000150: 6470 8540 b0ab fac0 90dd f23f 27a1 07c1
00000160: e163 83c1 ec16 fd40 2526 f4c1 98a5 213d
00000170: 87c3 11c3 19cf f4c1 8cbb bfc0 cc56 3fc1
00000180: e6b2 ecbe 3a54 06c1 386c 0e41 f3f1 bbc0
00000190: 48c6 b7c0 414e c5c0 faaa c2c0 edd4 b8c0
000001a0: 5f69 bbc0 0aeb c8c0 3008 b640 d086 c140
000001b0: 6b4f bf40 f86e c440 c191 04c2 b4f3 73c2
000001c0: 3a64 72c2 0d3c 05c2 4119 b740 78c0 05c2
000001d0: c6ee 05c2 e56b b6c0 1709 e640 3d85 23c0
000001e0: c783 df40 86c7 e6c1 b038 47c1 7c60 fdc2
000001f0: 401c f740 c13b 34c2 800b 91c2 cea9 11c2
00000200: a41a 49c1 5d10 16c2 c1e9 86c1 619b c841
00000210: f6b9 bac0 e22b bbc0 46eb c0c0 7d24 c4c0
00000220: 32bf 21be 862b bfc0 7e58 c7c0 704a c440
00000230: ed49 b940 c230 ba40 96ae b940 397a c9c0
00000240: ca20 d8c0 16b4 d6c0 4086 d4c0 820c bac0
00000250: 3e1f 90c0 4597 97c0 73cb 97c0 a3ac 96c0
00000260: 6624 8e40 6bbc 9640 3654 06c2 4074 72c2
00000270: d786 72c2 e82d 06c2 9a28 b6c0 60c2 06c2
00000280: c310 05c2 bbf7 b5c0 108a ef40 3a8c 54c0
00000290: 4aa3 db40 336b b1c0 d932 8fc0 2602 8ec0
000002a0: a77b a1c0 0344 98c0 d2a2 90c0 bfd5 a1c0
000002b0: b1eb 19c0 6671 6d40 8779 1240 be77 6e40
000002c0: 25b1 bec0 93cf b8c0 ca9e bbc0 67fc bac0
000002d0: e217 b9c0 ac35 bcc0 5d6b bec0 887f c240
000002e0: 8199 bf40 14cf ba40 af24 bc40 4b48 c5c0
000002f0: bd04 89c0 523f a2c0 59a6 a9c0 5a69 cec0
00000300: 494f 95c0 b5f1 b9c0 488c 58c0 4d0f 80bf
00000310: ae0b 74c0 4720 acc0 46df a0c0 3bcc 8fc0
00000320: 0d8e 97c0 1ec3 9cc0 9603 9bc0 0abe 8dc0
00000330: 32e4 99c0 3cf2 48c0 6845 1a40 a8a7 2c40
00000340: 6c6a 5a40 3ac5 90c0 eabf cfc0 9d99 8bc0
00000350: feb8 d1c0 fee4 c440 9607 cdc0 f552 cec0
00000360: 202d 8b40 d7b4 9640 8b0b 9440 73dc 9040
00000370: 4f9c 8cc0 c24f 8fc0 a2d5 b3c0 f2e7 b9c0
00000380: 130b a9c0 3cf5 96c0 1cf6 96c0 6717 9240
00000390: 4913 94c0 fe45 8e40 3073 9540 ace5 adc0
000003a0: 0462 89c0 592f 93c0 8022 92c0 f84a cbc0
000003b0: d2b1 8ec0 2d89 aac0 aa65 19c0 de2d f73e
000003c0: 6bd1 0c3f d682 5740 27db bdc0 9c09 c1c0
000003d0: 6014 c0c0 91af c4c0 ba25 bcc0 9ae4 c6c0
000003e0: 409b b6c0 8250 b840 63ff b5c0 98b5 bc40
000003f0: a87f c440 3904 bec0 a259 c3c0 f8bb c8c0

0.bias f4 [150]
-6.350111 -16.383453 -6.1571198 -6.019374 -6.703183 -6.3965263 -6.0196695 -24.929583
235.7103 -5.8893814 -72.82768 208.44275 -6.1474667 -6.3568954 -72.9478 -4.845211
-6.1446176 -4.882925 -4.5728307 -6.621342 -4.606311 -4.9384103 -5.7759423 -6.062681
-4.5437183 -4.957144 -10.630695 -29.470469 -6.4827204 -10.746913 -4.535822 -4.307853
-29.162952 -2.587317 -42.944363 -4.617004 -6.7698526 -7.410244 -4.5793743 -4.6187687
-6.0246305 -6.763151 -12.711842 -5.7726707 -6.1843386 -4.399332 -7.402857 -9.615883
-6.6599746 -53.431442 -5.712824 -5.738776 -4.6360483 -6.521319 -6.8192763 -4.632144
-4.602858 -5.3852267 -4.5708537 -0.2020352 -6.734473 -6.6695704 -6.68758 -4.9558916
-4.9677086 -4.612306 -4.4913025 -4.7165008 -48.414104 -10.547119 -10.047974 -6.5631986
-4.66803 -5.7994666 -4.742272 -4.3612514 -37.345306 -4.5407534 -46.929977 -19.086346
-52.133537 -6.693235 -5.3077774 -22.1983 -34.592262 -6.5816956 -8.808734 -41.816837
-4.2964253 -7.6821117 -5.9512095 -4.783529 -5.26296 -4.555096 -4.5300765 -4.811038
-4.496408 -4.5702925 -4.596982 -35.91243 -29.568844 -5.7573643 -5.947633 -4.7556677
-4.25744 -4.7925706 -6.1932225 138.90286 -4.9312706 -14.323051 -4.798034 -4.4772315
-6.1680074 -6.005538 -32.976425 -4.3538294 -5.657216 -6.2701945 -5.2300754 -4.2466946
-4.829273 -22.66031 -6.633121 -46.219475 -33.561935 -7.497021 -5.0220747 -4.3021965
-23.299538 -5.202652 -5.4385867 -45.389133 -4.8296022 -5.921405 -5.11183 -4.6001616
-22.53981 -6.6780677 -5.9817843 -5.758836 -50.70462 -4.4894104 -5.9283 -4.695319
-4.3215904 -6.607953 -4.63009 -46.805832 -5.959491 -5.964708
00000000: 1c34 cbc0 5011 83c1 2007 c5c0 b69e c0c0
00000010: 7a80 d6c0 58b0 ccc0 22a1 c0c0 c96f c7c1
00000020: d6b5 6b43 d075 bcc0 c6a7 91c2 5871 5043
00000030: 0cb8 c4c0 b06b cbc0 46e5 91c2 f80b 9bc0
00000040: b5a0 c4c0 ec40 9cc0 a154 92c0 09e2 d3c0
00000050: e666 93c0 7507 9ec0 85d4 b8c0 7c01 c2c0
00000060: 2466 91c0 eca0 9ec0 5417 2ac1 85c3 ebc1
00000070: 7272 cfc0 5bf3 2bc1 7425 91c0 efd9 89c0
00000080: ba4d e9c1 9a96 25c0 07c7 2bc2 7fbe 93c0
00000090: a2a2 d8c0 b820 edc0 3c8a 92c0 f4cc 93c0
000000a0: c6c9 c0c0 bc6b d8c0 b463 4bc1 b8b9 b8c0
000000b0: 1ae6 c5c0 54c7 8cc0 34e4 ecc0 a8da 19c1
000000c0: 831e d5c0 ccb9 55c2 74cf b6c0 0ea4 b7c0
000000d0: 825a 94c0 a5ae d0c0 8337 dac0 863a 94c0
000000e0: 9d4a 93c0 c753 acc0 6f44 92c0 51e2 4ebe
000000f0: ce80 d7c0 1f6d d5c0 a800 d6c0 aa96 9ec0
00000100: 78f7 9ec0 0398 93c0 c0b8 8fc0 93ed 96c0
00000110: 0ba8 41c2 00c1 28c1 80c4 20c1 b905 d2c0
00000120: 8060 95c0 3b95 b9c0 b1c0 97c0 5f8f 8bc0
00000130: 9861 15c2 da4d 91c0 4cb8 3bc2 d6b0 98c1
00000140: be88 50c2 fb2e d6c0 50d9 a9c0 1e96 b1c1
00000150: 7a5e 0ac2 409d d2c0 93f0 0cc1 7144 27c2
00000160: 517c 89c0 dcd3 f5c0 4f70 bec0 ab12 99c0
00000170: 2b6a a8c0 59c3 91c0 63f6 90c0 06f4 99c0
00000180: 93e2 8fc0 d63f 92c0 7a1a 93c0 54a6 0fc2
00000190: fe8c ecc1 543c b8c0 0253 bec0 6e2e 98c0
000001a0: f33c 88c0 bd5c 99c0 e12e c6c0 22e7 0a43
000001b0: f8cc 9dc0 382b 65c1 7f89 99c0 7b45 8fc0
000001c0: 5160 c5c0 5e2d c0c0 dce7 03c2 9252 8bc0
000001d0: ea07 b5c0 6fa5 c8c0 c75c a7c0 ece4 87c0
000001e0: 6889 9ac0 5148 b5c1 8742 d4c0 bee0 38c2
000001f0: 6c3f 06c2 99e7 efc0 d6b4 a0c0 98ab 89c0
00000200: 7465 bac1 207c a6c0 e708 aec0 798e 35c2
00000210: 1a8c 9ac0 267c bdc0 1d94 a3c0 8634 93c0
00000220: 8851 b4c1 bbb2 d5c0 c76a bfc0 6248 b8c0
00000230: 88d1 4ac2 40a9 8fc0 a2b4 bdc0 0e40 96c0
00000240: 784a 8ac0 5a74 d3c0 b329 94c0 2c39 3bc2
00000250: 26b4 bec0 e3de bec0

2.weight f4 [100, 150]
-5.945192 -5.877335 -0.04480077 -0.06900956 -5.990659 -0.0024064756 -6.0208955 -0.016793821
-5.9270844 -0.06244123 -5.9769206 -6.0520763 0.035449833 0.041777108 -5.9186916 -6.0256104
-6.033307 0.07982912 -5.91478 -6.0306964 0.01825633 -5.913233 0.006987733 -5.903205
0.041755363 -5.993577 -6.0511117 -0.029605327 -5.8824806 0.080541745 -0.066600055 -0.053837188
-5.9377027 -0.070897 -0.051530644 -0.050539054 0.07778145 0.046999056 -0.014049966 0.00720472
-5.9568977 -0.07698327 -0.059600372 -5.986767 -0.04030378 -0.034006234 -5.894764 -0.05525367
-5.947014 -0.0684651 -0.06283525 -0.02303325 -5.9582634 -5.998927 -0.017022954 -5.861377
-5.958992 -0.07362969 -0.05779868 0.02040711 0.041123617 0.0064624506 -6.0471177 -6.0187607
-5.996642 -5.885917 -5.9741354 -0.017734768 -5.8665676 -0.048938405 -5.937228 -6.0183854
-5.9234357 -6.0314655 -5.9831686 -5.9153767 -0.023410963 0.054483134 0.027088378 -5.8614683
-6.0030527 -6.0344205 -5.9083767 -5.9656806 -5.746006 -0.07867745 0.027116362 -0.0702623
0.043718696 -6.0100913 -6.041914 -0.030649487 -6.0341134 -5.925018 0.057854094 0.05645664
-6.0304904 -5.937851 0.030792227 -0.061734077 -5.9515796 -0.014753456 0.023040082 0.07643877
-0.027744 -0.05120296 -0.07524533 0.03297093 0.037098214 -0.039420847 -0.041271057 -6.020324
-0.05397406 0.0037552714 -0.03286479 -0.080777384 -0.057837702 -6.0661817 -0.009409831 -0.00532777
0.02060059 -5.972127 -5.990156 -6.0152974 -0.06144483 -6.0138593 0.07295905 -0.03818566
-6.0322165 -5.9633594 0.030632386 0.02766003 -0.06303646 -0.07643322 -5.97609 -0.036605265
-0.068364635 0.02826975 -5.961657 0.063693605 -0.02272841 -5.9397917 -5.8947134 -5.919667
-6.059591 -6.044744 0.07892365 -5.9703813 -6.0429068 0.003217842 -6.049694 -6.0659437
-5.9688053 -6.056137 -6.0026402 -0.047258887 -5.9689436 0.038722046 -6.0108643 6.0370135
-6.0351744 -6.0558124 -5.971196 5.988096 -6.045079 -6.067221 -6.0459857 5.9558954
-5.9463186 -5.942813 0.04310451 -5.9421687 -5.964625 -6.0051746 0.028256979 -5.9966903
-5.9824147 -0.0616646 -5.909671 -21.494682 -0.036046218 -5.983867 -37.03501 -6.0509133
0.022953952 -5.91054 -5.9318237 -6.011632 -6.0067325 5.913529 -5.938441 -5.9352994
-0.019177685 -6.011143 -5.991799 -12.162031 -6.0326858 -5.226032 -5.9927077 -5.9686
-5.9786305 -5.134586 -5.9212704 -5.9720488 0.0442663 -7.31616 -5.8951883 0.029665431
-5.990658 0.020724576 0.06339214 5.92862 -5.925863 -5.9143887 -6.034975 5.9589934
-6.037847 0.012207132 -5.9232073 6.026388 33.450718 -6.0623274 -5.9891915 -5.9415584
-5.957618 -6.04193 -0.057329997 -3.3305786 0.030153727 5.9122877 -5.9229617 -6.0345135
-6.0224643 -6.0517015 -5.9967084 -5.936478 -5.966022 -5.9223323 -0.08101816 -5.9640994
-5.9278383 -1.3735378 -6.0403666 -5.9479628 5.967611 -6.0260887 -6.05592 -5.927091
-0.015466905 -6.0349917 -5.9474955 0.06522248 -5.9998975 0.035273064 -5.951245 0.04606679
00000000: 033f bec0 2113 bcc0 0381 37bd e254 8dbd
00000010: 7bb3 bfc0 f6b5 1dbb 2dab c0c0 3293 89bc
00000020: adaa bdc0 60c2 7fbd ef42 bfc0 9caa c1c0
00000030: d833 113d 791e 2b3d ec65 bdc0 cdd1 c0c0
00000040: da10 c1c0 737d a33d e145 bdc0 77fb c0c0
00000050: 4d8e 953c 3439 bdc0 5af9 e43b 0ee7 bcc0
00000060: ac07 2b3d 62cb bfc0 b5a2 c1c0 df86 f2bc
00000070: 483d bcc0 12f3 a43d 9c65 88bd 6284 5cbd
00000080: a901 bec0 7232 91bd cc11 53bd 0a02 4fbd
00000090: e14b 9f3d 1582 403d d431 66bc 9215 ec3b
000000a0: e89e bec0 68a9 9dbd 851f 74bd 9893 bfc0
000000b0: 9415 25bd 1f4a 0bbd e8a1 bcc0 ac51 62bd
000000c0: f04d bec0 6e37 8cbd c4af 80bd 3ab0 bcbc
000000d0: 18aa bec0 36f7 bfc0 b973 8bbc 6690 bbc0
000000e0: 10b0 bec0 2acb 96bd 4fbe 6cbd d02c a73c
000000f0: 3d71 283d f7c2 d33b fd81 c1c0 b099 c0c0
00000100: 7ee4 bfc0 6f59 bcc0 1e2c bfc0 8148 91bc
00000110: ecba bbc0 a373 48bd c6fd bdc0 9d96 c0c0
00000120: c98c bdc0 c401 c1c0 1e76 bfc0 c44a bdc0
00000130: 59c8 bfbc b529 5f3d 72e8 dd3c 2691 bbc0
00000140: 0219 c0c0 f919 c1c0 6c11 bdc0 dbe6 bec0
00000150: 48df b7c0 a521 a1bd 2223 de3c aee5 8fbd
00000160: 6012 333d ab52 c0c0 5c57 c1c0 a214 fbbc
00000170: 7517 c1c0 bf99 bdc0 6af8 6c3d 143f 673d
00000180: c7f9 c0c0 e002 bec0 fb3f fc3c dfdc 7cbd
00000190: 5773 bec0 7bb8 71bc 8ebe bc3c ee8b 9c3d
000001a0: 6347 e3bc 32ba 51bd 391a 9abd 870c 073d
000001b0: 4cf4 173d c177 21bd d70b 29bd 7fa6 c0c0
000001c0: e713 5dbd 001b 763b 3b9d 06bd 9d6e a5bd
000001d0: 3ae7 6cbd 291e c2c0 b12b 1abc 9394 aebb
000001e0: 92c2 a83c aa1b bfc0 5caf bfc0 517d c0c0
000001f0: 93ad 7bbd 8971 c0c0 8e6b 953d 9168 1cbd
00000200: eb07 c1c0 d7d3 bec0 c5f0 fa3c 4a97 e23c
00000210: 4219 81bd 0589 9cbd 213c bfc0 67ef 15bd
00000220: c202 8cbd f695 e73c e5c5 bec0 cb71 823d
00000230: ee30 babc c612 bec0 7ea1 bcc0 e96d bdc0
00000240: 2be8 c1c0 8b6e c1c0 b9a2 a13d 5d0d bfc0
00000250: 7e5f c1c0 6ee2 523b 1897 c1c0 361c c2c0
00000260: 7400 bfc0 e0cb c1c0 a115 c0c0 8992 41bd
00000270: 9601 bfc0 029b 1e3d 0059 c0c0 372f c140
00000280: 2620 c1c0 37c9 c1c0 0a14 bfc0 7c9e bf40
00000290: 4a71 c1c0 ad26 c2c0 b778 c1c0 b296 be40
000002a0: 3e48 bec0 862b bec0 5b8e 303d 3f26 bec0
000002b0: 35de bec0 642a c0c0 2e7b e73c e3e4 bfc0
000002c0: f16f bfc0 0594 7cbd 061c bdc0 1cf5 abc1
000002d0: 33a5 13bd d77b bfc0 da23 14c2 15a1 c1c0
000002e0: ed09 bc3c 2523 bdc0 80d1 bdc0 4a5f c0c0
000002f0: 2737 c0c0 a13b bd40 b507 bec0 f9ed bdc0
00000300: 851a 9dbc 495b c0c0 d1bc bfc0 ae97 42c1
00000310: c30b c1c0 a73b a7c0 43c4 bfc0 c5fe bec0
00000320: f150 bfc0 874e a4c0 0c7b bdc0 061b bfc0
00000330: 9450 353d fc1d eac0 62a5 bcc0 eb04 f33c
00000340: 78b3 bfc0 96c6 a93c bdd3 813d 41b7 bd40
00000350: aba0 bdc0 ac42 bdc0 841e c1c0 13b0 be40
00000360: 0b36 c1c0 6c00 483c ea8a bdc0 2cd8 c040
00000370: 89cd 0542 96fe c1c0 75a7 bfc0 3f21 bec0
00000380: cfa4 bec0 7e57 c1c0 dcd2 6abd 3328 55c0
00000390: f304 f73c 7631 bd40 e788 bdc0 bc1a c1c0
000003a0: 07b8 c0c0 8aa7 c1c0 09e5 bfc0 a1f7 bdc0
000003b0: a7e9 bec0 bf83 bdc0 d9ec a5bd e7d9 bec0
000003c0: dab0 bdc0 16d0 afbf af4a c1c0 b655 bec0
000003d0: abf6 be40 b8d5 c0c0 19ca c1c0 bbaa bdc0
000003e0: e768 7dbc a71e c1c0 e251 bec0 5d93 853d
000003f0: 29ff bfc0 7d7a 103d 9970 bec0 88b0 3c3d

2.bias f4 [100]
-5.9244385 -47.919525 -4.565147 -68.75984 -23.153675 -47.20865 -7.4350357 -5.952248
-70.4165 -27.543934 -7.532975 -15.533073 -7.7317348 -7.4004517 -5.9409003 -15.168493
-4.5339932 -7.5579057 -5.9228 -7.484501 -83.70867 -5.5890155 -7.581287 -7.5458174
-7.486708 -5.9467115 -7.4951897 -1.4917121 -6.0567617 -6.052133 -7.6205034 -5.966726
-7.4133873 -6.036564 -7.266301 -18.171352 -13.835943 -8.405473 -6.0631843 -9.2751875
-37.60978 -8.896082 -7.3146577 -6.029271 -7.6701617 -8.356973 -13.6118765 -6.020109
-8.338407 -29.96826 -8.712735 -7.622261 211.50499 -39.41743 444.97168 -40.2287
-33.700264 -15.91701 -48.692963 -7.345683 -65.68196 -5.965005 -7.4333014 -7.70264
-7.599209 -7.46989 -7.6183267 -57.336895 -7.5755105 -6.0265794 -5.9895015 -5.974584
-4.4260783 -7.458323 -7.5789943 -21.952765 -5.956993 -14.625311 -5.9780927 -7.493452
-7.5150075 -6.0161376 -59.284504 -27.932384 -4.5488496 -7.5632205 -6.0166397 -7.6338425
-54.85537 -7.5266967 -7.5401783 -7.6392674 -63.126663 -27.795067 -7.558347 -7.6093583
-6.0166473 -30.229326 -50.311897 -5.952549
00000000: 0095 bdc0 98ad 3fc2 af15 92c0 0a85 89c2
00000010: ba3a b9c1 a8d5 3cc2 d0eb edc0 d178 bec0
00000020: 3fd5 8cc2 fa59 dcc1 220e f1c0 7887 78c1
00000030: 5f6a f7c0 80d0 ecc0 db1b bec0 26b2 72c1
00000040: 7916 91c0 5dda f1c0 9487 bdc0 0881 efc0
00000050: d76a a7c2 37d9 b2c0 e799 f2c0 5677 f1c0
00000060: 1d93 efc0 764b bec0 98d8 efc0 6cf0 bebf
00000070: fed0 c1c0 13ab c1c0 2adb f3c0 6bef bec0
00000080: 783a edc0 882b c1c0 8a85 e8c0 ee5e 91c1
00000090: 0660 5dc1 d17c 06c1 9b05 c2c0 2b67 14c1
000000a0: 6a70 16c2 5a56 0ec1 ad11 eac0 caef c0c0
000000b0: f771 f5c0 29b6 05c1 3fca 59c1 bca4 c0c0
000000c0: 1d6a 05c1 ffbe efc1 5d67 0bc1 90e9 f3c0
000000d0: 4781 5343 73ab 1dc2 607c de43 30ea 20c2
000000e0: 12cd 06c2 13ac 7ec1 98c5 42c2 d60f ebc0
000000f0: 2a5d 83c2 52e1 bec0 9bdd edc0 077c f6c0
00000100: b82c f3c0 5709 efc0 55c9 f3c0 fb58 65c2
00000110: 956a f2c0 bdd9 c0c0 ffa9 bfc0 cb2f bfc0
00000120: 6fa2 8dc0 95aa eec0 1f87 f2c0 439f afc1
00000130: b09f bec0 4601 6ac1 894c bfc0 5cca efc0
00000140: f17a f0c0 3384 c0c0 5523 6dc2 8675 dfc1
00000150: 2d90 91c0 e705 f2c0 5088 c0c0 7048 f4c0
00000160: e66b 5bc2 b3da f0c0 2449 f1c0 e174 f4c0
00000170: b481 7cc2 4c5c dec1 fbdd f1c0 dd7f f3c0
00000180: 6088 c0c0 a9d5 f1c1 623f 49c2 487b bec0

4.weight f4 [5, 100]
-5.9368644 -24.380676 4.5371714 0.26196295 -8.78517 -6.354634 4.460713 -5.7779946
-6.96374 4.5353627 4.5841136 -23.875998 4.517295 4.4702845 -5.935946 4.6228642
4.510871 4.5101943 -5.985048 4.527967 -2.2303646 15.285364 4.507735 4.5141816
4.4877176 -6.0790386 4.4598885 100.66504 -5.9283643 -6.0003567 4.566435 -5.934191
4.477386 -5.92764 4.4960775 15.100734 -0.774094 4.571137 0.054390837 4.52379
-5.9206743 3.549278 4.58309 -5.9352884 4.497005 5.5405936 4.544837 -5.933528
5.6032305 -38.082035 4.6169467 4.4701447 38.81898 4.395428 28.964155 2.5549185
5.67351 -18.488058 -27.848717 4.581499 11.819468 0.029438341 4.4628906 4.55782
4.494358 4.4712024 4.530481 9.159672 4.495134 -5.9356775 -6.0269966 -5.936976
14.531828 4.559672 4.4703126 4.3149395 -5.982732 5.4716315 -5.9644895 4.499118
4.583376 -5.997101 2.7264054 14.659086 4.492619 4.4829335 -0.09594744 4.6323285
4.691524 4.528549 4.51465 4.5495734 27.037039 4.532074 4.4607754 4.5589447
-5.9618897 -32.69421 0.34511897 0.07741418 -0.09085709 -15.967602 4.5541825 -0.41838098
14.650392 17.129131 4.5551696 0.0660882 -6.1261706 -8.005358 4.450178 -11.038883
4.481681 4.497188 -5.972818 3.2920403 4.4809947 4.4090676 -5.9035835 4.4608274
13.39098 -8.004262 4.452466 4.433841 4.5130415 -5.8876486 4.4221387 -65.53037
-5.8947706 -5.983265 4.427134 -5.892579 4.467492 -5.9512563 4.561404 -27.036697
-5.7029552 4.2500134 -5.9443808 3.4519393 -5.917047 1.2072138 4.401209 -5.9676795
4.494791 4.450971 1.6600325 -5.9664946 4.475873 7.799933 4.1927414 4.4365063
39.056553 -21.029745 18.474026 -6.638172 -2.239821 -27.886448 -2.9545176 4.4418936
6.284168 -5.958407 4.4244275 4.4734077 4.562012 4.4967723 4.5589933 22.021301
4.42935 -5.9804373 -5.974391 -5.9273257 -4.8433146 4.505605 4.4594817 2.23444
-5.9285517 5.486615 -5.9281206 4.46427 4.4184856 -5.8982897 -6.0170164 -4.0610414
4.6089473 4.502532 0.016232062 4.546689 -29.341887 4.5106096 4.454943 4.447163
23.619871 -8.292287 4.5300775 4.3319707 -5.910594 -22.331743 -6.9716487 -5.9066296
-0.031246066 3.0394886 4.563371 21.025406 7.1720467 -2.3147604 3.9109373 -0.0063876747
2.7684977 14.344336 4.0638676 17.441603 3.8647788 4.141588 -5.986127 -6.953413
4.6031723 3.6744084 -6.012817 3.954734 28.900055 32.2418 4.0729456 4.0292087
3.633477 -5.891147 3.9491568 -152.4555 -6.0054436 -5.916505 4.168543 -5.947193
4.0942726 -5.9484115 4.07192 -34.7658 -5.1914287 3.2462523 -5.900017 0.26659438
-6.081753 2.6156886 3.4122343 -6.0306115 4.11783 3.6876836 -4.882081 -6.0186114
3.8386035 9.418668 2.7522295 4.120665 38.983337 25.092861 22.964022 21.866983
00000000: cbfa bdc0 a00b c3c1 8230 9140 0220 863e
00000010: 0e90 0cc1 2959 cbc0 29be 8e40 55e5 b8c0
00000020: f5d6 dec0 b121 9140 0fb1 9240 0b02 bfc1
00000030: ae8d 9040 920c 8f40 45f3 bdc0 81ee 9340
00000040: 0e59 9040 8353 9040 8385 bfc0 1be5 9040
00000050: 4bbe 0ec0 da90 7441 5d3f 9040 2d74 9040
00000060: 629b 8f40 7c87 c2c0 68b7 8e40 8054 c942
00000070: 29b5 bdc0 ec02 c0c0 3c20 9240 e5e4 bdc0
00000080: bf46 8f40 3aaf bdc0 dedf 8f40 9b9c 7141
00000090: 062b 46bf c146 9240 edc8 5e3d e3c2 9040
000000a0: 2a76 bdc0 5f27 6340 aca8 9240 e2ed bdc0
000000b0: 77e7 8f40 8b4c b140 4e6f 9140 76df bdc0
000000c0: aa4d b340 0154 18c2 07be 9340 6d0b 8f40
000000d0: a346 1b42 59a7 8c40 97b6 e741 c983 2340
000000e0: 658d b540 8be7 93c1 2cca dec1 a49b 9240
000000f0: 8a1c 3d41 ad28 f13c 00d0 8e40 a9d9 9140
00000100: c8d1 8f40 1714 8f40 b3f9 9040 048e 1241
00000110: 23d8 8f40 12f1 bdc0 28dd c0c0 b5fb bdc0
00000120: 5e82 6841 d5e8 9140 cd0c 8f40 fc13 8a40
00000130: 8a72 bfc0 9b17 af40 19dd bec0 c6f8 8f40
00000140: 04ab 9240 40e8 bfc0 6d7d 2e40 9e8b 6a41
00000150: 89c3 8f40 3174 8f40 1780 c4bd 093c 9440
00000160: f720 9640 e0e9 9040 0378 9040 1b96 9140
00000170: db4b d841 c006 9140 acbe 8e40 e0e2 9140
00000180: cdc7 bec0 dfc6 02c2 6fb3 b03e 538b 9e3d
00000190: 4813 babd 4c7b 7fc1 ddbb 9140 0836 d6be
000001a0: 0168 6a41 7608 8941 f3c3 9140 4059 873d
000001b0: 9709 c4c0 f215 00c1 dc67 8e40 449f 30c1
000001c0: ee69 8f40 f7e8 8f40 5321 bfc0 cab0 5240
000001d0: 4f64 8f40 1517 8d40 28ea bcc0 19bf 8e40
000001e0: 7441 5641 7511 00c1 9a7a 8e40 07e2 8d40
000001f0: d66a 9040 9e67 bcc0 2982 8d40 8d0f 83c2
00000200: f6a1 bcc0 e876 bfc0 15ab 8d40 0290 bcc0
00000210: b2f5 8e40 b170 bec0 06f7 9140 284b d8c1
00000220: 9c7e b6c0 1c00 8840 5e38 bec0 93ec 5c40
00000230: 7358 bdc0 fb85 9a3f b4d6 8c40 3bf7 bec0
00000240: 54d5 8f40 5b6e 8e40 f27b d43f 86ed bec0
00000250: 5a3a 8f40 0d99 f940 f02a 8640 dcf7 8d40
00000260: e939 1c42 eb3c a8c1 ceca 9341 e86b d4c0
00000270: 3a59 0fc0 7217 dfc1 d116 3dc0 fe23 8e40
00000280: e717 c940 45ab bec0 e994 8d40 2826 8f40
00000290: 01fc 9140 8fe5 8f40 46e3 9140 a02b b041
000002a0: 3cbd 8d40 be5f bfc0 362e bfc0 a7ac bdc0
000002b0: 6ffc 9ac0 eb2d 9040 13b4 8e40 1101 0f40
000002c0: b2b6 bdc0 5a92 af40 2ab3 bdc0 4ddb 8e40
000002d0: 3c64 8d40 cabe bcc0 668b c0c0 0df4 81c0
000002e0: 7f7c 9340 be14 9040 1af9 843c 7a7e 9140
000002f0: 2fbc eac1 ea56 9040 e58e 8e40 294f 8e40
00000300: 7ff5 bc41 35ad 04c1 65f6 9040 819f 8a40
00000310: 9623 bdc0 69a7 b2c1 bf17 dfc0 1c03 bdc0
00000320: c0f7 ffbc fb86 4240 2307 9240 0834 a841
00000330: 6881 e540 0925 14c0 cc4c 7a40 b34f d1bb
00000340: 112f 3140 6682 6541 340b 8240 6788 8b41
00000350: 8958 7740 e487 8440 5a8e bfc0 5c82 dec0
00000360: 304d 9340 8229 6b40 ff68 c0c0 5d1a 7d40
00000370: 5033 e741 9af7 0042 9255 8240 47ef 8040
00000380: e38a 6840 4784 bcc0 fcbe 7c40 9c74 18c3
00000390: 982c c0c0 0254 bdc0 b464 8540 684f bec0
000003a0: 4804 8340 6359 bec0 2b4d 8240 2e10 0bc2
000003b0: 2f20 a6c0 99c2 4f40 f0cc bcc0 0f7f 883e
000003c0: b89d c2c0 7167 2740 0c62 5a40 c5fa c0c0
000003d0: 43c5 8340 0203 6c40 023a 9cc0 7798 c0c0
000003e0: aeab 7540 ddb2 1641 8724 3040 7ddc 8340
000003f0: f0ee 1b42 2ebe c841 51b6 b741 95ef ae41

4.bias f4 [5]
-3004.3203 2601.0686 154.13936 -707.89435 -444.79205
00000000: 20c5 3bc5 1991 2245 ad23 1a43 3df9 30c4
00000010: 6265 dec3

0.weight f4 [150, 11]
-37.274406 -36.86253 -6.3239346 -6.5472775 -6.1882014 -6.4131813 -6.3890257 -4.6062665
-4.322935 -4.7989593 -4.482925 -5.705762 -16.083765 -15.9533415 -16.021803 -3.1209636
-16.046618 -6.2459335 -3.9375484 4.153753 -4.0635414 -4.2194467 -6.147304 -5.741
-5.789462 -6.1366367 5.9773393 -6.101894 -5.7760243 -5.952907 -6.2630854 5.9415054
5.9603977 -6.2868156 -5.704827 -5.831376 -5.787142 5.837832 -6.175254 -6.0551915
-5.7552333 -5.983852 5.8084164 6.003641 -6.2560196 -6.0955563 -5.974637 -5.913449
-6.132578 -5.766721 -6.461135 4.5904183 -4.7509165 4.778641 6.150085 -14.693632
-5.808399 -5.7490387 -5.726851 -0.26379177 -6.4471893 -14.7008505 -4.5722723 4.7540054
-4.6588 5.7070656 -5.8560934 -5.86283 -5.9788065 -6.0391226 6.0849113 -5.7668376
-5.8803015 -6.124921 -6.1172886 6.2539787 5.8332496 -25.123135 -16.651018 -18.660448
-25.781385 -5.5790195 -7.424864 -26.067726 4.1699696 -7.833458 1.8973866 -8.476844
-16.47302 7.900019 -30.82855 0.07366318 -147.86273 -30.902256 -6.0275755 -12.078496
-0.5266152 -8.514922 8.958525 -5.873285 -5.7429543 -6.1658025 -6.083371 -5.775992
-5.8566127 -6.2786913 5.6884995 6.0477066 5.9784446 6.138546 -33.142338 -60.98799
-60.597878 -33.308643 5.7218328 -33.437958 -33.483177 -5.7006707 7.1886096 -2.5550072
6.984836 -28.821236 -12.449787 -126.73871 7.7324405 -45.058353 -72.58394 -36.417694
-12.61542 -37.53651 -16.89752 25.087975 -5.8352003 -5.849107 -6.02872 -6.129454
-0.15795591 -5.974063 -6.2295523 6.1340866 5.790274 5.818452 5.8025618 -6.2961698
-6.7540026 -6.709483 -6.641388 -5.814027 -4.5038137 -4.7372155 -4.743585 -4.708574
4.441943 4.7105002 -33.582237 -60.613525 -60.63168 -33.54483 -5.6924562 -33.68982
-33.26637 -5.6864905 7.4856033 -3.3210588 6.8636827 -5.544336 -4.474957 -4.4377623
-5.0463443 -4.758302 -4.5198755 -5.057342 -2.4050105 3.7100463 2.2886674 3.7260585
-5.959124 -5.7753386 -5.8631334 -5.843311 -5.7841654 -5.8815517 -5.950606 6.078068
5.9874883 5.837778 5.879478 -6.165075 -4.2818284 -5.0702295 -5.301556 -6.4503603
-4.6659284 -5.8107553 -3.383562 -1.000467 -3.8132129 -5.37894 -5.027255 -4.4936805
-4.73609 -4.898818 -4.8441877 -4.429448 -4.809106 -3.1397848 2.4104862 2.697733
3.4127455 -4.5240755 -6.492177 -4.3625016 -6.553832 6.152953 -6.407176 -6.4476266
4.3492584 4.709575 4.626409 4.5269103 -4.3940806 -4.478486 -5.619828 -5.8095636
-5.282602 -4.717436 -4.7175426 4.5653567 -4.627354 4.446044 4.670311 -5.434286
-4.293215 -4.5995297 -4.5667114 -6.3529015 -4.4592066 -5.329245 -2.39683 0.4827718
0.55007046 3.3673606 -5.933002 -6.032423 -6.002487 -6.1464314 -5.8796053 -6.2154055
-5.7064514 5.7598276 -5.687425 5.897167 6.140583 -5.9380155 -6.1046915 -6.2729454
00000000: fe18 15c2 3b73 13c2 ac5d cac0 4c83 d1c0
00000010: bf05 c6c0 c838 cdc0 e672 ccc0 8966 93c0
00000020: 7c55 8ac0 1391 99c0 1f74 8fc0 9a95 b6c0
00000030: 8dab 80c1 e340 7fc1 a72c 80c1 debd 47c0
00000040: 795f 80c1 b0de c7c0 cb00 7cc0 8beb 8440
00000050: 8808 82c0 b505 87c0 b7b6 c4c0 46b6 b7c0
00000060: 4643 b9c0 545f c4c0 5d46 bf40 b742 c3c0
00000070: 31d5 b8c0 377e bec0 326b c8c0 d020 be40
00000080: 94bb be40 982d c9c0 f18d b6c0 a29a bac0
00000090: 4430 b9c0 85cf ba40 ae9b c5c0 21c4 c1c0
000000a0: df2a b8c0 b77b bfc0 8cde b940 d41d c040
000000b0: 5031 c8c0 cc0e c3c0 3a30 bfc0 f93a bdc0
000000c0: 143e c4c0 fa88 b8c0 9ec1 cec0 b5e4 9240
000000d0: 8207 98c0 a1ea 9840 7fcd c440 1e19 6bc1
000000e0: 68de b9c0 20f8 b7c0 5d42 b7c0 b70f 87be
000000f0: 604f cec0 af36 6bc1 0e50 92c0 d020 9840
00000100: e414 95c0 48a0 b640 1e65 bbc0 4e9c bbc0
00000110: 6252 bfc0 7e40 c1c0 98b7 c240 ef89 b8c0
00000120: 6e2b bcc0 5aff c3c0 d4c0 c3c0 9820 c840
00000130: fba9 ba40 2efc c8c1 4935 85c1 9948 95c1
00000140: 4740 cec1 5487 b2c0 7c98 edc0 b48a d0c1
00000150: 6470 8540 b0ab fac0 90dd f23f 27a1 07c1
00000160: bfc8 83c1 f5cc fc40 dfa0 f6c1 b9dc 963d
00000170: dcdc 13c3 d237 f7c1 e6e1 c0c0 8541 41c1
00000180: 41d0 06bf 1f3d 08c1 1e56 0f41 f3f1 bbc0
00000190: 48c6 b7c0 414e c5c0 faaa c2c0 edd4 b8c0
000001a0: 5f69 bbc0 0aeb c8c0 3008 b640 d086 c140
000001b0: 6b4f bf40 f86e c440 c191 04c2 b4f3 73c2
000001c0: 3a64 72c2 0d3c 05c2 4119 b740 78c0 05c2
000001d0: c6ee 05c2 e56b b6c0 1709 e640 3d85 23c0
000001e0: c783 df40 e491 e6c1 5432 47c1 387a fdc2
000001f0: 2770 f740 c13b 34c2 fa2a 91c2 b8ab 11c2
00000200: c3d8 49c1 6325 16c2 1f2e 87c1 2cb4 c841
00000210: f6b9 bac0 e22b bbc0 46eb c0c0 7d24 c4c0
00000220: 32bf 21be 862b bfc0 7e58 c7c0 704a c440
00000230: ed49 b940 c230 ba40 96ae b940 397a c9c0
00000240: ca20 d8c0 16b4 d6c0 4086 d4c0 820c bac0
00000250: 3e1f 90c0 4597 97c0 73cb 97c0 a3ac 96c0
00000260: 6624 8e40 6bbc 9640 3654 06c2 4074 72c2
00000270: d786 72c2 e82d 06c2 9a28 b6c0 60c2 06c2
00000280: c310 05c2 bbf7 b5c0 108a ef40 3a8c 54c0
00000290: 4aa3 db40 336b b1c0 d932 8fc0 2602 8ec0
000002a0: a77b a1c0 0344 98c0 d2a2 90c0 bfd5 a1c0
000002b0: b1eb 19c0 6671 6d40 8779 1240 be77 6e40
000002c0: 25b1 bec0 93cf b8c0 ca9e bbc0 67fc bac0
000002d0: e217 b9c0 ac35 bcc0 5d6b bec0 887f c240
000002e0: 8199 bf40 14cf ba40 af24 bc40 4b48 c5c0
000002f0: bd04 89c0 523f a2c0 59a6 a9c0 5a69 cec0
00000300: 494f 95c0 b5f1 b9c0 488c 58c0 4d0f 80bf
00000310: ae0b 74c0 4720 acc0 46df a0c0 3bcc 8fc0
00000320: 0d8e 97c0 1ec3 9cc0 9603 9bc0 0abe 8dc0
00000330: 32e4 99c0 3cf2 48c0 6845 1a40 a8a7 2c40
00000340: 6c6a 5a40 3ac5 90c0 eabf cfc0 9d99 8bc0
00000350: feb8 d1c0 fee4 c440 9607 cdc0 f552 cec0
00000360: 202d 8b40 d7b4 9640 8b0b 9440 73dc 9040
00000370: 4f9c 8cc0 c24f 8fc0 a2d5 b3c0 f2e7 b9c0
00000380: 130b a9c0 3cf5 96c0 1cf6 96c0 6717 9240
00000390: 4913 94c0 fe45 8e40 3073 9540 ace5 adc0
000003a0: 0462 89c0 592f 93c0 8022 92c0 f84a cbc0
000003b0: d2b1 8ec0 2d89 aac0 aa65 19c0 de2d f73e
000003c0: 6bd1 0c3f d682 5740 27db bdc0 9c09 c1c0
000003d0: 6014 c0c0 91af c4c0 ba25 bcc0 9ae4 c6c0
000003e0: 409b b6c0 8250 b840 63ff b5c0 98b5 bc40
000003f0: a87f c440 3904 bec0 a259 c3c0 f8bb c8c0

0.bias f4 [150]
-6.350111 -16.383453 -6.1571198 -6.019374 -6.703183 -6.3965263 -6.0196695 -24.929583
235.37341 -5.8893814 -72.82768 208.35051 -6.1474667 -6.3568954 -72.9478 -4.845211
-6.1446176 -4.882925 -4.5728307 -6.621342 -4.606311 -4.9384103 -5.7759423 -6.062681
-4.5437183 -4.957144 -10.630695 -29.470469 -6.4827204 -10.746913 -4.535822 -4.307853
-29.162952 -2.587317 -42.944363 -4.617004 -6.7698526 -7.410244 -4.5793743 -4.6187687
-6.0246305 -6.763151 -12.711842 -5.7726707 -6.1843386 -4.399332 -7.402857 -9.615883
-6.6599746 -53.431442 -5.712824 -5.738776 -4.6360483 -6.521319 -6.8192763 -4.632144
-4.602858 -5.3852267 -4.5708537 -0.2020352 -6.734473 -6.6695704 -6.68758 -4.9558916
-4.9677086 -4.612306 -4.4913025 -4.7165008 -48.414104 -10.547119 -10.047974 -6.5631986
-4.66803 -5.7994666 -4.742272 -4.3612514 -37.345306 -4.5407534 -46.929977 -19.086346
-52.133537 -6.693235 -5.3077774 -22.1983 -34.592262 -6.5816956 -8.808734 -41.816837
-4.2964253 -7.6821117 -5.9512095 -4.783529 -5.26296 -4.555096 -4.5300765 -4.811038
-4.496408 -4.5702925 -4.596982 -35.91243 -29.568844 -5.7573643 -5.947633 -4.7556677
-4.25744 -4.7925706 -6.1932225 139.09842 -4.9312706 -14.323051 -4.798034 -4.4772315
-6.1680074 -6.005538 -32.976425 -4.3538294 -5.657216 -6.2701945 -5.2300754 -4.2466946
-4.829273 -22.66031 -6.633121 -46.219475 -33.561935 -7.497021 -5.0220747 -4.3021965
-23.299538 -5.202652 -5.4385867 -45.389133 -4.8296022 -5.921405 -5.11183 -4.6001616
-22.53981 -6.6780677 -5.9817843 -5.758836 -50.70462 -4.4894104 -5.9283 -4.695319
-4.3215904 -6.607953 -4.63009 -46.805832 -5.959491 -5.964708
00000000: 1c34 cbc0 5011 83c1 2007 c5c0 b69e c0c0
00000010: 7a80 d6c0 58b0 ccc0 22a1 c0c0 c96f c7c1
00000020: 985f 6b43 d075 bcc0 c6a7 91c2 bb59 5043
00000030: 0cb8 c4c0 b06b cbc0 46e5 91c2 f80b 9bc0
00000040: b5a0 c4c0 ec40 9cc0 a154 92c0 09e2 d3c0
00000050: e666 93c0 7507 9ec0 85d4 b8c0 7c01 c2c0
00000060: 2466 91c0 eca0 9ec0 5417 2ac1 85c3 ebc1
00000070: 7272 cfc0 5bf3 2bc1 7425 91c0 efd9 89c0
00000080: ba4d e9c1 9a96 25c0 07c7 2bc2 7fbe 93c0
00000090: a2a2 d8c0 b820 edc0 3c8a 92c0 f4cc 93c0
000000a0: c6c9 c0c0 bc6b d8c0 b463 4bc1 b8b9 b8c0
000000b0: 1ae6 c5c0 54c7 8cc0 34e4 ecc0 a8da 19c1
000000c0: 831e d5c0 ccb9 55c2 74cf b6c0 0ea4 b7c0
000000d0: 825a 94c0 a5ae d0c0 8337 dac0 863a 94c0
000000e0: 9d4a 93c0 c753 acc0 6f44 92c0 51e2 4ebe
000000f0: ce80 d7c0 1f6d d5c0 a800 d6c0 aa96 9ec0
00000100: 78f7 9ec0 0398 93c0 c0b8 8fc0 93ed 96c0
00000110: 0ba8 41c2 00c1 28c1 80c4 20c1 b905 d2c0
00000120: 8060 95c0 3b95 b9c0 b1c0 97c0 5f8f 8bc0
00000130: 9861 15c2 da4d 91c0 4cb8 3bc2 d6b0 98c1
00000140: be88 50c2 fb2e d6c0 50d9 a9c0 1e96 b1c1
00000150: 7a5e 0ac2 409d d2c0 93f0 0cc1 7144 27c2
00000160: 517c 89c0 dcd3 f5c0 4f70 bec0 ab12 99c0
00000170: 2b6a a8c0 59c3 91c0 63f6 90c0 06f4 99c0
00000180: 93e2 8fc0 d63f 92c0 7a1a 93c0 54a6 0fc2
00000190: fe8c ecc1 543c b8c0 0253 bec0 6e2e 98c0
000001a0: f33c 88c0 bd5c 99c0 e12e c6c0 3219 0b43
000001b0: f8cc 9dc0 382b 65c1 7f89 99c0 7b45 8fc0
000001c0: 5160 c5c0 5e2d c0c0 dce7 03c2 9252 8bc0
000001d0: ea07 b5c0 6fa5 c8c0 c75c a7c0 ece4 87c0
000001e0: 6889 9ac0 5148 b5c1 8742 d4c0 bee0 38c2
000001f0: 6c3f 06c2 99e7 efc0 d6b4 a0c0 98ab 89c0
00000200: 7465 bac1 207c a6c0 e708 aec0 798e 35c2
00000210: 1a8c 9ac0 267c bdc0 1d94 a3c0 8634 93c0
00000220: 8851 b4c1 bbb2 d5c0 c76a bfc0 6248 b8c0
00000230: 88d1 4ac2 40a9 8fc0 a2b4 bdc0 0e40 96c0
00000240: 784a 8ac0 5a74 d3c0 b329 94c0 2c39 3bc2
00000250: 26b4 bec0 e3de bec0

2.weight f4 [100, 150]
-5.945192 -5.877335 -0.04480077 -0.06900956 -5.990659 -0.0024064756 -6.0208955 -0.016793821
-5.9270844 -0.06244123 -5.9769206 -6.0520763 0.035449833 0.041777108 -5.9186916 -6.0256104
-6.033307 0.07982912 -5.91478 -6.0306964 0.01825633 -5.913233 0.006987733 -5.903205
0.041755363 -5.993577 -6.0511117 -0.029605327 -5.8824806 0.080541745 -0.066600055 -0.053837188
-5.9377027 -0.070897 -0.051530644 -0.050539054 0.07778145 0.046999056 -0.014049966 0.00720472
-5.9568977 -0.07698327 -0.059600372 -5.986767 -0.04030378 -0.034006234 -5.894764 -0.05525367
-5.947014 -0.0684651 -0.06283525 -0.02303325 -5.9582634 -5.998927 -0.017022954 -5.861377
-5.958992 -0.07362969 -0.05779868 0.02040711 0.041123617 0.0064624506 -6.0471177 -6.0187607
-5.996642 -5.885917 -5.9741354 -0.017734768 -5.8665676 -0.048938405 -5.937228 -6.0183854
-5.9234357 -6.0314655 -5.9831686 -5.9153767 -0.023410963 0.054483134 0.027088378 -5.8614683
-6.0030527 -6.0344205 -5.9083767 -5.9656806 -5.746006 -0.07867745 0.027116362 -0.0702623
0.043718696 -6.0100913 -6.041914 -0.030649487 -6.0341134 -5.925018 0.057854094 0.05645664
-6.0304904 -5.937851 0.030792227 -0.061734077 -5.9515796 -0.014753456 0.023040082 0.07643877
-0.027744 -0.05120296 -0.07524533 0.03297093 0.037098214 -0.039420847 -0.041271057 -6.020324
-0.05397406 0.0037552714 -0.03286479 -0.080777384 -0.057837702 -6.0661817 -0.009409831 -0.00532777
0.02060059 -5.972127 -5.990156 -6.0152974 -0.06144483 -6.0138593 0.07295905 -0.03818566
-6.0322165 -5.9633594 0.030632386 0.02766003 -0.06303646 -0.07643322 -5.97609 -0.036605265
-0.068364635 0.02826975 -5.961657 0.063693605 -0.02272841 -5.9397917 -5.8947134 -5.919667
-6.059591 -6.044744 0.07892365 -5.9703813 -6.0429068 0.003217842 -6.049694 -6.0659437
-5.9688053 -6.056137 -6.0026402 -0.047258887 -5.9689436 0.038722046 -6.0108643 6.0370135
-6.0351744 -6.0558124 -5.971196 5.988096 -6.045079 -6.067221 -6.0459857 5.9558954
-5.9463186 -5.942813 0.04310451 -5.9421687 -5.964625 -6.0051746 0.028256979 -5.9966903
-5.9824147 -0.0616646 -5.909671 -21.494682 -0.036046218 -5.983867 -37.03501 -6.0509133
0.022953952 -5.91054 -5.9318237 -6.011632 -6.0067325 5.913529 -5.938441 -5.9352994
-0.019177685 -6.011143 -5.991799 -12.162031 -6.0326858 -5.226032 -5.9927077 -5.9686
-5.9786305 -5.134586 -5.9212704 -5.9720488 0.0442663 -7.31616 -5.8951883 0.029665431
-5.990658 0.020724576 0.06339214 5.92862 -5.925863 -5.9143887 -6.034975 5.9589934
-6.037847 0.012207132 -5.9232073 6.026388 33.450718 -6.0623274 -5.9891915 -5.9415584
-5.957618 -6.04193 -0.057329997 -3.3305786 0.030153727 5.9122877 -5.9229617 -6.0345135
-6.0224643 -6.0517015 -5.9967084 -5.936478 -5.966022 -5.9223323 -0.08101816 -5.9640994
-5.9278383 -1.3735378 -6.0403666 -5.9479628 5.967611 -6.0260887 -6.05592 -5.927091
-0.015466905 -6.0349917 -5.9474955 0.06522248 -5.9998975 0.035273064 -5.951245 0.04606679
00000000: 033f bec0 2113 bcc0 0381 37bd e254 8dbd
00000010: 7bb3 bfc0 f6b5 1dbb 2dab c0c0 3293 89bc
00000020: adaa bdc0 60c2 7fbd ef42 bfc0 9caa c1c0
00000030: d833 113d 791e 2b3d ec65 bdc0 cdd1 c0c0
00000040: da10 c1c0 737d a33d e145 bdc0 77fb c0c0
00000050: 4d8e 953c 3439 bdc0 5af9 e43b 0ee7 bcc0
00000060: ac07 2b3d 62cb bfc0 b5a2 c1c0 df86 f2bc
00000070: 483d bcc0 12f3 a43d 9c65 88bd 6284 5cbd
00000080: a901 bec0 7232 91bd cc11 53bd 0a02 4fbd
00000090: e14b 9f3d 1582 403d d431 66bc 9215 ec3b
000000a0: e89e bec0 68a9 9dbd 851f 74bd 9893 bfc0
000000b0: 9415 25bd 1f4a 0bbd e8a1 bcc0 ac51 62bd
000000c0: f04d bec0 6e37 8cbd c4af 80bd 3ab0 bcbc
000000d0: 18aa bec0 36f7 bfc0 b973 8bbc 6690 bbc0
000000e0: 10b0 bec0 2acb 96bd 4fbe 6cbd d02c a73c
000000f0: 3d71 283d f7c2 d33b fd81 c1c0 b099 c0c0
00000100: 7ee4 bfc0 6f59 bcc0 1e2c bfc0 8148 91bc
00000110: ecba bbc0 a373 48bd c6fd bdc0 9d96 c0c0
00000120: c98c bdc0 c401 c1c0 1e76 bfc0 c44a bdc0
00000130: 59c8 bfbc b529 5f3d 72e8 dd3c 2691 bbc0
00000140: 0219 c0c0 f919 c1c0 6c11 bdc0 dbe6 bec0
00000150: 48df b7c0 a521 a1bd 2223 de3c aee5 8fbd
00000160: 6012 333d ab52 c0c0 5c57 c1c0 a214 fbbc
00000170: 7517 c1c0 bf99 bdc0 6af8 6c3d 143f 673d
00000180: c7f9 c0c0 e002 bec0 fb3f fc3c dfdc 7cbd
00000190: 5773 bec0 7bb8 71bc 8ebe bc3c ee8b 9c3d
000001a0: 6347 e3bc 32ba 51bd 391a 9abd 870c 073d
000001b0: 4cf4 173d c177 21bd d70b 29bd 7fa6 c0c0
000001c0: e713 5dbd 001b 763b 3b9d 06bd 9d6e a5bd
000001d0: 3ae7 6cbd 291e c2c0 b12b 1abc 9394 aebb
000001e0: 92c2 a83c aa1b bfc0 5caf bfc0 517d c0c0
000001f0: 93ad 7bbd 8971 c0c0 8e6b 953d 9168 1cbd
00000200: eb07 c1c0 d7d3 bec0 c5f0 fa3c 4a97 e23c
00000210: 4219 81bd 0589 9cbd 213c bfc0 67ef 15bd
00000220: c202 8cbd f695 e73c e5c5 bec0 cb71 823d
00000230: ee30 babc c612 bec0 7ea1 bcc0 e96d bdc0
00000240: 2be8 c1c0 8b6e c1c0 b9a2 a13d 5d0d bfc0
00000250: 7e5f c1c0 6ee2 523b 1897 c1c0 361c c2c0
00000260: 7400 bfc0 e0cb c1c0 a115 c0c0 8992 41bd
00000270: 9601 bfc0 029b 1e3d 0059 c0c0 372f c140
00000280: 2620 c1c0 37c9 c1c0 0a14 bfc0 7c9e bf40
00000290: 4a71 c1c0 ad26 c2c0 b778 c1c0 b296 be40
000002a0: 3e48 bec0 862b bec0 5b8e 303d 3f26 bec0
000002b0: 35de bec0 642a c0c0 2e7b e73c e3e4 bfc0
000002c0: f16f bfc0 0594 7cbd 061c bdc0 1cf5 abc1
000002d0: 33a5 13bd d77b bfc0 da23 14c2 15a1 c1c0
000002e0: ed09 bc3c 2523 bdc0 80d1 bdc0 4a5f c0c0
000002f0: 2737 c0c0 a13b bd40 b507 bec0 f9ed bdc0
00000300: 851a 9dbc 495b c0c0 d1bc bfc0 ae97 42c1
00000310: c30b c1c0 a73b a7c0 43c4 bfc0 c5fe bec0
00000320: f150 bfc0 874e a4c0 0c7b bdc0 061b bfc0
00000330: 9450 353d fc1d eac0 62a5 bcc0 eb04 f33c
00000340: 78b3 bfc0 96c6 a93c bdd3 813d 41b7 bd40
00000350: aba0 bdc0 ac42 bdc0 841e c1c0 13b0 be40
00000360: 0b36 c1c0 6c00 483c ea8a bdc0 2cd8 c040
00000370: 89cd 0542 96fe c1c0 75a7 bfc0 3f21 bec0
00000380: cfa4 bec0 7e57 c1c0 dcd2 6abd 3328 55c0
00000390: f304 f73c 7631 bd40 e788 bdc0 bc1a c1c0
000003a0: 07b8 c0c0 8aa7 c1c0 09e5 bfc0 a1f7 bdc0
000003b0: a7e9 bec0 bf83 bdc0 d9ec a5bd e7d9 bec0
000003c0: dab0 bdc0 16d0 afbf af4a c1c0 b655 bec0
000003d0: abf6 be40 b8d5 c0c0 19ca c1c0 bbaa bdc0
000003e0: e768 7dbc a71e c1c0 e251 bec0 5d93 853d
000003f0: 29ff bfc0 7d7a 103d 9970 bec0 88b0 3c3d

2.bias f4 [100]
-5.9244385 -47.919525 -4.565147 -68.75984 -23.153675 -47.20865 -7.4350357 -5.952248
-70.4165 -27.543934 -7.532975 -15.533073 -7.7317348 -7.4004517 -5.9409003 -15.168493
-4.5339932 -7.5579057 -5.9228 -7.484501 -83.70867 -5.5890155 -7.581287 -7.5458174
-7.486708 -5.9467115 -7.4951897 -1.4917121 -6.0567617 -6.052133 -7.6205034 -5.966726
-7.4133873 -6.036564 -7.266301 -18.171352 -13.835943 -8.405473 -6.0631843 -9.2751875
-37.60978 -8.896082 -7.3146577 -6.029271 -7.6701617 -8.356973 -13.6118765 -6.020109
-8.338407 -29.96826 -8.712735 -7.622261 204.94194 -39.41743 445.0424 -40.2287
-33.700264 -15.91701 -48.692963 -7.345683 -65.68196 -5.965005 -7.4333014 -7.70264
-7.599209 -7.46989 -7.6183267 -57.336895 -7.5755105 -6.0265794 -5.9895015 -5.974584
-4.4260783 -7.458323 -7.5789943 -21.952765 -5.956993 -14.625311 -5.9780927 -7.493452
-7.5150075 -6.0161376 -59.284504 -27.932384 -4.5488496 -7.5632205 -6.0166397 -7.6338425
-54.85537 -7.5266967 -7.5401783 -7.6392674 -63.126663 -27.795067 -7.558347 -7.6093583
-6.0166473 -30.229326 -50.311897 -5.952549
00000000: 0095 bdc0 98ad 3fc2 af15 92c0 0a85 89c2
00000010: ba3a b9c1 a8d5 3cc2 d0eb edc0 d178 bec0
00000020: 3fd5 8cc2 fa59 dcc1 220e f1c0 7887 78c1
00000030: 5f6a f7c0 80d0 ecc0 db1b bec0 26b2 72c1
00000040: 7916 91c0 5dda f1c0 9487 bdc0 0881 efc0
00000050: d76a a7c2 37d9 b2c0 e799 f2c0 5677 f1c0
00000060: 1d93 efc0 764b bec0 98d8 efc0 6cf0 bebf
00000070: fed0 c1c0 13ab c1c0 2adb f3c0 6bef bec0
00000080: 783a edc0 882b c1c0 8a85 e8c0 ee5e 91c1
00000090: 0660 5dc1 d17c 06c1 9b05 c2c0 2b67 14c1
000000a0: 6a70 16c2 5a56 0ec1 ad11 eac0 caef c0c0
000000b0: f771 f5c0 29b6 05c1 3fca 59c1 bca4 c0c0
000000c0: 1d6a 05c1 ffbe efc1 5d67 0bc1 90e9 f3c0
000000d0: 23f1 4c43 73ab 1dc2 6d85 de43 30ea 20c2
000000e0: 12cd 06c2 13ac 7ec1 98c5 42c2 d60f ebc0
000000f0: 2a5d 83c2 52e1 bec0 9bdd edc0 077c f6c0
00000100: b82c f3c0 5709 efc0 55c9 f3c0 fb58 65c2
00000110: 956a f2c0 bdd9 c0c0 ffa9 bfc0 cb2f bfc0
00000120: 6fa2 8dc0 95aa eec0 1f87 f2c0 439f afc1
00000130: b09f bec0 4601 6ac1 894c bfc0 5cca efc0
00000140: f17a f0c0 3384 c0c0 5523 6dc2 8675 dfc1
00000150: 2d90 91c0 e705 f2c0 5088 c0c0 7048 f4c0
00000160: e66b 5bc2 b3da f0c0 2449 f1c0 e174 f4c0
00000170: b481 7cc2 4c5c dec1 fbdd f1c0 dd7f f3c0
00000180: 6088 c0c0 a9d5 f1c1 623f 49c2 487b bec0

4.weight f4 [5, 100]
-5.9368644 -24.380676 4.5371714 0.26196295 -8.78517 -6.354634 4.460713 -5.7779946
-6.96374 4.5353627 4.5841136 -23.875998 4.517295 4.4702845 -5.935946 4.6228642
4.510871 4.5101943 -5.985048 4.527967 -2.2303646 15.285364 4.507735 4.5141816
4.4877176 -6.0790386 4.4598885 100.66504 -5.9283643 -6.0003567 4.566435 -5.934191
4.477386 -5.92764 4.4960775 15.100734 -0.774094 4.571137 0.054390837 4.52379
-5.9206743 3.549278 4.58309 -5.9352884 4.497005 5.5405936 4.544837 -5.933528
5.6032305 -38.082035 4.6169467 4.4701447 39.215443 4.395428 31.851313 2.5549185
5.67351 -18.488058 -27.848717 4.581499 11.819468 0.029438341 4.4628906 4.55782
4.494358 4.4712024 4.530481 9.159672 4.495134 -5.9356775 -6.0269966 -5.936976
14.531828 4.559672 4.4703126 4.3149395 -5.982732 5.4716315 -5.9644895 4.499118
4.583376 -5.997101 2.7264054 14.659086 4.492619 4.4829335 -0.09594744 4.6323285
4.691524 4.528549 4.51465 4.5495734 27.037039 4.532074 4.4607754 4.5589447
-5.9618897 -32.69421 0.34511897 0.07741418 -0.09085709 -15.967602 4.5541825 -0.41838098
14.650392 17.129131 4.5551696 0.0660882 -6.1261706 -8.005358 4.450178 -11.038883
4.481681 4.497188 -5.972818 3.2920403 4.4809947 4.4090676 -5.9035835 4.4608274
13.39098 -8.004262 4.452466 4.433841 4.5130415 -5.8876486 4.4221387 -65.53037
-5.8947706 -5.983265 4.427134 -5.892579 4.467492 -5.9512563 4.561404 -27.036697
-5.7029552 4.2500134 -5.9443808 3.4519393 -5.917047 1.2072138 4.401209 -5.9676795
4.494791 4.450971 1.6600325 -5.9664946 4.475873 7.799933 4.1927414 4.4365063
39.50671 -21.029745 20.638664 -6.638172 -2.239821 -27.886448 -2.9545176 4.4418936
6.284168 -5.958407 4.4244275 4.4734077 4.562012 4.4967723 4.5589933 22.021301
4.42935 -5.9804373 -5.974391 -5.9273257 -4.8433146 4.505605 4.4594817 2.23444
-5.9285517 5.486615 -5.9281206 4.46427 4.4184856 -5.8982897 -6.0170164 -4.0610414
4.6089473 4.502532 0.016232062 4.546689 -29.341887 4.5106096 4.454943 4.447163
23.619871 -8.292287 4.5300775 4.3319707 -5.910594 -22.331743 -6.9716487 -5.9066296
-0.031246066 3.0394886 4.563371 21.025406 7.1720467 -2.3147604 3.9109373 -0.0063876747
2.7684977 14.344336 4.0638676 17.441603 3.8647788 4.141588 -5.986127 -6.953413
4.6031723 3.6744084 -6.012817 3.954734 28.900055 32.2418 4.0729456 4.0292087
3.633477 -5.891147 3.9491568 -152.4555 -6.0054436 -5.916505 4.168543 -5.947193
4.0942726 -5.9484115 4.07192 -34.7658 -5.1914287 3.2462523 -5.900017 0.26659438
-6.081753 2.6156886 3.4122343 -6.0306115 4.11783 3.6876836 -4.882081 -6.0186114
3.8386035 9.418668 2.7522295 4.120665 39.36904 25.092861 24.580374 21.866983
00000000: cbfa bdc0 a00b c3c1 8230 9140 0220 863e
00000010: 0e90 0cc1 2959 cbc0 29be 8e40 55e5 b8c0
00000020: f5d6 dec0 b121 9140 0fb1 9240 0b02 bfc1
00000030: ae8d 9040 920c 8f40 45f3 bdc0 81ee 9340
00000040: 0e59 9040 8353 9040 8385 bfc0 1be5 9040
00000050: 4bbe 0ec0 da90 7441 5d3f 9040 2d74 9040
00000060: 629b 8f40 7c87 c2c0 68b7 8e40 8054 c942
00000070: 29b5 bdc0 ec02 c0c0 3c20 9240 e5e4 bdc0
00000080: bf46 8f40 3aaf bdc0 dedf 8f40 9b9c 7141
00000090: 062b 46bf c146 9240 edc8 5e3d e3c2 9040
000000a0: 2a76 bdc0 5f27 6340 aca8 9240 e2ed bdc0
000000b0: 77e7 8f40 8b4c b140 4e6f 9140 76df bdc0
000000c0: aa4d b340 0154 18c2 07be 9340 6d0b 8f40
000000d0: 9ddc 1c42 59a7 8c40 7dcf fe41 c983 2340
000000e0: 658d b540 8be7 93c1 2cca dec1 a49b 9240
000000f0: 8a1c 3d41 ad28 f13c 00d0 8e40 a9d9 9140
00000100: c8d1 8f40 1714 8f40 b3f9 9040 048e 1241
00000110: 23d8 8f40 12f1 bdc0 28dd c0c0 b5fb bdc0
00000120: 5e82 6841 d5e8 9140 cd0c 8f40 fc13 8a40
00000130: 8a72 bfc0 9b17 af40 19dd bec0 c6f8 8f40
00000140: 04ab 9240 40e8 bfc0 6d7d 2e40 9e8b 6a41
00000150: 89c3 8f40 3174 8f40 1780 c4bd 093c 9440
00000160: f720 9640 e0e9 9040 0378 9040 1b96 9140
00000170: db4b d841 c006 9140 acbe 8e40 e0e2 9140
00000180: cdc7 bec0 dfc6 02c2 6fb3 b03e 538b 9e3d
00000190: 4813 babd 4c7b 7fc1 ddbb 9140 0836 d6be
000001a0: 0168 6a41 7608 8941 f3c3 9140 4059 873d
000001b0: 9709 c4c0 f215 00c1 dc67 8e40 449f 30c1
000001c0: ee69 8f40 f7e8 8f40 5321 bfc0 cab0 5240
000001d0: 4f64 8f40 1517 8d40 28ea bcc0 19bf 8e40
000001e0: 7441 5641 7511 00c1 9a7a 8e40 07e2 8d40
000001f0: d66a 9040 9e67 bcc0 2982 8d40 8d0f 83c2
00000200: f6a1 bcc0 e876 bfc0 15ab 8d40 0290 bcc0
00000210: b2f5 8e40 b170 bec0 06f7 9140 284b d8c1
00000220: 9c7e b6c0 1c00 8840 5e38 bec0 93ec 5c40
00000230: 7358 bdc0 fb85 9a3f b4d6 8c40 3bf7 bec0
00000240: 54d5 8f40 5b6e 8e40 f27b d43f 86ed bec0
00000250: 5a3a 8f40 0d99 f940 f02a 8640 dcf7 8d40
00000260: df06 1e42 eb3c a8c1 fc1b a541 e86b d4c0
00000270: 3a59 0fc0 7217 dfc1 d116 3dc0 fe23 8e40
00000280: e717 c940 45ab bec0 e994 8d40 2826 8f40
00000290: 01fc 9140 8fe5 8f40 46e3 9140 a02b b041
000002a0: 3cbd 8d40 be5f bfc0 362e bfc0 a7ac bdc0
000002b0: 6ffc 9ac0 eb2d 9040 13b4 8e40 1101 0f40
000002c0: b2b6 bdc0 5a92 af40 2ab3 bdc0 4ddb 8e40
000002d0: 3c64 8d40 cabe bcc0 668b c0c0 0df4 81c0
000002e0: 7f7c 9340 be14 9040 1af9 843c 7a7e 9140
000002f0: 2fbc eac1 ea56 9040 e58e 8e40 294f 8e40
00000300: 7ff5 bc41 35ad 04c1 65f6 9040 819f 8a40
00000310: 9623 bdc0 69a7 b2c1 bf17 dfc0 1c03 bdc0
00000320: c0f7 ffbc fb86 4240 2307 9240 0834 a841
00000330: 6881 e540 0925 14c0 cc4c 7a40 b34f d1bb
00000340: 112f 3140 6682 6541 340b 8240 6788 8b41
00000350: 8958 7740 e487 8440 5a8e bfc0 5c82 dec0
00000360: 304d 9340 8229 6b40 ff68 c0c0 5d1a 7d40
00000370: 5033 e741 9af7 0042 9255 8240 47ef 8040
00000380: e38a 6840 4784 bcc0 fcbe 7c40 9c74 18c3
00000390: 982c c0c0 0254 bdc0 b464 8540 684f bec0
000003a0: 4804 8340 6359 bec0 2b4d 8240 2e10 0bc2
000003b0: 2f20 a6c0 99c2 4f40 f0cc bcc0 0f7f 883e
000003c0: b89d c2c0 7167 2740 0c62 5a40 c5fa c0c0
000003d0: 43c5 8340 0203 6c40 023a 9cc0 7798 c0c0
000003e0: aeab 7540 ddb2 1641 8724 3040 7ddc 8340
000003f0: e679 1d42 2ebe c841 9ba4 c441 95ef ae41

4.bias f4 [5]
-2989.591 2593.068 147.32275 -717.93713 -423.50595
00000000: 75d9 3ac5 1711 2245 a052 1343 fa7b 33c4
00000010: c3c0 d3c3
