trained_buffer/dqn_agent_state_truncated_step30.pth (torch, 680142 bytes, 24 tensors)

0.weight f4 [150, 11]
00000000: 9ba9 b8c0 eaee d2c0 d7de d0c0 9ea3 96c0
00000010: d702 b9c0 769a ccc0 35b6 d6c0 2dc3 9340
00000020: 6a8c 8fc0 1660 8f40 e4d5 92c0 a3be bac0
00000030: 0356 bbc0 cbe8 bfc0 fef0 c3c0 80bf c8c0
00000040: fad5 b8c0 9c3b c3c0 902e bd40 4b6c bf40
00000050: 8a9b c640 d610 c8c0 3a0c f541 c537 2a42
00000060: a25c 8042 04bf 3d42 f49a 6a42 d8fd 8b42
00000070: 306a 6342 5ceb a242 b6ed f541 c410 8b42
00000080: 7d37 09c1 11d9 14c2 e8fd 04c2 59b7 b8c0
00000090: dc2e 14c2 8e95 b9c0 8ed2 05c2 b68e 13c2
000000a0: 1d85 a5c1 b7c7 ad41 6599 c741 33f5 ad41
000000b0: 43e4 bbc1 d3bd ddc0 a9bc 7ac1 5d2e d8c0
000000c0: 9dbd 2fc1 9a08 00c2 e92a 43c1 36ea 52c1
000000d0: ba95 5a40 1568 4c41 6908 6840 a812 c7c0
000000e0: 277f b8c0 9e91 bbc0 cdb4 c3c0 50ea c5c0
000000f0: 9274 c8c0 85c0 c1c0 23ef b740 4a61 c540
00000100: 4c4d b9c0 3410 ba40 661e f8c0 2d13 8ac0
00000110: f3e9 94c0 f179 d3c0 fbd9 8bc0 24ab 88c0
00000120: 59c6 9dc0 c6f8 13c0 237f 7b40 688b 57c0
00000130: 89d9 3740 8dc0 b9c0 fbf0 bfc0 ac91 b6c0
00000140: bb39 bbc0 bad2 c4c0 569e c4c0 1a90 b7c0
00000150: 0b5d c540 f0e6 c440 86bd bcc0 72fe c2c0
00000160: 5719 95c0 ff3e 8fc0 591a 8dc0 447d 8ec0
00000170: 12a4 c9c0 76b6 91c0 7f13 98c0 b897 9540
00000180: 3120 9140 b1aa c340 e004 d7c0 0ad0 b8c0
00000190: f364 28c1 6c27 2bc1 f20e c8c0 5d47 c1c0
000001a0: 21a8 29c1 2233 bec0 a764 c0be 2c5c 9c3e
000001b0: 5764 48bf eb05 3c3f 41d0 27c1 6ce1 81c1
000001c0: ee65 c6c0 88c6 c4c0 30d8 883d 2c17 97c0
000001d0: b104 84c1 ae8e c340 574d 9640 337e 9340
000001e0: 6a44 9640 437c c7c0 83f5 bdc0 0078 b7c0
000001f0: 74f8 bdc0 7e5e bac0 0b2c bbc0 090e b9c0
00000200: 4deb c140 ca1e ba40 acbd bfc0 8291 c440
00000210: 2ee5 98c0 3715 04c1 f8b8 efc0 d0cc 95c0
00000220: 14d1 d5c0 e795 d7c0 2b46 d0c0 8e17 9340
00000230: 0511 dbbe 4d01 8240 7b3e 11c0 5d66 bfc0
00000240: d5cb b6c0 d411 bec0 eeb6 c7c0 37d2 be40
00000250: a166 c2c0 c12d bdc0 4a47 bd40 3a9f c040
00000260: 8f9a c2c0 3e95 ba40 0bd1 14c2 543b b8c0
00000270: 32a3 c6c0 dbf1 13c2 8c42 c8c1 34c3 13c2
00000280: f089 bfc0 e3e9 a141 c466 c340 06c2 c741
00000290: 5f98 c9c1 c7db 91c0 5130 95c0 d0d5 91c0
000002a0: 1880 9ac0 dab8 d7c0 3ef6 08c1 56dc 94c0
000002b0: 505f d03f a775 f93f 3e76 d140 d22c 88c0
000002c0: fe11 bdc0 0f19 bdc0 281f c2c0 708e b8c0
000002d0: 7b99 c2c0 7e5c c2c0 34b8 bfc0 7f13 c440
000002e0: aebb bb40 3b49 b9c0 1443 b7c0 7832 b8c0
000002f0: 3685 bdc0 d039 c0c0 02d6 c2c0 cb31 b6c0
00000300: 60ce bac0 d27e bbc0 181f bc40 09d3 b640
00000310: bbe7 c2c0 6105 b6c0 d9ca 9ec0 ef0a 89c0
00000320: e429 cbc0 db99 d3c0 1262 d7c0 eff6 87c0
00000330: 286e d0c0 2427 7dc0 5191 8b40 3ad6 7ac0
00000340: 6fbf 8840 c492 12c2 c366 13c2 0b6e 14c2
00000350: 4528 13c2 8e99 98c1 633e 3fc2 a3a2 12c2
00000360: be4d 0bc2 8fd6 0e42 6497 c941 f5fe c341
00000370: 0de0 12c2 830e 14c2 1c3a 17c2 fabb 14c2
00000380: 022e b740 6f7b 88c2 44c4 17c2 7515 21c1
00000390: dbba 9dc0 4c2c 8dc0 cbca 93c1 22fc 71c1
000003a0: eb2f 95c0 b36e 89c0 7457 99c0 81bb d9c0
000003b0: 4b87 8ac0 8056 08c1 ec88 3e41 9cf8 7fc0
000003c0: 0349 2541 5b6a 8ac0 e116 96c0 d442 93c0
000003d0: 5066 d9c0 e3a0 ccc0 847d d4c0 2ad0 cfc0
000003e0: 14cc cac0 f87f 8f40 0bc1 9940 5950 8940
000003f0: ec17 9940 9430 c0c0 14ec c1c0 3718 c2c0
-5.770704 -6.5916643 -6.527202 -4.707473 -5.7815967 -6.393855 -6.709742 4.617575
-4.4858904 4.4804792 -4.5886097 -5.835771 -5.8542495 -5.997167 -6.123168 -6.2733765
-5.77612 -6.1010265 5.911934 5.9819694 6.2064867 -6.252055 30.63097 42.554462
64.18092 47.43654 58.65132 69.99579 56.8537 81.45969 30.74107 69.532745
-8.576047 -37.21198 -33.247955 -5.7723813 -37.04576 -5.799506 -33.45562 -36.889366
-20.689997 21.722517 24.9499 21.744726 -23.486456 -6.929422 -15.67106 -6.7556596
-10.983792 -32.0084 -12.197976 -13.18218 3.4153886 12.775411 3.6255133 -6.2210274
-5.7655215 -5.8615255 -6.1158204 -6.1848526 -6.26423 -6.054751 5.7479415 6.168126
-5.7906857 5.814478 -7.7537107 -4.314841 -4.6535583 -6.6086354 -4.370359 -4.270891
-4.9304624 -2.312059 3.9296348 -3.3678837 2.8726523 -5.8047547 -5.9981666 -5.705282
-5.850797 -6.1507235 -6.144328 -5.7363405 6.167608 6.1531906 -5.898135 -6.09356
-4.6593432 -4.47644 -4.4094663 -4.452791 -6.301278 -4.553523 -4.75238 4.6747704
4.5351796 6.1145864 -6.719345 -5.7753954 -10.524646 -10.6971245 -6.2518244 -6.0399613
-10.603547 -5.943742 -0.37576792 0.30539072 -0.78278106 0.7344653 -10.488343 -16.23507
-6.1999426 -6.149235 0.066818595 -4.7215786 -16.50229 6.111167 4.696941 4.609155
4.6958513 -6.2339187 -5.9362197 -5.7333984 -5.9365788 -5.8240347 -5.8491263 -5.7829633
6.0599732 5.8162584 -5.9919033 6.142762 -4.777976 -8.255179 -7.491329 -4.6812515
-6.681772 -6.7370486 -6.5085654 4.5966253 -0.42786422 4.062659 -2.2694385 -5.9812455
-5.712382 -5.9396763 -6.2410803 5.963161 -6.075028 -5.911835 5.9149523 6.019437
-6.081367 5.830718 -37.204144 -5.757242 -6.2074213 -36.986187 -25.032494 -36.940628
-5.985588 20.239202 6.1062946 24.969738 -25.1994 -4.5580783 -4.662148 -4.55735
-4.8281364 -6.741315 -8.560118 -4.6518965 1.6279087 1.948903 6.545684 -4.255471
-5.9084463 -5.909309 -6.0663033 -5.7673874 -6.0812354 -6.0737906 -5.9912357 6.12738
5.86666 -5.7901893 -5.7269382 -5.7561607 -5.922511 -6.007057 -6.088624 -5.6935782
-5.8376923 -5.859231 5.8787956 5.713261 -6.0907874 -5.6881566 -4.9622617 -4.2825847
-6.3488636 -6.612531 -6.7307215 -4.2488933 -6.513447 -3.955514 4.361489 -3.9193254
4.2733684 -36.643326 -36.850353 -37.107464 -36.789326 -19.074978 -47.810925 -36.658825
-34.82592 35.70953 25.198921 24.49949 -36.7188 -37.01417 -37.806747 -37.18357
5.724366 -68.24108 -37.941666 -10.067739 -4.9290595 -4.4116573 -18.47402 -15.124056
-4.6620994 -4.294763 -4.7919254 -6.8041387 -4.3290153 -8.521118 11.908428 -3.999549
10.330325 -4.325483 -4.690293 -4.6019077 -6.7937393 -6.3946395 -6.6403217 -6.4941607
-6.337412 4.484371 4.804815 4.291058 4.78417 -6.00593 -6.060068 -6.065456

0.bias f4 [150]
00000000: 6ced cac0 37be bcc0 addf 8942 8f68 05c2
00000010: c812 e6c1 845a c6c0 aa2a 98c0 931b c6c0
00000020: 8028 8ac0 9d51 2bc1 0b3d 84c1 19ff bac0
00000030: 20e9 e2c0 8527 c8c0 d846 51c2 f2e6 c4c0
00000040: 63c9 c2c0 dc9f b6c0 dbc0 d4c0 bbb4 40c2
00000050: 2ad6 a7c2 4866 12c1 2fef ccc0 ba50 c4c0
00000060: 38fb c7c0 19cc 92c0 de94 d2c0 218c 8dc0
00000070: d9e2 a0c1 a1c8 82c1 3ac4 15c2 2e87 96c0
00000080: 470c 51c2 e4bc bec0 8d41 06c2 4c00 b8c0
00000090: 5c75 dac0 6650 b9c0 f63a d3c0 e697 bbc0
000000a0: 72ca 11c1 1bb1 d3c0 bf76 93c0 3da9 46c2
000000b0: e5e6 c4c0 11ee 12c2 c46a 45c2 9af8 19c1
000000c0: b2d2 47c1 a914 e6c0 13f9 93c0 7301 05c2
000000d0: 7e13 16c2 bbd9 6fc1 2582 4ec2 81ee f9c1
000000e0: 824b 1ec2 d843 c1c0 5c54 c5c0 ccb8 f9c1
000000f0: db6b 3fc2 6535 aec0 a641 cbc0 ef2d a6c2
00000100: c3b6 06c2 4264 8ec0 0721 36c2 5943 93c0
00000110: 0949 bbc0 e21f 54c1 00e8 95c0 0266 9bc0
00000120: 1d8f d4c0 05e5 b6c0 411e c4c0 5126 ccc0
00000130: 2945 80c1 1f8d 06c2 9f5b 92c0 0cfc 90c0
00000140: d220 d9c0 92dc 34c1 e470 88c0 6aee d6c1
00000150: a5a1 d6c0 8953 a7c2 23ef f8c1 901e c6c0
00000160: 76ef bec0 798d 6d42 1cf5 adc1 ef5e d1c0
00000170: f0bd b3c0 acf0 cac0 51af b841 fee2 b6c0
00000180: ca5e 92c0 43af 89c0 9d2e 7042 fa3a dac0
00000190: 2916 b8c0 8b95 b8c0 6e13 8fc0 8446 c2c0
000001a0: bb59 cbc0 faaa 07c2 71e9 c6c0 8635 09c2
000001b0: 1a68 99c0 cb7f 14c2 0cc5 8dc0 55bd c2c0
000001c0: ff90 c4c0 f5a3 15c2 8f5e 80c1 69eb f1c1
000001d0: aba7 8dc0 0761 89c0 4e44 b5c1 1357 0b41
000001e0: 9c55 d5c1 3447 c0c0 d515 f2c0 d0a6 53c1
000001f0: a779 8cc1 c357 8ec0 ea5f d9c1 3893 d5c0
00000200: dee6 84c2 a810 c8c0 f2a7 94c1 f5ca b9c0
00000210: d280 d6c1 5e13 bac0 1f3b 1cc2 943e 89c0
00000220: a2c5 15c2 5280 a9c2 f3fa 45c2 c088 99c0
00000230: 8c5a 75c2 44c3 99c0 7d5f cfc0 baa3 8bc1
00000240: e3c9 c8c0 4165 1bc1 da50 b8c0 89d4 8bc0
00000250: e90b d4c0 e557 c6c0
-6.341482 -5.8982196 68.93687 -33.352108 -28.75917 -6.1985493 -4.755208 -6.190866
-4.317444 -10.707425 -16.529806 -5.84364 -7.0909576 -6.254824 -52.319183 -6.1531916
-6.0870833 -5.707014 -6.648542 -48.176495 -83.91829 -9.149971 -6.404197 -6.1348543
-6.2494164 -4.5874143 -6.5806723 -4.4233556 -20.110765 -16.347963 -37.441628 -4.7040014
-52.26199 -5.960558 -33.564014 -5.7500362 -6.826826 -5.7910643 -6.6009474 -5.8622923
-9.111925 -6.6153693 -4.6082454 -49.66527 -6.1531854 -36.732487 -49.354263 -9.623194
-12.488939 -7.190022 -4.6241546 -33.251415 -37.519035 -14.990657 -51.627094 -31.241457
-39.57374 -6.0395317 -6.166548 -31.215233 -47.855328 -5.444018 -6.3517637 -83.089714
-33.67848 -4.4497385 -45.532253 -4.601971 -5.8526654 -13.257784 -4.6845703 -4.856202
-6.64247 -5.7154565 -6.128693 -6.3796773 -16.03377 -33.637814 -4.573684 -4.5307674
-6.7852564 -11.30385 -4.2637806 -26.866413 -6.707232 -83.663155 -31.116766 -6.191231
-5.966731 59.388157 -21.744682 -6.5428386 -5.6169357 -6.341879 23.085604 -5.715209
-4.574071 -4.3026443 60.04552 -6.8196993 -5.752705 -5.7682548 -4.471122 -6.071108
-6.3547034 -33.91697 -6.2159963 -34.30227 -4.7939577 -37.124798 -4.4303036 -6.085612
-6.1426997 -37.410114 -16.046171 -30.239946 -4.4267173 -4.293094 -22.658352 8.708758
-26.666801 -6.008692 -7.565165 -13.228226 -17.5594 -4.448213 -27.171833 -6.674221
-66.45091 -6.252033 -18.582005 -5.806025 -26.8129 -5.814864 -39.057735 -4.288889
-37.443 -84.750626 -49.495068 -4.797943 -61.338425 -4.805086 -6.4804063 -17.454945
-6.2746444 -9.71222 -5.7598696 -4.369694 -6.626454 -6.1982293

2.weight f4 [100, 150]
00000000: 37fd bd40 af35 bdc0 1802 e1c0 b2a6 bdc0
00000010: 1467 bec0 797f bdc0 f620 bdc0 5196 bec0
00000020: 4fa1 c1c0 6194 bec0 0335 80c0 f3f2 bdc0
00000030: e19a bdc0 d0a5 bec0 77aa bfc0 6d97 b5c0
00000040: 673b c1c0 2a88 bdc0 c2b8 c1c0 13d6 bdc0
00000050: 7936 bdc0 e295 e2c0 798f c040 86a3 c1c0
00000060: e5c5 bfc0 7f2f bec0 162b e5c0 684f e2c0
00000070: 39ec bdc0 8672 dec0 776c bdc0 6d84 e4c0
00000080: b0b4 bdc0 8263 bfc0 11c8 bec0 abdd c1c0
00000090: dbe9 c0c0 a282 bec0 17e1 bec0 cf4b bdc0
000000a0: b52b a63d 2d75 c140 c322 dfc0 ab07 a8c1
000000b0: 3258 c1c0 44f5 6cc0 21f9 a7c1 73d5 24c1
000000c0: dcdf e6c0 7930 c0c0 332c c2c0 ab1a bd40
000000d0: 2666 bec0 9865 c0c0 dfa9 bdc0 8e01 7abd
000000e0: 2507 c0c0 6610 bec0 4dac bec0 4328 653c
000000f0: 162b bec0 f8c8 6dc0 0786 c1c0 131a bec0
00000100: c520 c0c0 0ee7 fcc0 ea0b bec0 df9a bdc0
00000110: ab41 bec0 e7fc bfc0 c1c9 bec0 e364 bfc0
00000120: 4665 bdc0 c386 bec0 3609 67c0 ca71 bec0
00000130: 64ba 7cc1 b599 be40 7162 dec0 4a6a 03c1
00000140: 5f42 bdc0 f727 bdc0 9519 e5c0 a22d c2c0
00000150: 86e6 d1c0 fae2 bdc0 1f00 16bd f300 bdc0
00000160: 713e bdc0 9a64 6bc0 d68b e1c0 a908 c0c0
00000170: 2564 c1c0 ea14 bdc0 db33 ecc0 328e bec0
00000180: 7ae0 bfc0 9c54 6ec0 36d9 e1c0 687b e1c0
00000190: 7081 bec0 63ec bdc0 3a96 e2c0 b578 bfc0
000001a0: 6ed6 c0c0 b935 bdc0 b6bf c1c0 3837 c0c0
000001b0: 6bd5 c1c0 ab8c bac0 4892 dfc0 ea98 bc3c
000001c0: 766a bdc0 1d06 c0c0 dd88 69c0 754e bfc0
000001d0: f4a4 bdc0 6379 c0c0 2e4a 69c0 bc01 66c0
000001e0: fcda c140 07f0 bfc0 5571 c1c0 9404 c0c0
000001f0: 5b90 00c1 dfda bdc0 4a48 eac0 60fb bd40
00000200: efdf c0c0 cf53 bdc0 8a43 0cbd 3ae0 c140
00000210: 35a1 a43d 3117 bdc0 6caa 053d 6853 e3c0
00000220: 7804 c0c0 b96a c1c0 d35c a8c1 eccd dfc0
00000230: efd0 bdc0 a597 e1c0 d1ae c1c0 fb3a 6ac0
00000240: d12e c040 b165 c1c0 c314 bec0 2346 6dc0
00000250: 8db0 be40 60f9 c0c0 b45a 91c0 e13f bf40
00000260: 0d09 8fc0 9e2c aec1 fb3a 93c0 ef8d c140
00000270: a8c0 91c0 d37c bf40 bc1d 93c0 a392 99bb
00000280: f6ba 1cc1 7f7b c140 e9c3 93c0 d62c bd40
00000290: 519d c140 e2b5 93c0 6bbe c040 c996 be40
000002a0: 2257 91c0 0c95 1ac2 3e3b 39c1 1284 93c0
000002b0: fc47 90c0 1695 bd40 6f4b c040 e6dc 8fc0
000002c0: 8974 48c0 1bc7 8fc0 07d2 8ec0 584a 90c0
000002d0: 94f8 c140 7d6d 8fc0 3f56 9fc1 2f9c bf40
000002e0: b8ea 93c0 fe1d bf40 9b97 8fc0 ef71 bd40
000002f0: 88a1 92c0 a31d be40 0781 0dbd 1585 b2c0
00000300: d8a4 90c0 b0f3 a7c1 9b72 be40 b134 b1c0
00000310: 7b47 a8c1 e01b 92c0 516f 8fc0 dcc4 92c0
00000320: ee0f 91c0 f0bb adc1 92b4 c140 1ce0 93c0
00000330: f96a c040 9204 9cbd 16a4 a0c1 2247 bf40
00000340: a211 c040 e86c a23a a437 18c2 4251 b3c0
00000350: def3 93c0 d89f 91c1 fe48 adc1 a526 91c0
00000360: 4e3e 2f41 17ed 91c0 02f3 bf40 8a5e 91c0
00000370: f3c7 8ec0 fcc2 92c0 eba4 92c0 eede c140
00000380: c8d4 92c0 f1b3 8fc0 7c3a 79c0 ae04 aec1
00000390: 2c5c 8fc0 dd66 8fc0 af24 90c0 86e3 91c0
000003a0: 7271 91c0 a635 8fc0 3aad 91c0 2b2f 81c1
000003b0: 20a5 00bd 5c6e bd40 470e bf40 82e5 93c0
000003c0: 9f2d 90c0 db28 91c0 41ee 8ec0 8b86 93c0
000003d0: 889d 93c0 cc5e be40 01f5 8fc0 18ba 93c0
000003e0: b5c7 91c0 47da 91c0 e8b0 c140 9c8c bf40
000003f0: b100 90c0 b42f c040 1fbd 92c0 5428 c8c1
5.93716 -5.912803 -7.0315056 -5.9265985 -5.950083 -5.9218106 -5.9102736 -5.955849
-6.050941 -5.9556127 -4.006471 -5.935907 -5.925156 -5.957741 -5.9895587 -5.6747346
-6.0385013 -5.9228716 -6.0538034 -5.932382 -5.9128995 -7.0807962 6.0175138 -6.0512114
-5.992907 -5.943298 -7.1615095 -7.072193 -5.935086 -6.95148 -5.9194903 -7.1411653
-5.9283066 -5.980897 -5.961922 -6.058309 -6.028547 -5.9534464 -5.964977 -5.915504
0.08113805 6.0455537 -6.9729934 -21.003744 -6.042016 -3.7024698 -20.996645 -10.302112
-7.2148266 -6.005917 -6.0678954 5.9095054 -5.9499693 -6.0124016 -5.926986 -0.06103664
-6.000872 -5.939502 -5.958533 0.01398665 -5.9427595 -3.7153912 -6.0476108 -5.940683
-6.004 -7.903205 -5.9389544 -5.925155 -5.945516 -5.999622 -5.962128 -5.9810653
-5.9186125 -5.9539504 -3.6099372 -5.9513903 -15.795506 5.956263 -6.949517 -8.2134495
-5.914352 -5.9111285 -7.159373 -6.0680704 -6.55939 -5.933957 -0.03662121 -5.906366
-5.9138722 -3.6780152 -7.04832 -6.001057 -6.0434747 -5.908803 -7.38133 -5.954858
-5.996152 -3.7239141 -7.057765 -7.0463142 -5.9533005 -5.935106 -7.080838 -5.9834847
-6.0261755 -5.912808 -6.054652 -6.0067406 -6.057302 -5.8296714 -6.9866066 0.023022134
-5.9192457 -6.0007463 -3.6489785 -5.9783273 -5.926386 -6.0148177 -3.6451526 -3.5938559
6.0579815 -5.99805 -6.0450845 -6.000559 -8.035243 -5.9329677 -7.3213243 5.9369354
-6.0273356 -5.9164805 -0.034244098 6.0586214 0.0803856 -5.909081 0.03263323 -7.1039314
-6.0005455 -6.0442777 -21.045324 -6.993887 -5.9317546 -7.0497613 -6.05259 -3.65985
6.005715 -6.0436635 -5.9400344 -3.7074058 5.9590516 -6.0304413 -4.542322 5.9765477
-4.469855 -21.771786 -4.60095 6.048576 -4.5547676 5.9839873 -4.5973797 -0.00468667
-9.795645 6.046325 -4.617665 5.911723 6.0504537 -4.6159525 6.0232444 5.9559064
-4.5418863 -38.645554 -11.576963 -4.609872 -4.508787 5.924449 6.009208 -4.495715
-3.1321127 -4.493055 -4.463138 -4.509075 6.061594 -4.4821153 -19.917112 5.9878154
-4.622402 5.972411 -4.4872565 5.920158 -4.582218 5.941118 -0.03454688 -5.5787454
-4.5201225 -20.993988 5.95149 -5.537682 -21.034903 -4.5659027 -4.4823384 -4.5865307
-4.5331945 -21.716766 6.0532923 -4.621107 6.013058 -0.07618059 -20.08012 5.977433
6.0021524 0.0012392076 -38.054337 -5.603669 -4.623519 -18.203049 -21.66064 -4.5359674
10.952711 -4.5601916 5.998414 -4.5427904 -4.461908 -4.586302 -4.5826316 6.058463
-4.5884743 -4.4907155 -3.8941946 -21.752285 -4.4800014 -4.4813066 -4.504478 -4.559024
-4.5450983 -4.475299 -4.552396 -16.148031 -0.031407475 5.9197216 5.970493 -4.621766
-4.505569 -4.5362372 -4.4665837 -4.6101737 -4.61298 5.949072 -4.4986577 -4.6164665
-4.5556283 -4.557895 6.052845 5.985914 -4.5000844 6.005823 -4.585586 -25.019691

2.bias f4 [100]
00000000: cee2 1ec2 7c2b 89c2 4b95 2bc2 96bc 08c2
00000010: 7742 c0c0 0291 44c2 de7c 14c2 6785 15c2
00000020: b9a9 15c2 95db f8c1 362b a3c2 01c0 89c2
00000030: a435 c1c0 3eec 0fc2 3ce0 86c2 9850 89c2
00000040: c0ec 0bc2 e932 89c2 bf26 90c0 bf13 87c2
00000050: 2e70 bfc0 751a 34c1 aa43 89c2 04e5 5ec2
00000060: d9e4 11c2 0c38 9fc2 5bc6 99c1 606c 85c2
00000070: 61ef 84c2 28ed ddc0 9d5c 0ac2 a847 83c2
00000080: 6787 aec0 27ed c0c0 6b74 d1bf ae74 06c1
00000090: 9fca a5c1 67f3 4bc1 9d18 16c1 3a3e 0fc1
000000a0: 56df 6dc0 ab4e 45c2 4a3d 30c2 bf71 8bc2
000000b0: 5892 89c2 4db8 c1c0 2f63 3dc0 0b2e 89c1
000000c0: 3bb7 15c2 fc76 a8c0 dc82 85c2 6ae3 bec1
000000d0: 6500 7dc1 3602 8ac2 9d1f 97c0 b902 d4c1
000000e0: dcab 80c2 ded8 bfc0 2911 09c2 d7df 20c1
000000f0: 3adc 02c1 4d12 8fc2 af99 f1c1 9de1 0bc2
00000100: 8c61 85c2 9a2b 87c0 6cf1 b2c0 ec58 82c0
00000110: 0a9e a7c2 9187 e0c2 58ec 86c2 5180 b9c1
00000120: 74e1 bec0 3c71 c0c0 95a1 8bc2 0696 bdc0
00000130: 4258 bec0 5f2a 8bc2 e4f6 c0c0 52f3 86c2
00000140: bc09 d4c1 d0e0 2cc2 8a70 01c1 0327 bbc1
00000150: 6855 81c1 b259 8fc2 b3e6 c1c0 08d9 84c2
00000160: 3794 b6c1 9cd1 20c2 37e0 88c2 534d 85c2
00000170: ca79 48c1 f8cc 2ac2 b7d7 8bc1 a4a8 0bc2
00000180: 834c 1ec2 54a7 42c1 0f37 92c2 6782 afc0
-39.72149 -68.58493 -42.895794 -34.184166 -6.0081134 -49.14161 -37.12194 -37.380276
-37.415745 -31.107218 -81.5844 -68.87501 -6.037798 -35.980705 -67.43796 -68.65741
-34.9812 -68.599434 -4.5047297 -67.53857 -5.982444 -11.256459 -68.63216 -55.723648
-36.473484 -79.60947 -19.221853 -66.71167 -66.46754 -6.9351997 -34.590443 -65.63995
-5.4540286 -6.0289493 -1.6363653 -8.403486 -20.723936 -12.746924 -9.381009 -8.952692
-3.7167563 -49.326824 -44.059853 -69.72216 -68.78583 -6.0537477 -2.9591787 -17.147482
-37.428936 -5.2645245 -66.755585 -23.861042 -15.812596 -69.00432 -4.722609 -26.50133
-64.33566 -5.995223 -34.266758 -10.054648 -8.178766 -71.53574 -30.20004 -34.970325
-66.69052 -4.2240725 -5.5919704 -4.0733547 -83.80867 -112.26478 -67.46161 -23.187654
-5.965021 -6.0138226 -69.81559 -5.9245634 -5.9482737 -69.582756 -6.030138 -67.475235
-26.504753 -43.219543 -8.089975 -23.394049 -16.166702 -71.675186 -6.0594115 -66.42389
-22.82237 -40.204697 -68.43792 -66.651024 -12.529734 -42.700165 -17.48033 -34.91469
-39.57472 -12.165852 -73.10754 -5.4846683

4.weight f4 [5, 100]
00000000: 0264 6d40 87dd 8b40 eff1 bec0 2ed6 5540
00000010: 977b bec0 3358 18c0 110a bec0 0341 c0c0
00000020: 7818 c1c0 4c57 da41 cc2b e040 390c 8b40
00000030: c57e bdc0 29ba bdc0 cc7f 9340 4fc4 e33f
00000040: 796e b841 98fa 8b40 ba25 8d40 4e3a 9440
00000050: 06be bcc0 0bf5 8d40 159d 8a40 5549 1241
00000060: 5caf 1ac1 6f81 0742 d6da 1242 e30a 8a40
00000070: 2111 8a40 7e1d cbc0 f77b 9040 6d65 c2c0
00000080: d810 16c2 84b9 bdc0 26a9 8240 c1e2 cec1
00000090: 70b6 1c40 4d52 de41 e8d2 9340 c5c4 ce40
000000a0: d6c6 9a41 7407 4340 f693 8040 9c6f 2e40
000000b0: 7208 8940 00a0 bcc0 e4c0 34c0 3522 44c0
000000c0: d89a bec0 a27c 2241 8d0c 8b40 762f b440
000000d0: 89a3 9140 99b3 8e40 c3f0 a73f c9a2 de41
000000e0: a350 c2c0 da62 bfc0 33ca 8f40 92c9 9140
000000f0: f428 8f40 d410 ad3e da85 18c1 0f2f b841
00000100: 719c 8640 8da8 5640 ab71 b040 ff62 923f
00000110: 6e58 6841 4f9a 62c0 a39e 9140 7aa1 5341
00000120: 0e7c bfc0 06c5 bec0 3da4 0240 53e1 bfc0
00000130: 5583 bec0 6032 2740 2723 953c f1d1 9140
00000140: 192d d740 4e8a 08c1 6208 bdc0 09ca bb3f
00000150: 11da aac0 d457 8e40 dad0 bcc0 d224 9040
00000160: fb6a f940 ce3a f740 bcd8 2840 f728 8840
00000170: 31a1 12be 5726 0140 5852 bec1 1818 b841
00000180: ddb3 b741 b1f8 8e40 fe52 3d40 64bc af40
00000190: cf78 bbc1 6543 c2c1 ab12 cdc1 58ad 04c0
000001a0: 072b bec0 ef89 71c0 0735 c0c0 299a c1c0
000001b0: 26f5 c1c0 e8a2 3041 123f 99c1 89ed bfc1
000001c0: 7fc0 c0c0 a289 a841 42ea 96c1 5f93 5ac1
000001d0: 0a0e bdc0 4549 c2c1 5d7c 42c2 b5dd 97c1
000001e0: 8a5f c2c0 b681 f841 440b c2c1 bda8 0741
000001f0: b3d3 6240 13b1 4241 7a9e cbc1 2404 bfc1
00000200: 0fe5 bdc1 53a0 1342 f764 d2c1 aab1 1ec1
00000210: 6039 2942 6735 bec0 ece3 0d42 b8e8 0bc2
00000220: 1a73 8240 38a8 b3c1 0a75 5740 755f 91bf
00000230: d40d 4bc2 3597 84c1 9d9d cac1 bf21 c4c1
00000240: 32fd c1c1 f4fa bec0 705c e441 717d 8840
00000250: e2e2 c0c0 ea6e 2c42 7c0a bcc1 e0e4 3a40
00000260: 3e4a 74c0 87f2 c1c1 3371 0b42 d021 5341
00000270: a5e5 ad41 c386 bdc0 0555 d3c1 f57a f341
00000280: 35ef fec1 de14 3ec0 e062 cd41 f5b3 c2c0
00000290: 8b0b bec1 a196 c740 6c97 af40 4332 3a41
000002a0: f686 23c1 2590 bfc1 b655 93c1 871d 1841
000002b0: e784 bcc0 b5d1 bfc0 768d c5c1 79e1 bec0
000002c0: f07a bdc0 3ab2 c2c1 d094 bcc0 9f20 97c1
000002d0: 4dd1 b840 3c47 6740 f61b 0b40 8f49 45c2
000002e0: efca 8ec0 7579 adc1 76b5 bcc0 9da4 98c1
000002f0: 9f1f 31c2 2a96 0942 4e62 9ac1 4953 bec1
00000300: a612 79c2 f687 bac1 9446 b0c1 898a c0c0
00000310: fb19 013f 1b33 0242 810d c341 0473 b140
00000320: 8f54 c6c0 394b 93c1 99e7 17c0 4a5c c4c0
00000330: 2dc6 bec0 e776 e540 2da9 bdc0 a236 cc41
00000340: b54c cc41 d534 cec1 41ea 1ac2 1d3e b0c1
00000350: c876 bfc0 f93a bec0 f632 aac0 9463 00c1
00000360: e8c8 c0c0 a50a 95c1 eeaf 0ac2 dbcd d0c0
00000370: 1f64 bdc0 8578 9440 4b5b 98c1 91a2 5341
00000380: f7f0 cfc1 70d1 c941 cf63 1b42 cdb1 c0c1
00000390: 7e31 a8c1 7e2a 32c1 80e7 aac1 f189 13c2
000003a0: d96d e740 c966 bdc0 ed46 9940 adbe 0bc2
000003b0: 076f 9140 ddbf 5442 f6e5 8640 372c 88c1
000003c0: 75c4 f9c1 e382 b3c0 a1d7 66c1 737d 97c1
000003d0: 4795 a6c1 324e bfc0 83c3 9d41 af2d 8f40
000003e0: b2fc cb41 64a5 bbbe 8158 93c1 0340 3ac1
000003f0: 3266 ec3f 85a2 98c1 433a cb40 1846 b7c1
3.709229 4.370792 -5.967033 3.3411975 -5.9525867 -2.3803833 -5.938729 -6.007936
-6.034237 27.292625 7.0053463 4.345242 -5.921725 -5.9289746 4.60935 1.7794284
23.053942 4.37434 4.4108553 4.6321173 -5.898196 4.4361625 4.331675 9.142903
-9.667812 33.8764 36.713707 4.313829 4.314591 -6.34735 4.5151324 -6.074881
-37.51645 -5.928896 4.083148 -25.86072 2.448635 27.790186 4.6194954 6.4615197
19.347088 3.04733 4.0180616 2.725562 4.282281 -5.8945312 -2.824273 -3.0645878
-5.956402 10.155428 4.345282 5.6307936 4.551213 4.4594235 1.312035 27.829485
-6.0723433 -5.980817 4.4934325 4.5558558 4.473749 0.338019 -9.532679 23.022978
4.206597 3.3540375 5.5138755 1.1436461 14.521589 -3.5406682 4.550615 13.226923
-5.9838934 -5.9615507 2.0412743 -5.9962554 -5.9535317 2.6124496 0.018205239 4.5568776
6.724255 -8.533766 -5.9072733 1.4671031 -5.3391194 4.448221 -5.9004946 4.5044947
7.794309 7.7259283 2.6382284 4.2550006 -0.14319302 2.017965 -23.790207 23.011765
22.962824 4.467858 2.9581904 5.491747 -23.433989 -24.282907 -25.634115 -2.07308
-5.9427524 -3.7740438 -6.006473 -6.0500684 -6.0611753 11.039772 -19.155796 -23.990984
-6.023498 21.067204 -18.864384 -13.660979 -5.9079638 -24.285776 -48.62145 -18.983255
-6.0741625 31.063335 -24.2555 8.478696 3.544171 12.168231 -25.452381 -23.877022
-23.736845 36.906567 -26.2993 -9.918375 42.30603 -5.944019 35.47258 -34.977264
4.0765505 -22.457138 3.3665185 -1.1357256 -50.763504 -16.573832 -25.32696 -24.516478
-24.24863 -5.968134 28.545135 4.2653127 -6.0276957 43.108315 -23.50512 2.9202194
-3.8170314 -24.243422 34.860546 13.195755 21.737131 -5.9227004 -26.416513 30.435038
-31.8668 -2.9700236 25.673279 -6.0844674 -23.755636 6.2371373 5.487234 11.637271
-10.220449 -23.945383 -18.416851 9.507209 -5.8912234 -5.994349 -24.694073 -5.9650235
-5.921257 -24.337025 -5.8931656 -18.890928 5.7755494 3.6137228 2.1735816 -49.321835
-4.462272 -21.684305 -5.897151 -19.080378 -44.28088 34.396645 -19.298 -23.790667
-62.26821 -23.316387 -22.034462 -6.016911 0.5043027 32.549908 24.381594 5.54529
-6.197822 -18.41173 -2.3735106 -6.1362658 -5.9616914 7.1707644 -5.9269013 25.526676
25.537455 -25.775797 -38.728764 -22.030329 -5.9832497 -5.944699 -5.318721 -8.024311
-6.0245247 -18.630198 -34.671806 -6.525129 -5.918472 4.639712 -19.044577 13.227189
-25.992659 25.227264 38.84747 -24.086817 -21.024166 -11.135374 -21.363037 -36.88471
7.232159 -5.918797 4.789908 -34.936207 4.544803 53.187366 4.2155714 -17.02159
-31.220926 -5.6097274 -14.427644 -18.936255 -20.82289 -5.9782953 19.720465 4.4743266
25.498386 -0.3664962 -18.418215 -11.640628 1.8468688 -19.079355 6.350862 -22.909225

4.bias f4 [5]
00000000: 71d5 5c45 3fab 5c45 5091 5c45 60a1 5345
00000010: 2667 6945
3533.34 3530.703 3529.082 3386.086 3734.4468

0.weight f4 [150, 11]
00000000: 9ba9 b8c0 eaee d2c0 d7de d0c0 9ea3 96c0
00000010: d702 b9c0 769a ccc0 35b6 d6c0 2dc3 9340
00000020: 6a8c 8fc0 1660 8f40 e4d5 92c0 a3be bac0
00000030: 0356 bbc0 cbe8 bfc0 fef0 c3c0 80bf c8c0
00000040: fad5 b8c0 9c3b c3c0 902e bd40 4b6c bf40
00000050: 8a9b c640 d610 c8c0 3a0c f541 c537 2a42
00000060: a25c 8042 04bf 3d42 f49a 6a42 d8fd 8b42
00000070: 306a 6342 5ceb a242 b6ed f541 c410 8b42
00000080: 7d37 09c1 11d9 14c2 e8fd 04c2 59b7 b8c0
00000090: dc2e 14c2 8e95 b9c0 8ed2 05c2 b68e 13c2
000000a0: 1d85 a5c1 b7c7 ad41 6599 c741 33f5 ad41
000000b0: 43e4 bbc1 d3bd ddc0 a9bc 7ac1 5d2e d8c0
000000c0: 9dbd 2fc1 9a08 00c2 e92a 43c1 36ea 52c1
000000d0: ba95 5a40 1568 4c41 6908 6840 a812 c7c0
000000e0: 277f b8c0 9e91 bbc0 cdb4 c3c0 50ea c5c0
000000f0: 9274 c8c0 85c0 c1c0 23ef b740 4a61 c540
00000100: 4c4d b9c0 3410 ba40 661e f8c0 2d13 8ac0
00000110: f3e9 94c0 f179 d3c0 fbd9 8bc0 24ab 88c0
00000120: 59c6 9dc0 c6f8 13c0 237f 7b40 688b 57c0
00000130: 89d9 3740 8dc0 b9c0 fbf0 bfc0 ac91 b6c0
00000140: bb39 bbc0 bad2 c4c0 569e c4c0 1a90 b7c0
00000150: 0b5d c540 f0e6 c440 86bd bcc0 72fe c2c0
00000160: 5719 95c0 ff3e 8fc0 591a 8dc0 447d 8ec0
00000170: 12a4 c9c0 76b6 91c0 7f13 98c0 b897 9540
00000180: 3120 9140 b1aa c340 e004 d7c0 0ad0 b8c0
00000190: f364 28c1 6c27 2bc1 f20e c8c0 5d47 c1c0
000001a0: 21a8 29c1 2233 bec0 a764 c0be 2c5c 9c3e
000001b0: 5764 48bf eb05 3c3f 41d0 27c1 6ce1 81c1
000001c0: ee65 c6c0 88c6 c4c0 30d8 883d 2c17 97c0
000001d0: b104 84c1 ae8e c340 574d 9640 337e 9340
000001e0: 6a44 9640 437c c7c0 83f5 bdc0 0078 b7c0
000001f0: 74f8 bdc0 7e5e bac0 0b2c bbc0 090e b9c0
00000200: 4deb c140 ca1e ba40 acbd bfc0 8291 c440
00000210: 2ee5 98c0 3715 04c1 f8b8 efc0 d0cc 95c0
00000220: 14d1 d5c0 e795 d7c0 2b46 d0c0 8e17 9340
00000230: 0511 dbbe 4d01 8240 7b3e 11c0 5d66 bfc0
00000240: d5cb b6c0 d411 bec0 eeb6 c7c0 37d2 be40
00000250: a166 c2c0 c12d bdc0 4a47 bd40 3a9f c040
00000260: 8f9a c2c0 3e95 ba40 0bd1 14c2 543b b8c0
00000270: 32a3 c6c0 dbf1 13c2 8c42 c8c1 34c3 13c2
00000280: f089 bfc0 e3e9 a141 c466 c340 06c2 c741
00000290: 5f98 c9c1 c7db 91c0 5130 95c0 d0d5 91c0
000002a0: 1880 9ac0 dab8 d7c0 3ef6 08c1 56dc 94c0
000002b0: 505f d03f a775 f93f 3e76 d140 d22c 88c0
000002c0: fe11 bdc0 0f19 bdc0 281f c2c0 708e b8c0
000002d0: 7b99 c2c0 7e5c c2c0 34b8 bfc0 7f13 c440
000002e0: aebb bb40 3b49 b9c0 1443 b7c0 7832 b8c0
000002f0: 3685 bdc0 d039 c0c0 02d6 c2c0 cb31 b6c0
00000300: 60ce bac0 d27e bbc0 181f bc40 09d3 b640
00000310: bbe7 c2c0 6105 b6c0 d9ca 9ec0 ef0a 89c0
00000320: e429 cbc0 db99 d3c0 1262 d7c0 eff6 87c0
00000330: 286e d0c0 2427 7dc0 5191 8b40 3ad6 7ac0
00000340: 6fbf 8840 c492 12c2 c366 13c2 0b6e 14c2
00000350: 4528 13c2 8e99 98c1 633e 3fc2 a3a2 12c2
00000360: be4d 0bc2 8fd6 0e42 6497 c941 f5fe c341
00000370: 0de0 12c2 830e 14c2 1c3a 17c2 fabb 14c2
00000380: 022e b740 6f7b 88c2 44c4 17c2 7515 21c1
00000390: dbba 9dc0 4c2c 8dc0 cbca 93c1 22fc 71c1
000003a0: eb2f 95c0 b36e 89c0 7457 99c0 81bb d9c0
000003b0: 4b87 8ac0 8056 08c1 ec88 3e41 9cf8 7fc0
000003c0: 0349 2541 5b6a 8ac0 e116 96c0 d442 93c0
000003d0: 5066 d9c0 e3a0 ccc0 847d d4c0 2ad0 cfc0
000003e0: 14cc cac0 f87f 8f40 0bc1 9940 5950 8940
000003f0: ec17 9940 9430 c0c0 14ec c1c0 3718 c2c0
-5.770704 -6.5916643 -6.527202 -4.707473 -5.7815967 -6.393855 -6.709742 4.617575
-4.4858904 4.4804792 -4.5886097 -5.835771 -5.8542495 -5.997167 -6.123168 -6.2733765
-5.77612 -6.1010265 5.911934 5.9819694 6.2064867 -6.252055 30.63097 42.554462
64.18092 47.43654 58.65132 69.99579 56.8537 81.45969 30.74107 69.532745
-8.576047 -37.21198 -33.247955 -5.7723813 -37.04576 -5.799506 -33.45562 -36.889366
-20.689997 21.722517 24.9499 21.744726 -23.486456 -6.929422 -15.67106 -6.7556596
-10.983792 -32.0084 -12.197976 -13.18218 3.4153886 12.775411 3.6255133 -6.2210274
-5.7655215 -5.8615255 -6.1158204 -6.1848526 -6.26423 -6.054751 5.7479415 6.168126
-5.7906857 5.814478 -7.7537107 -4.314841 -4.6535583 -6.6086354 -4.370359 -4.270891
-4.9304624 -2.312059 3.9296348 -3.3678837 2.8726523 -5.8047547 -5.9981666 -5.705282
-5.850797 -6.1507235 -6.144328 -5.7363405 6.167608 6.1531906 -5.898135 -6.09356
-4.6593432 -4.47644 -4.4094663 -4.452791 -6.301278 -4.553523 -4.75238 4.6747704
4.5351796 6.1145864 -6.719345 -5.7753954 -10.524646 -10.6971245 -6.2518244 -6.0399613
-10.603547 -5.943742 -0.37576792 0.30539072 -0.78278106 0.7344653 -10.488343 -16.23507
-6.1999426 -6.149235 0.066818595 -4.7215786 -16.50229 6.111167 4.696941 4.609155
4.6958513 -6.2339187 -5.9362197 -5.7333984 -5.9365788 -5.8240347 -5.8491263 -5.7829633
6.0599732 5.8162584 -5.9919033 6.142762 -4.777976 -8.255179 -7.491329 -4.6812515
-6.681772 -6.7370486 -6.5085654 4.5966253 -0.42786422 4.062659 -2.2694385 -5.9812455
-5.712382 -5.9396763 -6.2410803 5.963161 -6.075028 -5.911835 5.9149523 6.019437
-6.081367 5.830718 -37.204144 -5.757242 -6.2074213 -36.986187 -25.032494 -36.940628
-5.985588 20.239202 6.1062946 24.969738 -25.1994 -4.5580783 -4.662148 -4.55735
-4.8281364 -6.741315 -8.560118 -4.6518965 1.6279087 1.948903 6.545684 -4.255471
-5.9084463 -5.909309 -6.0663033 -5.7673874 -6.0812354 -6.0737906 -5.9912357 6.12738
5.86666 -5.7901893 -5.7269382 -5.7561607 -5.922511 -6.007057 -6.088624 -5.6935782
-5.8376923 -5.859231 5.8787956 5.713261 -6.0907874 -5.6881566 -4.9622617 -4.2825847
-6.3488636 -6.612531 -6.7307215 -4.2488933 -6.513447 -3.955514 4.361489 -3.9193254
4.2733684 -36.643326 -36.850353 -37.107464 -36.789326 -19.074978 -47.810925 -36.658825
-34.82592 35.70953 25.198921 24.49949 -36.7188 -37.01417 -37.806747 -37.18357
5.724366 -68.24108 -37.941666 -10.067739 -4.9290595 -4.4116573 -18.47402 -15.124056
-4.6620994 -4.294763 -4.7919254 -6.8041387 -4.3290153 -8.521118 11.908428 -3.999549
10.330325 -4.325483 -4.690293 -4.6019077 -6.7937393 -6.3946395 -6.6403217 -6.4941607
-6.337412 4.484371 4.804815 4.291058 4.78417 -6.00593 -6.060068 -6.065456

0.bias f4 [150]
00000000: 6ced cac0 37be bcc0 addf 8942 8f68 05c2
00000010: c812 e6c1 845a c6c0 aa2a 98c0 931b c6c0
00000020: 8028 8ac0 9d51 2bc1 0b3d 84c1 19ff bac0
00000030: 20e9 e2c0 8527 c8c0 d846 51c2 f2e6 c4c0
00000040: 63c9 c2c0 dc9f b6c0 dbc0 d4c0 bbb4 40c2
00000050: 2ad6 a7c2 4866 12c1 2fef ccc0 ba50 c4c0
00000060: 38fb c7c0 19cc 92c0 de94 d2c0 218c 8dc0
00000070: d9e2 a0c1 a1c8 82c1 3ac4 15c2 2e87 96c0
00000080: 470c 51c2 e4bc bec0 8d41 06c2 4c00 b8c0
00000090: 5c75 dac0 6650 b9c0 f63a d3c0 e697 bbc0
000000a0: 72ca 11c1 1bb1 d3c0 bf76 93c0 3da9 46c2
000000b0: e5e6 c4c0 11ee 12c2 c46a 45c2 9af8 19c1
000000c0: b2d2 47c1 a914 e6c0 13f9 93c0 7301 05c2
000000d0: 7e13 16c2 bbd9 6fc1 2582 4ec2 81ee f9c1
000000e0: 824b 1ec2 d843 c1c0 5c54 c5c0 ccb8 f9c1
000000f0: db6b 3fc2 6535 aec0 a641 cbc0 ef2d a6c2
00000100: c3b6 06c2 4264 8ec0 0721 36c2 5943 93c0
00000110: 0949 bbc0 e21f 54c1 00e8 95c0 0266 9bc0
00000120: 1d8f d4c0 05e5 b6c0 411e c4c0 5126 ccc0
00000130: 2945 80c1 1f8d 06c2 9f5b 92c0 0cfc 90c0
00000140: d220 d9c0 92dc 34c1 e470 88c0 6aee d6c1
00000150: a5a1 d6c0 8953 a7c2 23ef f8c1 901e c6c0
00000160: 76ef bec0 798d 6d42 1cf5 adc1 ef5e d1c0
00000170: f0bd b3c0 acf0 cac0 51af b841 fee2 b6c0
00000180: ca5e 92c0 43af 89c0 9d2e 7042 fa3a dac0
00000190: 2916 b8c0 8b95 b8c0 6e13 8fc0 8446 c2c0
000001a0: bb59 cbc0 faaa 07c2 71e9 c6c0 8635 09c2
000001b0: 1a68 99c0 cb7f 14c2 0cc5 8dc0 55bd c2c0
000001c0: ff90 c4c0 f5a3 15c2 8f5e 80c1 69eb f1c1
000001d0: aba7 8dc0 0761 89c0 4e44 b5c1 1357 0b41
000001e0: 9c55 d5c1 3447 c0c0 d515 f2c0 d0a6 53c1
000001f0: a779 8cc1 c357 8ec0 ea5f d9c1 3893 d5c0
00000200: dee6 84c2 a810 c8c0 f2a7 94c1 f5ca b9c0
00000210: d280 d6c1 5e13 bac0 1f3b 1cc2 943e 89c0
00000220: a2c5 15c2 5280 a9c2 f3fa 45c2 c088 99c0
00000230: 8c5a 75c2 44c3 99c0 7d5f cfc0 baa3 8bc1
00000240: e3c9 c8c0 4165 1bc1 da50 b8c0 89d4 8bc0
00000250: e90b d4c0 e557 c6c0
-6.341482 -5.8982196 68.93687 -33.352108 -28.75917 -6.1985493 -4.755208 -6.190866
-4.317444 -10.707425 -16.529806 -5.84364 -7.0909576 -6.254824 -52.319183 -6.1531916
-6.0870833 -5.707014 -6.648542 -48.176495 -83.91829 -9.149971 -6.404197 -6.1348543
-6.2494164 -4.5874143 -6.5806723 -4.4233556 -20.110765 -16.347963 -37.441628 -4.7040014
-52.26199 -5.960558 -33.564014 -5.7500362 -6.826826 -5.7910643 -6.6009474 -5.8622923
-9.111925 -6.6153693 -4.6082454 -49.66527 -6.1531854 -36.732487 -49.354263 -9.623194
-12.488939 -7.190022 -4.6241546 -33.251415 -37.519035 -14.990657 -51.627094 -31.241457
-39.57374 -6.0395317 -6.166548 -31.215233 -47.855328 -5.444018 -6.3517637 -83.089714
-33.67848 -4.4497385 -45.532253 -4.601971 -5.8526654 -13.257784 -4.6845703 -4.856202
-6.64247 -5.7154565 -6.128693 -6.3796773 -16.03377 -33.637814 -4.573684 -4.5307674
-6.7852564 -11.30385 -4.2637806 -26.866413 -6.707232 -83.663155 -31.116766 -6.191231
-5.966731 59.388157 -21.744682 -6.5428386 -5.6169357 -6.341879 23.085604 -5.715209
-4.574071 -4.3026443 60.04552 -6.8196993 -5.752705 -5.7682548 -4.471122 -6.071108
-6.3547034 -33.91697 -6.2159963 -34.30227 -4.7939577 -37.124798 -4.4303036 -6.085612
-6.1426997 -37.410114 -16.046171 -30.239946 -4.4267173 -4.293094 -22.658352 8.708758
-26.666801 -6.008692 -7.565165 -13.228226 -17.5594 -4.448213 -27.171833 -6.674221
-66.45091 -6.252033 -18.582005 -5.806025 -26.8129 -5.814864 -39.057735 -4.288889
-37.443 -84.750626 -49.495068 -4.797943 -61.338425 -4.805086 -6.4804063 -17.454945
-6.2746444 -9.71222 -5.7598696 -4.369694 -6.626454 -6.1982293

2.weight f4 [100, 150]
00000000: 37fd bd40 af35 bdc0 1802 e1c0 b2a6 bdc0
00000010: 1467 bec0 797f bdc0 f620 bdc0 5196 bec0
00000020: 4fa1 c1c0 6194 bec0 0335 80c0 f3f2 bdc0
00000030: e19a bdc0 d0a5 bec0 77aa bfc0 6d97 b5c0
00000040: 673b c1c0 2a88 bdc0 c2b8 c1c0 13d6 bdc0
00000050: 7936 bdc0 e295 e2c0 798f c040 86a3 c1c0
00000060: e5c5 bfc0 7f2f bec0 162b e5c0 684f e2c0
00000070: 39ec bdc0 8672 dec0 776c bdc0 6d84 e4c0
00000080: b0b4 bdc0 8263 bfc0 11c8 bec0 abdd c1c0
00000090: dbe9 c0c0 a282 bec0 17e1 bec0 cf4b bdc0
000000a0: b52b a63d 2d75 c140 c322 dfc0 ab07 a8c1
000000b0: 3258 c1c0 44f5 6cc0 21f9 a7c1 73d5 24c1
000000c0: dcdf e6c0 7930 c0c0 332c c2c0 ab1a bd40
000000d0: 2666 bec0 9865 c0c0 dfa9 bdc0 8e01 7abd
000000e0: 2507 c0c0 6610 bec0 4dac bec0 4328 653c
000000f0: 162b bec0 f8c8 6dc0 0786 c1c0 131a bec0
00000100: c520 c0c0 0ee7 fcc0 ea0b bec0 df9a bdc0
00000110: ab41 bec0 e7fc bfc0 c1c9 bec0 e364 bfc0
00000120: 4665 bdc0 c386 bec0 3609 67c0 ca71 bec0
00000130: 64ba 7cc1 b599 be40 7162 dec0 4a6a 03c1
00000140: 5f42 bdc0 f727 bdc0 9519 e5c0 a22d c2c0
00000150: 86e6 d1c0 fae2 bdc0 1f00 16bd f300 bdc0
00000160: 713e bdc0 9a64 6bc0 d68b e1c0 a908 c0c0
00000170: 2564 c1c0 ea14 bdc0 db33 ecc0 328e bec0
00000180: 7ae0 bfc0 9c54 6ec0 36d9 e1c0 687b e1c0
00000190: 7081 bec0 63ec bdc0 3a96 e2c0 b578 bfc0
000001a0: 6ed6 c0c0 b935 bdc0 b6bf c1c0 3837 c0c0
000001b0: 6bd5 c1c0 ab8c bac0 4892 dfc0 ea98 bc3c
000001c0: 766a bdc0 1d06 c0c0 dd88 69c0 754e bfc0
000001d0: f4a4 bdc0 6379 c0c0 2e4a 69c0 bc01 66c0
000001e0: fcda c140 07f0 bfc0 5571 c1c0 9404 c0c0
000001f0: 5b90 00c1 dfda bdc0 4a48 eac0 60fb bd40
00000200: efdf c0c0 cf53 bdc0 8a43 0cbd 3ae0 c140
00000210: 35a1 a43d 3117 bdc0 6caa 053d 6853 e3c0
00000220: 7804 c0c0 b96a c1c0 d35c a8c1 eccd dfc0
00000230: efd0 bdc0 a597 e1c0 d1ae c1c0 fb3a 6ac0
00000240: d12e c040 b165 c1c0 c314 bec0 2346 6dc0
00000250: 8db0 be40 60f9 c0c0 b45a 91c0 e13f bf40
00000260: 0d09 8fc0 9e2c aec1 fb3a 93c0 ef8d c140
00000270: a8c0 91c0 d37c bf40 bc1d 93c0 a392 99bb
00000280: f6ba 1cc1 7f7b c140 e9c3 93c0 d62c bd40
00000290: 519d c140 e2b5 93c0 6bbe c040 c996 be40
000002a0: 2257 91c0 0c95 1ac2 3e3b 39c1 1284 93c0
000002b0: fc47 90c0 1695 bd40 6f4b c040 e6dc 8fc0
000002c0: 8974 48c0 1bc7 8fc0 07d2 8ec0 584a 90c0
000002d0: 94f8 c140 7d6d 8fc0 3f56 9fc1 2f9c bf40
000002e0: b8ea 93c0 fe1d bf40 9b97 8fc0 ef71 bd40
000002f0: 88a1 92c0 a31d be40 0781 0dbd 1585 b2c0
00000300: d8a4 90c0 b0f3 a7c1 9b72 be40 b134 b1c0
00000310: 7b47 a8c1 e01b 92c0 516f 8fc0 dcc4 92c0
00000320: ee0f 91c0 f0bb adc1 92b4 c140 1ce0 93c0
00000330: f96a c040 9204 9cbd 16a4 a0c1 2247 bf40
00000340: a211 c040 e86c a23a a437 18c2 4251 b3c0
00000350: def3 93c0 d89f 91c1 fe48 adc1 a526 91c0
00000360: 4e3e 2f41 17ed 91c0 02f3 bf40 8a5e 91c0
00000370: f3c7 8ec0 fcc2 92c0 eba4 92c0 eede c140
00000380: c8d4 92c0 f1b3 8fc0 7c3a 79c0 ae04 aec1
00000390: 2c5c 8fc0 dd66 8fc0 af24 90c0 86e3 91c0
000003a0: 7271 91c0 a635 8fc0 3aad 91c0 2b2f 81c1
000003b0: 20a5 00bd 5c6e bd40 470e bf40 82e5 93c0
000003c0: 9f2d 90c0 db28 91c0 41ee 8ec0 8b86 93c0
000003d0: 889d 93c0 cc5e be40 01f5 8fc0 18ba 93c0
000003e0: b5c7 91c0 47da 91c0 e8b0 c140 9c8c bf40
000003f0: b100 90c0 b42f c040 1fbd 92c0 5428 c8c1
5.93716 -5.912803 -7.0315056 -5.9265985 -5.950083 -5.9218106 -5.9102736 -5.955849
-6.050941 -5.9556127 -4.006471 -5.935907 -5.925156 -5.957741 -5.9895587 -5.6747346
-6.0385013 -5.9228716 -6.0538034 -5.932382 -5.9128995 -7.0807962 6.0175138 -6.0512114
-5.992907 -5.943298 -7.1615095 -7.072193 -5.935086 -6.95148 -5.9194903 -7.1411653
-5.9283066 -5.980897 -5.961922 -6.058309 -6.028547 -5.9534464 -5.964977 -5.915504
0.08113805 6.0455537 -6.9729934 -21.003744 -6.042016 -3.7024698 -20.996645 -10.302112
-7.2148266 -6.005917 -6.0678954 5.9095054 -5.9499693 -6.0124016 -5.926986 -0.06103664
-6.000872 -5.939502 -5.958533 0.01398665 -5.9427595 -3.7153912 -6.0476108 -5.940683
-6.004 -7.903205 -5.9389544 -5.925155 -5.945516 -5.999622 -5.962128 -5.9810653
-5.9186125 -5.9539504 -3.6099372 -5.9513903 -15.795506 5.956263 -6.949517 -8.2134495
-5.914352 -5.9111285 -7.159373 -6.0680704 -6.55939 -5.933957 -0.03662121 -5.906366
-5.9138722 -3.6780152 -7.04832 -6.001057 -6.0434747 -5.908803 -7.38133 -5.954858
-5.996152 -3.7239141 -7.057765 -7.0463142 -5.9533005 -5.935106 -7.080838 -5.9834847
-6.0261755 -5.912808 -6.054652 -6.0067406 -6.057302 -5.8296714 -6.9866066 0.023022134
-5.9192457 -6.0007463 -3.6489785 -5.9783273 -5.926386 -6.0148177 -3.6451526 -3.5938559
6.0579815 -5.99805 -6.0450845 -6.000559 -8.035243 -5.9329677 -7.3213243 5.9369354
-6.0273356 -5.9164805 -0.034244098 6.0586214 0.0803856 -5.909081 0.03263323 -7.1039314
-6.0005455 -6.0442777 -21.045324 -6.993887 -5.9317546 -7.0497613 -6.05259 -3.65985
6.005715 -6.0436635 -5.9400344 -3.7074058 5.9590516 -6.0304413 -4.542322 5.9765477
-4.469855 -21.771786 -4.60095 6.048576 -4.5547676 5.9839873 -4.5973797 -0.00468667
-9.795645 6.046325 -4.617665 5.911723 6.0504537 -4.6159525 6.0232444 5.9559064
-4.5418863 -38.645554 -11.576963 -4.609872 -4.508787 5.924449 6.009208 -4.495715
-3.1321127 -4.493055 -4.463138 -4.509075 6.061594 -4.4821153 -19.917112 5.9878154
-4.622402 5.972411 -4.4872565 5.920158 -4.582218 5.941118 -0.03454688 -5.5787454
-4.5201225 -20.993988 5.95149 -5.537682 -21.034903 -4.5659027 -4.4823384 -4.5865307
-4.5331945 -21.716766 6.0532923 -4.621107 6.013058 -0.07618059 -20.08012 5.977433
6.0021524 0.0012392076 -38.054337 -5.603669 -4.623519 -18.203049 -21.66064 -4.5359674
10.952711 -4.5601916 5.998414 -4.5427904 -4.461908 -4.586302 -4.5826316 6.058463
-4.5884743 -4.4907155 -3.8941946 -21.752285 -4.4800014 -4.4813066 -4.504478 -4.559024
-4.5450983 -4.475299 -4.552396 -16.148031 -0.031407475 5.9197216 5.970493 -4.621766
-4.505569 -4.5362372 -4.4665837 -4.6101737 -4.61298 5.949072 -4.4986577 -4.6164665
-4.5556283 -4.557895 6.052845 5.985914 -4.5000844 6.005823 -4.585586 -25.019691

2.bias f4 [100]
00000000: cee2 1ec2 7c2b 89c2 4b95 2bc2 96bc 08c2
00000010: 7742 c0c0 0291 44c2 de7c 14c2 6785 15c2
00000020: b9a9 15c2 95db f8c1 362b a3c2 01c0 89c2
00000030: a435 c1c0 3eec 0fc2 3ce0 86c2 9850 89c2
00000040: c0ec 0bc2 e932 89c2 bf26 90c0 bf13 87c2
00000050: 2e70 bfc0 751a 34c1 aa43 89c2 04e5 5ec2
00000060: d9e4 11c2 0c38 9fc2 5bc6 99c1 606c 85c2
00000070: 61ef 84c2 28ed ddc0 9d5c 0ac2 a847 83c2
00000080: 6787 aec0 27ed c0c0 6b74 d1bf ae74 06c1
00000090: 9fca a5c1 67f3 4bc1 9d18 16c1 3a3e 0fc1
000000a0: 56df 6dc0 ab4e 45c2 4a3d 30c2 bf71 8bc2
000000b0: 5892 89c2 4db8 c1c0 2f63 3dc0 0b2e 89c1
000000c0: 3bb7 15c2 fc76 a8c0 dc82 85c2 6ae3 bec1
000000d0: 6500 7dc1 3602 8ac2 9d1f 97c0 b902 d4c1
000000e0: dcab 80c2 ded8 bfc0 2911 09c2 d7df 20c1
000000f0: 3adc 02c1 4d12 8fc2 af99 f1c1 9de1 0bc2
00000100: 8c61 85c2 9a2b 87c0 6cf1 b2c0 ec58 82c0
00000110: 0a9e a7c2 9187 e0c2 58ec 86c2 5180 b9c1
00000120: 74e1 bec0 3c71 c0c0 95a1 8bc2 0696 bdc0
00000130: 4258 bec0 5f2a 8bc2 e4f6 c0c0 52f3 86c2
00000140: bc09 d4c1 d0e0 2cc2 8a70 01c1 0327 bbc1
00000150: 6855 81c1 b259 8fc2 b3e6 c1c0 08d9 84c2
00000160: 3794 b6c1 9cd1 20c2 37e0 88c2 534d 85c2
00000170: ca79 48c1 f8cc 2ac2 b7d7 8bc1 a4a8 0bc2
00000180: 834c 1ec2 54a7 42c1 0f37 92c2 6782 afc0
-39.72149 -68.58493 -42.895794 -34.184166 -6.0081134 -49.14161 -37.12194 -37.380276
-37.415745 -31.107218 -81.5844 -68.87501 -6.037798 -35.980705 -67.43796 -68.65741
-34.9812 -68.599434 -4.5047297 -67.53857 -5.982444 -11.256459 -68.63216 -55.723648
-36.473484 -79.60947 -19.221853 -66.71167 -66.46754 -6.9351997 -34.590443 -65.63995
-5.4540286 -6.0289493 -1.6363653 -8.403486 -20.723936 -12.746924 -9.381009 -8.952692
-3.7167563 -49.326824 -44.059853 -69.72216 -68.78583 -6.0537477 -2.9591787 -17.147482
-37.428936 -5.2645245 -66.755585 -23.861042 -15.812596 -69.00432 -4.722609 -26.50133
-64.33566 -5.995223 -34.266758 -10.054648 -8.178766 -71.53574 -30.20004 -34.970325
-66.69052 -4.2240725 -5.5919704 -4.0733547 -83.80867 -112.26478 -67.46161 -23.187654
-5.965021 -6.0138226 -69.81559 -5.9245634 -5.9482737 -69.582756 -6.030138 -67.475235
-26.504753 -43.219543 -8.089975 -23.394049 -16.166702 -71.675186 -6.0594115 -66.42389
-22.82237 -40.204697 -68.43792 -66.651024 -12.529734 -42.700165 -17.48033 -34.91469
-39.57472 -12.165852 -73.10754 -5.4846683

4.weight f4 [5, 100]
00000000: 0264 6d40 87dd 8b40 eff1 bec0 2ed6 5540
00000010: 977b bec0 3358 18c0 110a bec0 0341 c0c0
00000020: 7818 c1c0 4c57 da41 cc2b e040 390c 8b40
00000030: c57e bdc0 29ba bdc0 cc7f 9340 4fc4 e33f
00000040: 796e b841 98fa 8b40 ba25 8d40 4e3a 9440
00000050: 06be bcc0 0bf5 8d40 159d 8a40 5549 1241
00000060: 5caf 1ac1 6f81 0742 d6da 1242 e30a 8a40
00000070: 2111 8a40 7e1d cbc0 f77b 9040 6d65 c2c0
00000080: d810 16c2 84b9 bdc0 26a9 8240 c1e2 cec1
00000090: 70b6 1c40 4d52 de41 e8d2 9340 c5c4 ce40
000000a0: d6c6 9a41 7407 4340 f693 8040 9c6f 2e40
000000b0: 7208 8940 00a0 bcc0 e4c0 34c0 3522 44c0
000000c0: d89a bec0 a27c 2241 8d0c 8b40 762f b440
000000d0: 89a3 9140 99b3 8e40 c3f0 a73f c9a2 de41
000000e0: a350 c2c0 da62 bfc0 33ca 8f40 92c9 9140
000000f0: f428 8f40 d410 ad3e da85 18c1 0f2f b841
00000100: 719c 8640 8da8 5640 ab71 b040 ff62 923f
00000110: 6e58 6841 4f9a 62c0 a39e 9140 7aa1 5341
00000120: 0e7c bfc0 06c5 bec0 3da4 0240 53e1 bfc0
00000130: 5583 bec0 6032 2740 2723 953c f1d1 9140
00000140: 192d d740 4e8a 08c1 6208 bdc0 09ca bb3f
00000150: 11da aac0 d457 8e40 dad0 bcc0 d224 9040
00000160: fb6a f940 ce3a f740 bcd8 2840 f728 8840
00000170: 31a1 12be 5726 0140 5852 bec1 1818 b841
00000180: ddb3 b741 b1f8 8e40 fe52 3d40 64bc af40
00000190: cf78 bbc1 6543 c2c1 ab12 cdc1 58ad 04c0
000001a0: 072b bec0 ef89 71c0 0735 c0c0 299a c1c0
000001b0: 26f5 c1c0 e8a2 3041 123f 99c1 89ed bfc1
000001c0: 7fc0 c0c0 a289 a841 42ea 96c1 5f93 5ac1
000001d0: 0a0e bdc0 4549 c2c1 5d7c 42c2 b5dd 97c1
000001e0: 8a5f c2c0 b681 f841 440b c2c1 bda8 0741
000001f0: b3d3 6240 13b1 4241 7a9e cbc1 2404 bfc1
00000200: 0fe5 bdc1 53a0 1342 f764 d2c1 aab1 1ec1
00000210: 6039 2942 6735 bec0 ece3 0d42 b8e8 0bc2
00000220: 1a73 8240 38a8 b3c1 0a75 5740 755f 91bf
00000230: d40d 4bc2 3597 84c1 9d9d cac1 bf21 c4c1
00000240: 32fd c1c1 f4fa bec0 705c e441 717d 8840
00000250: e2e2 c0c0 ea6e 2c42 7c0a bcc1 e0e4 3a40
00000260: 3e4a 74c0 87f2 c1c1 3371 0b42 d021 5341
00000270: a5e5 ad41 c386 bdc0 0555 d3c1 f57a f341
00000280: 35ef fec1 de14 3ec0 e062 cd41 f5b3 c2c0
00000290: 8b0b bec1 a196 c740 6c97 af40 4332 3a41
000002a0: f686 23c1 2590 bfc1 b655 93c1 871d 1841
000002b0: e784 bcc0 b5d1 bfc0 768d c5c1 79e1 bec0
000002c0: f07a bdc0 3ab2 c2c1 d094 bcc0 9f20 97c1
000002d0: 4dd1 b840 3c47 6740 f61b 0b40 8f49 45c2
000002e0: efca 8ec0 7579 adc1 76b5 bcc0 9da4 98c1
000002f0: 9f1f 31c2 2a96 0942 4e62 9ac1 4953 bec1
00000300: a612 79c2 f687 bac1 9446 b0c1 898a c0c0
00000310: fb19 013f 1b33 0242 810d c341 0473 b140
00000320: 8f54 c6c0 394b 93c1 99e7 17c0 4a5c c4c0
00000330: 2dc6 bec0 e776 e540 2da9 bdc0 a236 cc41
00000340: b54c cc41 d534 cec1 41ea 1ac2 1d3e b0c1
00000350: c876 bfc0 f93a bec0 f632 aac0 9463 00c1
00000360: e8c8 c0c0 a50a 95c1 eeaf 0ac2 dbcd d0c0
00000370: 1f64 bdc0 8578 9440 4b5b 98c1 91a2 5341
00000380: f7f0 cfc1 70d1 c941 cf63 1b42 cdb1 c0c1
00000390: 7e31 a8c1 7e2a 32c1 80e7 aac1 f189 13c2
000003a0: d96d e740 c966 bdc0 ed46 9940 adbe 0bc2
000003b0: 076f 9140 ddbf 5442 f6e5 8640 372c 88c1
000003c0: 75c4 f9c1 e382 b3c0 a1d7 66c1 737d 97c1
000003d0: 4795 a6c1 324e bfc0 83c3 9d41 af2d 8f40
000003e0: b2fc cb41 64a5 bbbe 8158 93c1 0340 3ac1
000003f0: 3266 ec3f 85a2 98c1 433a cb40 1846 b7c1
3.709229 4.370792 -5.967033 3.3411975 -5.9525867 -2.3803833 -5.938729 -6.007936
-6.034237 27.292625 7.0053463 4.345242 -5.921725 -5.9289746 4.60935 1.7794284
23.053942 4.37434 4.4108553 4.6321173 -5.898196 4.4361625 4.331675 9.142903
-9.667812 33.8764 36.713707 4.313829 4.314591 -6.34735 4.5151324 -6.074881
-37.51645 -5.928896 4.083148 -25.86072 2.448635 27.790186 4.6194954 6.4615197
19.347088 3.04733 4.0180616 2.725562 4.282281 -5.8945312 -2.824273 -3.0645878
-5.956402 10.155428 4.345282 5.6307936 4.551213 4.4594235 1.312035 27.829485
-6.0723433 -5.980817 4.4934325 4.5558558 4.473749 0.338019 -9.532679 23.022978
4.206597 3.3540375 5.5138755 1.1436461 14.521589 -3.5406682 4.550615 13.226923
-5.9838934 -5.9615507 2.0412743 -5.9962554 -5.9535317 2.6124496 0.018205239 4.5568776
6.724255 -8.533766 -5.9072733 1.4671031 -5.3391194 4.448221 -5.9004946 4.5044947
7.794309 7.7259283 2.6382284 4.2550006 -0.14319302 2.017965 -23.790207 23.011765
22.962824 4.467858 2.9581904 5.491747 -23.433989 -24.282907 -25.634115 -2.07308
-5.9427524 -3.7740438 -6.006473 -6.0500684 -6.0611753 11.039772 -19.155796 -23.990984
-6.023498 21.067204 -18.864384 -13.660979 -5.9079638 -24.285776 -48.62145 -18.983255
-6.0741625 31.063335 -24.2555 8.478696 3.544171 12.168231 -25.452381 -23.877022
-23.736845 36.906567 -26.2993 -9.918375 42.30603 -5.944019 35.47258 -34.977264
4.0765505 -22.457138 3.3665185 -1.1357256 -50.763504 -16.573832 -25.32696 -24.516478
-24.24863 -5.968134 28.545135 4.2653127 -6.0276957 43.108315 -23.50512 2.9202194
-3.8170314 -24.243422 34.860546 13.195755 21.737131 -5.9227004 -26.416513 30.435038
-31.8668 -2.9700236 25.673279 -6.0844674 -23.755636 6.2371373 5.487234 11.637271
-10.220449 -23.945383 -18.416851 9.507209 -5.8912234 -5.994349 -24.694073 -5.9650235
-5.921257 -24.337025 -5.8931656 -18.890928 5.7755494 3.6137228 2.1735816 -49.321835
-4.462272 -21.684305 -5.897151 -19.080378 -44.28088 34.396645 -19.298 -23.790667
-62.26821 -23.316387 -22.034462 -6.016911 0.5043027 32.549908 24.381594 5.54529
-6.197822 -18.41173 -2.3735106 -6.1362658 -5.9616914 7.1707644 -5.9269013 25.526676
25.537455 -25.775797 -38.728764 -22.030329 -5.9832497 -5.944699 -5.318721 -8.024311
-6.0245247 -18.630198 -34.671806 -6.525129 -5.918472 4.639712 -19.044577 13.227189
-25.992659 25.227264 38.84747 -24.086817 -21.024166 -11.135374 -21.363037 -36.88471
7.232159 -5.918797 4.789908 -34.936207 4.544803 53.187366 4.2155714 -17.02159
-31.220926 -5.6097274 -14.427644 -18.936255 -20.82289 -5.9782953 19.720465 4.4743266
25.498386 -0.3664962 -18.418215 -11.640628 1.8468688 -19.079355 6.350862 -22.909225

4.bias f4 [5]
00000000: 13f7 5b45 a0b0 5b45 f646 5b45 7d7d 5145
00000010: 8587 6845
3519.4421 3515.039 3508.435 3351.843 3720.47
