trained_buffer/dqn_agent_state_truncated_step35.pth (torch, 679054 bytes, 24 tensors)

0.weight f4 [150, 11]
00000000: f89a c7c0 dfe0 bdc0 8fa1 b9c0 c764 bbc0
00000010: 39d1 c240 4f38 bac0 b10e b6c0 b94b c540
00000020: 08e4 c3c0 520f c640 d271 c440 464f b8c0
00000030: 8530 cec0 766b d5c0 1d7c bfc0 d8e2 bdc0
00000040: 53e5 98c0 e225 d1c0 71f5 90c0 2408 88c0
00000050: 7c4d 99c0 03a7 8a40 145a c2c0 6e58 8ec0
00000060: 13b8 d3c0 cdb2 8fc0 a116 8dc0 3330 82c0
00000070: 09b8 99c0 4e72 6ec1 c0eb e2c0 f8c7 16c1
00000080: b07b a9c0 5d54 9ec0 412e 45c0 1445 b9c0
00000090: 68eb c7c0 beab 43bf c209 04c1 863c 02c1
000000a0: 1cd8 d2c0 7085 debe 421b 263f 307b afbf
000000b0: 249d 0ebd 372c debd 5e4e 58bd 5a83 76be
000000c0: c603 29be 37ae 3dbe 746a 73be 9ca8 093e
000000d0: d719 373e dd16 e73c 5f3b 7ebe f8e2 87c2
000000e0: 7eba 14c2 6f9c 13c2 15ae 15c2 56dc bfc0
000000f0: ba81 14c2 ec7c 14c2 2a6d cb41 0684 c0c0
00000100: 308a c0c0 de62 bdc0 44a5 cec0 1428 d8c0
00000110: 2eff cfc0 c077 d7c0 32e4 d8c0 ed2d cbc0
00000120: 38e1 8ac0 4a04 8c40 fc5c 95c0 01a1 89c0
00000130: 7ad0 9a40 5926 7dc1 5adc bbc0 8321 7bc1
00000140: 52c7 c6c0 e3d9 bdc0 dc0a b8c0 85ac 7ec1
00000150: 0af4 7c40 ef1c 76c0 c570 6d40 9206 bfc0
00000160: c811 c5c0 67d3 c4c0 9224 bdc0 ec56 c7c0
00000170: fa93 c6c0 b97d b8c0 7c10 bac0 1c7d c140
00000180: 8f21 b7c0 e8a3 bbc0 de2c bd40 4fea 92c0
00000190: 29fc d5c0 c1b7 c8c0 3829 c8c0 3ff5 cbc0
000001a0: 7f82 d1c0 9b55 d6c0 6dfc 8840 7e1f 95c0
000001b0: a56b 8e40 24d0 8dc0 8e84 b9c0 030e bfc0
000001c0: 520e bac0 a664 bec0 0695 c3c0 dc05 bfc0
000001d0: 20dd b6c0 3ef5 bd40 637a c440 2e11 c3c0
000001e0: f3ea b8c0 bec2 bdc0 bd28 c4c0 6b2e b9c0
000001f0: c3a7 bfc0 2d9e bcc0 6500 b6c0 263f c8c0
00000200: effc ba40 25d2 c740 b422 bd40 df5f c6c0
00000210: eb12 8fc0 02f6 8bc0 e82e 88c0 96f4 93c0
00000220: 9dd3 87c0 0350 8fc0 525b 8ac0 0b72 e440
00000230: dd40 bcc0 58a8 8ec0 f46f 66c0 934f 92c0
00000240: 9d0d 92c0 5503 87c0 4236 89c0 b851 98c0
00000250: 1b30 8ec0 b7ff 86c0 42ee dd40 0b54 c8c0
00000260: 0d6d 85c0 899a 6ac0 9b8c 80c0 ddd1 89c0
00000270: 3990 90c0 3a4f 89c0 216e d2c0 c858 88c0
00000280: 5d77 95c0 d6ce 39c0 7654 91c0 6a93 eec0
00000290: f0a2 f7c0 eea5 b9c0 4172 c1c0 25d5 b9c0
000002a0: 84c1 c7c0 35e5 c3c0 8c37 c3c0 1ad8 c0c0
000002b0: 6105 c240 62f0 b7c0 cca9 b8c0 52b2 c540
000002c0: 9b48 97c0 a708 90c0 dfd7 87c0 1305 93c0
000002d0: b52e 8ec0 3844 90c0 d3ad 86c0 f902 8d40
000002e0: d45b c4c0 9684 81c0 3a11 49c0 3f5c d6c0
000002f0: e39b d2c0 f934 c9c0 1f37 94c0 965f cdc0
00000300: 9b11 cec0 9c12 d3c0 9972 ca40 43a5 90c0
00000310: 042f dac0 1f5d 8dc0 5b66 88c2 9f34 14c2
00000320: 3a28 15c2 4f21 15c2 3c00 bac0 dd47 13c2
00000330: c01d 14c2 56d2 c941 36af c0c0 2eaf bdc0
00000340: cead c1c0 4e1e c1c0 b541 c3c0 8d98 bac0
00000350: bcd3 c8c0 b112 bfc0 a99f b9c0 c250 bdc0
00000360: a18b b740 cd86 b640 e87c b840 966e c1c0
00000370: 266c c8c0 f326 c2c0 7fb7 bcc0 3d41 ffc1
00000380: 0048 febd ab15 c9c0 8390 b9c0 6daf bec0
00000390: fef2 c3c0 dcbe bac0 69fa ccc1 c603 85c0
000003a0: 0cbf 8fc0 33d2 92c0 46a7 91c0 9351 8cc0
000003b0: 3f38 93c0 238d 8fc0 d44b a6c1 1118 e1c0
000003c0: 342d b7c0 c064 0ac1 f3e0 1142 c7a7 c741
000003d0: 9f47 4c42 f774 ae41 e9ac d5c1 5676 f341
000003e0: 6f15 3d42 2756 aac1 2b1f 6142 9d6b c0c1
000003f0: 3ddf abc1 336a c5c0 7caa b7c0 d286 bac0
-6.237667 -5.9337 -5.8009715 -5.856052 6.08804 -5.8193736 -5.6892934 6.1654935
-6.121586 6.18937 6.138894 -5.759677 -6.443423 -6.669368 -5.9839005 -5.933941
-4.7779937 -6.5358744 -4.529961 -4.2509937 -4.7907085 4.332887 -6.073496 -4.4482946
-6.61622 -4.4905763 -4.4090123 -4.0683837 -4.803715 -14.902906 -7.091278 -9.4238205
-5.2963486 -4.9477983 -3.080948 -5.7896824 -6.247486 -0.7643393 -8.252382 -8.139776
-6.5888805 -0.4346118 0.6488534 -1.3709469 -0.03481783 -0.10848277 -0.05280911 -0.24073544
-0.16505346 -0.18523489 -0.23771077 0.13443226 0.17880951 0.028209144 -0.24827336 -67.9433
-37.18212 -36.902767 -37.420002 -5.9956465 -37.126686 -37.121994 25.428303 -6.016116
-6.0168686 -5.9183187 -6.457674 -6.7548923 -6.4999 -6.733368 -6.777856 -6.349356
-4.3399925 4.3755236 -4.6676006 -4.300904 4.837949 -15.821862 -5.8706484 -15.695682
-6.211831 -5.9328475 -5.7513256 -15.917119 3.952395 -3.845516 3.710008 -5.969552
-6.1584206 -6.150806 -5.910714 -6.2293606 -6.2055635 -5.765347 -5.8145123 6.046522
-5.7228465 -5.863758 5.911727 -4.591102 -6.6870313 -6.272431 -6.2550316 -6.3736873
-6.5471797 -6.69795 4.2808137 -4.6600943 4.45064 -4.431658 -5.797431 -5.9704604
-5.814248 -5.949786 -6.1119413 -5.9694653 -5.714493 5.936187 6.13994 -6.095847
-5.7786803 -5.9300222 -6.129973 -5.7869163 -5.9892287 -5.8943086 -5.687548 -6.2577085
5.8433757 6.2444024 5.910486 -6.199203 -4.4710593 -4.3737803 -4.255726 -4.6236067
-4.2445817 -4.478517 -4.3236475 7.1389213 -5.882918 -4.45805 -3.600583 -4.5722136
-4.564162 -4.2191567 -4.2878733 -4.7599754 -4.4433722 -4.218715 6.935334 -6.260259
-4.169562 -3.665682 -4.0171638 -4.306868 -4.5176053 -4.290921 -6.5759435 -4.2608376
-4.6708207 -2.9032493 -4.54156 -7.455495 -7.73864 -5.801505 -6.045197 -5.8072686
-6.2423725 -6.1217294 -6.1005306 -6.0263796 6.0631566 -5.7480936 -5.770727 6.1780176
-4.727613 -4.501056 -4.2451015 -4.5943694 -4.4432015 -4.5083275 -4.208719 4.406613
-6.1362095 -4.047435 -3.1416764 -6.6987605 -6.581529 -6.2877164 -4.6317286 -6.417918
-6.439649 -6.5960217 6.326489 -4.5201735 -6.818239 -4.4176173 -68.19991 -37.051388
-37.289284 -37.282528 -5.8125286 -36.82018 -37.029053 25.227703 -6.021388 -5.9276342
-6.0524664 -6.0349493 -6.101771 -5.831122 -6.2758465 -5.9710317 -5.80074 -5.916108
5.7357945 5.703955 5.7652473 -6.0447493 -6.2632017 -6.0672545 -5.8973994 -31.906855
-0.12416077 -6.283895 -5.7988906 -5.9589143 -6.123412 -5.8357983 -25.62227 -4.1567106
-4.492071 -4.588159 -4.551669 -4.384958 -4.600616 -4.4859786 -20.787025 -7.034188
-5.724268 -8.649597 36.469677 24.956923 51.069942 21.807112 -26.709429 30.432781
47.27093 -21.292067 56.280437 -24.052546 -21.484003 -6.169214 -5.739561 -5.8289576

0.bias f4 [150]
00000000: 6f31 bfc0 43cc cec0 92cb 87c0 34c3 03c1
00000010: 748a b63d c096 88c2 94d7 d3c0 4965 80c1
00000020: bc8a c7c0 1e1d dac0 8c8f b7c0 5b7b bbc0
00000030: abda 92c0 857d 91c0 5d08 83c0 fb9a c8c0
00000040: fe1e 8dc0 b5e3 88c0 9a80 88c2 d7e1 bbc0
00000050: 3e23 17c2 274c 92c0 7a5a 2d42 08ba c1c0
00000060: 6f19 97c0 f8da 8bc0 3777 6fc1 0107 90c0
00000070: 0fa4 fcc1 a9e7 0a42 b916 9ac0 ded8 9ac0
00000080: bff0 88c0 4213 d2c0 4cbd c5c0 6242 93c0
00000090: 8713 8bc0 3e7f 92c0 9117 91c0 a0ac 94c0
000000a0: 1bf6 8dc0 1b89 d3c0 162f 91c0 849b cbc0
000000b0: 721f ccc1 da09 d4c0 a6a3 9ac0 d170 1ec1
000000c0: 75b1 17c2 60c6 c3c0 5c9c 91c0 7e2d c8c0
000000d0: fcaa 8bc0 7cf6 9cc0 2e7d b0c0 47b5 9ac0
000000e0: 8b5f 92c0 2f54 c1c0 e37f d641 b8d7 86c0
000000f0: 1b45 ccc0 9355 65bd 6f96 88c0 e20e c9c0
00000100: 5569 8dc0 d3c8 d3c0 8db3 bec0 bdee f9c0
00000110: 1c12 18c2 72ff c8c0 77c0 68c0 e94c 87c0
00000120: 9d29 96c0 d8d7 bac0 d097 ccc0 02a0 cac0
00000130: 453e c8c0 48ee 97c0 eb4c 97c0 6be2 c1c0
00000140: b179 94c0 9777 a2c0 00e6 0ac1 1e11 b9c0
00000150: a88b cac0 b7b5 f341 4cfc d7c0 77ac 9ac0
00000160: 2062 c3c0 2f9d c1c0 39be d4c0 d3d7 37c1
00000170: ad1b c6c0 a334 8bc0 3e23 dac0 4646 bec0
00000180: d771 91c0 b810 88be a8ab 16c2 dc96 c1c0
00000190: 55d1 d7c0 9cda 61bd aad8 8fc0 e25f cec0
000001a0: 7125 8dc0 32cc b440 2949 b7c0 56d6 87c1
000001b0: bc66 8dc0 c3af 91c0 430b 8fc0 34fb d9c0
000001c0: 4afd b6c0 0593 c1c0 c414 8bc0 f09e c8c0
000001d0: 3713 b9c0 ec37 dcc0 cfeb c7c0 ed43 9dc0
000001e0: 1dff 89c0 2ef8 db41 f033 8fc0 b24e f1c0
000001f0: dce5 b0c0 4ecb 8bc0 321f 93c0 6a3e 8b41
00000200: 9a68 90c0 3d83 c6c0 48b0 98c0 ae21 96c0
00000210: 561f 8cc0 28d6 8cc0 9877 92c0 e229 81c1
00000220: cef2 85c0 3f0a b6c0 c862 bcc0 a507 8fc0
00000230: 644d 9cc0 ebc0 cbc0 2136 acc0 4290 d9c0
00000240: cf22 81c1 8990 96c0 22e8 8abc 363b 7fc1
00000250: 5b4c 90c0 a085 c0c0
-5.9747844 -6.4624343 -4.2436 -8.235157 0.089131266 -68.29443 -6.6200657 -16.049456
-6.2356853 -6.8160543 -5.736273 -5.858808 -4.589193 -4.546572 -4.094771 -6.2689185
-4.410033 -4.2777963 -68.251175 -5.8713183 -37.784416 -4.571796 43.338356 -6.053959
-4.7218547 -4.3704796 -14.966605 -4.500855 -31.580107 34.72623 -4.815274 -4.838973
-4.279388 -6.564851 -6.1793575 -4.6018534 -4.3461337 -4.5780325 -4.5341268 -4.6460724
-4.436292 -6.6104865 -4.536998 -6.362734 -25.515354 -6.6262026 -4.8324766 -9.902543
-37.923298 -6.1179657 -4.550337 -6.2555532 -4.364622 -4.9050884 -5.5152807 -4.8346286
-4.574163 -6.0415263 26.812445 -4.213833 -6.3834357 -0.055989813 -4.2683635 -6.2830667
-4.419108 -6.6182647 -5.959418 -7.810393 -38.017685 -6.2811823 -3.6367471 -4.2281384
-4.6925797 -5.838848 -6.393532 -6.332032 -6.2576013 -4.747837 -4.7281394 -6.058889
-4.639855 -5.0770984 -8.681152 -5.7833395 -6.329548 30.463728 -6.749548 -4.833553
-6.105728 -6.0504375 -6.6482205 -11.490191 -6.1908784 -4.3501754 -6.816802 -5.9460783
-4.5451465 -0.26575255 -37.667633 -6.0496655 -6.744303 -0.055140123 -4.4951982 -6.4492044
-4.4108205 5.649926 -5.7276807 -16.979656 -4.418791 -4.5527053 -4.4701247 -6.8119144
-5.718419 -6.0491967 -4.346285 -6.2694016 -5.7835956 -6.8818264 -6.247535 -4.9145417
-4.3123918 27.496181 -4.47509 -7.5408564 -5.528059 -4.3685675 -4.597558 17.405476
-4.5127687 -6.2035203 -4.7715187 -4.6916113 -4.378825 -4.401142 -4.577099 -16.14545
-4.1858892 -5.6887507 -5.8870583 -4.469683 -4.884447 -6.3672996 -5.3816075 -6.7988596
-16.141996 -4.7051435 -0.016956393 -15.951956 -4.5093207 -6.0163116

2.weight f4 [100, 150]
00000000: 6059 c1c0 d56f bec0 2a75 573d 77c4 20c0
00000010: 21fa 18bd 815c bdc0 4b92 c1c0 6666 be40
00000020: 928b bd40 26ad c1c0 090c c0c0 d45f bf40
00000030: 99e6 9ec0 7ca8 a9c0 8929 b1c0 7f03 bec0
00000040: bdad 97bf 7739 bfc0 f3ee 3b3d 9f37 bd40
00000050: 91be fdc1 be78 5cc0 52cb 09c1 a979 a03d
00000060: bfc5 95c0 3ddc bec0 c943 bfc0 89a2 ddc0
00000070: eb21 80bd eb6b d140 90b4 9ac0 06de e140
00000080: 60a5 6540 92c7 043b 48af bec0 5694 aec0
00000090: 4a14 14c1 3830 a43f 6af3 b3c0 5123 fac0
000000a0: 3045 f8c0 1915 c0c0 69da 5240 4378 bec0
000000b0: ecdf 0842 418e 663d ce2c a8c0 ec53 3ac0
000000c0: d27c a1c0 4e0c 95bd 0944 c0c0 1fc7 aac0
000000d0: 42d7 03c1 a3be bcc0 5b0d 53c0 fec6 dfc0
000000e0: 61c2 aac0 042f c2c0 cd76 09c2 61b8 6540
000000f0: fb22 843d e4d3 a33d a58e bec0 cf8c bec0
00000100: 5e28 dec0 001a bfc0 6974 bfc0 17b4 bfc0
00000110: 5568 bfc0 613a 6f40 7053 bec0 dff3 aac0
00000120: b654 00c1 adb4 bec0 5f15 69c0 9a50 bfc0
00000130: 9140 863d eb69 19c1 9df0 01c1 27a5 bec0
00000140: 8f05 89c0 aa4f 7440 5bec febe 7e4d bd40
00000150: 6648 c040 d9ab 1cc1 254b c0c0 b7a4 15c1
00000160: 50a0 c1c0 a5b9 bdc0 9577 bdc0 3441 b4c0
00000170: b0e4 bdc0 8e16 92c0 d32b bfc0 eaac bfc0
00000180: a179 96c0 124f 29bd 53d2 fcc1 8c06 bdc0
00000190: b322 bdc0 fbcd 65bd 7d48 05c1 2604 be40
000001a0: 5d67 e140 9bf5 04c2 965c bec0 d110 5dc0
000001b0: 1475 afc0 7c2a 23c1 6f15 47bd 0fdc c1c0
000001c0: 0305 bfc0 5497 c040 4ad3 bdc0 ae0c c0c0
000001d0: 23df c1c0 0e34 6ec0 a4da 8f3d cd7e e0c0
000001e0: 30ef dec0 44b2 06c2 be55 b6c0 cdfe df3b
000001f0: 67b9 e0c0 a0b3 12c1 c763 bfc0 bd2a 97c0
00000200: 550a aac0 8883 bec0 6b33 5dc0 214a bfc0
00000210: f6d5 95c0 65ac 89c0 aabc a6c0 8919 bfc0
00000220: 5b24 80c0 3792 c1c0 8fc5 bd40 3297 a0c0
00000230: ca9e ddc0 7098 bdc0 aab1 aac0 0034 3abd
00000240: efaa c1c0 24db aac0 4980 82c0 1c62 c1c0
00000250: 336a f8c0 8cf5 b43c 04a5 bfc0 92f4 c140
00000260: b922 d2be c0c8 edc0 34a4 15bd b17c bdc0
00000270: 9005 c240 afce bfc0 65c8 bd40 cffc c0c0
00000280: abf2 bdc0 d450 c1c0 74fc 0ec1 b5be 14c1
00000290: 48ff 11c1 6c2b be40 a2bc 02c1 88d5 bdc0
000002a0: 0852 bd40 4c56 bec0 c5df cdc1 b69d 09c1
000002b0: 50b8 20c2 b1ef bdc0 59c7 11c1 74a5 05c1
000002c0: 5fe6 bec0 4fd8 69c0 89f2 533d 0cd1 13c2
000002d0: d9b5 15c1 b48d 04c1 40d7 6ac0 2632 be40
000002e0: c939 bd40 de3c 13c1 0c51 75c0 ecd4 fac0
000002f0: d837 0dc1 dade afc0 09b8 87c0 1920 c140
00000300: 4a2a 03c1 8bc6 bfc0 c7f4 c9c1 9f2c c1c0
00000310: d247 aec0 44c3 afc0 584a a9c0 0260 bd40
00000320: c42f 6940 ccd8 6ac0 26fe 9bc0 1035 be40
00000330: 09f3 bdc0 e790 ddc0 620c 6bc0 c0c8 bdc0
00000340: 1c87 d3c1 f366 e0c0 78e2 be40 e5cf ecbc
00000350: 9136 e0c0 7e65 bfc0 b2c2 e0c0 1bce c1c0
00000360: 09eb c1c0 bda8 b2c0 77f7 bf40 eea4 70c0
00000370: 76ac 2540 3641 67c0 1280 28c0 cfaa bfc0
00000380: 5710 69c0 41df c0c0 664f bd40 fdde fac0
00000390: 75a1 36c0 0583 bdc0 e08f 15c1 8df8 3ac0
000003a0: 9ea5 a4c0 09b8 bfc0 b4ee c0c0 e6fa 12c2
000003b0: 23db bdc0 ea4d 89c0 0837 c1c0 0caa bf40
000003c0: 974f c1c0 7e58 c7c0 427f bdc0 bd81 14c1
000003d0: 5224 c140 c954 bec0 2f8a 13c1 f511 823d
000003e0: 8255 cdc1 6d21 bfc0 99be 4a40 3e26 543d
000003f0: cefd 02c1 747e c0c0 a0e3 12c1 9e40 16c2
-6.04216 -5.9511514 0.05260197 -2.5119913 -0.037347917 -5.917542 -6.049108 5.95
5.9232874 -6.0523863 -6.001469 5.980448 -4.965649 -5.301817 -5.53632 -5.937927
-1.1849896 -5.9757648 0.045882177 5.9130397 -31.71805 -3.4448695 -8.612139 0.07835705
-4.680389 -5.9643846 -5.9770246 -6.9260907 -0.06256469 6.5444236 -4.8345413 7.0583525
3.5882187 0.0020260555 -5.9588966 -5.4556074 -9.254953 1.2827215 -5.6234636 -7.816811
-7.7584457 -6.0025754 3.2945807 -5.9521804 34.218674 0.056288008 -5.2554693 -2.9113722
-5.046487 -0.072777376 -6.008305 -5.336807 -8.240053 -5.898271 -3.2976902 -6.993041
-5.336228 -6.068239 -34.366016 3.5893786 0.064519845 0.07999399 -5.9549127 -5.9546885
-6.9424276 -5.971924 -5.98296 -5.9907336 -5.981486 3.7379382 -5.9476852 -5.3422694
-8.020681 -5.959555 -3.6419294 -5.978589 0.06555284 -9.588359 -8.1212435 -5.95766
-4.2819285 3.8173623 -0.497897 5.9157095 6.0088377 -9.791955 -6.009173 -9.352714
-6.0508194 -5.9289117 -5.9208474 -5.6329594 -5.934166 -4.5652533 -5.9740996 -5.9898577
-4.7023473 -0.041335173 -31.602697 -5.907049 -5.9104857 -0.05610464 -8.330197 5.9380064
7.0438676 -33.23985 -5.948802 -3.4541514 -5.483042 -10.197872 -0.048604425 -6.0581126
-5.969362 6.0184727 -5.932042 -6.001548 -6.0584884 -3.7219272 0.07024124 -7.0154786
-6.9666977 -33.674088 -5.6979666 0.0068357945 -7.022632 -9.168854 -5.98093 -4.723967
-5.313761 -5.953556 -3.4562633 -5.977799 -4.6823683 -4.3022943 -5.2105303 -5.971867
-4.004438 -6.0490985 5.930366 -5.0184565 -6.9256334 -5.924858 -5.3341875 -0.045459747
-6.052116 -5.3392506 -4.07816 -6.0432262 -7.762964 0.022089742 -5.9888935 6.061105
-0.41042116 -7.4307556 -0.03653355 -5.921471 6.063179 -5.99398 5.930712 -6.0308604
-5.9358726 -6.0411167 -8.936634 -9.296559 -9.124825 5.9428005 -8.171053 -5.932316
5.9162636 -5.9480343 -25.734262 -8.601004 -40.179993 -5.935509 -9.111169 -8.352894
-5.9656215 -3.6538274 0.05174497 -36.954147 -9.356896 -8.2845955 -3.6693878 5.9436216
5.913304 -9.20236 -3.8330717 -7.8384914 -8.826134 -5.4959536 -4.241215 6.035168
-8.1978245 -5.992986 -25.24452 -6.036697 -5.446267 -5.492586 -5.290325 5.9179697
3.6435404 -3.6694822 -4.874774 5.9439774 -5.9359174 -6.9239383 -3.6726308 -5.9307556
-26.440971 -7.012567 5.965145 -0.028907726 -7.006661 -5.981139 -7.0237665 -6.0564094
-6.059941 -5.583098 5.998958 -3.7600665 2.5886512 -3.6133552 -2.6328168 -5.9896007
-3.6416223 -6.0272527 5.915942 -7.8397202 -2.8536046 -5.9222436 -9.347626 -2.9214203
-5.145217 -5.991215 -6.0291386 -36.745018 -5.933 -4.290761 -6.0379677 5.9895077
-6.0409656 -6.2295523 -5.9217844 -9.281674 6.0356836 -5.9478498 -9.221236 0.06351081
-25.666752 -5.9728303 3.1678832 0.051794283 -8.186964 -6.015436 -9.1805725 -37.563103

2.bias f4 [100]
00000000: 66af c3c0 77a9 57c2 8da8 a9c0 7087 c0c0
00000010: 908c 1ac2 8681 aac0 e597 14c2 7c2b 07c2
00000020: 354a acc0 89c4 8fc0 7c28 a7c0 38e9 09c2
00000030: 5bae bec0 f916 3ac2 2577 2ec2 2312 20c2
00000040: d6d4 0dc2 2144 aac0 2f8d 20c2 6d8e 72c2
00000050: 1ce9 9fc0 03cd a6c0 42d1 c0c0 716e 11c0
00000060: 3ab6 21c2 a468 2ac0 4b54 afc1 00d7 c0c0
00000070: ec5b e2c0 a829 a8c0 9e3c 48c2 dd5a 8ec1
00000080: 77d2 87c1 3dc2 e0c1 49be 9fc0 dfff 87c1
00000090: 1cc4 7cc1 1eb5 96c1 3abb 93c0 8777 4bc0
000000a0: 7cab 93c0 2fb5 b5c0 0314 9fc1 c7cc adc1
000000b0: b2ff c1c0 f070 aec0 51f3 1fc2 baf5 ebc0
000000c0: 6c53 16c2 9351 3fc2 00ec 92c0 205b 0bc1
000000d0: 5e70 14c2 b2f6 b1c1 1daa acc0 3fb4 9dc0
000000e0: d4a4 abc0 c995 a9c0 27d5 31c2 3d61 14c2
000000f0: 9f22 c0c0 ee73 1ac2 ad7b a0c0 0e3f bfc0
00000100: db2d a2c0 69e7 69c0 184b abc1 d1ba 9dc0
00000110: dfd8 b3c0 377c 1cc2 be0c 8fc0 67e3 06c2
00000120: 5312 32c2 5ae5 16c0 8dfa a3c0 de2d b9c0
00000130: 2cbc c1c0 e9c2 c0c0 e56c a7c0 0a6d adc0
00000140: afb3 1bc1 5b4a bfc0 7544 aec1 5e21 1ac2
00000150: 0e91 0cc2 946e d3c0 204b a7c0 b96f b4c0
00000160: 4c8f c5c0 3368 92c0 8f47 38c2 13c6 9dc0
00000170: f3d2 2dc2 4a6b 22c2 91d8 a6c0 c232 16c2
00000180: 1abf c0c0 da4d edc0 0a66 9ec0 0b67 a4c0
-6.115161 -53.915493 -5.301825 -6.016533 -38.637268 -5.328311 -37.148335 -33.792465
-5.3840585 -4.492741 -5.223692 -34.477753 -5.9587836 -46.522434 -43.616352 -40.01771
-35.457848 -5.3208165 -40.137875 -60.639088 -4.9972057 -5.212526 -6.025544 -2.2723658
-40.427956 -2.6626368 -21.916159 -6.026245 -7.073721 -5.255085 -50.059196 -17.794367
-16.977766 -28.094843 -4.991978 -16.999937 -15.797878 -18.838436 -4.616605 -3.1791704
-4.614683 -5.678367 -19.884771 -21.724989 -6.062463 -5.4512863 -39.987614 -7.373746
-37.581467 -47.829662 -4.5913086 -8.709747 -37.109734 -22.245457 -5.395766 -4.9282527
-5.3638706 -5.2995343 -44.458157 -37.09496 -6.004226 -38.613213 -5.015097 -5.976447
-5.0680976 -3.6547492 -21.411667 -4.9290547 -5.6202235 -39.121304 -4.4703054 -33.722073
-44.517895 -2.3577485 -5.124335 -5.786849 -6.05422 -6.0237927 -5.232043 -5.4195604
-9.731368 -5.9778266 -21.783426 -38.532585 -35.141655 -6.6072483 -5.2279205 -5.638638
-6.1737423 -4.5752196 -46.06988 -4.930429 -43.456005 -40.604774 -5.2139363 -37.54957
-6.023328 -7.4157534 -4.949956 -5.1375785

4.weight f4 [5, 100]
00000000: d91a 01c2 c40e c6c1 bd2f 9340 41dc bcc0
00000010: d334 e0c1 d588 a7c0 8492 bcc0 a5ad 193f
00000020: 1299 9240 9460 9340 7058 9140 7d1c c0c0
00000030: f54b bec0 14af cac1 d464 cec1 3f2a cac1
00000040: ee94 0940 fcd9 9040 2ccd 71c1 aeaa c941
00000050: a118 9440 99af 9040 f57d bcc0 79cf 95c0
00000060: 7a9c e0c1 6033 adc0 af50 9340 1a01 bec0
00000070: 44fe 6540 49a8 8e40 4ec6 e0c1 9552 9240
00000080: acc1 85bf d1a1 f8c1 1373 8e40 106a c1c0
00000090: 319f 3b40 eb40 bfc0 6695 9440 3bf0 84c0
000000a0: b31a 9440 fa7d ae40 1f76 bec0 b086 9040
000000b0: 2578 bec0 90c6 9140 e4e6 9f40 3965 3f40
000000c0: cd7b 9dbd 6f4e cac1 39af 8f40 6d50 40c0
000000d0: ba33 bec0 28ad 9040 83c2 5cbd c3f3 9040
000000e0: 2b37 a9c0 f6da b040 cd15 d5c1 bdd4 bcc0
000000f0: fa3f bdc0 cf22 ad40 b961 8f40 f1ea bcc0
00000100: d7f2 9340 3ca8 77c0 2c4b 9340 589f 9040
00000110: 6a44 af40 5583 3e40 6d54 9040 5a75 8ac1
00000120: 4906 4540 e1bd a3c0 daa8 8e40 5edc a740
00000130: cc8f bcc0 332e 64bb bc8a 9040 c37b 8e40
00000140: dcf4 e83e dfe6 bfc0 644b 9140 5973 e1c1
00000150: 4729 ac40 0a7f d6bf 6556 9140 bdb9 6540
00000160: a1a9 2f40 e796 9440 2b93 c6c1 db5b 9040
00000170: f954 d3c1 e60d d4c1 a725 9240 ba8b d3c1
00000180: 4c05 bec0 f65f 4240 72d3 8f40 c546 9440
00000190: 1fb4 87c1 7009 3dc0 a298 d240 b1d6 c140
000001a0: 8630 4840 7e2e adc0 fcfa c841 59d8 ea3c
000001b0: ab94 d040 6ea1 9240 fc75 c940 cad1 b4c1
000001c0: 1597 bd40 0299 e4c0 4d0b 1ec1 9cd4 a5c0
000001d0: 81cb 0741 9bf4 ab40 917f 7840 9fb8 1241
000001e0: 6db9 8d40 9a3a d440 1110 bf40 1745 59c0
000001f0: 7255 553f 2e7f 85c0 37aa 9340 d803 bec0
00000200: 83e8 e0c0 9c52 d240 3d89 fcc0 12c1 8d40
00000210: ae92 16be 8dda dfc1 80c9 9240 991e 87c1
00000220: a32d e5c1 5f6b 1342 65fa d240 24ae a0bf
00000230: 7f41 9240 16c7 b140 c147 c240 7647 8b40
00000240: cf5f bec0 98a0 ce40 116c 69c0 0e35 f640
00000250: 7f7c bec0 b4e3 50c0 3c30 9440 37a0 ad3f
00000260: 8c87 c941 cb7b 8d40 906d a9c0 2834 9140
00000270: dadb abc0 8741 8d40 c6b9 c0c1 fbf3 c941
00000280: 96a3 c1c0 2e7f 40c0 8e06 9240 2d18 bec0
00000290: 8242 8a40 c1ef af40 b258 d040 1462 8f40
000002a0: f41b b240 f986 c0c0 43d3 d240 e4d7 e23f
000002b0: a6b6 e5c1 9724 7fc0 a0e5 8a40 5b7e 5340
000002c0: 9f8f bfc0 6a35 bec0 0272 d240 5a8c ce40
000002d0: 7724 56be 62da bd40 c633 8f40 7394 e1c1
000002e0: 2d21 a8c0 437e 42c1 1ae7 d140 599f 57c0
000002f0: 3265 3e40 c120 9240 b138 01c2 30ab 9040
00000300: 4d2c aec1 d577 d5c1 a5d4 8b40 ee9c b4c1
00000310: 08cd bfc0 0042 003b efe1 8d40 f355 8c40
00000320: 8494 d43f 7c2d 08c0 aa4f 90c0 1f3d c240
00000330: 2694 45c0 ffdb a940 b386 bfc0 0eeb 8fbf
00000340: 6199 8fc0 a6c6 8ec0 bccf 8fc0 611e c140
00000350: b39d c240 0252 3ac0 5589 93c0 2842 32c0
00000360: 79e3 38c0 db05 d0c0 4c6e 94c0 4008 c9c1
00000370: c90f 8fc0 7521 8fc0 4ee2 bf40 0b82 9e40
00000380: 3d25 26bf d119 9840 fc18 d0c0 e283 c0c0
00000390: eddd dec0 ba9c 8ec0 17e8 43c0 4e68 8ec0
000003a0: 7b99 9ebf 8593 f841 8fce 8fc0 baaa db3c
000003b0: abf3 45c0 f799 bf40 0377 8fc0 e131 ab40
000003c0: 66d6 90c0 caa1 b0c0 09af bf40 5bff ccc0
000003d0: 10d3 c1c0 e3e1 8ec0 000f c1c0 a679 3fc0
000003e0: 2a25 bdc0 12b6 96c0 b29c d0c0 ca4e 073e
000003f0: 7743 56bd af92 d1c0 950a a840 da03 8fc0
-32.27622 -24.75721 4.5995774 -5.9018865 -28.025793 -5.235453 -5.892885 0.60030586
4.5811853 4.6055393 4.5420456 -6.0034776 -5.946772 -25.335487 -25.799232 -25.270628
2.149715 4.5266094 -15.112591 25.20834 4.6280065 4.5214353 -5.8903756 -4.6815763
-28.076405 -5.4125214 4.603599 -5.9376345 3.5936441 4.4580426 -28.096828 4.572581
-1.0449729 -31.079012 4.451547 -6.044197 2.9315913 -5.9766746 4.643237 -4.154325
4.628259 5.452878 -5.951919 4.5164413 -5.952166 4.5554886 4.996935 2.9905531
-0.07689629 -25.288298 4.4901395 -3.0049088 -5.9438143 4.521137 -0.05389644 4.529756
-5.2879844 5.5267286 -26.635645 -5.900969 -5.9140596 5.410499 4.480679 -5.9036794
4.6233935 -3.8696432 4.6029263 4.519451 5.4771013 2.9767659 4.510306 -17.3073
3.0785086 -5.1169286 4.458112 5.2456503 -5.8925533 -0.0034817576 4.5169353 4.4526076
0.45499313 -5.9969325 4.540453 -28.181322 5.3800387 -1.6757519 4.541796 3.5894616
2.7447283 4.6434207 -24.82186 4.511213 -26.41649 -26.506786 4.567096 -26.443226
-5.9381466 3.037107 4.494561 4.633639 -16.96295 -2.953701 6.581132 6.0574574
3.1279616 -5.4119253 25.122551 0.028667616 6.518148 4.582206 6.2956524 -22.602436
5.9246926 -7.1436777 -9.877759 -5.1822033 8.487184 5.373609 3.882786 9.1700735
4.428885 6.6321535 5.970711 -3.394842 0.83333504 -4.171775 4.614528 -5.937969
-7.028383 6.572584 -7.8917527 4.429818 -0.14704391 -27.981714 4.587097 -16.88994
-28.647284 36.854855 6.5930657 -1.2553144 4.570495 5.5555525 6.071259 4.3524733
-5.9491954 6.4571037 -3.6472208 7.6939764 -5.9526973 -3.263898 4.630888 1.3564519
25.191185 4.4213614 -5.2946243 4.5376167 -5.3705873 4.414249 -24.09071 25.244131
-6.051219 -3.0077624 4.5633 -5.940451 4.3206186 5.498017 6.510827 4.4807224
5.5659122 -6.016476 6.588289 1.7722135 -28.714184 -3.9866083 4.3405304 3.3045871
-5.986282 -5.9440203 6.576417 6.4546328 -0.20912348 5.932908 4.47507 -28.197485
-5.25405 -12.155826 6.5594606 -3.3691008 2.9749265 4.5664983 -32.305363 4.520897
-21.771631 -26.683512 4.3697076 -22.576626 -5.993778 0.001957059 4.43383 4.385492
1.6607823 -2.1277761 -4.5097246 6.069961 -3.0871673 5.308105 -5.985193 -1.1243608
-4.487473 -4.461749 -4.494108 6.0349584 6.0817504 -2.9112554 -4.610514 -2.7852879
-2.8888838 -6.500715 -4.638464 -25.129028 -4.470677 -4.472834 5.996375 4.9533744
-0.6490057 4.7531514 -6.50305 -6.016099 -6.9645905 -4.4566317 -3.0610406 -4.4502325
-1.2390589 31.072031 -4.4939647 0.026814807 -3.0929973 5.9875445 -4.483278 5.3498387
-4.5261717 -5.5197496 5.9901166 -6.4061713 -6.0570145 -4.465074 -6.033081 -2.9917998
-5.9107866 -4.7097254 -6.519128 0.1321365 -0.052310433 -6.5491557 5.2512918 -4.46922

4.bias f4 [5]
00000000: 452b 6545 c20c 5f45 81e5 6445 297c 6445
00000010: 32f6 7145
3666.7043 3568.7974 3662.344 3655.76 3871.3872

0.weight f4 [150, 11]
00000000: f89a c7c0 dfe0 bdc0 8fa1 b9c0 c764 bbc0
00000010: 39d1 c240 4f38 bac0 b10e b6c0 b94b c540
00000020: 08e4 c3c0 520f c640 d271 c440 464f b8c0
00000030: 8530 cec0 766b d5c0 1d7c bfc0 d8e2 bdc0
00000040: 53e5 98c0 e225 d1c0 71f5 90c0 2408 88c0
00000050: 7c4d 99c0 03a7 8a40 145a c2c0 6e58 8ec0
00000060: 13b8 d3c0 cdb2 8fc0 a116 8dc0 3330 82c0
00000070: 09b8 99c0 4e72 6ec1 c0eb e2c0 f8c7 16c1
00000080: b07b a9c0 5d54 9ec0 412e 45c0 1445 b9c0
00000090: 68eb c7c0 beab 43bf c209 04c1 863c 02c1
000000a0: 1cd8 d2c0 7085 debe 421b 263f 307b afbf
000000b0: 249d 0ebd 372c debd 5e4e 58bd 5a83 76be
000000c0: c603 29be 37ae 3dbe 746a 73be 9ca8 093e
000000d0: d719 373e dd16 e73c 5f3b 7ebe f8e2 87c2
000000e0: 7eba 14c2 6f9c 13c2 15ae 15c2 56dc bfc0
000000f0: ba81 14c2 ec7c 14c2 2a6d cb41 0684 c0c0
00000100: 308a c0c0 de62 bdc0 44a5 cec0 1428 d8c0
00000110: 2eff cfc0 c077 d7c0 32e4 d8c0 ed2d cbc0
00000120: 38e1 8ac0 4a04 8c40 fc5c 95c0 01a1 89c0
00000130: 7ad0 9a40 5926 7dc1 5adc bbc0 8321 7bc1
00000140: 52c7 c6c0 e3d9 bdc0 dc0a b8c0 85ac 7ec1
00000150: 0af4 7c40 ef1c 76c0 c570 6d40 9206 bfc0
00000160: c811 c5c0 67d3 c4c0 9224 bdc0 ec56 c7c0
00000170: fa93 c6c0 b97d b8c0 7c10 bac0 1c7d c140
00000180: 8f21 b7c0 e8a3 bbc0 de2c bd40 4fea 92c0
00000190: 29fc d5c0 c1b7 c8c0 3829 c8c0 3ff5 cbc0
000001a0: 7f82 d1c0 9b55 d6c0 6dfc 8840 7e1f 95c0
000001b0: a56b 8e40 24d0 8dc0 8e84 b9c0 030e bfc0
000001c0: 520e bac0 a664 bec0 0695 c3c0 dc05 bfc0
000001d0: 20dd b6c0 3ef5 bd40 637a c440 2e11 c3c0
000001e0: f3ea b8c0 bec2 bdc0 bd28 c4c0 6b2e b9c0
000001f0: c3a7 bfc0 2d9e bcc0 6500 b6c0 263f c8c0
00000200: effc ba40 25d2 c740 b422 bd40 df5f c6c0
00000210: eb12 8fc0 02f6 8bc0 e82e 88c0 96f4 93c0
00000220: 9dd3 87c0 0350 8fc0 525b 8ac0 0b72 e440
00000230: dd40 bcc0 58a8 8ec0 f46f 66c0 934f 92c0
00000240: 9d0d 92c0 5503 87c0 4236 89c0 b851 98c0
00000250: 1b30 8ec0 b7ff 86c0 42ee dd40 0b54 c8c0
00000260: 0d6d 85c0 899a 6ac0 9b8c 80c0 ddd1 89c0
00000270: 3990 90c0 3a4f 89c0 216e d2c0 c858 88c0
00000280: 5d77 95c0 d6ce 39c0 7654 91c0 6a93 eec0
00000290: f0a2 f7c0 eea5 b9c0 4172 c1c0 25d5 b9c0
000002a0: 84c1 c7c0 35e5 c3c0 8c37 c3c0 1ad8 c0c0
000002b0: 6105 c240 62f0 b7c0 cca9 b8c0 52b2 c540
000002c0: 9b48 97c0 a708 90c0 dfd7 87c0 1305 93c0
000002d0: b52e 8ec0 3844 90c0 d3ad 86c0 f902 8d40
000002e0: d45b c4c0 9684 81c0 3a11 49c0 3f5c d6c0
000002f0: e39b d2c0 f934 c9c0 1f37 94c0 965f cdc0
00000300: 9b11 cec0 9c12 d3c0 9972 ca40 43a5 90c0
00000310: 042f dac0 1f5d 8dc0 5b66 88c2 9f34 14c2
00000320: 3a28 15c2 4f21 15c2 3c00 bac0 dd47 13c2
00000330: c01d 14c2 56d2 c941 36af c0c0 2eaf bdc0
00000340: cead c1c0 4e1e c1c0 b541 c3c0 8d98 bac0
00000350: bcd3 c8c0 b112 bfc0 a99f b9c0 c250 bdc0
00000360: a18b b740 cd86 b640 e87c b840 966e c1c0
00000370: 266c c8c0 f326 c2c0 7fb7 bcc0 3d41 ffc1
00000380: 0048 febd ab15 c9c0 8390 b9c0 6daf bec0
00000390: fef2 c3c0 dcbe bac0 69fa ccc1 c603 85c0
000003a0: 0cbf 8fc0 33d2 92c0 46a7 91c0 9351 8cc0
000003b0: 3f38 93c0 238d 8fc0 d44b a6c1 1118 e1c0
000003c0: 342d b7c0 c064 0ac1 f3e0 1142 c7a7 c741
000003d0: 9f47 4c42 f774 ae41 e9ac d5c1 5676 f341
000003e0: 6f15 3d42 2756 aac1 2b1f 6142 9d6b c0c1
000003f0: 3ddf abc1 336a c5c0 7caa b7c0 d286 bac0
-6.237667 -5.9337 -5.8009715 -5.856052 6.08804 -5.8193736 -5.6892934 6.1654935
-6.121586 6.18937 6.138894 -5.759677 -6.443423 -6.669368 -5.9839005 -5.933941
-4.7779937 -6.5358744 -4.529961 -4.2509937 -4.7907085 4.332887 -6.073496 -4.4482946
-6.61622 -4.4905763 -4.4090123 -4.0683837 -4.803715 -14.902906 -7.091278 -9.4238205
-5.2963486 -4.9477983 -3.080948 -5.7896824 -6.247486 -0.7643393 -8.252382 -8.139776
-6.5888805 -0.4346118 0.6488534 -1.3709469 -0.03481783 -0.10848277 -0.05280911 -0.24073544
-0.16505346 -0.18523489 -0.23771077 0.13443226 0.17880951 0.028209144 -0.24827336 -67.9433
-37.18212 -36.902767 -37.420002 -5.9956465 -37.126686 -37.121994 25.428303 -6.016116
-6.0168686 -5.9183187 -6.457674 -6.7548923 -6.4999 -6.733368 -6.777856 -6.349356
-4.3399925 4.3755236 -4.6676006 -4.300904 4.837949 -15.821862 -5.8706484 -15.695682
-6.211831 -5.9328475 -5.7513256 -15.917119 3.952395 -3.845516 3.710008 -5.969552
-6.1584206 -6.150806 -5.910714 -6.2293606 -6.2055635 -5.765347 -5.8145123 6.046522
-5.7228465 -5.863758 5.911727 -4.591102 -6.6870313 -6.272431 -6.2550316 -6.3736873
-6.5471797 -6.69795 4.2808137 -4.6600943 4.45064 -4.431658 -5.797431 -5.9704604
-5.814248 -5.949786 -6.1119413 -5.9694653 -5.714493 5.936187 6.13994 -6.095847
-5.7786803 -5.9300222 -6.129973 -5.7869163 -5.9892287 -5.8943086 -5.687548 -6.2577085
5.8433757 6.2444024 5.910486 -6.199203 -4.4710593 -4.3737803 -4.255726 -4.6236067
-4.2445817 -4.478517 -4.3236475 7.1389213 -5.882918 -4.45805 -3.600583 -4.5722136
-4.564162 -4.2191567 -4.2878733 -4.7599754 -4.4433722 -4.218715 6.935334 -6.260259
-4.169562 -3.665682 -4.0171638 -4.306868 -4.5176053 -4.290921 -6.5759435 -4.2608376
-4.6708207 -2.9032493 -4.54156 -7.455495 -7.73864 -5.801505 -6.045197 -5.8072686
-6.2423725 -6.1217294 -6.1005306 -6.0263796 6.0631566 -5.7480936 -5.770727 6.1780176
-4.727613 -4.501056 -4.2451015 -4.5943694 -4.4432015 -4.5083275 -4.208719 4.406613
-6.1362095 -4.047435 -3.1416764 -6.6987605 -6.581529 -6.2877164 -4.6317286 -6.417918
-6.439649 -6.5960217 6.326489 -4.5201735 -6.818239 -4.4176173 -68.19991 -37.051388
-37.289284 -37.282528 -5.8125286 -36.82018 -37.029053 25.227703 -6.021388 -5.9276342
-6.0524664 -6.0349493 -6.101771 -5.831122 -6.2758465 -5.9710317 -5.80074 -5.916108
5.7357945 5.703955 5.7652473 -6.0447493 -6.2632017 -6.0672545 -5.8973994 -31.906855
-0.12416077 -6.283895 -5.7988906 -5.9589143 -6.123412 -5.8357983 -25.62227 -4.1567106
-4.492071 -4.588159 -4.551669 -4.384958 -4.600616 -4.4859786 -20.787025 -7.034188
-5.724268 -8.649597 36.469677 24.956923 51.069942 21.807112 -26.709429 30.432781
47.27093 -21.292067 56.280437 -24.052546 -21.484003 -6.169214 -5.739561 -5.8289576

0.bias f4 [150]
00000000: 6f31 bfc0 43cc cec0 92cb 87c0 34c3 03c1
00000010: 748a b63d c096 88c2 94d7 d3c0 4965 80c1
00000020: bc8a c7c0 1e1d dac0 8c8f b7c0 5b7b bbc0
00000030: abda 92c0 857d 91c0 5d08 83c0 fb9a c8c0
00000040: fe1e 8dc0 b5e3 88c0 9a80 88c2 d7e1 bbc0
00000050: 3e23 17c2 274c 92c0 7a5a 2d42 08ba c1c0
00000060: 6f19 97c0 f8da 8bc0 3777 6fc1 0107 90c0
00000070: 0fa4 fcc1 a9e7 0a42 b916 9ac0 ded8 9ac0
00000080: bff0 88c0 4213 d2c0 4cbd c5c0 6242 93c0
00000090: 8713 8bc0 3e7f 92c0 9117 91c0 a0ac 94c0
000000a0: 1bf6 8dc0 1b89 d3c0 162f 91c0 849b cbc0
000000b0: 721f ccc1 da09 d4c0 a6a3 9ac0 d170 1ec1
000000c0: 75b1 17c2 60c6 c3c0 5c9c 91c0 7e2d c8c0
000000d0: fcaa 8bc0 7cf6 9cc0 2e7d b0c0 47b5 9ac0
000000e0: 8b5f 92c0 2f54 c1c0 e37f d641 b8d7 86c0
000000f0: 1b45 ccc0 9355 65bd 6f96 88c0 e20e c9c0
00000100: 5569 8dc0 d3c8 d3c0 8db3 bec0 bdee f9c0
00000110: 1c12 18c2 72ff c8c0 77c0 68c0 e94c 87c0
00000120: 9d29 96c0 d8d7 bac0 d097 ccc0 02a0 cac0
00000130: 453e c8c0 48ee 97c0 eb4c 97c0 6be2 c1c0
00000140: b179 94c0 9777 a2c0 00e6 0ac1 1e11 b9c0
00000150: a88b cac0 b7b5 f341 4cfc d7c0 77ac 9ac0
00000160: 2062 c3c0 2f9d c1c0 39be d4c0 d3d7 37c1
00000170: ad1b c6c0 a334 8bc0 3e23 dac0 4646 bec0
00000180: d771 91c0 b810 88be a8ab 16c2 dc96 c1c0
00000190: 55d1 d7c0 9cda 61bd aad8 8fc0 e25f cec0
000001a0: 7125 8dc0 32cc b440 2949 b7c0 56d6 87c1
000001b0: bc66 8dc0 c3af 91c0 430b 8fc0 34fb d9c0
000001c0: 4afd b6c0 0593 c1c0 c414 8bc0 f09e c8c0
000001d0: 3713 b9c0 ec37 dcc0 cfeb c7c0 ed43 9dc0
000001e0: 1dff 89c0 2ef8 db41 f033 8fc0 b24e f1c0
000001f0: dce5 b0c0 4ecb 8bc0 321f 93c0 6a3e 8b41
00000200: 9a68 90c0 3d83 c6c0 48b0 98c0 ae21 96c0
00000210: 561f 8cc0 28d6 8cc0 9877 92c0 e229 81c1
00000220: cef2 85c0 3f0a b6c0 c862 bcc0 a507 8fc0
00000230: 644d 9cc0 ebc0 cbc0 2136 acc0 4290 d9c0
00000240: cf22 81c1 8990 96c0 22e8 8abc 363b 7fc1
00000250: 5b4c 90c0 a085 c0c0
-5.9747844 -6.4624343 -4.2436 -8.235157 0.089131266 -68.29443 -6.6200657 -16.049456
-6.2356853 -6.8160543 -5.736273 -5.858808 -4.589193 -4.546572 -4.094771 -6.2689185
-4.410033 -4.2777963 -68.251175 -5.8713183 -37.784416 -4.571796 43.338356 -6.053959
-4.7218547 -4.3704796 -14.966605 -4.500855 -31.580107 34.72623 -4.815274 -4.838973
-4.279388 -6.564851 -6.1793575 -4.6018534 -4.3461337 -4.5780325 -4.5341268 -4.6460724
-4.436292 -6.6104865 -4.536998 -6.362734 -25.515354 -6.6262026 -4.8324766 -9.902543
-37.923298 -6.1179657 -4.550337 -6.2555532 -4.364622 -4.9050884 -5.5152807 -4.8346286
-4.574163 -6.0415263 26.812445 -4.213833 -6.3834357 -0.055989813 -4.2683635 -6.2830667
-4.419108 -6.6182647 -5.959418 -7.810393 -38.017685 -6.2811823 -3.6367471 -4.2281384
-4.6925797 -5.838848 -6.393532 -6.332032 -6.2576013 -4.747837 -4.7281394 -6.058889
-4.639855 -5.0770984 -8.681152 -5.7833395 -6.329548 30.463728 -6.749548 -4.833553
-6.105728 -6.0504375 -6.6482205 -11.490191 -6.1908784 -4.3501754 -6.816802 -5.9460783
-4.5451465 -0.26575255 -37.667633 -6.0496655 -6.744303 -0.055140123 -4.4951982 -6.4492044
-4.4108205 5.649926 -5.7276807 -16.979656 -4.418791 -4.5527053 -4.4701247 -6.8119144
-5.718419 -6.0491967 -4.346285 -6.2694016 -5.7835956 -6.8818264 -6.247535 -4.9145417
-4.3123918 27.496181 -4.47509 -7.5408564 -5.528059 -4.3685675 -4.597558 17.405476
-4.5127687 -6.2035203 -4.7715187 -4.6916113 -4.378825 -4.401142 -4.577099 -16.14545
-4.1858892 -5.6887507 -5.8870583 -4.469683 -4.884447 -6.3672996 -5.3816075 -6.7988596
-16.141996 -4.7051435 -0.016956393 -15.951956 -4.5093207 -6.0163116

2.weight f4 [100, 150]
00000000: 6059 c1c0 d56f bec0 2a75 573d 77c4 20c0
00000010: 21fa 18bd 815c bdc0 4b92 c1c0 6666 be40
00000020: 928b bd40 26ad c1c0 090c c0c0 d45f bf40
00000030: 99e6 9ec0 7ca8 a9c0 8929 b1c0 7f03 bec0
00000040: bdad 97bf 7739 bfc0 f3ee 3b3d 9f37 bd40
00000050: 91be fdc1 be78 5cc0 52cb 09c1 a979 a03d
00000060: bfc5 95c0 3ddc bec0 c943 bfc0 89a2 ddc0
00000070: eb21 80bd eb6b d140 90b4 9ac0 06de e140
00000080: 60a5 6540 92c7 043b 48af bec0 5694 aec0
00000090: 4a14 14c1 3830 a43f 6af3 b3c0 5123 fac0
000000a0: 3045 f8c0 1915 c0c0 69da 5240 4378 bec0
000000b0: ecdf 0842 418e 663d ce2c a8c0 ec53 3ac0
000000c0: d27c a1c0 4e0c 95bd 0944 c0c0 1fc7 aac0
000000d0: 42d7 03c1 a3be bcc0 5b0d 53c0 fec6 dfc0
000000e0: 61c2 aac0 042f c2c0 cd76 09c2 61b8 6540
000000f0: fb22 843d e4d3 a33d a58e bec0 cf8c bec0
00000100: 5e28 dec0 001a bfc0 6974 bfc0 17b4 bfc0
00000110: 5568 bfc0 613a 6f40 7053 bec0 dff3 aac0
00000120: b654 00c1 adb4 bec0 5f15 69c0 9a50 bfc0
00000130: 9140 863d eb69 19c1 9df0 01c1 27a5 bec0
00000140: 8f05 89c0 aa4f 7440 5bec febe 7e4d bd40
00000150: 6648 c040 d9ab 1cc1 254b c0c0 b7a4 15c1
00000160: 50a0 c1c0 a5b9 bdc0 9577 bdc0 3441 b4c0
00000170: b0e4 bdc0 8e16 92c0 d32b bfc0 eaac bfc0
00000180: a179 96c0 124f 29bd 53d2 fcc1 8c06 bdc0
00000190: b322 bdc0 fbcd 65bd 7d48 05c1 2604 be40
000001a0: 5d67 e140 9bf5 04c2 965c bec0 d110 5dc0
000001b0: 1475 afc0 7c2a 23c1 6f15 47bd 0fdc c1c0
000001c0: 0305 bfc0 5497 c040 4ad3 bdc0 ae0c c0c0
000001d0: 23df c1c0 0e34 6ec0 a4da 8f3d cd7e e0c0
000001e0: 30ef dec0 44b2 06c2 be55 b6c0 cdfe df3b
000001f0: 67b9 e0c0 a0b3 12c1 c763 bfc0 bd2a 97c0
00000200: 550a aac0 8883 bec0 6b33 5dc0 214a bfc0
00000210: f6d5 95c0 65ac 89c0 aabc a6c0 8919 bfc0
00000220: 5b24 80c0 3792 c1c0 8fc5 bd40 3297 a0c0
00000230: ca9e ddc0 7098 bdc0 aab1 aac0 0034 3abd
00000240: efaa c1c0 24db aac0 4980 82c0 1c62 c1c0
00000250: 336a f8c0 8cf5 b43c 04a5 bfc0 92f4 c140
00000260: b922 d2be c0c8 edc0 34a4 15bd b17c bdc0
00000270: 9005 c240 afce bfc0 65c8 bd40 cffc c0c0
00000280: abf2 bdc0 d450 c1c0 74fc 0ec1 b5be 14c1
00000290: 48ff 11c1 6c2b be40 a2bc 02c1 88d5 bdc0
000002a0: 0852 bd40 4c56 bec0 c5df cdc1 b69d 09c1
000002b0: 50b8 20c2 b1ef bdc0 59c7 11c1 74a5 05c1
000002c0: 5fe6 bec0 4fd8 69c0 89f2 533d 0cd1 13c2
000002d0: d9b5 15c1 b48d 04c1 40d7 6ac0 2632 be40
000002e0: c939 bd40 de3c 13c1 0c51 75c0 ecd4 fac0
000002f0: d837 0dc1 dade afc0 09b8 87c0 1920 c140
00000300: 4a2a 03c1 8bc6 bfc0 c7f4 c9c1 9f2c c1c0
00000310: d247 aec0 44c3 afc0 584a a9c0 0260 bd40
00000320: c42f 6940 ccd8 6ac0 26fe 9bc0 1035 be40
00000330: 09f3 bdc0 e790 ddc0 620c 6bc0 c0c8 bdc0
00000340: 1c87 d3c1 f366 e0c0 78e2 be40 e5cf ecbc
00000350: 9136 e0c0 7e65 bfc0 b2c2 e0c0 1bce c1c0
00000360: 09eb c1c0 bda8 b2c0 77f7 bf40 eea4 70c0
00000370: 76ac 2540 3641 67c0 1280 28c0 cfaa bfc0
00000380: 5710 69c0 41df c0c0 664f bd40 fdde fac0
00000390: 75a1 36c0 0583 bdc0 e08f 15c1 8df8 3ac0
000003a0: 9ea5 a4c0 09b8 bfc0 b4ee c0c0 e6fa 12c2
000003b0: 23db bdc0 ea4d 89c0 0837 c1c0 0caa bf40
000003c0: 974f c1c0 7e58 c7c0 427f bdc0 bd81 14c1
000003d0: 5224 c140 c954 bec0 2f8a 13c1 f511 823d
000003e0: 8255 cdc1 6d21 bfc0 99be 4a40 3e26 543d
000003f0: cefd 02c1 747e c0c0 a0e3 12c1 9e40 16c2
-6.04216 -5.9511514 0.05260197 -2.5119913 -0.037347917 -5.917542 -6.049108 5.95
5.9232874 -6.0523863 -6.001469 5.980448 -4.965649 -5.301817 -5.53632 -5.937927
-1.1849896 -5.9757648 0.045882177 5.9130397 -31.71805 -3.4448695 -8.612139 0.07835705
-4.680389 -5.9643846 -5.9770246 -6.9260907 -0.06256469 6.5444236 -4.8345413 7.0583525
3.5882187 0.0020260555 -5.9588966 -5.4556074 -9.254953 1.2827215 -5.6234636 -7.816811
-7.7584457 -6.0025754 3.2945807 -5.9521804 34.218674 0.056288008 -5.2554693 -2.9113722
-5.046487 -0.072777376 -6.008305 -5.336807 -8.240053 -5.898271 -3.2976902 -6.993041
-5.336228 -6.068239 -34.366016 3.5893786 0.064519845 0.07999399 -5.9549127 -5.9546885
-6.9424276 -5.971924 -5.98296 -5.9907336 -5.981486 3.7379382 -5.9476852 -5.3422694
-8.020681 -5.959555 -3.6419294 -5.978589 0.06555284 -9.588359 -8.1212435 -5.95766
-4.2819285 3.8173623 -0.497897 5.9157095 6.0088377 -9.791955 -6.009173 -9.352714
-6.0508194 -5.9289117 -5.9208474 -5.6329594 -5.934166 -4.5652533 -5.9740996 -5.9898577
-4.7023473 -0.041335173 -31.602697 -5.907049 -5.9104857 -0.05610464 -8.330197 5.9380064
7.0438676 -33.23985 -5.948802 -3.4541514 -5.483042 -10.197872 -0.048604425 -6.0581126
-5.969362 6.0184727 -5.932042 -6.001548 -6.0584884 -3.7219272 0.07024124 -7.0154786
-6.9666977 -33.674088 -5.6979666 0.0068357945 -7.022632 -9.168854 -5.98093 -4.723967
-5.313761 -5.953556 -3.4562633 -5.977799 -4.6823683 -4.3022943 -5.2105303 -5.971867
-4.004438 -6.0490985 5.930366 -5.0184565 -6.9256334 -5.924858 -5.3341875 -0.045459747
-6.052116 -5.3392506 -4.07816 -6.0432262 -7.762964 0.022089742 -5.9888935 6.061105
-0.41042116 -7.4307556 -0.03653355 -5.921471 6.063179 -5.99398 5.930712 -6.0308604
-5.9358726 -6.0411167 -8.936634 -9.296559 -9.124825 5.9428005 -8.171053 -5.932316
5.9162636 -5.9480343 -25.734262 -8.601004 -40.179993 -5.935509 -9.111169 -8.352894
-5.9656215 -3.6538274 0.05174497 -36.954147 -9.356896 -8.2845955 -3.6693878 5.9436216
5.913304 -9.20236 -3.8330717 -7.8384914 -8.826134 -5.4959536 -4.241215 6.035168
-8.1978245 -5.992986 -25.24452 -6.036697 -5.446267 -5.492586 -5.290325 5.9179697
3.6435404 -3.6694822 -4.874774 5.9439774 -5.9359174 -6.9239383 -3.6726308 -5.9307556
-26.440971 -7.012567 5.965145 -0.028907726 -7.006661 -5.981139 -7.0237665 -6.0564094
-6.059941 -5.583098 5.998958 -3.7600665 2.5886512 -3.6133552 -2.6328168 -5.9896007
-3.6416223 -6.0272527 5.915942 -7.8397202 -2.8536046 -5.9222436 -9.347626 -2.9214203
-5.145217 -5.991215 -6.0291386 -36.745018 -5.933 -4.290761 -6.0379677 5.9895077
-6.0409656 -6.2295523 -5.9217844 -9.281674 6.0356836 -5.9478498 -9.221236 0.06351081
-25.666752 -5.9728303 3.1678832 0.051794283 -8.186964 -6.015436 -9.1805725 -37.563103

2.bias f4 [100]
00000000: 66af c3c0 77a9 57c2 8da8 a9c0 7087 c0c0
00000010: 908c 1ac2 8681 aac0 e597 14c2 7c2b 07c2
00000020: 354a acc0 89c4 8fc0 7c28 a7c0 38e9 09c2
00000030: 5bae bec0 f916 3ac2 2577 2ec2 2312 20c2
00000040: d6d4 0dc2 2144 aac0 2f8d 20c2 6d8e 72c2
00000050: 1ce9 9fc0 03cd a6c0 42d1 c0c0 716e 11c0
00000060: 3ab6 21c2 a468 2ac0 4b54 afc1 00d7 c0c0
00000070: ec5b e2c0 a829 a8c0 9e3c 48c2 dd5a 8ec1
00000080: 77d2 87c1 3dc2 e0c1 49be 9fc0 dfff 87c1
00000090: 1cc4 7cc1 1eb5 96c1 3abb 93c0 8777 4bc0
000000a0: 7cab 93c0 2fb5 b5c0 0314 9fc1 c7cc adc1
000000b0: b2ff c1c0 f070 aec0 51f3 1fc2 baf5 ebc0
000000c0: 6c53 16c2 9351 3fc2 00ec 92c0 205b 0bc1
000000d0: 5e70 14c2 b2f6 b1c1 1daa acc0 3fb4 9dc0
000000e0: d4a4 abc0 c995 a9c0 27d5 31c2 3d61 14c2
000000f0: 9f22 c0c0 ee73 1ac2 ad7b a0c0 0e3f bfc0
00000100: db2d a2c0 69e7 69c0 184b abc1 d1ba 9dc0
00000110: dfd8 b3c0 377c 1cc2 be0c 8fc0 67e3 06c2
00000120: 5312 32c2 5ae5 16c0 8dfa a3c0 de2d b9c0
00000130: 2cbc c1c0 e9c2 c0c0 e56c a7c0 0a6d adc0
00000140: afb3 1bc1 5b4a bfc0 7544 aec1 5e21 1ac2
00000150: 0e91 0cc2 946e d3c0 204b a7c0 b96f b4c0
00000160: 4c8f c5c0 3368 92c0 8f47 38c2 13c6 9dc0
00000170: f3d2 2dc2 4a6b 22c2 91d8 a6c0 c232 16c2
00000180: 1abf c0c0 da4d edc0 0a66 9ec0 0b67 a4c0
-6.115161 -53.915493 -5.301825 -6.016533 -38.637268 -5.328311 -37.148335 -33.792465
-5.3840585 -4.492741 -5.223692 -34.477753 -5.9587836 -46.522434 -43.616352 -40.01771
-35.457848 -5.3208165 -40.137875 -60.639088 -4.9972057 -5.212526 -6.025544 -2.2723658
-40.427956 -2.6626368 -21.916159 -6.026245 -7.073721 -5.255085 -50.059196 -17.794367
-16.977766 -28.094843 -4.991978 -16.999937 -15.797878 -18.838436 -4.616605 -3.1791704
-4.614683 -5.678367 -19.884771 -21.724989 -6.062463 -5.4512863 -39.987614 -7.373746
-37.581467 -47.829662 -4.5913086 -8.709747 -37.109734 -22.245457 -5.395766 -4.9282527
-5.3638706 -5.2995343 -44.458157 -37.09496 -6.004226 -38.613213 -5.015097 -5.976447
-5.0680976 -3.6547492 -21.411667 -4.9290547 -5.6202235 -39.121304 -4.4703054 -33.722073
-44.517895 -2.3577485 -5.124335 -5.786849 -6.05422 -6.0237927 -5.232043 -5.4195604
-9.731368 -5.9778266 -21.783426 -38.532585 -35.141655 -6.6072483 -5.2279205 -5.638638
-6.1737423 -4.5752196 -46.06988 -4.930429 -43.456005 -40.604774 -5.2139363 -37.54957
-6.023328 -7.4157534 -4.949956 -5.1375785

4.weight f4 [5, 100]
00000000: d91a 01c2 c40e c6c1 bd2f 9340 41dc bcc0
00000010: d334 e0c1 d588 a7c0 8492 bcc0 a5ad 193f
00000020: 1299 9240 9460 9340 7058 9140 7d1c c0c0
00000030: f54b bec0 14af cac1 d464 cec1 3f2a cac1
00000040: ee94 0940 fcd9 9040 2ccd 71c1 aeaa c941
00000050: a118 9440 99af 9040 f57d bcc0 79cf 95c0
00000060: 7a9c e0c1 6033 adc0 af50 9340 1a01 bec0
00000070: 44fe 6540 49a8 8e40 4ec6 e0c1 9552 9240
00000080: acc1 85bf d1a1 f8c1 1373 8e40 106a c1c0
00000090: 319f 3b40 eb40 bfc0 6695 9440 3bf0 84c0
000000a0: b31a 9440 fa7d ae40 1f76 bec0 b086 9040
000000b0: 2578 bec0 90c6 9140 e4e6 9f40 3965 3f40
000000c0: cd7b 9dbd 6f4e cac1 39af 8f40 6d50 40c0
000000d0: ba33 bec0 28ad 9040 83c2 5cbd c3f3 9040
000000e0: 2b37 a9c0 f6da b040 cd15 d5c1 bdd4 bcc0
000000f0: fa3f bdc0 cf22 ad40 b961 8f40 f1ea bcc0
00000100: d7f2 9340 3ca8 77c0 2c4b 9340 589f 9040
00000110: 6a44 af40 5583 3e40 6d54 9040 5a75 8ac1
00000120: 4906 4540 e1bd a3c0 daa8 8e40 5edc a740
00000130: cc8f bcc0 332e 64bb bc8a 9040 c37b 8e40
00000140: dcf4 e83e dfe6 bfc0 644b 9140 5973 e1c1
00000150: 4729 ac40 0a7f d6bf 6556 9140 bdb9 6540
00000160: a1a9 2f40 e796 9440 2b93 c6c1 db5b 9040
00000170: f954 d3c1 e60d d4c1 a725 9240 ba8b d3c1
00000180: 4c05 bec0 f65f 4240 72d3 8f40 c546 9440
00000190: 1fb4 87c1 7009 3dc0 a298 d240 b1d6 c140
000001a0: 8630 4840 7e2e adc0 fcfa c841 59d8 ea3c
000001b0: ab94 d040 6ea1 9240 fc75 c940 cad1 b4c1
000001c0: 1597 bd40 0299 e4c0 4d0b 1ec1 9cd4 a5c0
000001d0: 81cb 0741 9bf4 ab40 917f 7840 9fb8 1241
000001e0: 6db9 8d40 9a3a d440 1110 bf40 1745 59c0
000001f0: 7255 553f 2e7f 85c0 37aa 9340 d803 bec0
00000200: 83e8 e0c0 9c52 d240 3d89 fcc0 12c1 8d40
00000210: ae92 16be 8dda dfc1 80c9 9240 991e 87c1
00000220: a32d e5c1 5f6b 1342 65fa d240 24ae a0bf
00000230: 7f41 9240 16c7 b140 c147 c240 7647 8b40
00000240: cf5f bec0 98a0 ce40 116c 69c0 0e35 f640
00000250: 7f7c bec0 b4e3 50c0 3c30 9440 37a0 ad3f
00000260: 8c87 c941 cb7b 8d40 906d a9c0 2834 9140
00000270: dadb abc0 8741 8d40 c6b9 c0c1 fbf3 c941
00000280: 96a3 c1c0 2e7f 40c0 8e06 9240 2d18 bec0
00000290: 8242 8a40 c1ef af40 b258 d040 1462 8f40
000002a0: f41b b240 f986 c0c0 43d3 d240 e4d7 e23f
000002b0: a6b6 e5c1 9724 7fc0 a0e5 8a40 5b7e 5340
000002c0: 9f8f bfc0 6a35 bec0 0272 d240 5a8c ce40
000002d0: 7724 56be 62da bd40 c633 8f40 7394 e1c1
000002e0: 2d21 a8c0 437e 42c1 1ae7 d140 599f 57c0
000002f0: 3265 3e40 c120 9240 b138 01c2 30ab 9040
00000300: 4d2c aec1 d577 d5c1 a5d4 8b40 ee9c b4c1
00000310: 08cd bfc0 0042 003b efe1 8d40 f355 8c40
00000320: 8494 d43f 7c2d 08c0 aa4f 90c0 1f3d c240
00000330: 2694 45c0 ffdb a940 b386 bfc0 0eeb 8fbf
00000340: 6199 8fc0 a6c6 8ec0 bccf 8fc0 611e c140
00000350: b39d c240 0252 3ac0 5589 93c0 2842 32c0
00000360: 79e3 38c0 db05 d0c0 4c6e 94c0 4008 c9c1
00000370: c90f 8fc0 7521 8fc0 4ee2 bf40 0b82 9e40
00000380: 3d25 26bf d119 9840 fc18 d0c0 e283 c0c0
00000390: eddd dec0 ba9c 8ec0 17e8 43c0 4e68 8ec0
000003a0: 7b99 9ebf 8593 f841 8fce 8fc0 baaa db3c
000003b0: abf3 45c0 f799 bf40 0377 8fc0 e131 ab40
000003c0: 66d6 90c0 caa1 b0c0 09af bf40 5bff ccc0
000003d0: 10d3 c1c0 e3e1 8ec0 000f c1c0 a679 3fc0
000003e0: 2a25 bdc0 12b6 96c0 b29c d0c0 ca4e 073e
000003f0: 7743 56bd af92 d1c0 950a a840 da03 8fc0
-32.27622 -24.75721 4.5995774 -5.9018865 -28.025793 -5.235453 -5.892885 0.60030586
4.5811853 4.6055393 4.5420456 -6.0034776 -5.946772 -25.335487 -25.799232 -25.270628
2.149715 4.5266094 -15.112591 25.20834 4.6280065 4.5214353 -5.8903756 -4.6815763
-28.076405 -5.4125214 4.603599 -5.9376345 3.5936441 4.4580426 -28.096828 4.572581
-1.0449729 -31.079012 4.451547 -6.044197 2.9315913 -5.9766746 4.643237 -4.154325
4.628259 5.452878 -5.951919 4.5164413 -5.952166 4.5554886 4.996935 2.9905531
-0.07689629 -25.288298 4.4901395 -3.0049088 -5.9438143 4.521137 -0.05389644 4.529756
-5.2879844 5.5267286 -26.635645 -5.900969 -5.9140596 5.410499 4.480679 -5.9036794
4.6233935 -3.8696432 4.6029263 4.519451 5.4771013 2.9767659 4.510306 -17.3073
3.0785086 -5.1169286 4.458112 5.2456503 -5.8925533 -0.0034817576 4.5169353 4.4526076
0.45499313 -5.9969325 4.540453 -28.181322 5.3800387 -1.6757519 4.541796 3.5894616
2.7447283 4.6434207 -24.82186 4.511213 -26.41649 -26.506786 4.567096 -26.443226
-5.9381466 3.037107 4.494561 4.633639 -16.96295 -2.953701 6.581132 6.0574574
3.1279616 -5.4119253 25.122551 0.028667616 6.518148 4.582206 6.2956524 -22.602436
5.9246926 -7.1436777 -9.877759 -5.1822033 8.487184 5.373609 3.882786 9.1700735
4.428885 6.6321535 5.970711 -3.394842 0.83333504 -4.171775 4.614528 -5.937969
-7.028383 6.572584 -7.8917527 4.429818 -0.14704391 -27.981714 4.587097 -16.88994
-28.647284 36.854855 6.5930657 -1.2553144 4.570495 5.5555525 6.071259 4.3524733
-5.9491954 6.4571037 -3.6472208 7.6939764 -5.9526973 -3.263898 4.630888 1.3564519
25.191185 4.4213614 -5.2946243 4.5376167 -5.3705873 4.414249 -24.09071 25.244131
-6.051219 -3.0077624 4.5633 -5.940451 4.3206186 5.498017 6.510827 4.4807224
5.5659122 -6.016476 6.588289 1.7722135 -28.714184 -3.9866083 4.3405304 3.3045871
-5.986282 -5.9440203 6.576417 6.4546328 -0.20912348 5.932908 4.47507 -28.197485
-5.25405 -12.155826 6.5594606 -3.3691008 2.9749265 4.5664983 -32.305363 4.520897
-21.771631 -26.683512 4.3697076 -22.576626 -5.993778 0.001957059 4.43383 4.385492
1.6607823 -2.1277761 -4.5097246 6.069961 -3.0871673 5.308105 -5.985193 -1.1243608
-4.487473 -4.461749 -4.494108 6.0349584 6.0817504 -2.9112554 -4.610514 -2.7852879
-2.8888838 -6.500715 -4.638464 -25.129028 -4.470677 -4.472834 5.996375 4.9533744
-0.6490057 4.7531514 -6.50305 -6.016099 -6.9645905 -4.4566317 -3.0610406 -4.4502325
-1.2390589 31.072031 -4.4939647 0.026814807 -3.0929973 5.9875445 -4.483278 5.3498387
-4.5261717 -5.5197496 5.9901166 -6.4061713 -6.0570145 -4.465074 -6.033081 -2.9917998
-5.9107866 -4.7097254 -6.519128 0.1321365 -0.052310433 -6.5491557 5.2512918 -4.46922

4.bias f4 [5]
00000000: 329d 6445 592b 5b45 e69b 6345 734d 6345
00000010: e489 7145
3657.8247 3506.7092 3641.7437 3636.8406 3864.6182
