trained_buffer/epsilon050_dqn_agent_state_truncated_step30.pth (torch, 680014 bytes, 24 tensors)

0.weight f4 [150, 11]
-5.8911376 -5.7681093 -6.189675 -6.247744 -5.8065996 -5.836922 -6.0613947 -5.7054653
5.776444 6.0923805 6.104147 -6.5266924 -4.6359406 -6.3450575 -6.5201488 -6.3972588
-6.4822655 -4.5501065 4.790032 4.2929516 4.681928 4.3703785 -6.621235 -6.505486
-5.69353 -5.9754467 -5.858004 -5.7510414 -6.3388386 4.79754 4.3829365 4.633608
4.381987 -7.085349 -6.4785676 -4.5911174 -6.8298955 -6.638033 -4.822222 -7.7135463
-4.2132697 4.403549 -4.288304 6.4587092 -5.9996023 -5.904577 -6.2458787 -6.0600705
-5.9277864 -5.7800527 -5.9329047 -5.9305677 6.0608706 5.7595234 5.956041 -4.5565176
-6.396862 -6.462516 -6.551937 -4.709825 -4.480774 -6.7350817 6.263318 4.27528
4.70929 4.6778755 -6.466924 -4.6060724 -6.551316 -4.514935 -4.5586348 -4.5063734
-6.2994075 -4.478926 4.5242705 6.7186036 6.672736 -29.027391 -28.980766 -28.864578
-28.705809 -6.1070223 -6.281701 -5.7393413 16.849504 17.304611 2.3844173 4.001984
-6.4520245 -6.4429474 -9.49179 -4.768441 -2.142966 -5.877658 -6.402808 6.6779785
-4.306209 6.121051 -4.337393 -6.227575 -5.8343716 -6.209927 -6.2462993 0.045775723
-5.9857497 -6.2016954 -5.869326 5.9512553 5.745897 5.8152447 -4.791931 -6.49386
-4.365413 -4.523404 -4.723461 -4.8449326 -4.7838607 6.497059 -4.522691 5.9329786
0.4653772 -6.586289 -13.857725 -13.731519 -6.2874722 -5.736401 -6.216561 -6.465986
4.619427 -4.5855813 4.732777 -4.6648602 -6.2152467 -26.092262 -23.728943 -25.09217
-13.3017235 -24.111889 -25.971375 -13.017446 -14.043038 -11.92237 -13.944278 -4.631124
-4.6902094 -4.652423 -4.28554 -4.3369484 -4.7300415 -4.642311 6.4048953 6.3780036
6.3893337 6.5583386 -4.2893205 -4.307224 -4.5668325 -4.504113 -4.56467 -4.8266883
-4.3139777 4.4118805 4.5184546 4.6143217 4.261891 -6.757812 -6.3187084 -5.9641004
-6.0517306 -5.9485736 -5.9201055 -6.2423606 4.5299053 -4.3700113 4.5699744 4.304507
-4.4052157 -4.59996 -4.402368 -4.5345635 -4.530192 -4.578648 -4.385791 6.6399655
4.561175 6.448257 4.5111394 -6.5177073 -6.7167387 -6.642473 -4.260767 -5.8434043
-6.5987754 -4.5372624 4.582379 -4.537661 -4.3553658 -4.2956624 -4.2659397 -4.4630113
-4.7763247 -4.5445237 -4.831383 -4.554219 -4.7936997 6.7929463 4.5501294 4.3564568
4.321488 -4.5233173 -4.4933424 -4.3317714 -4.580312 -4.3120427 -4.6476574 -4.757055
6.616127 4.529468 6.494729 4.7143908 -6.360153 -4.69444 -4.5965285 -6.516454
-6.7132435 -4.660575 -6.4258637 -4.45663 4.8158975 6.64063 4.5219245 -15.436557
-13.543945 -13.301035 -16.328045 -24.96672 -6.5297265 -1.4545842 18.825539 18.162888
16.984911 14.089153 -6.0098724 -6.103355 -5.9698024 -6.1709313 -0.2340544 -5.8637915
-6.233268 5.9783382 6.0516276 5.9042506 5.783428 -4.5956235 -4.7250247 -4.213271
00000000: 3384 bcc0 5a94 b8c0 d111 c6c0 85ed c7c0
00000010: aacf b9c0 11c8 bac0 f2f6 c1c0 2c93 b6c0
00000020: a1d8 b840 c8f4 c240 2c55 c340 aada d0c0
00000030: a059 94c0 b60a cbc0 0fa5 d0c0 58b6 ccc0
00000040: b86e cfc0 799a 91c0 f147 9940 dc5f 8940
00000050: 5bd2 9540 24da 8b40 28e1 d3c0 f12c d0c0
00000060: 6631 b6c0 dc36 bfc0 c574 bbc0 8808 b8c0
00000070: c4d7 cac0 7385 9940 0441 8c40 8446 9440
00000080: 3d39 8c40 2ebb e2c0 6d50 cfc0 6fea 92c0
00000090: 818e dac0 c46a d4c0 a54f 9ac0 5fd5 f6c0
000000a0: 1bd3 86c0 e0e9 8c40 c939 89c0 bfad ce40
000000b0: befc bfc0 4bf2 bcc0 3dde c7c0 19ec c1c0
000000c0: 6db0 bdc0 31f6 b8c0 5bda bdc0 36c7 bdc0
000000d0: a7f2 c140 044e b840 e397 be40 fece 91c0
000000e0: 18b3 ccc0 eecc cec0 78a9 d1c0 e3b6 96c0
000000f0: 8062 8fc0 ca85 d7c0 1a6d c840 18cf 8840
00000100: 81b2 9640 28b1 9540 0bf1 cec0 f264 93c0
00000110: 61a4 d1c0 597a 90c0 56e0 91c0 3634 90c0
00000120: bf94 c9c0 5d53 8fc0 d3c6 9040 cdfe d640
00000130: 0e87 d540 1938 e8c1 9cd8 e7c1 a8ea e6c1
00000140: 7fa5 e5c1 ba6c c3c0 b203 c9c0 afa8 b7c0
00000150: c9cb 8641 d86f 8a41 4b9a 1840 4110 8040
00000160: fc76 cec0 a02c cec0 5fde 17c1 1297 98c0
00000170: 5b26 09c0 c615 bcc0 cee3 ccc0 00b2 d540
00000180: 77cc 89c0 a6df c340 eccb 8ac0 4b48 c7c0
00000190: 2cb3 bac0 b9b7 c6c0 afe1 c7c0 537f 3b3d
000001a0: 438b bfc0 4a74 c6c0 85d1 bbc0 af70 be40
000001b0: 63de b740 7c16 ba40 8057 99c0 b3cd cfc0
000001c0: 77b1 8bc0 babf 90c0 9826 97c0 b009 9bc0
000001d0: 6315 99c0 e8e7 cf40 e2b9 90c0 f6da bd40
000001e0: ec45 ee3e e1c2 d2c0 3eb9 5dc1 4db4 5bc1
000001f0: f932 c9c0 9990 b7c0 11ee c6c0 5be9 cec0
00000200: 59d2 9340 15bd 92c0 e972 9740 8946 95c0
00000210: 4de3 c6c0 f4bc d0c1 e0d4 bdc1 c4bc c8c1
00000220: dcd3 54c1 26e5 c0c1 60c5 cfc1 7547 50c1
00000230: 49b0 60c1 07c2 3ec1 c31b 5fc1 2b32 94c0
00000240: 3216 96c0 a6e0 94c0 2523 89c0 48c8 8ac0
00000250: 805c 97c0 d08d 94c0 e7f4 cc40 9b18 cc40
00000260: 6c75 cc40 e9dd d140 1d42 89c0 c7d4 89c0
00000270: 7e23 92c0 b221 90c0 c711 92c0 3b74 9ac0
00000280: 1b0c 8ac0 202e 8d40 2e97 9040 86a8 9340
00000290: 6961 8840 ff3f d8c0 dc32 cac0 e9d9 bec0
000002a0: c7a7 c1c0 b75a bec0 8171 bdc0 6bc1 c7c0
000002b0: fcf4 9040 22d7 8bc0 3b3d 9240 85be 8940
000002c0: 87f7 8cc0 df32 93c0 33e0 8cc0 251b 91c0
000002d0: 55f7 90c0 4984 92c0 6658 8cc0 997a d440
000002e0: 25f5 9140 1f58 ce40 415b 9040 0f91 d0c0
000002f0: 86ef d6c0 248f d4c0 3458 88c0 2bfd bac0
00000300: 2b29 d3c0 4131 91c0 d9a2 9240 8534 91c0
00000310: 285f 8bc0 1176 89c0 9482 88c0 fdd0 8ec0
00000320: a7d7 98c0 bd6c 91c0 b19a 9ac0 29bc 91c0
00000330: fd65 99c0 d15f d940 a99a 9140 1868 8b40
00000340: a149 8a40 04bf 90c0 76c9 8fc0 df9d 8ac0
00000350: ea91 92c0 41fc 89c0 9cb9 94c0 cb39 98c0
00000360: 50b7 d340 67f1 9040 d2d4 cf40 4adc 9640
00000370: 6086 cbc0 da38 96c0 c316 93c0 cb86 d0c0
00000380: e4d2 d6c0 6e23 95c0 ada0 cdc0 b79c 8ec0
00000390: d51b 9a40 0a80 d440 9bb3 9040 23fc 76c1
000003a0: 00b4 58c1 0ad1 54c1 d69f 82c1 d8bb c7c1
000003b0: 85f3 d0c0 d12f babf b49a 9641 984d 9141
000003c0: 19e1 8741 2c6d 6141 e050 c0c0 af4e c3c0
000003d0: 9f08 bfc0 4578 c5c0 f5ab 6fbe 2ea4 bbc0
000003e0: ee76 c7c0 8c4e bf40 efa6 c140 9fef bc40
000003f0: d811 b940 590f 93c0 6733 97c0 1ed3 86c0

0.bias f4 [150]
-5.968824 -4.488009 -6.3684263 -6.4989014 -6.0183616 -4.7355504 -4.6959414 -39.15473
-6.670045 -6.278562 -6.3598166 -6.286369 -26.01284 -4.4190974 -4.4973 -6.2457023
-4.740155 -4.72766 -4.5648727 -4.400358 -6.7497697 -12.560777 -5.8878217 -4.454313
-6.1156816 -6.734611 -6.7377343 -4.363899 -4.347987 -5.877847 -69.1345 -40.68399
-4.3144655 -6.319618 -4.7207537 -4.377968 -6.4100704 -6.582627 -4.7710366 -6.407043
-6.325796 -6.316614 -4.359178 -5.929581 -4.325972 -7.7132587 -6.243899 -6.617055
-5.8141046 59.847473 -6.1065183 -6.6030927 -28.65028 -4.7020903 -4.465113 -4.5928054
-5.9566746 -6.610991 -5.6981816 -6.7631707 -4.3241897 -6.8156137 -4.6604586 -4.529134
-4.440586 -6.481225 -4.5806117 -6.732918 -5.0693316 -4.583326 -4.7374005 -6.5609317
-6.6173306 -6.2164636 -4.330921 -6.5918756 -6.3821898 -5.7983766 -6.0041533 -4.2747974
-5.7008324 -4.568902 -4.2628736 -4.7750354 -4.648158 -69.23045 -6.520567 -4.579502
-22.446215 -4.528077 -4.285102 -4.3772006 -4.660962 -5.698597 -4.8973784 -6.0695844
-14.21399 -4.417692 -4.4737997 -6.597029 -4.728821 -7.298037 -5.774437 -6.089372
-6.15559 -4.264227 -4.6448107 -4.705767 -5.809285 -6.187454 -6.311744 -4.5846868
-4.8066716 -4.3942747 -4.416644 -6.267698 -4.268542 -6.4416995 -4.745498 -6.1881437
-6.7555575 -4.465493 -4.2864056 -4.374732 -4.288541 -4.800405 -6.2490935 -4.234857
-6.028471 -6.5974736 -4.303139 -14.803787 -4.491965 -8.776888 -4.7763786 -4.7330246
-5.9034305 -6.4787846 -22.532333 -6.3437915 -6.266721 -4.4414196 -6.366503 -5.800639
-6.742719 -4.565302 -4.556921 -6.30102 -4.2667603 -6.5327086
00000000: 9b00 bfc0 c59d 8fc0 26ca cbc0 00f7 cfc0
00000010: 6b96 c0c0 a189 97c0 2745 96c0 729e 1cc2
00000020: 0271 d5c0 fbe9 c8c0 9e83 cbc0 ef29 c9c0
00000030: 4c1a d0c1 3f69 8dc0 e2e9 8fc0 cbdc c7c0
00000040: 5aaf 97c0 fe48 97c0 7013 92c0 bccf 8cc0
00000050: 1dfe d7c0 f1f8 48c1 0969 bcc0 bb89 8ec0
00000060: aab3 c3c0 ef81 d7c0 859b d7c0 10a5 8bc0
00000070: b622 8bc0 5317 bcc0 dd44 8ac2 68bc 22c2
00000080: 1a10 8ac0 503a cac0 6a10 97c0 5018 8cc0
00000090: 4c1f cdc0 e1a4 d2c0 55ac 98c0 7f06 cdc0
000000a0: ec6c cac0 b421 cac0 637e 8bc0 21bf bdc0
000000b0: 5d6e 8ac0 04d3 f6c0 05ce c7c0 eabe d3c0
000000c0: 250d bac0 d063 6f42 9968 c3c0 894c d3c0
000000d0: c633 e5c1 8677 96c0 35e2 8ec0 43f8 92c0
000000e0: 149d bec0 3d8d d3c0 8157 b6c0 e56b d8c0
000000f0: c35f 8ac0 8219 dac0 7a22 95c0 aaee 90c0
00000100: 4819 8ec0 3266 cfc0 5f94 92c0 1074 d7c0
00000110: f737 a2c0 9baa 92c0 c998 97c0 27f3 d1c0
00000120: 2cc1 d3c0 45ed c6c0 e896 8ac0 a5f0 d2c0
00000130: e63a ccc0 4d8c b9c0 0622 c0c0 24cb 88c0
00000140: 386d b6c0 7234 92c0 7669 88c0 17cd 98c0
00000150: b6bd 94c0 fe75 8ac2 7ca8 d0c0 488b 92c0
00000160: d991 b3c1 02e6 90c0 8e1f 89c0 0712 8cc0
00000170: 9a26 95c0 e85a b6c0 53b7 9cc0 093a c2c0
00000180: 816c 63c1 bc5d 8dc0 5e29 8fc0 dd1a d3c0
00000190: 8052 97c0 8589 e9c0 30c8 b8c0 23dc c2c0
000001a0: 98fa c4c0 8c74 88c0 4aa2 94c0 a595 96c0
000001b0: aae5 b9c0 a0ff c5c0 cff9 c9c0 c1b5 92c0
000001c0: 41d0 99c0 e69d 8cc0 2655 8dc0 fb90 c8c0
000001d0: e597 88c0 6722 cec0 1fdb 97c0 4605 c6c0
000001e0: 872d d8c0 52e5 8ec0 3c2a 89c0 cefd 8bc0
000001f0: ba3b 89c0 eb9c 99c0 93f8 c7c0 f383 87c0
00000200: 3ce9 c0c0 811e d3c0 51b3 89c0 50dc 6cc1
00000210: 2dbe 8fc0 226e 0cc1 18d8 98c0 f074 97c0
00000220: e7e8 bcc0 3452 cfc0 3842 b4c1 5700 cbc0
00000230: fa88 c8c0 1c20 8ec0 64ba cbc0 d69e b9c0
00000240: 5bc4 d7c0 f416 92c0 4cd2 91c0 f5a1 c9c0
00000250: 4d89 88c0 f30b d1c0

2.weight f4 [100, 150]
5.9121523 -4.5460443 -4.6033487 -6.602332 -6.014887 -4.4807906 -4.523618 -6.018827
-4.601747 -5.974188 -6.5232124 -6.467551 6.0264597 -6.511797 -4.5860004 -6.5135245
-4.5355186 -6.5966544 -6.4796777 -4.4946766 -6.583253 -0.07709738 -6.0235386 -4.5919313
-5.5144024 -4.5035853 -6.603506 -4.545781 -6.535511 -5.93478 -5.908925 -5.9483156
-4.5968714 6.0462265 -4.498273 -4.516738 -4.5023704 -4.5996256 -4.6257396 -4.564738
-4.562363 -6.538964 -6.4787683 -5.9260316 -4.588692 -4.494248 -6.46437 -6.5211487
-5.9116154 -6.507498 -5.915922 -6.6011033 5.9512353 -4.4848595 -6.5668707 -6.5233483
6.054974 -6.60691 -5.974413 -6.496779 -4.5669613 -6.539073 -4.5431266 -4.59057
-6.5276184 -6.480966 -4.515327 -6.594078 -6.587795 -4.563311 -4.602492 -4.614088
-6.5075893 6.02009 -6.5314007 -4.5670075 -4.495156 5.9327173 -5.988981 -4.469921
-5.9431276 -6.550141 -4.569556 -4.577298 -6.5230646 -5.914643 -6.51715 -4.465319
-6.0671616 -6.4890566 -4.569991 -4.5812163 -6.459356 -4.5079103 -6.512245 -5.9430103
0.03469534 -6.574433 -6.4694386 -6.459292 -6.573972 -5.989364 -6.004864 -5.9973364
5.9651847 -6.6069756 -4.5866857 -4.6149635 -5.9361053 -6.046811 -5.984107 -4.49786
-6.534469 -6.55918 -6.5336905 -6.486398 -6.516328 -6.5881057 -4.529372 5.9281783
-6.4870896 -4.5212026 -6.617687 -4.469814 -6.4885035 -4.4670844 5.996348 -4.511007
5.934524 -4.5649676 -6.5118575 -6.5789356 -6.6134844 -6.0283284 -4.6185403 -6.589518
-5.991133 -4.4981613 0.045730717 -6.541927 -5.994626 -4.585211 -4.622453 5.998765
-4.472522 -6.5148726 -4.5185127 -4.485349 -4.5220184 -6.5658264 -6.031238 -5.915318
-6.0269384 -6.062791 -6.0510726 -5.9969625 -6.0657887 -6.047184 -6.062202 -5.9184194
-6.040471 -6.012936 -5.998839 6.022646 -6.05861 -6.0548 -6.0343633 6.025861
-5.939 -5.949881 -5.93537 0.0070969514 -6.0228205 -5.921886 0.024646306 -5.942638
-5.9149776 -5.950351 -5.9748683 -6.0145893 -5.968104 -6.028471 -5.9453845 -6.014502
-5.932571 -6.037911 -5.9691663 -5.918221 -6.021831 -5.969823 -5.9096227 -5.9254394
-5.9969273 -6.0024586 -6.0578885 6.0460534 -5.9872937 -6.017598 -5.954448 -22.954214
-5.9731693 -5.9601393 -6.0123587 -5.9088893 -5.963357 6.0056076 -6.0642133 -5.9816713
-5.927095 -6.0511217 -5.9138174 0.032890912 -6.0208073 -6.0111566 -6.04439 -6.0430317
-6.0462394 -5.9806814 -0.07156677 -5.985735 -6.0009427 -5.905931 5.9003735 -6.0237637
-6.055374 -5.906299 -5.909944 -6.046805 -6.0105147 -6.0411835 -5.9615173 -5.9832444
-6.068162 -6.0259814 -6.06251 -6.0605297 -5.9573884 -5.9564686 -5.971168 -6.0383587
-5.962553 -6.007598 -5.9810576 -5.9801874 6.01904 -5.9878955 0.028908173 -5.948375
-6.043144 -5.9704027 -6.0085125 -5.9122033 -5.9213834 -6.0537577 -6.012369 -6.0283017
00000000: 5a30 bd40 3279 91c0 a24e 93c0 4e46 d3c0
00000010: f479 c0c0 a362 8fc0 7bc1 90c0 3b9a c0c0
00000020: 8341 93c0 8c2c bfc0 28be d0c0 2ef6 cec0
00000030: c2d8 c040 a460 d0c0 84c0 92c0 cb6e d0c0
00000040: f822 91c0 cb17 d3c0 8559 cfc0 64d4 8fc0
00000050: 02aa d2c0 3be5 9dbd d4c0 c0c0 1af1 92c0
00000060: fc75 b0c0 5f1d 90c0 ec4f d3c0 0a77 91c0
00000070: e822 d1c0 b8e9 bdc0 ea15 bdc0 9a58 bec0
00000080: 9219 93c0 b07a c140 daf1 8fc0 1e89 90c0
00000090: 6b13 90c0 2230 93c0 0f06 94c0 5512 92c0
000000a0: e1fe 91c0 313f d1c0 1252 cfc0 0da2 bdc0
000000b0: 91d6 92c0 e1d0 8fc0 1edc cec0 40ad d0c0
000000c0: f42b bdc0 6c3d d0c0 3c4f bdc0 3d3c d3c0
000000d0: 8570 be40 f883 8fc0 ce23 d2c0 45bf d0c0
000000e0: 59c2 c140 cf6b d3c0 642e bfc0 9de5 cfc0
000000f0: 8c24 92c0 1640 d1c0 4b61 91c0 f3e5 92c0
00000100: 40e2 d0c0 1364 cfc0 8f7d 90c0 b002 d3c0
00000110: 37cf d2c0 a506 92c0 9d47 93c0 9ca6 93c0
00000120: 2c3e d0c0 94a4 c040 3c01 d1c0 ed24 92c0
00000130: 51d8 8fc0 d2d8 bd40 bba5 bfc0 9809 8fc0
00000140: 1a2e bec0 c19a d1c0 ce39 92c0 3a79 92c0
00000150: f2bc d0c0 c144 bdc0 7e8c d0c0 e5e3 8ec0
00000160: 3026 c2c0 5aa6 cfc0 5e3d 92c0 5399 92c0
00000170: 0bb3 cec0 cd40 90c0 5064 d0c0 242d bec0
00000180: b31c 0e3d c161 d2c0 a405 cfc0 85b2 cec0
00000190: fb5d d2c0 dfa8 bfc0 d927 c0c0 2eea bfc0
000001a0: cbe2 be40 586c d3c0 21c6 92c0 c8ad 93c0
000001b0: 93f4 bdc0 7a7f c1c0 ce7d bfc0 78ee 8fc0
000001c0: 5f1a d1c0 cde4 d1c0 fe13 d1c0 9390 cfc0
000001d0: c285 d0c0 c3d1 d2c0 9ef0 90c0 a3b3 bd40
000001e0: 3d96 cfc0 b1ad 90c0 18c4 d3c0 b708 8fc0
000001f0: d2a1 cfc0 5bf2 8ec0 15e2 bf40 2b5a 90c0
00000200: 9fe7 bd40 3714 92c0 2361 d0c0 a486 d2c0
00000210: aaa1 d3c0 11e8 c0c0 15cb 93c0 55dd d2c0
00000220: 5db7 bfc0 f0f0 8fc0 2250 3b3d 7757 d1c0
00000230: fad3 bfc0 0cba 92c0 23eb 93c0 e2f5 bf40
00000240: e61e 8fc0 d679 d0c0 a897 90c0 fb87 8fc0
00000250: 60b4 90c0 401b d2c0 e7ff c0c0 494a bdc0
00000260: aedc c0c0 6202 c2c0 63a2 c1c0 1ee7 bfc0
00000270: f11a c2c0 8882 c1c0 8ffd c1c0 b163 bdc0
00000280: 8a4b c1c0 f969 c0c0 7df6 bfc0 84b9 c040
00000290: 22e0 c1c0 ecc0 c1c0 8119 c1c0 dad3 c040
000002a0: 4a0c bec0 6d65 bec0 8dee bdc0 8b8d e83b
000002b0: f2ba c0c0 1780 bdc0 0de7 c93c 172a bec0
000002c0: 7f47 bdc0 4769 bec0 1f32 bfc0 8477 c0c0
000002d0: b5fa bec0 3ce9 c0c0 9740 bec0 cd76 c0c0
000002e0: 9fd7 bdc0 9136 c1c0 6903 bfc0 1162 bdc0
000002f0: d7b2 c0c0 ca08 bfc0 a11b bdc0 339d bdc0
00000300: d4e6 bfc0 2414 c0c0 39da c1c0 4579 c140
00000310: e997 bfc0 2a90 c0c0 d78a bec0 3ba2 b7c1
00000320: 3424 bfc0 76b9 bec0 3e65 c0c0 9f15 bdc0
00000330: d2d3 bec0 f02d c040 090e c2c0 da69 bfc0
00000340: c3aa bdc0 caa2 c1c0 fe3d bdc0 9fb8 063d
00000350: 74aa c0c0 655b c0c0 a56b c1c0 8460 c1c0
00000360: cb7a c1c0 be61 bfc0 9991 92bd 248b bfc0
00000370: b907 c0c0 63fd bcc0 dccf bc40 acc2 c0c0
00000380: a0c5 c1c0 6700 bdc0 431e bdc0 6d7f c1c0
00000390: 2356 c0c0 6051 c1c0 c0c4 bec0 bd76 bfc0
000003a0: 622e c2c0 d7d4 c0c0 1500 c2c0 dcef c1c0
000003b0: eda2 bec0 649b bec0 cf13 bfc0 3c3a c1c0
000003c0: 3ccd bec0 3e3e c0c0 d364 bfc0 b25d bfc0
000003d0: fa9b c040 d79c bfc0 d5d0 ec3c 1759 bec0
000003e0: 7061 c1c0 8a0d bfc0 bc45 c0c0 c530 bdc0
000003f0: f97b bdc0 62b8 c1c0 5465 c0c0 d9e7 c0c0

2.bias f4 [100]
-6.560364 -1.3288517 -9.184474 -27.097448 -26.526306 -31.392921 -6.6626143 -30.79967
-6.006474 -23.566645 -6.9389734 -6.62353 -4.5601177 -5.378387 -35.1198 -65.0346
-6.783167 -17.686596 -5.949488 -26.377356 -37.45586 -6.748344 -7.7156973 -6.023179
-37.45244 25.55903 -26.770224 -6.351444 -6.6368394 -37.523895 -37.111797 -38.86864
-6.4922 -8.159995 -6.519985 -18.61486 -6.0515466 -6.7631717 -6.3698616 -30.206396
-2.1600187 -6.02624 -31.61072 -4.902341 -3.042546 -6.0252604 21.129112 -31.29637
-28.95697 -37.724747 -5.833456 -36.662613 -6.04842 -35.540928 -5.980907 -24.308159
-47.717224 -5.3816957 -6.6399093 -6.065325 -37.430176 -37.494347 -6.2052984 -39.61481
-34.755882 -38.935825 -5.9354963 -6.382396 -7.9882665 -39.667774 -33.63218 -7.0350266
-6.495629 -34.400448 -5.9920816 -4.5109577 -6.327588 -54.001568 -6.6060843 -6.4000974
-5.732556 -6.6117015 -1.6111948 -6.4756413 -31.113894 -26.605701 -6.539706 -33.228836
-47.34736 -5.756051 -6.3583875 -5.784 -37.65349 -6.2112875 -4.8604198 25.514286
-11.3025 -5.7544117 -37.418518 -6.130977
00000000: 80ee d1c0 d017 aabf 9bf3 12c1 93c7 d8c1
00000010: e035 d4c1 b424 fbc1 2334 d5c0 b965 f6c1
00000020: 0935 c0c0 7d88 bcc1 120c dec0 f5f3 d3c0
00000030: 7cec 91c0 bf1b acc0 ad7a 0cc2 b711 82c2
00000040: b40f d9c0 267e 8dc1 3562 bec0 d304 d3c1
00000050: cdd2 15c2 6ff2 d7c0 fee6 f6c0 e2bd c0c0
00000060: 4ccf 15c2 e578 cc41 6b29 d6c1 073f cbc0
00000070: fd60 d4c0 7818 16c2 7b72 14c2 7d79 1bc2
00000080: 1ac0 cfc0 578f 02c1 b8a3 d0c0 3ceb 94c1
00000090: 45a6 c1c0 e76b d8c0 e8d5 cbc0 b3a6 f1c1
000000a0: bf3d 0ac0 f5d6 c0c0 c1e2 fcc1 fadf 9cc0
000000b0: 13b9 42c0 efce c0c0 6c08 a941 f75e fac1
000000c0: e0a7 e7c1 24e6 16c2 acab bac0 84a6 12c2
000000d0: a88c c1c0 e929 0ec2 9763 bfc0 1c77 c2c1
000000e0: 70de 3ec2 da36 acc0 237a d4c0 2417 c2c0
000000f0: 80b8 15c2 36fa 15c2 ce91 c6c0 9175 1ec2
00000100: 0606 0bc2 49be 1bc2 96ef bdc0 973c ccc0
00000110: e19f ffc0 cdab 1ec2 5a87 06c2 f01e e1c0
00000120: 31dc cfc0 0f9a 09c2 22bf bfc0 c459 90c0
00000130: 9a7b cac0 9b01 58c2 0b65 d3c0 99cd ccc0
00000140: 1971 b7c0 0f93 d3c0 a23b cebf 7438 cfc0
00000150: 41e9 f8c1 7ad8 d4c1 4645 d1c0 54ea 04c2
00000160: b263 3dc2 9231 b8c0 e977 cbc0 8716 b9c0
00000170: 2c9d 16c2 dec2 c6c0 8f88 9bc0 421d cc41
00000180: 0ad7 34c1 2424 b8c0 90ac 15c2 f730 c4c0

4.weight f4 [5, 100]
4.4743 11.197529 1.6346338 -10.586157 -6.032438 0.8824121 4.474577 2.2679873
-5.9346085 4.5125337 4.154914 4.590795 4.630077 5.341979 -26.935015 -30.406511
4.568586 -5.7722254 -5.987413 13.753055 -6.0827293 4.590647 4.451775 -6.055618
25.583847 0.006790757 4.4650373 4.606764 4.542169 -5.8953633 -0.081334725 3.4729075
4.5737085 4.4989257 4.6135125 4.4532804 -5.9518414 4.5188713 4.5291133 -13.416657
-2.0537112 4.568771 3.0113769 4.504635 1.0895396 -5.9025297 9.708852 2.5982857
-14.941652 -6.0300703 4.5887017 -8.911174 -6.03623 -0.7589913 4.4610825 4.5957985
-27.705702 -0.69815814 4.500676 -6.048572 -5.9215226 -5.976218 4.534113 1.3936591
-11.457122 4.4217668 -5.994944 4.6061363 3.3640215 -8.831577 -26.319592 4.6238995
4.494121 -31.47494 -5.9405456 4.638226 1.483735 -5.7917743 4.5526276 4.4544997
4.4729857 4.4407105 -0.3918119 4.5362606 2.950196 -11.091342 4.5646377 -22.124702
-27.923653 4.638418 4.516814 4.4519286 -5.920312 4.503841 4.56774 -6.0338197
4.473748 4.5291553 -5.8945856 4.5995984 -4.5136037 -28.966475 -6.4911056 -15.880603
5.995346 5.853468 2.6429045 -1.1589388 -5.976743 0.36466372 -4.6061797 -1.8981456
-6.5124083 5.256471 -4.459075 -1.5638454 -1.2801584 7.2172637 -5.934262 14.346901
6.0092425 3.4581563 -3.1561155 -5.912215 5.9960265 -5.923495 -1.322266 -0.9516011
-2.036117 -5.9449015 -5.564767 2.8235564 4.568819 -1.1921525 6.402252 1.1477807
-5.9850116 6.16311 7.6545305 -14.4910555 16.39073 0.5862546 0.80146176 -6.4875517
-0.9020168 -5.9641776 8.789576 1.0416 -19.73459 -25.704054 3.8671203 -15.362215
-5.9253426 -0.83793354 0.5106514 13.75211 6.698307 4.095188 -2.6391878 6.008761
6.0122957 6.020983 3.9322004 2.6836376 -14.978557 -4.5536118 -5.9407215 3.50985
3.0602689 -19.90057 0.038711358 15.415785 -4.5222173 -5.9103694 6.0306706 -6.4710274
4.571686 -8.457322 -2.417328 -1.8477037 3.9881434 -2.4886062 1.6292404 -6.453379
-1.8362689 -15.920688 -6.6138573 5.742461 -15.544282 0.8203585 -1.6000488 -1.698604
-25.702576 -1.7131448 -4.598193 -5.964781 -4.558847 3.5883396 -5.992367 1.9159164
4.571204 -22.919672 4.546921 -7.716404 -5.9651294 -10.868696 4.497417 -6.1057343
-5.970461 4.4438086 4.5209723 4.481128 4.493216 5.427296 -26.90645 -3.2154546
4.449384 14.282698 -5.9600525 3.5781033 -5.8884377 4.4501443 4.532486 -5.97775
-5.9756 -31.475832 4.4558268 4.522142 4.4468427 -5.954144 -25.967854 -0.9193152
4.49814 5.5801253 4.47019 4.483647 -5.889338 4.5306964 4.4562345 -4.8830643
0.074210174 4.4718 -2.8215535 4.5492783 1.6979635 -6.0211396 9.207652 -4.0755553
-11.937999 -5.955292 4.5706553 1.5751803 -5.9028096 -29.011763 4.5005164 5.5390997
00000000: 772d 8f40 1429 3341 ae3b d13f e660 29c1
00000010: bb09 c1c0 c2e5 613f bc2f 8f40 b426 1140
00000020: 50e8 bdc0 ad66 9040 0ef5 8440 cbe7 9240
00000030: 9729 9440 7ef1 aa40 e97a d7c1 8940 f3c1
00000040: db31 9240 12b6 b8c0 e398 bfc0 830c 5c41
00000050: b8a5 c2c0 95e6 9240 f174 8e40 9fc7 c1c0
00000060: b8ab cc41 0085 de3b 96e1 8e40 9c6a 9340
00000070: 7359 9140 d1a6 bcc0 d292 a6bd 1e44 5e40
00000080: d25b 9240 33f7 8f40 e5a1 9340 4681 8e40
00000090: 7c75 bec0 989a 9040 7fee 9040 a1aa 56c1
000000a0: 0170 03c0 5f33 9240 66ba 4040 f825 9040
000000b0: 0976 8b3f 86e1 bcc0 7557 1b41 504a 2640
000000c0: 0211 6fc1 56f6 c0c0 a5d6 9240 2b94 0ec1
000000d0: cc28 c1c0 414d 42bf 30c1 8e40 c810 9340
000000e0: 47a5 ddc1 7eba 32bf 8a05 9040 e78d c1c0
000000f0: 1d7d bdc0 2e3d bfc0 7417 9140 6c63 b23f
00000100: 5f50 37c1 1d7f 8d40 95d6 bfc0 7865 9340
00000110: 214c 5740 244e 0dc1 868e d2c1 fcf6 9340
00000120: d7cf 8f40 adcc fbc1 f318 bec0 596c 9440
00000130: 07eb bd3f 3756 b9c0 20af 9140 438b 8e40
00000140: b322 8f40 4d1a 8e40 929b c8be 0c29 9140
00000150: 03d0 3c40 2376 31c1 8311 9240 64ff b0c1
00000160: a463 dfc1 ec6d 9440 be89 9040 3376 8e40
00000170: 3273 bdc0 771f 9040 ed2a 9240 0d15 c1c0
00000180: f228 8f40 d7ee 9040 72a0 bcc0 e92f 9340
00000190: 716f 90c0 57bb e7c1 23b7 cfc0 f316 7ec1
000001a0: e0d9 bf40 9c4f bb40 5925 2940 1b58 94bf
000001b0: 7b41 bfc0 34b5 ba3e d365 93c0 6ff6 f2bf
000001c0: a665 d0c0 0335 a840 beb0 8ec0 162c c8bf
000001d0: 3bdc a3bf d3f3 e640 79e5 bdc0 e88c 6541
000001e0: b74b c040 6f52 5d40 ccfd 49c0 de30 bdc0
000001f0: 73df bf40 458d bdc0 0340 a9bf 219c 73bf
00000200: be4f 02c0 a23c bec0 9212 b2c0 26b5 3440
00000210: c433 9240 7498 98bf 40df cc40 7aea 923f
00000220: 3785 bfc0 3238 c540 eaf1 f440 5ddb 67c1
00000230: 3720 8341 c814 163f 992c 4d3f 069a cfc0
00000240: 93ea 66bf 8bda bec0 1aa2 0c41 2653 853f
00000250: 71e0 9dc1 e7a1 cdc1 e67e 7740 a2cb 75c1
00000260: 689c bdc0 d082 56bf 0dba 023f a408 5c41
00000270: 8858 d640 c80b 8340 74e8 28c0 c547 c040
00000280: ba64 c040 e5ab c040 2ca9 7b40 b8c0 2b40
00000290: 2ba8 6fc1 30b7 91c0 641a bec0 62a1 6040
000002a0: 72db 4340 5e34 9fc1 cd8f 1e3d 0ea7 7641
000002b0: 01b6 90c0 bf21 bdc0 41fb c040 a812 cfc0
000002c0: 404b 9240 3151 07c1 80b5 1ac0 8e81 ecbf
000002d0: be3d 7f40 5345 1fc0 f38a d03f 1582 cec0
000002e0: dc0a ebbf 23bb 7ec1 b8a4 d3c0 3ec2 b740
000002f0: 61b5 78c1 0403 523f 66ce ccbf db6b d9bf
00000300: e09e cdc1 5448 dbbf 6624 93c0 7cdf bec0
00000310: 13e2 91c0 5ba7 6540 78c1 bfc0 c03c f53f
00000320: 4e47 9240 7d5b b7c1 6080 9140 c8ec f6c0
00000330: 57e2 bec0 2ee6 2dc1 d7ea 8f40 2d62 c3c0
00000340: 040e bfc0 ae33 8e40 ceab 9040 6765 8f40
00000350: 6dc8 8f40 69ac ad40 6940 d7c1 02ca 4dc0
00000360: 5b61 8e40 ee85 6441 c0b8 bec0 a5ff 6440
00000370: 156e bcc0 9567 8e40 200a 9140 ba49 bfc0
00000380: 1d38 bfc0 81ce fbc1 2296 8e40 63b5 9040
00000390: 894c 8e40 5988 bec0 2abe cfc1 3e58 6bbf
000003a0: c3f0 8f40 6390 b240 cc0b 8f40 097a 8f40
000003b0: 7575 bcc0 77fb 9040 7999 8e40 1042 9cc0
000003c0: 81fb 973d fc18 8f40 5594 34c0 b093 9140
000003d0: de56 d93f 2dad c0c0 8b52 1341 f36a 82c0
000003e0: 0b02 3fc1 c191 bec0 cf42 9240 829f c93f
000003f0: d1e3 bcc0 1718 e8c1 3b04 9040 4e40 b140

4.bias f4 [5]
3561.2598 3559.3972 3489.103 3556.383 3767.8813
00000000: 2894 5e45 5b76 5e45 a611 5a45 2146 5e45
00000010: 1a7e 6b45

0.weight f4 [150, 11]
-5.8911376 -5.7681093 -6.189675 -6.247744 -5.8065996 -5.836922 -6.0613947 -5.7054653
5.776444 6.0923805 6.104147 -6.5266924 -4.6359406 -6.3450575 -6.5201488 -6.3972588
-6.4822655 -4.5501065 4.790032 4.2929516 4.681928 4.3703785 -6.621235 -6.505486
-5.69353 -5.9754467 -5.858004 -5.7510414 -6.3388386 4.79754 4.3829365 4.633608
4.381987 -7.085349 -6.4785676 -4.5911174 -6.8298955 -6.638033 -4.822222 -7.7135463
-4.2132697 4.403549 -4.288304 6.4587092 -5.9996023 -5.904577 -6.2458787 -6.0600705
-5.9277864 -5.7800527 -5.9329047 -5.9305677 6.0608706 5.7595234 5.956041 -4.5565176
-6.396862 -6.462516 -6.551937 -4.709825 -4.480774 -6.7350817 6.263318 4.27528
4.70929 4.6778755 -6.466924 -4.6060724 -6.551316 -4.514935 -4.5586348 -4.5063734
-6.2994075 -4.478926 4.5242705 6.7186036 6.672736 -29.027391 -28.980766 -28.864578
-28.705809 -6.1070223 -6.281701 -5.7393413 16.849504 17.304611 2.3844173 4.001984
-6.4520245 -6.4429474 -9.49179 -4.768441 -2.142966 -5.877658 -6.402808 6.6779785
-4.306209 6.121051 -4.337393 -6.227575 -5.8343716 -6.209927 -6.2462993 0.045775723
-5.9857497 -6.2016954 -5.869326 5.9512553 5.745897 5.8152447 -4.791931 -6.49386
-4.365413 -4.523404 -4.723461 -4.8449326 -4.7838607 6.497059 -4.522691 5.9329786
0.4653772 -6.586289 -13.857725 -13.731519 -6.2874722 -5.736401 -6.216561 -6.465986
4.619427 -4.5855813 4.732777 -4.6648602 -6.2152467 -26.092262 -23.728943 -25.09217
-13.3017235 -24.111889 -25.971375 -13.017446 -14.043038 -11.92237 -13.944278 -4.631124
-4.6902094 -4.652423 -4.28554 -4.3369484 -4.7300415 -4.642311 6.4048953 6.3780036
6.3893337 6.5583386 -4.2893205 -4.307224 -4.5668325 -4.504113 -4.56467 -4.8266883
-4.3139777 4.4118805 4.5184546 4.6143217 4.261891 -6.757812 -6.3187084 -5.9641004
-6.0517306 -5.9485736 -5.9201055 -6.2423606 4.5299053 -4.3700113 4.5699744 4.304507
-4.4052157 -4.59996 -4.402368 -4.5345635 -4.530192 -4.578648 -4.385791 6.6399655
4.561175 6.448257 4.5111394 -6.5177073 -6.7167387 -6.642473 -4.260767 -5.8434043
-6.5987754 -4.5372624 4.582379 -4.537661 -4.3553658 -4.2956624 -4.2659397 -4.4630113
-4.7763247 -4.5445237 -4.831383 -4.554219 -4.7936997 6.7929463 4.5501294 4.3564568
4.321488 -4.5233173 -4.4933424 -4.3317714 -4.580312 -4.3120427 -4.6476574 -4.757055
6.616127 4.529468 6.494729 4.7143908 -6.360153 -4.69444 -4.5965285 -6.516454
-6.7132435 -4.660575 -6.4258637 -4.45663 4.8158975 6.64063 4.5219245 -15.436557
-13.543945 -13.301035 -16.328045 -24.96672 -6.5297265 -1.4545842 18.825539 18.162888
16.984911 14.089153 -6.0098724 -6.103355 -5.9698024 -6.1709313 -0.2340544 -5.8637915
-6.233268 5.9783382 6.0516276 5.9042506 5.783428 -4.5956235 -4.7250247 -4.213271
00000000: 3384 bcc0 5a94 b8c0 d111 c6c0 85ed c7c0
00000010: aacf b9c0 11c8 bac0 f2f6 c1c0 2c93 b6c0
00000020: a1d8 b840 c8f4 c240 2c55 c340 aada d0c0
00000030: a059 94c0 b60a cbc0 0fa5 d0c0 58b6 ccc0
00000040: b86e cfc0 799a 91c0 f147 9940 dc5f 8940
00000050: 5bd2 9540 24da 8b40 28e1 d3c0 f12c d0c0
00000060: 6631 b6c0 dc36 bfc0 c574 bbc0 8808 b8c0
00000070: c4d7 cac0 7385 9940 0441 8c40 8446 9440
00000080: 3d39 8c40 2ebb e2c0 6d50 cfc0 6fea 92c0
00000090: 818e dac0 c46a d4c0 a54f 9ac0 5fd5 f6c0
000000a0: 1bd3 86c0 e0e9 8c40 c939 89c0 bfad ce40
000000b0: befc bfc0 4bf2 bcc0 3dde c7c0 19ec c1c0
000000c0: 6db0 bdc0 31f6 b8c0 5bda bdc0 36c7 bdc0
000000d0: a7f2 c140 044e b840 e397 be40 fece 91c0
000000e0: 18b3 ccc0 eecc cec0 78a9 d1c0 e3b6 96c0
000000f0: 8062 8fc0 ca85 d7c0 1a6d c840 18cf 8840
00000100: 81b2 9640 28b1 9540 0bf1 cec0 f264 93c0
00000110: 61a4 d1c0 597a 90c0 56e0 91c0 3634 90c0
00000120: bf94 c9c0 5d53 8fc0 d3c6 9040 cdfe d640
00000130: 0e87 d540 1938 e8c1 9cd8 e7c1 a8ea e6c1
00000140: 7fa5 e5c1 ba6c c3c0 b203 c9c0 afa8 b7c0
00000150: c9cb 8641 d86f 8a41 4b9a 1840 4110 8040
00000160: fc76 cec0 a02c cec0 5fde 17c1 1297 98c0
00000170: 5b26 09c0 c615 bcc0 cee3 ccc0 00b2 d540
00000180: 77cc 89c0 a6df c340 eccb 8ac0 4b48 c7c0
00000190: 2cb3 bac0 b9b7 c6c0 afe1 c7c0 537f 3b3d
000001a0: 438b bfc0 4a74 c6c0 85d1 bbc0 af70 be40
000001b0: 63de b740 7c16 ba40 8057 99c0 b3cd cfc0
000001c0: 77b1 8bc0 babf 90c0 9826 97c0 b009 9bc0
000001d0: 6315 99c0 e8e7 cf40 e2b9 90c0 f6da bd40
000001e0: ec45 ee3e e1c2 d2c0 3eb9 5dc1 4db4 5bc1
000001f0: f932 c9c0 9990 b7c0 11ee c6c0 5be9 cec0
00000200: 59d2 9340 15bd 92c0 e972 9740 8946 95c0
00000210: 4de3 c6c0 f4bc d0c1 e0d4 bdc1 c4bc c8c1
00000220: dcd3 54c1 26e5 c0c1 60c5 cfc1 7547 50c1
00000230: 49b0 60c1 07c2 3ec1 c31b 5fc1 2b32 94c0
00000240: 3216 96c0 a6e0 94c0 2523 89c0 48c8 8ac0
00000250: 805c 97c0 d08d 94c0 e7f4 cc40 9b18 cc40
00000260: 6c75 cc40 e9dd d140 1d42 89c0 c7d4 89c0
00000270: 7e23 92c0 b221 90c0 c711 92c0 3b74 9ac0
00000280: 1b0c 8ac0 202e 8d40 2e97 9040 86a8 9340
00000290: 6961 8840 ff3f d8c0 dc32 cac0 e9d9 bec0
000002a0: c7a7 c1c0 b75a bec0 8171 bdc0 6bc1 c7c0
000002b0: fcf4 9040 22d7 8bc0 3b3d 9240 85be 8940
000002c0: 87f7 8cc0 df32 93c0 33e0 8cc0 251b 91c0
000002d0: 55f7 90c0 4984 92c0 6658 8cc0 997a d440
000002e0: 25f5 9140 1f58 ce40 415b 9040 0f91 d0c0
000002f0: 86ef d6c0 248f d4c0 3458 88c0 2bfd bac0
00000300: 2b29 d3c0 4131 91c0 d9a2 9240 8534 91c0
00000310: 285f 8bc0 1176 89c0 9482 88c0 fdd0 8ec0
00000320: a7d7 98c0 bd6c 91c0 b19a 9ac0 29bc 91c0
00000330: fd65 99c0 d15f d940 a99a 9140 1868 8b40
00000340: a149 8a40 04bf 90c0 76c9 8fc0 df9d 8ac0
00000350: ea91 92c0 41fc 89c0 9cb9 94c0 cb39 98c0
00000360: 50b7 d340 67f1 9040 d2d4 cf40 4adc 9640
00000370: 6086 cbc0 da38 96c0 c316 93c0 cb86 d0c0
00000380: e4d2 d6c0 6e23 95c0 ada0 cdc0 b79c 8ec0
00000390: d51b 9a40 0a80 d440 9bb3 9040 23fc 76c1
000003a0: 00b4 58c1 0ad1 54c1 d69f 82c1 d8bb c7c1
000003b0: 85f3 d0c0 d12f babf b49a 9641 984d 9141
000003c0: 19e1 8741 2c6d 6141 e050 c0c0 af4e c3c0
000003d0: 9f08 bfc0 4578 c5c0 f5ab 6fbe 2ea4 bbc0
000003e0: ee76 c7c0 8c4e bf40 efa6 c140 9fef bc40
000003f0: d811 b940 590f 93c0 6733 97c0 1ed3 86c0

0.bias f4 [150]
-5.968824 -4.488009 -6.3684263 -6.4989014 -6.0183616 -4.7355504 -4.6959414 -39.15473
-6.670045 -6.278562 -6.3598166 -6.286369 -26.01284 -4.4190974 -4.4973 -6.2457023
-4.740155 -4.72766 -4.5648727 -4.400358 -6.7497697 -12.560777 -5.8878217 -4.454313
-6.1156816 -6.734611 -6.7377343 -4.363899 -4.347987 -5.877847 -69.1345 -40.68399
-4.3144655 -6.319618 -4.7207537 -4.377968 -6.4100704 -6.582627 -4.7710366 -6.407043
-6.325796 -6.316614 -4.359178 -5.929581 -4.325972 -7.7132587 -6.243899 -6.617055
-5.8141046 59.847473 -6.1065183 -6.6030927 -28.65028 -4.7020903 -4.465113 -4.5928054
-5.9566746 -6.610991 -5.6981816 -6.7631707 -4.3241897 -6.8156137 -4.6604586 -4.529134
-4.440586 -6.481225 -4.5806117 -6.732918 -5.0693316 -4.583326 -4.7374005 -6.5609317
-6.6173306 -6.2164636 -4.330921 -6.5918756 -6.3821898 -5.7983766 -6.0041533 -4.2747974
-5.7008324 -4.568902 -4.2628736 -4.7750354 -4.648158 -69.23045 -6.520567 -4.579502
-22.446215 -4.528077 -4.285102 -4.3772006 -4.660962 -5.698597 -4.8973784 -6.0695844
-14.21399 -4.417692 -4.4737997 -6.597029 -4.728821 -7.298037 -5.774437 -6.089372
-6.15559 -4.264227 -4.6448107 -4.705767 -5.809285 -6.187454 -6.311744 -4.5846868
-4.8066716 -4.3942747 -4.416644 -6.267698 -4.268542 -6.4416995 -4.745498 -6.1881437
-6.7555575 -4.465493 -4.2864056 -4.374732 -4.288541 -4.800405 -6.2490935 -4.234857
-6.028471 -6.5974736 -4.303139 -14.803787 -4.491965 -8.776888 -4.7763786 -4.7330246
-5.9034305 -6.4787846 -22.532333 -6.3437915 -6.266721 -4.4414196 -6.366503 -5.800639
-6.742719 -4.565302 -4.556921 -6.30102 -4.2667603 -6.5327086
00000000: 9b00 bfc0 c59d 8fc0 26ca cbc0 00f7 cfc0
00000010: 6b96 c0c0 a189 97c0 2745 96c0 729e 1cc2
00000020: 0271 d5c0 fbe9 c8c0 9e83 cbc0 ef29 c9c0
00000030: 4c1a d0c1 3f69 8dc0 e2e9 8fc0 cbdc c7c0
00000040: 5aaf 97c0 fe48 97c0 7013 92c0 bccf 8cc0
00000050: 1dfe d7c0 f1f8 48c1 0969 bcc0 bb89 8ec0
00000060: aab3 c3c0 ef81 d7c0 859b d7c0 10a5 8bc0
00000070: b622 8bc0 5317 bcc0 dd44 8ac2 68bc 22c2
00000080: 1a10 8ac0 503a cac0 6a10 97c0 5018 8cc0
00000090: 4c1f cdc0 e1a4 d2c0 55ac 98c0 7f06 cdc0
000000a0: ec6c cac0 b421 cac0 637e 8bc0 21bf bdc0
000000b0: 5d6e 8ac0 04d3 f6c0 05ce c7c0 eabe d3c0
000000c0: 250d bac0 d063 6f42 9968 c3c0 894c d3c0
000000d0: c633 e5c1 8677 96c0 35e2 8ec0 43f8 92c0
000000e0: 149d bec0 3d8d d3c0 8157 b6c0 e56b d8c0
000000f0: c35f 8ac0 8219 dac0 7a22 95c0 aaee 90c0
00000100: 4819 8ec0 3266 cfc0 5f94 92c0 1074 d7c0
00000110: f737 a2c0 9baa 92c0 c998 97c0 27f3 d1c0
00000120: 2cc1 d3c0 45ed c6c0 e896 8ac0 a5f0 d2c0
00000130: e63a ccc0 4d8c b9c0 0622 c0c0 24cb 88c0
00000140: 386d b6c0 7234 92c0 7669 88c0 17cd 98c0
00000150: b6bd 94c0 fe75 8ac2 7ca8 d0c0 488b 92c0
00000160: d991 b3c1 02e6 90c0 8e1f 89c0 0712 8cc0
00000170: 9a26 95c0 e85a b6c0 53b7 9cc0 093a c2c0
00000180: 816c 63c1 bc5d 8dc0 5e29 8fc0 dd1a d3c0
00000190: 8052 97c0 8589 e9c0 30c8 b8c0 23dc c2c0
000001a0: 98fa c4c0 8c74 88c0 4aa2 94c0 a595 96c0
000001b0: aae5 b9c0 a0ff c5c0 cff9 c9c0 c1b5 92c0
000001c0: 41d0 99c0 e69d 8cc0 2655 8dc0 fb90 c8c0
000001d0: e597 88c0 6722 cec0 1fdb 97c0 4605 c6c0
000001e0: 872d d8c0 52e5 8ec0 3c2a 89c0 cefd 8bc0
000001f0: ba3b 89c0 eb9c 99c0 93f8 c7c0 f383 87c0
00000200: 3ce9 c0c0 811e d3c0 51b3 89c0 50dc 6cc1
00000210: 2dbe 8fc0 226e 0cc1 18d8 98c0 f074 97c0
00000220: e7e8 bcc0 3452 cfc0 3842 b4c1 5700 cbc0
00000230: fa88 c8c0 1c20 8ec0 64ba cbc0 d69e b9c0
00000240: 5bc4 d7c0 f416 92c0 4cd2 91c0 f5a1 c9c0
00000250: 4d89 88c0 f30b d1c0

2.weight f4 [100, 150]
5.9121523 -4.5460443 -4.6033487 -6.602332 -6.014887 -4.4807906 -4.523618 -6.018827
-4.601747 -5.974188 -6.5232124 -6.467551 6.0264597 -6.511797 -4.5860004 -6.5135245
-4.5355186 -6.5966544 -6.4796777 -4.4946766 -6.583253 -0.07709738 -6.0235386 -4.5919313
-5.5144024 -4.5035853 -6.603506 -4.545781 -6.535511 -5.93478 -5.908925 -5.9483156
-4.5968714 6.0462265 -4.498273 -4.516738 -4.5023704 -4.5996256 -4.6257396 -4.564738
-4.562363 -6.538964 -6.4787683 -5.9260316 -4.588692 -4.494248 -6.46437 -6.5211487
-5.9116154 -6.507498 -5.915922 -6.6011033 5.9512353 -4.4848595 -6.5668707 -6.5233483
6.054974 -6.60691 -5.974413 -6.496779 -4.5669613 -6.539073 -4.5431266 -4.59057
-6.5276184 -6.480966 -4.515327 -6.594078 -6.587795 -4.563311 -4.602492 -4.614088
-6.5075893 6.02009 -6.5314007 -4.5670075 -4.495156 5.9327173 -5.988981 -4.469921
-5.9431276 -6.550141 -4.569556 -4.577298 -6.5230646 -5.914643 -6.51715 -4.465319
-6.0671616 -6.4890566 -4.569991 -4.5812163 -6.459356 -4.5079103 -6.512245 -5.9430103
0.03469534 -6.574433 -6.4694386 -6.459292 -6.573972 -5.989364 -6.004864 -5.9973364
5.9651847 -6.6069756 -4.5866857 -4.6149635 -5.9361053 -6.046811 -5.984107 -4.49786
-6.534469 -6.55918 -6.5336905 -6.486398 -6.516328 -6.5881057 -4.529372 5.9281783
-6.4870896 -4.5212026 -6.617687 -4.469814 -6.4885035 -4.4670844 5.996348 -4.511007
5.934524 -4.5649676 -6.5118575 -6.5789356 -6.6134844 -6.0283284 -4.6185403 -6.589518
-5.991133 -4.4981613 0.045730717 -6.541927 -5.994626 -4.585211 -4.622453 5.998765
-4.472522 -6.5148726 -4.5185127 -4.485349 -4.5220184 -6.5658264 -6.031238 -5.915318
-6.0269384 -6.062791 -6.0510726 -5.9969625 -6.0657887 -6.047184 -6.062202 -5.9184194
-6.040471 -6.012936 -5.998839 6.022646 -6.05861 -6.0548 -6.0343633 6.025861
-5.939 -5.949881 -5.93537 0.0070969514 -6.0228205 -5.921886 0.024646306 -5.942638
-5.9149776 -5.950351 -5.9748683 -6.0145893 -5.968104 -6.028471 -5.9453845 -6.014502
-5.932571 -6.037911 -5.9691663 -5.918221 -6.021831 -5.969823 -5.9096227 -5.9254394
-5.9969273 -6.0024586 -6.0578885 6.0460534 -5.9872937 -6.017598 -5.954448 -22.954214
-5.9731693 -5.9601393 -6.0123587 -5.9088893 -5.963357 6.0056076 -6.0642133 -5.9816713
-5.927095 -6.0511217 -5.9138174 0.032890912 -6.0208073 -6.0111566 -6.04439 -6.0430317
-6.0462394 -5.9806814 -0.07156677 -5.985735 -6.0009427 -5.905931 5.9003735 -6.0237637
-6.055374 -5.906299 -5.909944 -6.046805 -6.0105147 -6.0411835 -5.9615173 -5.9832444
-6.068162 -6.0259814 -6.06251 -6.0605297 -5.9573884 -5.9564686 -5.971168 -6.0383587
-5.962553 -6.007598 -5.9810576 -5.9801874 6.01904 -5.9878955 0.028908173 -5.948375
-6.043144 -5.9704027 -6.0085125 -5.9122033 -5.9213834 -6.0537577 -6.012369 -6.0283017
00000000: 5a30 bd40 3279 91c0 a24e 93c0 4e46 d3c0
00000010: f479 c0c0 a362 8fc0 7bc1 90c0 3b9a c0c0
00000020: 8341 93c0 8c2c bfc0 28be d0c0 2ef6 cec0
00000030: c2d8 c040 a460 d0c0 84c0 92c0 cb6e d0c0
00000040: f822 91c0 cb17 d3c0 8559 cfc0 64d4 8fc0
00000050: 02aa d2c0 3be5 9dbd d4c0 c0c0 1af1 92c0
00000060: fc75 b0c0 5f1d 90c0 ec4f d3c0 0a77 91c0
00000070: e822 d1c0 b8e9 bdc0 ea15 bdc0 9a58 bec0
00000080: 9219 93c0 b07a c140 daf1 8fc0 1e89 90c0
00000090: 6b13 90c0 2230 93c0 0f06 94c0 5512 92c0
000000a0: e1fe 91c0 313f d1c0 1252 cfc0 0da2 bdc0
000000b0: 91d6 92c0 e1d0 8fc0 1edc cec0 40ad d0c0
000000c0: f42b bdc0 6c3d d0c0 3c4f bdc0 3d3c d3c0
000000d0: 8570 be40 f883 8fc0 ce23 d2c0 45bf d0c0
000000e0: 59c2 c140 cf6b d3c0 642e bfc0 9de5 cfc0
000000f0: 8c24 92c0 1640 d1c0 4b61 91c0 f3e5 92c0
00000100: 40e2 d0c0 1364 cfc0 8f7d 90c0 b002 d3c0
00000110: 37cf d2c0 a506 92c0 9d47 93c0 9ca6 93c0
00000120: 2c3e d0c0 94a4 c040 3c01 d1c0 ed24 92c0
00000130: 51d8 8fc0 d2d8 bd40 bba5 bfc0 9809 8fc0
00000140: 1a2e bec0 c19a d1c0 ce39 92c0 3a79 92c0
00000150: f2bc d0c0 c144 bdc0 7e8c d0c0 e5e3 8ec0
00000160: 3026 c2c0 5aa6 cfc0 5e3d 92c0 5399 92c0
00000170: 0bb3 cec0 cd40 90c0 5064 d0c0 242d bec0
00000180: b31c 0e3d c161 d2c0 a405 cfc0 85b2 cec0
00000190: fb5d d2c0 dfa8 bfc0 d927 c0c0 2eea bfc0
000001a0: cbe2 be40 586c d3c0 21c6 92c0 c8ad 93c0
000001b0: 93f4 bdc0 7a7f c1c0 ce7d bfc0 78ee 8fc0
000001c0: 5f1a d1c0 cde4 d1c0 fe13 d1c0 9390 cfc0
000001d0: c285 d0c0 c3d1 d2c0 9ef0 90c0 a3b3 bd40
000001e0: 3d96 cfc0 b1ad 90c0 18c4 d3c0 b708 8fc0
000001f0: d2a1 cfc0 5bf2 8ec0 15e2 bf40 2b5a 90c0
00000200: 9fe7 bd40 3714 92c0 2361 d0c0 a486 d2c0
00000210: aaa1 d3c0 11e8 c0c0 15cb 93c0 55dd d2c0
00000220: 5db7 bfc0 f0f0 8fc0 2250 3b3d 7757 d1c0
00000230: fad3 bfc0 0cba 92c0 23eb 93c0 e2f5 bf40
00000240: e61e 8fc0 d679 d0c0 a897 90c0 fb87 8fc0
00000250: 60b4 90c0 401b d2c0 e7ff c0c0 494a bdc0
00000260: aedc c0c0 6202 c2c0 63a2 c1c0 1ee7 bfc0
00000270: f11a c2c0 8882 c1c0 8ffd c1c0 b163 bdc0
00000280: 8a4b c1c0 f969 c0c0 7df6 bfc0 84b9 c040
00000290: 22e0 c1c0 ecc0 c1c0 8119 c1c0 dad3 c040
000002a0: 4a0c bec0 6d65 bec0 8dee bdc0 8b8d e83b
000002b0: f2ba c0c0 1780 bdc0 0de7 c93c 172a bec0
000002c0: 7f47 bdc0 4769 bec0 1f32 bfc0 8477 c0c0
000002d0: b5fa bec0 3ce9 c0c0 9740 bec0 cd76 c0c0
000002e0: 9fd7 bdc0 9136 c1c0 6903 bfc0 1162 bdc0
000002f0: d7b2 c0c0 ca08 bfc0 a11b bdc0 339d bdc0
00000300: d4e6 bfc0 2414 c0c0 39da c1c0 4579 c140
00000310: e997 bfc0 2a90 c0c0 d78a bec0 3ba2 b7c1
00000320: 3424 bfc0 76b9 bec0 3e65 c0c0 9f15 bdc0
00000330: d2d3 bec0 f02d c040 090e c2c0 da69 bfc0
00000340: c3aa bdc0 caa2 c1c0 fe3d bdc0 9fb8 063d
00000350: 74aa c0c0 655b c0c0 a56b c1c0 8460 c1c0
00000360: cb7a c1c0 be61 bfc0 9991 92bd 248b bfc0
00000370: b907 c0c0 63fd bcc0 dccf bc40 acc2 c0c0
00000380: a0c5 c1c0 6700 bdc0 431e bdc0 6d7f c1c0
00000390: 2356 c0c0 6051 c1c0 c0c4 bec0 bd76 bfc0
000003a0: 622e c2c0 d7d4 c0c0 1500 c2c0 dcef c1c0
000003b0: eda2 bec0 649b bec0 cf13 bfc0 3c3a c1c0
000003c0: 3ccd bec0 3e3e c0c0 d364 bfc0 b25d bfc0
000003d0: fa9b c040 d79c bfc0 d5d0 ec3c 1759 bec0
000003e0: 7061 c1c0 8a0d bfc0 bc45 c0c0 c530 bdc0
000003f0: f97b bdc0 62b8 c1c0 5465 c0c0 d9e7 c0c0

2.bias f4 [100]
-6.560364 -1.3288517 -9.184474 -27.097448 -26.526306 -31.392921 -6.6626143 -30.79967
-6.006474 -23.566645 -6.9389734 -6.62353 -4.5601177 -5.378387 -35.1198 -65.0346
-6.783167 -17.686596 -5.949488 -26.377356 -37.45586 -6.748344 -7.7156973 -6.023179
-37.45244 25.55903 -26.770224 -6.351444 -6.6368394 -37.523895 -37.111797 -38.86864
-6.4922 -8.159995 -6.519985 -18.61486 -6.0515466 -6.7631717 -6.3698616 -30.206396
-2.1600187 -6.02624 -31.61072 -4.902341 -3.042546 -6.0252604 21.129112 -31.29637
-28.95697 -37.724747 -5.833456 -36.662613 -6.04842 -35.540928 -5.980907 -24.308159
-47.717224 -5.3816957 -6.6399093 -6.065325 -37.430176 -37.494347 -6.2052984 -39.61481
-34.755882 -38.935825 -5.9354963 -6.382396 -7.9882665 -39.667774 -33.63218 -7.0350266
-6.495629 -34.400448 -5.9920816 -4.5109577 -6.327588 -54.001568 -6.6060843 -6.4000974
-5.732556 -6.6117015 -1.6111948 -6.4756413 -31.113894 -26.605701 -6.539706 -33.228836
-47.34736 -5.756051 -6.3583875 -5.784 -37.65349 -6.2112875 -4.8604198 25.514286
-11.3025 -5.7544117 -37.418518 -6.130977
00000000: 80ee d1c0 d017 aabf 9bf3 12c1 93c7 d8c1
00000010: e035 d4c1 b424 fbc1 2334 d5c0 b965 f6c1
00000020: 0935 c0c0 7d88 bcc1 120c dec0 f5f3 d3c0
00000030: 7cec 91c0 bf1b acc0 ad7a 0cc2 b711 82c2
00000040: b40f d9c0 267e 8dc1 3562 bec0 d304 d3c1
00000050: cdd2 15c2 6ff2 d7c0 fee6 f6c0 e2bd c0c0
00000060: 4ccf 15c2 e578 cc41 6b29 d6c1 073f cbc0
00000070: fd60 d4c0 7818 16c2 7b72 14c2 7d79 1bc2
00000080: 1ac0 cfc0 578f 02c1 b8a3 d0c0 3ceb 94c1
00000090: 45a6 c1c0 e76b d8c0 e8d5 cbc0 b3a6 f1c1
000000a0: bf3d 0ac0 f5d6 c0c0 c1e2 fcc1 fadf 9cc0
000000b0: 13b9 42c0 efce c0c0 6c08 a941 f75e fac1
000000c0: e0a7 e7c1 24e6 16c2 acab bac0 84a6 12c2
000000d0: a88c c1c0 e929 0ec2 9763 bfc0 1c77 c2c1
000000e0: 70de 3ec2 da36 acc0 237a d4c0 2417 c2c0
000000f0: 80b8 15c2 36fa 15c2 ce91 c6c0 9175 1ec2
00000100: 0606 0bc2 49be 1bc2 96ef bdc0 973c ccc0
00000110: e19f ffc0 cdab 1ec2 5a87 06c2 f01e e1c0
00000120: 31dc cfc0 0f9a 09c2 22bf bfc0 c459 90c0
00000130: 9a7b cac0 9b01 58c2 0b65 d3c0 99cd ccc0
00000140: 1971 b7c0 0f93 d3c0 a23b cebf 7438 cfc0
00000150: 41e9 f8c1 7ad8 d4c1 4645 d1c0 54ea 04c2
00000160: b263 3dc2 9231 b8c0 e977 cbc0 8716 b9c0
00000170: 2c9d 16c2 dec2 c6c0 8f88 9bc0 421d cc41
00000180: 0ad7 34c1 2424 b8c0 90ac 15c2 f730 c4c0

4.weight f4 [5, 100]
4.4743 11.197529 1.6346338 -10.586157 -6.032438 0.8824121 4.474577 2.2679873
-5.9346085 4.5125337 4.154914 4.590795 4.630077 5.341979 -26.935015 -30.406511
4.568586 -5.7722254 -5.987413 13.753055 -6.0827293 4.590647 4.451775 -6.055618
25.583847 0.006790757 4.4650373 4.606764 4.542169 -5.8953633 -0.081334725 3.4729075
4.5737085 4.4989257 4.6135125 4.4532804 -5.9518414 4.5188713 4.5291133 -13.416657
-2.0537112 4.568771 3.0113769 4.504635 1.0895396 -5.9025297 9.708852 2.5982857
-14.941652 -6.0300703 4.5887017 -8.911174 -6.03623 -0.7589913 4.4610825 4.5957985
-27.705702 -0.69815814 4.500676 -6.048572 -5.9215226 -5.976218 4.534113 1.3936591
-11.457122 4.4217668 -5.994944 4.6061363 3.3640215 -8.831577 -26.319592 4.6238995
4.494121 -31.47494 -5.9405456 4.638226 1.483735 -5.7917743 4.5526276 4.4544997
4.4729857 4.4407105 -0.3918119 4.5362606 2.950196 -11.091342 4.5646377 -22.124702
-27.923653 4.638418 4.516814 4.4519286 -5.920312 4.503841 4.56774 -6.0338197
4.473748 4.5291553 -5.8945856 4.5995984 -4.5136037 -28.966475 -6.4911056 -15.880603
5.995346 5.853468 2.6429045 -1.1589388 -5.976743 0.36466372 -4.6061797 -1.8981456
-6.5124083 5.256471 -4.459075 -1.5638454 -1.2801584 7.2172637 -5.934262 14.346901
6.0092425 3.4581563 -3.1561155 -5.912215 5.9960265 -5.923495 -1.322266 -0.9516011
-2.036117 -5.9449015 -5.564767 2.8235564 4.568819 -1.1921525 6.402252 1.1477807
-5.9850116 6.16311 7.6545305 -14.4910555 16.39073 0.5862546 0.80146176 -6.4875517
-0.9020168 -5.9641776 8.789576 1.0416 -19.73459 -25.704054 3.8671203 -15.362215
-5.9253426 -0.83793354 0.5106514 13.75211 6.698307 4.095188 -2.6391878 6.008761
6.0122957 6.020983 3.9322004 2.6836376 -14.978557 -4.5536118 -5.9407215 3.50985
3.0602689 -19.90057 0.038711358 15.415785 -4.5222173 -5.9103694 6.0306706 -6.4710274
4.571686 -8.457322 -2.417328 -1.8477037 3.9881434 -2.4886062 1.6292404 -6.453379
-1.8362689 -15.920688 -6.6138573 5.742461 -15.544282 0.8203585 -1.6000488 -1.698604
-25.702576 -1.7131448 -4.598193 -5.964781 -4.558847 3.5883396 -5.992367 1.9159164
4.571204 -22.919672 4.546921 -7.716404 -5.9651294 -10.868696 4.497417 -6.1057343
-5.970461 4.4438086 4.5209723 4.481128 4.493216 5.427296 -26.90645 -3.2154546
4.449384 14.282698 -5.9600525 3.5781033 -5.8884377 4.4501443 4.532486 -5.97775
-5.9756 -31.475832 4.4558268 4.522142 4.4468427 -5.954144 -25.967854 -0.9193152
4.49814 5.5801253 4.47019 4.483647 -5.889338 4.5306964 4.4562345 -4.8830643
0.074210174 4.4718 -2.8215535 4.5492783 1.6979635 -6.0211396 9.207652 -4.0755553
-11.937999 -5.955292 4.5706553 1.5751803 -5.9028096 -29.011763 4.5005164 5.5390997
00000000: 772d 8f40 1429 3341 ae3b d13f e660 29c1
00000010: bb09 c1c0 c2e5 613f bc2f 8f40 b426 1140
00000020: 50e8 bdc0 ad66 9040 0ef5 8440 cbe7 9240
00000030: 9729 9440 7ef1 aa40 e97a d7c1 8940 f3c1
00000040: db31 9240 12b6 b8c0 e398 bfc0 830c 5c41
00000050: b8a5 c2c0 95e6 9240 f174 8e40 9fc7 c1c0
00000060: b8ab cc41 0085 de3b 96e1 8e40 9c6a 9340
00000070: 7359 9140 d1a6 bcc0 d292 a6bd 1e44 5e40
00000080: d25b 9240 33f7 8f40 e5a1 9340 4681 8e40
00000090: 7c75 bec0 989a 9040 7fee 9040 a1aa 56c1
000000a0: 0170 03c0 5f33 9240 66ba 4040 f825 9040
000000b0: 0976 8b3f 86e1 bcc0 7557 1b41 504a 2640
000000c0: 0211 6fc1 56f6 c0c0 a5d6 9240 2b94 0ec1
000000d0: cc28 c1c0 414d 42bf 30c1 8e40 c810 9340
000000e0: 47a5 ddc1 7eba 32bf 8a05 9040 e78d c1c0
000000f0: 1d7d bdc0 2e3d bfc0 7417 9140 6c63 b23f
00000100: 5f50 37c1 1d7f 8d40 95d6 bfc0 7865 9340
00000110: 214c 5740 244e 0dc1 868e d2c1 fcf6 9340
00000120: d7cf 8f40 adcc fbc1 f318 bec0 596c 9440
00000130: 07eb bd3f 3756 b9c0 20af 9140 438b 8e40
00000140: b322 8f40 4d1a 8e40 929b c8be 0c29 9140
00000150: 03d0 3c40 2376 31c1 8311 9240 64ff b0c1
00000160: a463 dfc1 ec6d 9440 be89 9040 3376 8e40
00000170: 3273 bdc0 771f 9040 ed2a 9240 0d15 c1c0
00000180: f228 8f40 d7ee 9040 72a0 bcc0 e92f 9340
00000190: 716f 90c0 57bb e7c1 23b7 cfc0 f316 7ec1
000001a0: e0d9 bf40 9c4f bb40 5925 2940 1b58 94bf
000001b0: 7b41 bfc0 34b5 ba3e d365 93c0 6ff6 f2bf
000001c0: a665 d0c0 0335 a840 beb0 8ec0 162c c8bf
000001d0: 3bdc a3bf d3f3 e640 79e5 bdc0 e88c 6541
000001e0: b74b c040 6f52 5d40 ccfd 49c0 de30 bdc0
000001f0: 73df bf40 458d bdc0 0340 a9bf 219c 73bf
00000200: be4f 02c0 a23c bec0 9212 b2c0 26b5 3440
00000210: c433 9240 7498 98bf 40df cc40 7aea 923f
00000220: 3785 bfc0 3238 c540 eaf1 f440 5ddb 67c1
00000230: 3720 8341 c814 163f 992c 4d3f 069a cfc0
00000240: 93ea 66bf 8bda bec0 1aa2 0c41 2653 853f
00000250: 71e0 9dc1 e7a1 cdc1 e67e 7740 a2cb 75c1
00000260: 689c bdc0 d082 56bf 0dba 023f a408 5c41
00000270: 8858 d640 c80b 8340 74e8 28c0 c547 c040
00000280: ba64 c040 e5ab c040 2ca9 7b40 b8c0 2b40
00000290: 2ba8 6fc1 30b7 91c0 641a bec0 62a1 6040
000002a0: 72db 4340 5e34 9fc1 cd8f 1e3d 0ea7 7641
000002b0: 01b6 90c0 bf21 bdc0 41fb c040 a812 cfc0
000002c0: 404b 9240 3151 07c1 80b5 1ac0 8e81 ecbf
000002d0: be3d 7f40 5345 1fc0 f38a d03f 1582 cec0
000002e0: dc0a ebbf 23bb 7ec1 b8a4 d3c0 3ec2 b740
000002f0: 61b5 78c1 0403 523f 66ce ccbf db6b d9bf
00000300: e09e cdc1 5448 dbbf 6624 93c0 7cdf bec0
00000310: 13e2 91c0 5ba7 6540 78c1 bfc0 c03c f53f
00000320: 4e47 9240 7d5b b7c1 6080 9140 c8ec f6c0
00000330: 57e2 bec0 2ee6 2dc1 d7ea 8f40 2d62 c3c0
00000340: 040e bfc0 ae33 8e40 ceab 9040 6765 8f40
00000350: 6dc8 8f40 69ac ad40 6940 d7c1 02ca 4dc0
00000360: 5b61 8e40 ee85 6441 c0b8 bec0 a5ff 6440
00000370: 156e bcc0 9567 8e40 200a 9140 ba49 bfc0
00000380: 1d38 bfc0 81ce fbc1 2296 8e40 63b5 9040
00000390: 894c 8e40 5988 bec0 2abe cfc1 3e58 6bbf
000003a0: c3f0 8f40 6390 b240 cc0b 8f40 097a 8f40
000003b0: 7575 bcc0 77fb 9040 7999 8e40 1042 9cc0
000003c0: 81fb 973d fc18 8f40 5594 34c0 b093 9140
000003d0: de56 d93f 2dad c0c0 8b52 1341 f36a 82c0
000003e0: 0b02 3fc1 c191 bec0 cf42 9240 829f c93f
000003f0: d1e3 bcc0 1718 e8c1 3b04 9040 4e40 b140

4.bias f4 [5]
3549.8167 3551.7327 3494.433 3550.764 3755.6646
00000000: 11dd 5d45 b9fb 5d45 ee66 5a45 39ec 5d45
00000010: a2ba 6a45
