trained_buffer/epsilon0997_dqn_agent_state_truncated_step40.pth (torch, 679950 bytes, 24 tensors)

0.weight f4 [150, 11]
0	0xc094fd62	-4.6559305
1	0xc0898a91	-4.298165
2	0xc0d41dd1	-6.6286397
3	0xc08ba0fd	-4.363402
4	0xc08943c5	-4.2895226
5	0xc093f47b	-4.623594
6	0xc0cc6709	-6.3875775
7	0xc08890c6	-4.2676725
8	0x4090bb74	4.5228825
9	0x40995d40	4.792633
10	0xc094cbc6	-4.6498747
11	0xc0936b77	-4.6068683
12	0xc0c7f64c	-6.2488155
13	0xc0d54b78	-6.6654625
14	0xc0c7f570	-6.2487106
15	0xc0cfd8a6	-6.4951963
16	0xc0d7f539	-6.7486844
17	0xc0916314	-4.5433445
18	0x40941bdc	4.628401
19	0xc08dc720	-4.4305573
20	0x409ae537	4.8404803
21	0xc08cf2c8	-4.4046364
22	0xc1bbf41b	-23.494192
23	0xc1b98a9d	-23.192682
24	0xc1b73ccc	-22.904686
25	0xc1bca7e5	-23.58198
26	0xc0c7d957	-6.2452807
27	0xc1bce93f	-23.61389
28	0xc0b82a66	-5.7551756
29	0x413bb5dd	11.7319
30	0x4133a75d	11.22836
31	0xc1351a22	-11.31888
32	0x412f3800	10.951172
33	0xc19297ea	-18.324177
34	0xc2011021	-32.26575
35	0xc1f98db1	-31.194185
36	0xc188eca3	-17.115545
37	0xbe4d82c8	-0.2006942
38	0xc188ca00	-17.098633
39	0xc1850eb3	-16.632177
40	0x4088289e	4.254958
41	0xbe83e948	-0.25763917
42	0xc08eceff	-4.462768
43	0x3fc43cf1	1.5331098
44	0xc0c47a84	-6.1399555
45	0xc0c3a570	-6.113945
46	0xc0e3543e	-7.1040335
47	0xc0ecfe32	-7.4060297
48	0xbe23fa72	-0.16013506
49	0xc0f2b1fd	-7.584227
50	0xc0ae58ba	-5.448331
51	0xc03cb3d3	-2.9484756
52	0xc04f79ed	-3.2418168
53	0xc052a61f	-3.2913892
54	0xc044d3e4	-3.0754328
55	0xc12262ee	-10.149153
56	0xc0c07b7c	-6.015074
57	0xc120f7a9	-10.060464
58	0xc180b57a	-16.088612
59	0xc0bd8ed9	-5.9236875
60	0xc17b34b0	-15.700363
61	0xc11d3c77	-9.827262
62	0x40782871	3.8774683
63	0xc0819589	-4.049504
64	0x411fa333	9.977344
65	0xc06ceb50	-3.7018623
66	0xc08c1c1b	-4.378431
67	0xc090e15a	-4.5275087
68	0xc08aec32	-4.3413324
69	0xc09ada54	-4.8391514
70	0xc097901e	-4.7363424
71	0xc08c1f92	-4.378854
72	0xc08a88b3	-4.329187
73	0xc094f3fb	-4.654783
74	0xc08e4947	-4.446445
75	0x40da4433	6.820825
76	0x40ccc76f	6.399345
77	0xc08c6bee	-4.388175
78	0xc08ce51a	-4.4029665
79	0xc08985bc	-4.297575
80	0xc088b476	-4.272029
81	0xc0d7bca0	-6.7417755
82	0xc098da6c	-4.776663
83	0xc0998ddd	-4.7985673
84	0xc093039b	-4.59419
85	0x408bf14b	4.3732047
86	0x408df8d8	4.4366264
87	0xc0919424	-4.5493336
88	0xc21605ab	-37.505535
89	0xc214a050	-37.156555
90	0xc0c1d30e	-6.0570135
91	0xc21646b6	-37.569054
92	0xc0c3b5dc	-6.1159496
93	0xc0ba25eb	-5.8171287
94	0xc0bafe16	-5.8435163
95	0x41cb5f85	25.42164
96	0x41cb5404	25.416023
97	0x41ca0b75	25.255594
98	0xc1ca84e5	-25.31489
99	0xc2064a29	-33.572422
100	0xc20f9845	-35.8987
101	0xc1de4d52	-27.787754
102	0xc2104719	-36.06943
103	0xc1be6c73	-23.802954
104	0xc1df6242	-27.922977
105	0xc27d6c70	-63.355896
106	0xc0ccd5f6	-6.4011183
107	0xc24f54d6	-51.832848
108	0xc082a872	-4.083062
109	0xc20faa42	-35.916267
110	0xc089835d	-4.2972856
111	0xc0b4f1fd	-5.6545396
112	0xc095b7a4	-4.678667
113	0xc0b9d7d8	-5.807598
114	0xc08f886d	-4.4854035
115	0xc09018d1	-4.5030293
116	0xc098063c	-4.750761
117	0xc088b627	-4.2722354
118	0x40bfb0fb	5.990354
119	0x40b29fe5	5.5820184
120	0xc0ae1e27	-5.4411807
121	0xc0bd2b3b	-5.911527
122	0xc1b76639	-22.924913
123	0xc1ba1da1	-23.264467
124	0xc0bcd948	-5.9015236
125	0xc0bf1c0c	-5.9721737
126	0xc0c02393	-6.0043426
127	0xc0bcc889	-5.8994794
128	0x40c1d12c	6.0567837
129	0x412f2017	10.945334
130	0xc1318932	-11.095995
131	0x4130bf23	11.046664
132	0xc08b8a24	-4.360613
133	0xc08d98ba	-4.4248934
134	0xc0c9af4d	-6.302649
135	0xc091a598	-4.551464
136	0xc092f20e	-4.5920477
137	0xc0928ddf	-4.5798182
138	0xc092c3ce	-4.586402
139	0xc0936472	-4.6060114
140	0x408f76fd	4.483275
141	0x40973478	4.725155
142	0xc09d4834	-4.915064
143	0xc1f6e54f	-30.861967
144	0xc206fdb8	-33.747772
145	0xc2083e92	-34.061104
146	0xc2070d77	-33.76315
147	0xc20831d0	-34.048645
148	0xc207cc14	-33.949295
149	0xc1f282d1	-30.313875
150	0x4195dc5a	18.732594
151	0xc196dd8a	-18.858173
152	0x41970f84	18.882576
153	0xc1af3a5d	-21.903498
154	0xc099f8fc	-4.8116436
155	0xc08a22d4	-4.3167515
156	0xc099e0d8	-4.8086967
157	0xc08e6f18	-4.4510612
158	0xc08c3d1b	-4.382459
159	0xc088967a	-4.2683687
160	0xc09a2292	-4.81672
161	0xc08de809	-4.4345746
162	0x408de25f	4.433883
163	0x408aa25c	4.3323193
164	0xc098888d	-4.766669
165	0xc0d887f5	-6.7665963
166	0xc0963121	-4.693497
167	0xc095f8ed	-4.6866364
168	0xc08f25e2	-4.4733744
169	0xc08d0783	-4.407167
170	0xc08aab09	-4.3333783
171	0xc0983907	-4.7569613
172	0xc08a8895	-4.3291726
173	0x40970073	4.718805
174	0x40d77266	6.7327147
175	0xc09f7ea1	-4.9842076
176	0xc212bea2	-36.686165
177	0xc21240f9	-36.56345
178	0xc0b9b402	-5.8032236
179	0xc21147a7	-36.319973
180	0x40bc613a	5.8868685
181	0xc2110c54	-36.26204
182	0xc21139ae	-36.306328
183	0xc1814176	-16.156963
184	0x41c3e00f	24.484404
185	0x41c45c42	24.545048
186	0xc1823692	-16.276646
187	0xc092b0e6	-4.584094
188	0xc093030e	-4.594123
189	0xc088d2fa	-4.275754
190	0xc08a7bd0	-4.327614
191	0xc087e390	-4.2465286
192	0xc096f204	-4.717043
193	0xc1526258	-13.14901
194	0xc0d048dc	-6.508894
195	0xc1201988	-10.006233
196	0x4088e54e	4.2779913
197	0xc0919ef9	-4.550656
198	0xc08aaa61	-4.333298
199	0xc0935934	-4.604639
200	0xc0c92566	-6.2858152
201	0xc0cf0fdb	-6.4706855
202	0xc0cfa7c4	-6.489229
203	0xc09798a4	-4.737383
204	0xc093b777	-4.6161456
205	0xc09266cd	-4.575049
206	0x40889158	4.267742
207	0x408d8c61	4.423386
208	0x408b0725	4.344622
209	0xc0b6ed50	-5.716469
210	0xc095423b	-4.664335
211	0xc0b68e5e	-5.704879
212	0xc09700f6	-4.7188673
213	0xc08e2ffa	-4.4433565
214	0xc08fe5c8	-4.4967995
215	0xc0b755c6	-5.7292204
216	0xc08ca96a	-4.3956804
217	0x408a4765	4.321215
218	0x40b3bd7e	5.6168814
219	0x408c1726	4.3778257
220	0xc19d6f54	-19.67936
221	0xc1d99df1	-27.20212
222	0xc08a3955	-4.3194985
223	0xc1c68476	-24.814678
224	0xc096ad08	-4.708622
225	0xc08837ad	-4.2567964
226	0xc13ce072	-11.804796
227	0x41b97710	23.183136
228	0x415f01c2	13.937929
229	0x4202d92d	32.712086
230	0xc08f07d6	-4.4697065
231	0xc1bbe12e	-23.484951
232	0xc1b8c98e	-23.098415
233	0xc1b6e497	-22.861616
234	0xc1c07651	-24.057772
235	0xc0c628ad	-6.1924653
236	0xc1bc5eaa	-23.546223
237	0xc0c3762d	-6.1081758
238	0x413b9cbd	11.725766
239	0x41310a52	11.06502
240	0xc1323519	-11.137963
241	0x412f2796	10.947165
242	0xc087f17c	-4.248228
243	0xc08e3378	-4.443783
244	0xc09775e0	-4.733139
245	0xc08c6e1c	-4.388441
246	0xc0898409	-4.2973676
247	0xc0927a7a	-4.5774508
248	0xc09fb2dc	-4.9905834
249	0xc0899071	-4.298882
250	0x40879ce7	4.237903
251	0x40d748c8	6.7276344
252	0xc097c866	-4.7432127
253	0xc09a363f	-4.819122
254	0xc090083e	-4.501006
255	0xc0cd058d	-6.4069276

0.bias f4 [150]
0	0xc08adb0b	-4.3392386
1	0xc0d41489	-6.6275067
2	0xc1b8f95b	-23.121756
3	0xc200d3be	-32.20678
4	0xc0f36b64	-7.606859
5	0xc17c81bc	-15.781673
6	0xc099fd36	-4.8121595
7	0xc08d93d5	-4.424296
8	0xc2163154	-37.548172
9	0xc277ee9d	-61.98302
10	0xc094c32b	-4.648824
11	0xc1ba1e46	-23.264782
12	0xc08e26e7	-4.442249
13	0xc1f40083	-30.50025
14	0xc0969a08	-4.7063026
15	0xc092cd04	-4.5875263
16	0xc2629ed6	-56.655113
17	0xc10437d0	-8.263626
18	0xc08a7559	-4.3268247
19	0xc0984c51	-4.759316
20	0xc1aa936f	-21.32199
21	0xc1b6712b	-22.805258
22	0xc08fc052	-4.4922266
23	0xc088a165	-4.2697015
24	0x4243cad5	48.94808
25	0xc1b607cc	-22.753807
26	0xc0893658	-4.2878838
27	0xc0915765	-4.5419183
28	0xc099c150	-4.8048477
29	0xc0982348	-4.754307
30	0xc1b8fbf0	-23.123016
31	0xc093e710	-4.621956
32	0xc0980935	-4.751124
33	0xc0cecbeb	-6.4623923
34	0xc09ae192	-4.8400354
35	0xc0cdb9eb	-6.428945
36	0xc0d6cdd3	-6.712625
37	0xc0cd5069	-6.4160657
38	0xc1e6ee1f	-28.86627
39	0xc2041fad	-33.030933
40	0xc08ccb33	-4.3998046
41	0xc09a90d3	-4.8301787
42	0xc0cdb07a	-6.4277925
43	0xc0961431	-4.689965
44	0xc08941b9	-4.289273
45	0x414e9cdb	12.913295
46	0xc2066900	-33.60254
47	0xc091aa99	-4.552075
48	0xc0c7ce1b	-6.2439094
49	0xc09a7550	-4.8268204
50	0xc0908b8c	-4.5170345
51	0xc2160637	-37.50607
52	0xc0be1e07	-5.9411654
53	0xc0894c81	-4.290589
54	0xc0d2843a	-6.578641
55	0xc0960c11	-4.688973
56	0xc094bdd7	-4.648174
57	0xc21a1992	-38.52497
58	0xc08fef7e	-4.497985
59	0xc08b215b	-4.3478217
60	0xc0cde780	-6.4345093
61	0xc0cf937e	-6.4867544
62	0xc0d99856	-6.7998457
63	0xc0910941	-4.5323796
64	0xc1b68596	-22.815228
65	0xc0be210c	-5.941534
66	0xc211034e	-36.253227
67	0xc20a659f	-34.59924
68	0xc0911704	-4.5340595
69	0xc08d9963	-4.424974
70	0xc1abd8a5	-21.480783
71	0xc0c89145	-6.267733
72	0xc0d57cc5	-6.6714807
73	0xc20dcbaf	-35.44891
74	0xc2028fa4	-32.640274
75	0xc0c495c9	-6.1432843
76	0xc20dceb3	-35.451855
77	0xbe87352f	-0.26407763
78	0xc08aad73	-4.333673
79	0xc0d68f12	-6.7049646
80	0xc092d07c	-4.5879498
81	0xc08f40a4	-4.4766407
82	0xc0996300	-4.793335
83	0xc0946a72	-4.637994
84	0xc0911086	-4.533267
85	0xc090877f	-4.51654
86	0xc08b1b7d	-4.3471055
87	0xc08a733c	-4.3265667
88	0xc211ec71	-36.4809
89	0xc250722f	-52.111507
90	0xc0d571eb	-6.670156
91	0xc098e404	-4.777834
92	0xc1259224	-10.348179
93	0xc08a22e8	-4.316761
94	0xc1f9c58c	-31.221458
95	0xc09ae411	-4.84034
96	0xc1acbc0d	-21.591822
97	0xc09356e7	-4.604358
98	0xc0ceb4f3	-6.4595885
99	0xc093d31e	-4.619521
100	0xc0bd32f5	-5.9124703
101	0xc091462f	-4.5398173
102	0xc2127a33	-36.619335
103	0xc0d6c48b	-6.711492
104	0xc0935b3b	-4.6048865
105	0xc0c59a46	-6.175082
106	0xc209cd1c	-34.450302
107	0xc0922390	-4.566841
108	0xc0d6b6c9	-6.7098126
109	0xc0a43f00	-5.1326904
110	0xc0c0c7b2	-6.024377
111	0xc11239bd	-9.139096
112	0xc115478c	-9.3299675
113	0xc104dc8c	-8.303844
114	0xc280dd5d	-64.43235
115	0xc1e87ab5	-29.059916
116	0xc0c7eb12	-6.247445
117	0xc08d88ac	-4.4229336
118	0xc0d8d972	-6.7765436
119	0xc205b298	-33.424408
120	0xc09fe704	-4.99695
121	0xc0d8dd2c	-6.7769985
122	0xc225c96c	-41.4467
123	0xc0cd3598	-6.412792
124	0xc0b79562	-5.736985
125	0xc098bbe9	-4.7729383
126	0xc09aad61	-4.8336644
127	0xc1b8261c	-23.018608
128	0xc20a2c95	-34.543537
129	0xc1b63adf	-22.778746
130	0xc1aa9ee5	-21.327585
131	0xc0b7b636	-5.7409925
132	0xc0cdcc24	-6.4311695
133	0xc21738b3	-37.80537
134	0xc1e09cfe	-28.076656
135	0xc0cc8ae7	-6.391956
136	0xc248625f	-50.096066
137	0xc08b321f	-4.3498683
138	0xc21416bf	-37.022213
139	0x4193079a	18.378712
140	0xc1f67ddb	-30.811453
141	0xc20cc0d6	-35.188316
142	0xc08be335	-4.371485
143	0xc09a840f	-4.8286204
144	0xc09a395f	-4.8195033
145	0xc22bbd7e	-42.93505
146	0x4158036f	13.500838
147	0x41752da2	15.323641
148	0xc0efded5	-7.495951
149	0xc0907d6c	-4.5153103

2.weight f4 [100, 150]
0	0x406ddeb3	3.7167175
1	0xc0c196a8	-6.0496407
2	0xc0be6bd5	-5.950663
3	0xc150cdfe	-13.050291
4	0xbc0ae663	-0.00847778
5	0xc0be9d06	-5.956668
6	0x40915f3b	4.542875
7	0x40dfe80e	6.997077
8	0xc215786e	-37.367607
9	0xc0fffda5	-7.9997125
10	0xc0ef2652	-7.473428
11	0x40bd0d96	5.9079084
12	0x4065d8b9	3.5913527
13	0x41aeb878	21.840073
14	0x40e144fe	7.039672
15	0xc0c17ef2	-6.0467463
16	0xc211ae92	-36.42048
17	0xc14485ae	-12.282637
18	0xc0692293	-3.6427352
19	0xc0ddcbb0	-6.931114
20	0xc17d7943	-15.842105
21	0xc0a86a26	-5.2629576
22	0x41a37117	20.43022
23	0x40df4d95	6.9782205
24	0xc1ee1030	-29.757904
25	0xc0b327aa	-5.598592
26	0xc08c7cc3	-4.3902297
27	0xc0bfacb1	-5.9898305
28	0x40e27a7f	7.077453
29	0x3d588f6d	0.052871156
30	0xc0bee9f1	-5.9660573
31	0xc0beaa21	-5.9582677
32	0xc0e0f622	-7.0300455
33	0xc0c13dda	-6.0388002
34	0x406b0ebd	3.6727746
35	0xc0bff2d7	-5.9983935
36	0xc0be9c7a	-5.956601
37	0xc0bfce0b	-5.9939017
38	0xc1de35dc	-27.776299
39	0xbf1aa1dc	-0.6040323
40	0x40e042b8	7.0081444
41	0xc1950fbd	-18.632685
42	0xc0c1a82e	-6.0517797
43	0x40e06a53	7.012979
44	0xc0e07a71	-7.0149465
45	0xc103ea5c	-8.244717
46	0x41caf015	25.367228
47	0xc0669264	-3.602685
48	0x40e075d5	7.014384
49	0xc18858b9	-17.043322
50	0xc0e37845	-7.1084313
51	0x417a91a0	15.660553
52	0x40bf3df0	5.9763107
53	0x407c62d8	3.943533
54	0xc0be8d2e	-5.954734
55	0xc0e20e82	-7.064271
56	0x40decdc9	6.9626203
57	0x41dde7d2	27.738194
58	0x40689e4a	3.6346612
59	0x41076bc7	8.463813
60	0x40be8d23	5.9547286
61	0xc0bffef6	-5.999873
62	0x4038517b	2.8799732
63	0x40bdb2cb	5.9280753
64	0xc1ba35ec	-23.276329
65	0x40c05787	6.0106845
66	0xc0c20dc9	-6.0641828
67	0xc0be3e17	-5.9450793
68	0xc0e2829c	-7.0784435
69	0x40e72b1b	7.224012
70	0xc15675c1	-13.4037485
71	0xc0be2e13	-5.9431243
72	0xc0c0a017	-6.019542
73	0xc2046f5c	-33.10875
74	0x41b09d82	22.076908
75	0x40c10c29	6.0327344
76	0x41ab21a2	21.391422
77	0x3d3ef21f	0.046617623
78	0x40df475f	6.9774623
79	0xc0cca607	-6.395267
80	0x406949b3	3.6451232
81	0xc0e2c21d	-7.0861955
82	0x405406af	3.312908
83	0x40e2aed8	7.083843
84	0x406b05fa	3.6722398
85	0x40696c77	3.6472452
86	0x40ded664	6.9636707
87	0x40dea7c4	6.957979
88	0xbc257d70	-0.010100707
89	0xc04732ef	-3.1124837
90	0xc0bf5fe2	-5.9804544
91	0xc062ca4b	-3.543597
92	0xc211958f	-36.396053
93	0x4060d9f5	3.513303
94	0xc0c111d5	-6.033427
95	0x40e2d811	7.0888753
96	0x41307dd7	11.030723
97	0xc0ea9b02	-7.331422
98	0x40c03531	6.006493
99	0x406c6174	3.693448
100	0x40bf7772	5.9833307
101	0xc0e76cc0	-7.232025
102	0xbd9013eb	-0.07035049
103	0x40be2d38	5.94302
104	0xc0679225	-3.618295
105	0xc0bf49bb	-5.9777503
106	0x40bf249b	5.9732184
107	0xc0e2adf0	-7.0837326
108	0xc0c1396d	-6.03826
109	0xc1739bdc	-15.225552
110	0x40bf3b71	5.976006
111	0xc1729bca	-15.163034
112	0xc123300a	-10.199228
113	0xc211f873	-36.492626
114	0xc1ab3930	-21.402924
115	0xc0bdc251	-5.9299703
116	0xc0bd8cc1	-5.923432
117	0xc0bddd2e	-5.9332495
118	0x40bd03d0	5.9067154
119	0x41cb25b7	25.393415
120	0x41a31cb3	20.389013
121	0xc0c22f37	-6.0682635
122	0x41b320e6	22.391064
123	0xc0bfa7e0	-5.9892426
124	0xc0bf3ca9	-5.976155
125	0x40e14698	7.0398674
126	0xc0a828bf	-5.254974
127	0x419d0462	19.62714
128	0x40bd63d5	5.9184365
129	0xc0996d6f	-4.7946086
130	0x41320642	11.126528
131	0x40c16d7d	6.0446153
132	0xc0bf1c53	-5.9722075
133	0xc0646e6e	-3.56924
134	0xc0be635b	-5.9496284
135	0x40bdf549	5.936192
136	0xc14afe5f	-12.687102
137	0x40bf4649	5.9773297
138	0xc21546a5	-37.31899
139	0xbef92b1a	-0.48665696
140	0xc1306430	-11.02446
141	0xc0bf87a3	-5.985307
142	0x40e1ff07	7.0623813
143	0x40630453	3.547139
144	0xc0bd886f	-5.9229045
145	0xc1e67925	-28.809153
146	0xc19377fd	-18.433588
147	0xc08ec70a	-4.4617968
148	0xc1354be8	-11.331032
149	0xc1768667	-15.407813
150	0xc0900f5c	-4.501875
151	0xc093cd3e	-4.618804
152	0xc12fc356	-10.985189
153	0x3d10c4fc	0.03534411
154	0x3d2b4f30	0.041823566
155	0xc077ea37	-3.8736703
156	0xc08f00cb	-4.468847
157	0xc0d36f83	-6.6073623
158	0xc1cb09db	-25.379812
159	0xc1befb61	-23.872744
160	0xc090bc31	-4.5229726
161	0xc1b7ebc9	-22.99013
162	0xc09067d9	-4.5126767
163	0xc0c1e2a7	-6.0589175
164	0xc0d2d6fd	-6.5887437
165	0xc08f5cd9	-4.480084
166	0xc071835a	-3.773642
167	0xc0d08125	-6.5157647
168	0xc0d2a54b	-6.5826774
169	0xc0b135bc	-5.5378094
170	0xc0911757	-4.534099
171	0xc131f932	-11.123339
172	0xc090d288	-4.5256996
173	0xc0d3d994	-6.62031
174	0xc09c1f6b	-4.878835
175	0xc131b722	-11.10721
176	0xc0917d65	-4.546557
177	0xc0912993	-4.536325
178	0xc0d21293	-6.5647674
179	0xc0b388a3	-5.6104293
180	0xc131563a	-11.083551
181	0xc0cfd6b9	-6.4949613
182	0xc09175fe	-4.5456533
183	0xc0901304	-4.5023212
184	0xc091c905	-4.5557885
185	0xc0940424	-4.6255054
186	0xc0cf5f81	-6.480408
187	0xc07c2864	-3.9399652
188	0xc0a7ebf8	-5.247555
189	0xc092464d	-4.5710816
190	0xc0915279	-4.5413175
191	0xc08f2b59	-4.4740415
192	0xc08ee91a	-4.465955
193	0xc0ceb4af	-6.459556
194	0xc0d318cc	-6.596777
195	0xc0ae6681	-5.4500127
196	0xc0928bcf	-4.5795665
197	0xc0d1b9e6	-6.5539427
198	0xc0cf4af6	-6.4779005
199	0xc0910d86	-4.532901
200	0xc0d1481b	-6.540052
201	0xc130b3a9	-11.043862
202	0xc0c19aad	-6.0501313
203	0xc0907700	-4.5145264
204	0xc09115f0	-4.533928
205	0xc0d29e21	-6.581803
206	0xc0d2ec40	-6.591339
207	0xc131276b	-11.072124
208	0xc0d0cc7d	-6.524962
209	0xc093466c	-4.6023464
210	0xc092b00f	-4.5839915
211	0xc093b7a3	-4.6161666
212	0xc08f60f5	-4.4805856
213	0xc0922ea4	-4.5681934
214	0x41f3983f	30.449339
215	0x40c1ddf6	6.058345
216	0xc091efd6	-4.560527
217	0xc091d191	-4.556832
218	0xc0cffa40	-6.499298
219	0xc0d0a637	-6.52029
220	0xc08ed5a8	-4.463581
221	0xc0906ed4	-4.513529
222	0xc0d3cd26	-6.6187925
223	0xc0be32e2	-5.9437113
224	0x3d8acfd9	0.06777925
225	0xc0c20a68	-6.0637703
226	0xc09378ac	-4.6084805
227	0xbd623708	-0.055228263
228	0xc0b3afa0	-5.6151886
229	0xc0a70ce5	-5.220324
230	0xc0d1d378	-6.557064
231	0xc0b1def7	-5.5584674
232	0xc08f642b	-4.4809775
233	0xc0d0a65d	-6.520308
234	0xc0d1477e	-6.539977
235	0xc093f339	-4.6234403
236	0xc08fe560	-4.49675
237	0xc091f5e9	-4.5612683
238	0x3c195b13	0.009360093
239	0xc1539280	-13.223267
240	0xc08ee04b	-4.4648795
241	0xc08eee14	-4.4665623
242	0xc0907669	-4.5144544
243	0xc092fc2e	-4.5932837
244	0x382aeefe	4.0753737e-05
245	0xc0915f5d	-4.542891
246	0xc13270e3	-11.15256
247	0xc0d1acb6	-6.552333
248	0xc0939d3f	-4.612945
249	0xc09025bf	-4.5046077
250	0xc0be4565	-5.945971
251	0xc09122bf	-4.5354915
252	0xbc68ead4	-0.014216144
253	0xc0d3d1a7	-6.6193423
254	0xc0d319ce	-6.5969
255	0xc047b9cb	-3.120715

2.bias f4 [100]
0	0x422d61aa	43.345375
1	0xc1857359	-16.681322
2	0xc23a15fd	-46.521473
3	0xc24e1437	-51.51974
4	0xc26708cf	-57.758602
5	0xc222a646	-40.662376
6	0xc142d54e	-12.177076
7	0xc159e2af	-13.617843
8	0xc28703e8	-67.50763
9	0xc1d84ae6	-27.036572
10	0xc1dfb0b2	-27.961277
11	0xc12e36b7	-10.888358
12	0x429e483b	79.141075
13	0xc1d538d8	-26.652756
14	0xc223e5ad	-40.974293
15	0xc255e1a1	-53.47034
16	0xc0da7327	-6.8265567
17	0xc22e1578	-43.520966
18	0xc180b0ff	-16.086424
19	0xc11d61ea	-9.836405
20	0xc280e3e8	-64.44513
21	0xc0e87139	-7.263821
22	0xbff3e334	-1.9053712
23	0xc1b6830f	-22.813993
24	0xc20404f8	-33.004852
25	0xc2028c98	-32.6373
26	0xc199fbeb	-19.248007
27	0xc20362e5	-32.846577
28	0xc0aa9086	-5.330142
29	0xc19fed98	-19.991013
30	0xc0b8fa3a	-5.780545
31	0xc2830fa8	-65.53058
32	0xc13464eb	-11.274638
33	0xc1795660	-15.583588
34	0xc1220d58	-10.128258
35	0xc22d1f11	-43.28034
36	0xc2a887d2	-84.265274
37	0xc180a40b	-16.0801
38	0xc201b3cb	-32.42558
39	0xc1dda1bc	-27.703972
40	0xc18cb532	-17.588474
41	0xc19a7cae	-19.310879
42	0xc0e4b699	-7.1472898
43	0xc209ab88	-34.41751
44	0xc1ddff2f	-27.749601
45	0xc1607b7a	-14.030146
46	0xc1b8e2af	-23.110685
47	0xc0e78d08	-7.2359657
48	0xc1410f31	-12.066209
49	0xc1b79a9b	-22.95049
50	0xc1b4a6e5	-22.581491
51	0xc1d0aa65	-26.0832
52	0xc26a3e35	-58.56075
53	0xc1b07dfe	-22.06152
54	0xc0d4781c	-6.639662
55	0xc215b17f	-37.423336
56	0xc2a4d684	-82.418976
57	0xc2197bcb	-38.37089
58	0xc18a97f2	-17.324192
59	0xc2173e14	-37.810623
60	0xc15fe484	-13.99329
61	0xc1b0086b	-22.00411
62	0xc10834c1	-8.512879
63	0xc23a608c	-46.594284
64	0xc0cbd198	-6.369335
65	0xc29687a4	-75.26492
66	0xc0f7257b	-7.7233253
67	0xc17224a2	-15.133944
68	0xc1a9bbcc	-21.216698
69	0xc197808c	-18.937767
70	0xc232f154	-44.735672
71	0xc210ffcf	-36.249813
72	0xc025ea04	-2.5924082
73	0xc1cdf1df	-25.743101
74	0xc20de729	-35.475742
75	0xc0ddbed5	-6.929545
76	0xc13f484a	-11.955149
77	0xc1729b34	-15.162891
78	0xbf46b3be	-0.77618015
79	0xc15bee7e	-13.745726
80	0xc1c67aec	-24.81002
81	0xc0bf04d7	-5.969341
82	0xc1dc6be8	-27.552689
83	0xc21734a2	-37.8014
84	0xc238b539	-46.176975
85	0xc1c78993	-24.942175
86	0xc09b9c68	-4.8628426
87	0xc299bd6b	-76.86996
88	0xc27701b3	-61.75166
89	0xc1af782d	-21.93368
90	0xc201803f	-32.37524
91	0xc29958d6	-76.67351
92	0xc2795bd9	-62.339695
93	0xc28c33f0	-70.10144
94	0xc1163b51	-9.389482
95	0xc1e70190	-28.875763
96	0xc192e5b8	-18.362167
97	0xc1958de0	-18.694275
98	0xc11306d4	-9.189167
99	0xc2075c60	-33.84021

4.weight f4 [5, 100]
0	0xc157207d	-13.445432
1	0x4090bf2a	4.5233355
2	0x41aed26d	21.852747
3	0x40a3b324	5.1156178
4	0xc18de8d8	-17.738693
5	0xc0c1f24b	-6.060827
6	0xc0737747	-3.804155
7	0x408e1e27	4.4411807
8	0x41afc9bc	21.973503
9	0x424a75a1	50.614872
10	0x418bdb66	17.482128
11	0x40438b4e	3.0553775
12	0x4175123b	15.316951
13	0xc0f16d0b	-7.544561
14	0x414d9800	12.849609
15	0xc1a029ca	-20.020405
16	0x3f213f63	0.62987345
17	0x404836c0	3.1283417
18	0xc1f7f65d	-30.995295
19	0xc026659f	-2.5999525
20	0xc184ca9d	-16.598932
21	0x4000a46a	2.010035
22	0xc0e9d74b	-7.307531
23	0xc0bd361a	-5.912854
24	0xc1850802	-16.62891
25	0xc044c7e3	-3.0747
26	0xc242140f	-48.51959
27	0x3ef6c687	0.4819834
28	0xc0a77c54	-5.233927
29	0x40920d58	4.564129
30	0x40936e89	4.607243
31	0x415077fb	13.029292
32	0x4093c442	4.6177073
33	0xc0f2a469	-7.5825696
34	0xc06849df	-3.6295087
35	0xc1262216	-10.383322
36	0x40c47698	6.139477
37	0x4089bcf2	4.3043146
38	0x40ca7159	6.3263364
39	0x40b0e5a0	5.5280304
40	0xc1bf7aad	-23.9349
41	0x3f88e318	1.0694304
42	0xc00553a5	-2.0832303
43	0xc0df8f27	-6.9862247
44	0xc202d287	-32.705593
45	0x408fc502	4.492799
46	0x40616c85	3.5222485
47	0x41e54073	28.65647
48	0xc01a3f1d	-2.4101021
49	0x40970877	4.7197833
50	0xc044b999	-3.073828
51	0x418da360	17.704773
52	0xc0adf6bd	-5.4363694
53	0x41406d12	12.0266285
54	0xc1034dc3	-8.206485
55	0x3fce174b	1.6100858
56	0x42104b4c	36.073532
57	0x41da67ec	27.300743
58	0x4089f04c	4.310583
59	0xc18481cc	-16.563377
60	0xc08d3b6a	-4.4135027
61	0xc128f607	-10.560065
62	0x4090cb39	4.5248075
63	0x41af62ac	21.92318
64	0xc0e20419	-7.063
65	0x41427ff8	12.156242
66	0x3fdd7fa4	1.7304578
67	0x4093046f	4.594291
68	0xc18b9207	-17.446302
69	0xc1402827	-12.009803
70	0x415cd9e5	13.803197
71	0xc0aec78a	-5.461858
72	0x409df848	4.936558
73	0x408fef6e	4.4979773
74	0xc10a202e	-8.632856
75	0xc0e56e84	-7.1697407
76	0xc17250ce	-15.144728
77	0xc195c5e8	-18.721634
78	0xc11119f3	-9.068835
79	0x40930cc6	4.5953093
80	0xbff421b6	-1.9072788
81	0xc0bdb51e	-5.928359
82	0x418c5bab	17.54476
83	0x420ace7c	34.701645
84	0x4124bb79	10.29577
85	0x408cf6af	4.4051127
86	0xc1f7ba55	-30.965982
87	0x4192c806	18.347668
88	0x4192e839	18.36339
89	0x41bf856b	23.940145
90	0xc12aa7e8	-10.665993
91	0x41ab3ac4	21.403694
92	0x412ff5c6	10.997503
93	0x41d0c398	26.095505
94	0xc03a0729	-2.906687
95	0x4020f069	2.5146735
96	0x40a0a65c	5.0203075
97	0xc0e7f922	-7.2491617
98	0xc084e65a	-4.153119
99	0xc051dc66	-3.279077
100	0x416458d6	14.271688
101	0x3fc2c13c	1.521522
102	0x40132b46	2.2995162
103	0x3fe3b121	1.778843
104	0xc0b8e177	-5.7775226
105	0x42075291	33.83063
106	0x401722c1	2.3614962
107	0x409c0969	4.8761487
108	0x3da79ab7	0.081838064
109	0x4194177e	18.51147
110	0x41763de3	15.390109
111	0x41b2f138	22.367783
112	0x40e7a83f	7.239288
113	0xc145c0d0	-12.359573
114	0x41cb0ea9	25.382158
115	0x3f3e83cc	0.74419856
116	0x409ecbcc	4.9623775
117	0x3fb8482d	1.4397026
118	0xc0d64e00	-6.6970215
119	0x402d20d6	2.7051291
120	0xc0afaea5	-5.490069
121	0x408a787e	4.3272085
122	0x413b3094	11.69936
123	0xc0bcb58f	-5.897163
124	0xc0ebc1b9	-7.367398
125	0x3f85c03c	1.044929
126	0xc021a866	-2.5259032
127	0xc00552e3	-2.083184
128	0xc0aa86c7	-5.3289523
129	0x407f0a89	3.985018
130	0x40af4b1f	5.47792
131	0xc21a1518	-38.5206
132	0x409d1f9d	4.910109
133	0x3fcecdc9	1.6156551
134	0x401b31a5	2.424905
135	0x4153ee1c	13.245632
136	0x4168b377	14.543815
137	0x40cd55bd	6.416716
138	0xc14dcbbe	-12.862242
139	0x40af7c22	5.483903
140	0xc1a89000	-21.070312
141	0x4019a4eb	2.4006908
142	0x4049bf26	3.1522918
143	0xbeffc9a9	-0.49958542
144	0xc10a7ee6	-8.655981
145	0x406529a0	3.5806656
146	0xc25879dd	-54.119007
147	0xbdc4eb82	-0.09615232
148	0x40326214	2.7872362
149	0x4088325b	4.256147
150	0xc0d213c9	-6.564915
151	0x417bf3b6	15.747
152	0x4186b1e4	16.83686
153	0x41416499	12.08706
154	0x3fb992b6	1.4497898
155	0x41979d8e	18.951931
156	0x41d1386c	26.15255
157	0x408d622e	4.418235
158	0x40a21d74	5.0660954
159	0xc1ea591e	-29.293514
160	0x40131d23	2.2986534
161	0xc0fee5d6	-7.965556
162	0x40926d0e	4.5758123
163	0x4056ba2d	3.3551133
164	0x4002e3f7	2.0451639
165	0xc1e338f0	-28.402802
166	0x408fee85	4.497866
167	0x40ae0d52	5.439126
168	0x4142d3dd	12.176724
169	0xc1911c0c	-18.138695
170	0xbfaa3953	-1.3298744
171	0x3ce3f0e0	0.02782482
172	0x413dd660	11.864838
173	0x40805f6f	4.0116496
174	0x41592f22	13.574007
175	0x401a9847	2.4155443
176	0xc197f341	-18.993776
177	0xc19ad557	-19.35417
178	0x41680844	14.502018
179	0x409cc46d	4.8989778
180	0xbf661893	-0.8988125
181	0xc0bf12a9	-5.971028
182	0x41767b55	15.40511
183	0xc18f9303	-17.946783
184	0xbf991d74	-1.1962113
185	0x40e64e04	7.1970234
186	0x40a70254	5.219034
187	0xc0a0743e	-5.0141897
188	0x41d5e1e9	26.735308
189	0x41be8e7a	23.819569
190	0xbf0a8f48	-0.5412488
191	0x410eff4b	8.937327
192	0xc203cab5	-32.947956
193	0x41fc02ef	31.501432
194	0x4029b267	2.6515138
195	0x3ff4d2b7	1.9126805
196	0x40a82060	5.253952
197	0x3fa63808	1.2985849
198	0x4030c1b7	2.7618234
199	0x3f72007e	0.94532
200	0x4202f5c7	32.740017
201	0xbf84d113	-1.0376304
202	0xc1af05c6	-21.87782
203	0xbfe67fe2	-1.8007777
204	0x413b333e	11.70001
205	0xc0f3b017	-7.6152453
206	0xc0e9af6c	-7.302664
207	0xbecd0518	-0.4004295
208	0x422fd038	43.95334
209	0x41911992	18.137486
210	0x418c18ef	17.512175
211	0xc1474bbf	-12.455993
212	0x42ac5ee5	86.18534
213	0xc1372412	-11.446306
214	0x4062c50f	3.5432775
215	0xbf629286	-0.8850483
216	0xc101bef6	-8.109121
217	0xc1080c58	-8.503014
218	0xc14f7469	-12.96592
219	0xc0f10483	-7.5318007
220	0xc19c36cd	-19.526758
221	0xc05e8328	-3.4767551
222	0xc15814c0	-13.505066
223	0xc12c665d	-10.774991
224	0xc1a20d78	-20.256577
225	0xc103333c	-8.200008
226	0xc1ad5d8a	-21.670673
227	0xc1222445	-10.133855
228	0xc0a908e5	-5.2823358
229	0x404fa260	3.2442856
230	0x3ef2e80c	0.47442663
231	0x4227eb48	41.979767
232	0xbf923be0	-1.1424522
233	0xc161de1c	-14.116726
234	0xc115e525	-9.3684435
235	0xc0d7130a	-6.721074
236	0x41b264af	22.299162
237	0x40027800	2.0385742
238	0x41070d45	8.44074
239	0x403ebed6	2.9803977
240	0xc277c96c	-61.9467
241	0x4150e469	13.055764
242	0xc0d0681d	-6.512709
243	0xc13495d6	-11.286581
244	0x417bf976	15.748404
245	0x3f3242cc	0.69633174
246	0x4046f87d	3.1089165
247	0xc2076d9c	-33.85704
248	0xc0e5d4b6	-7.1822157
249	0x400a8165	2.1641476
250	0xc0f909c1	-7.7824407
251	0x41abf377	21.49388
252	0xc1ac40c9	-21.531633
253	0x413fdf95	11.992085
254	0xc10e0981	-8.87732
255	0x41541d1e	13.257109

4.bias f4 [5]
0	0x4568975a	3721.4595
1	0x456813a3	3713.2273
2	0x45684032	3716.0122
3	0x45670ca3	3696.7898
4	0x45756f31	3926.9495

0.weight f4 [150, 11]
0	0xc094fd62	-4.6559305
1	0xc0898a91	-4.298165
2	0xc0d41dd1	-6.6286397
3	0xc08ba0fd	-4.363402
4	0xc08943c5	-4.2895226
5	0xc093f47b	-4.623594
6	0xc0cc6709	-6.3875775
7	0xc08890c6	-4.2676725
8	0x4090bb74	4.5228825
9	0x40995d40	4.792633
10	0xc094cbc6	-4.6498747
11	0xc0936b77	-4.6068683
12	0xc0c7f64c	-6.2488155
13	0xc0d54b78	-6.6654625
14	0xc0c7f570	-6.2487106
15	0xc0cfd8a6	-6.4951963
16	0xc0d7f539	-6.7486844
17	0xc0916314	-4.5433445
18	0x40941bdc	4.628401
19	0xc08dc720	-4.4305573
20	0x409ae537	4.8404803
21	0xc08cf2c8	-4.4046364
22	0xc1bbf41b	-23.494192
23	0xc1b98a9d	-23.192682
24	0xc1b73ccc	-22.904686
25	0xc1bca7e5	-23.58198
26	0xc0c7d957	-6.2452807
27	0xc1bce93f	-23.61389
28	0xc0b82a66	-5.7551756
29	0x413bb5dd	11.7319
30	0x4133a75d	11.22836
31	0xc1351a22	-11.31888
32	0x412f3800	10.951172
33	0xc19297ea	-18.324177
34	0xc2011021	-32.26575
35	0xc1f98db1	-31.194185
36	0xc188eca3	-17.115545
37	0xbe4d82c8	-0.2006942
38	0xc188ca00	-17.098633
39	0xc1850eb3	-16.632177
40	0x4088289e	4.254958
41	0xbe83e948	-0.25763917
42	0xc08eceff	-4.462768
43	0x3fc43cf1	1.5331098
44	0xc0c47a84	-6.1399555
45	0xc0c3a570	-6.113945
46	0xc0e3543e	-7.1040335
47	0xc0ecfe32	-7.4060297
48	0xbe23fa72	-0.16013506
49	0xc0f2b1fd	-7.584227
50	0xc0ae58ba	-5.448331
51	0xc03cb3d3	-2.9484756
52	0xc04f79ed	-3.2418168
53	0xc052a61f	-3.2913892
54	0xc044d3e4	-3.0754328
55	0xc12262ee	-10.149153
56	0xc0c07b7c	-6.015074
57	0xc120f7a9	-10.060464
58	0xc180b57a	-16.088612
59	0xc0bd8ed9	-5.9236875
60	0xc17b34b0	-15.700363
61	0xc11d3c77	-9.827262
62	0x40782871	3.8774683
63	0xc0819589	-4.049504
64	0x411fa333	9.977344
65	0xc06ceb50	-3.7018623
66	0xc08c1c1b	-4.378431
67	0xc090e15a	-4.5275087
68	0xc08aec32	-4.3413324
69	0xc09ada54	-4.8391514
70	0xc097901e	-4.7363424
71	0xc08c1f92	-4.378854
72	0xc08a88b3	-4.329187
73	0xc094f3fb	-4.654783
74	0xc08e4947	-4.446445
75	0x40da4433	6.820825
76	0x40ccc76f	6.399345
77	0xc08c6bee	-4.388175
78	0xc08ce51a	-4.4029665
79	0xc08985bc	-4.297575
80	0xc088b476	-4.272029
81	0xc0d7bca0	-6.7417755
82	0xc098da6c	-4.776663
83	0xc0998ddd	-4.7985673
84	0xc093039b	-4.59419
85	0x408bf14b	4.3732047
86	0x408df8d8	4.4366264
87	0xc0919424	-4.5493336
88	0xc21605ab	-37.505535
89	0xc214a050	-37.156555
90	0xc0c1d30e	-6.0570135
91	0xc21646b6	-37.569054
92	0xc0c3b5dc	-6.1159496
93	0xc0ba25eb	-5.8171287
94	0xc0bafe16	-5.8435163
95	0x41cb5f85	25.42164
96	0x41cb5404	25.416023
97	0x41ca0b75	25.255594
98	0xc1ca84e5	-25.31489
99	0xc2064a29	-33.572422
100	0xc20f9845	-35.8987
101	0xc1de4d52	-27.787754
102	0xc2104719	-36.06943
103	0xc1be6c73	-23.802954
104	0xc1df6242	-27.922977
105	0xc27d6c70	-63.355896
106	0xc0ccd5f6	-6.4011183
107	0xc24f54d6	-51.832848
108	0xc082a872	-4.083062
109	0xc20faa42	-35.916267
110	0xc089835d	-4.2972856
111	0xc0b4f1fd	-5.6545396
112	0xc095b7a4	-4.678667
113	0xc0b9d7d8	-5.807598
114	0xc08f886d	-4.4854035
115	0xc09018d1	-4.5030293
116	0xc098063c	-4.750761
117	0xc088b627	-4.2722354
118	0x40bfb0fb	5.990354
119	0x40b29fe5	5.5820184
120	0xc0ae1e27	-5.4411807
121	0xc0bd2b3b	-5.911527
122	0xc1b76639	-22.924913
123	0xc1ba1da1	-23.264467
124	0xc0bcd948	-5.9015236
125	0xc0bf1c0c	-5.9721737
126	0xc0c02393	-6.0043426
127	0xc0bcc889	-5.8994794
128	0x40c1d12c	6.0567837
129	0x412f2017	10.945334
130	0xc1318932	-11.095995
131	0x4130bf23	11.046664
132	0xc08b8a24	-4.360613
133	0xc08d98ba	-4.4248934
134	0xc0c9af4d	-6.302649
135	0xc091a598	-4.551464
136	0xc092f20e	-4.5920477
137	0xc0928ddf	-4.5798182
138	0xc092c3ce	-4.586402
139	0xc0936472	-4.6060114
140	0x408f76fd	4.483275
141	0x40973478	4.725155
142	0xc09d4834	-4.915064
143	0xc1f6e54f	-30.861967
144	0xc206fdb8	-33.747772
145	0xc2083e92	-34.061104
146	0xc2070d77	-33.76315
147	0xc20831d0	-34.048645
148	0xc207cc14	-33.949295
149	0xc1f282d1	-30.313875
150	0x4195dc5a	18.732594
151	0xc196dd8a	-18.858173
152	0x41970f84	18.882576
153	0xc1af3a5d	-21.903498
154	0xc099f8fc	-4.8116436
155	0xc08a22d4	-4.3167515
156	0xc099e0d8	-4.8086967
157	0xc08e6f18	-4.4510612
158	0xc08c3d1b	-4.382459
159	0xc088967a	-4.2683687
160	0xc09a2292	-4.81672
161	0xc08de809	-4.4345746
162	0x408de25f	4.433883
163	0x408aa25c	4.3323193
164	0xc098888d	-4.766669
165	0xc0d887f5	-6.7665963
166	0xc0963121	-4.693497
167	0xc095f8ed	-4.6866364
168	0xc08f25e2	-4.4733744
169	0xc08d0783	-4.407167
170	0xc08aab09	-4.3333783
171	0xc0983907	-4.7569613
172	0xc08a8895	-4.3291726
173	0x40970073	4.718805
174	0x40d77266	6.7327147
175	0xc09f7ea1	-4.9842076
176	0xc212bea2	-36.686165
177	0xc21240f9	-36.56345
178	0xc0b9b402	-5.8032236
179	0xc21147a7	-36.319973
180	0x40bc613a	5.8868685
181	0xc2110c54	-36.26204
182	0xc21139ae	-36.306328
183	0xc1814176	-16.156963
184	0x41c3e00f	24.484404
185	0x41c45c42	24.545048
186	0xc1823692	-16.276646
187	0xc092b0e6	-4.584094
188	0xc093030e	-4.594123
189	0xc088d2fa	-4.275754
190	0xc08a7bd0	-4.327614
191	0xc087e390	-4.2465286
192	0xc096f204	-4.717043
193	0xc1526258	-13.14901
194	0xc0d048dc	-6.508894
195	0xc1201988	-10.006233
196	0x4088e54e	4.2779913
197	0xc0919ef9	-4.550656
198	0xc08aaa61	-4.333298
199	0xc0935934	-4.604639
200	0xc0c92566	-6.2858152
201	0xc0cf0fdb	-6.4706855
202	0xc0cfa7c4	-6.489229
203	0xc09798a4	-4.737383
204	0xc093b777	-4.6161456
205	0xc09266cd	-4.575049
206	0x40889158	4.267742
207	0x408d8c61	4.423386
208	0x408b0725	4.344622
209	0xc0b6ed50	-5.716469
210	0xc095423b	-4.664335
211	0xc0b68e5e	-5.704879
212	0xc09700f6	-4.7188673
213	0xc08e2ffa	-4.4433565
214	0xc08fe5c8	-4.4967995
215	0xc0b755c6	-5.7292204
216	0xc08ca96a	-4.3956804
217	0x408a4765	4.321215
218	0x40b3bd7e	5.6168814
219	0x408c1726	4.3778257
220	0xc19d6f54	-19.67936
221	0xc1d99df1	-27.20212
222	0xc08a3955	-4.3194985
223	0xc1c68476	-24.814678
224	0xc096ad08	-4.708622
225	0xc08837ad	-4.2567964
226	0xc13ce072	-11.804796
227	0x41b97710	23.183136
228	0x415f01c2	13.937929
229	0x4202d92d	32.712086
230	0xc08f07d6	-4.4697065
231	0xc1bbe12e	-23.484951
232	0xc1b8c98e	-23.098415
233	0xc1b6e497	-22.861616
234	0xc1c07651	-24.057772
235	0xc0c628ad	-6.1924653
236	0xc1bc5eaa	-23.546223
237	0xc0c3762d	-6.1081758
238	0x413b9cbd	11.725766
239	0x41310a52	11.06502
240	0xc1323519	-11.137963
241	0x412f2796	10.947165
242	0xc087f17c	-4.248228
243	0xc08e3378	-4.443783
244	0xc09775e0	-4.733139
245	0xc08c6e1c	-4.388441
246	0xc0898409	-4.2973676
247	0xc0927a7a	-4.5774508
248	0xc09fb2dc	-4.9905834
249	0xc0899071	-4.298882
250	0x40879ce7	4.237903
251	0x40d748c8	6.7276344
252	0xc097c866	-4.7432127
253	0xc09a363f	-4.819122
254	0xc090083e	-4.501006
255	0xc0cd058d	-6.4069276

0.bias f4 [150]
0	0xc08adb0b	-4.3392386
1	0xc0d41489	-6.6275067
2	0xc1b8f95b	-23.121756
3	0xc200d3be	-32.20678
4	0xc0f36b64	-7.606859
5	0xc17c81bc	-15.781673
6	0xc099fd36	-4.8121595
7	0xc08d93d5	-4.424296
8	0xc2163154	-37.548172
9	0xc277ee9d	-61.98302
10	0xc094c32b	-4.648824
11	0xc1ba1e46	-23.264782
12	0xc08e26e7	-4.442249
13	0xc1f40083	-30.50025
14	0xc0969a08	-4.7063026
15	0xc092cd04	-4.5875263
16	0xc2629ed6	-56.655113
17	0xc10437d0	-8.263626
18	0xc08a7559	-4.3268247
19	0xc0984c51	-4.759316
20	0xc1aa936f	-21.32199
21	0xc1b6712b	-22.805258
22	0xc08fc052	-4.4922266
23	0xc088a165	-4.2697015
24	0x4243cad5	48.94808
25	0xc1b607cc	-22.753807
26	0xc0893658	-4.2878838
27	0xc0915765	-4.5419183
28	0xc099c150	-4.8048477
29	0xc0982348	-4.754307
30	0xc1b8fbf0	-23.123016
31	0xc093e710	-4.621956
32	0xc0980935	-4.751124
33	0xc0cecbeb	-6.4623923
34	0xc09ae192	-4.8400354
35	0xc0cdb9eb	-6.428945
36	0xc0d6cdd3	-6.712625
37	0xc0cd5069	-6.4160657
38	0xc1e6ee1f	-28.86627
39	0xc2041fad	-33.030933
40	0xc08ccb33	-4.3998046
41	0xc09a90d3	-4.8301787
42	0xc0cdb07a	-6.4277925
43	0xc0961431	-4.689965
44	0xc08941b9	-4.289273
45	0x414e9cdb	12.913295
46	0xc2066900	-33.60254
47	0xc091aa99	-4.552075
48	0xc0c7ce1b	-6.2439094
49	0xc09a7550	-4.8268204
50	0xc0908b8c	-4.5170345
51	0xc2160637	-37.50607
52	0xc0be1e07	-5.9411654
53	0xc0894c81	-4.290589
54	0xc0d2843a	-6.578641
55	0xc0960c11	-4.688973
56	0xc094bdd7	-4.648174
57	0xc21a1992	-38.52497
58	0xc08fef7e	-4.497985
59	0xc08b215b	-4.3478217
60	0xc0cde780	-6.4345093
61	0xc0cf937e	-6.4867544
62	0xc0d99856	-6.7998457
63	0xc0910941	-4.5323796
64	0xc1b68596	-22.815228
65	0xc0be210c	-5.941534
66	0xc211034e	-36.253227
67	0xc20a659f	-34.59924
68	0xc0911704	-4.5340595
69	0xc08d9963	-4.424974
70	0xc1abd8a5	-21.480783
71	0xc0c89145	-6.267733
72	0xc0d57cc5	-6.6714807
73	0xc20dcbaf	-35.44891
74	0xc2028fa4	-32.640274
75	0xc0c495c9	-6.1432843
76	0xc20dceb3	-35.451855
77	0xbe87352f	-0.26407763
78	0xc08aad73	-4.333673
79	0xc0d68f12	-6.7049646
80	0xc092d07c	-4.5879498
81	0xc08f40a4	-4.4766407
82	0xc0996300	-4.793335
83	0xc0946a72	-4.637994
84	0xc0911086	-4.533267
85	0xc090877f	-4.51654
86	0xc08b1b7d	-4.3471055
87	0xc08a733c	-4.3265667
88	0xc211ec71	-36.4809
89	0xc250722f	-52.111507
90	0xc0d571eb	-6.670156
91	0xc098e404	-4.777834
92	0xc1259224	-10.348179
93	0xc08a22e8	-4.316761
94	0xc1f9c58c	-31.221458
95	0xc09ae411	-4.84034
96	0xc1acbc0d	-21.591822
97	0xc09356e7	-4.604358
98	0xc0ceb4f3	-6.4595885
99	0xc093d31e	-4.619521
100	0xc0bd32f5	-5.9124703
101	0xc091462f	-4.5398173
102	0xc2127a33	-36.619335
103	0xc0d6c48b	-6.711492
104	0xc0935b3b	-4.6048865
105	0xc0c59a46	-6.175082
106	0xc209cd1c	-34.450302
107	0xc0922390	-4.566841
108	0xc0d6b6c9	-6.7098126
109	0xc0a43f00	-5.1326904
110	0xc0c0c7b2	-6.024377
111	0xc11239bd	-9.139096
112	0xc115478c	-9.3299675
113	0xc104dc8c	-8.303844
114	0xc280dd5d	-64.43235
115	0xc1e87ab5	-29.059916
116	0xc0c7eb12	-6.247445
117	0xc08d88ac	-4.4229336
118	0xc0d8d972	-6.7765436
119	0xc205b298	-33.424408
120	0xc09fe704	-4.99695
121	0xc0d8dd2c	-6.7769985
122	0xc225c96c	-41.4467
123	0xc0cd3598	-6.412792
124	0xc0b79562	-5.736985
125	0xc098bbe9	-4.7729383
126	0xc09aad61	-4.8336644
127	0xc1b8261c	-23.018608
128	0xc20a2c95	-34.543537
129	0xc1b63adf	-22.778746
130	0xc1aa9ee5	-21.327585
131	0xc0b7b636	-5.7409925
132	0xc0cdcc24	-6.4311695
133	0xc21738b3	-37.80537
134	0xc1e09cfe	-28.076656
135	0xc0cc8ae7	-6.391956
136	0xc248625f	-50.096066
137	0xc08b321f	-4.3498683
138	0xc21416bf	-37.022213
139	0x4193079a	18.378712
140	0xc1f67ddb	-30.811453
141	0xc20cc0d6	-35.188316
142	0xc08be335	-4.371485
143	0xc09a840f	-4.8286204
144	0xc09a395f	-4.8195033
145	0xc22bbd7e	-42.93505
146	0x4158036f	13.500838
147	0x41752da2	15.323641
148	0xc0efded5	-7.495951
149	0xc0907d6c	-4.5153103

2.weight f4 [100, 150]
0	0x406ddeb3	3.7167175
1	0xc0c196a8	-6.0496407
2	0xc0be6bd5	-5.950663
3	0xc150cdfe	-13.050291
4	0xbc0ae663	-0.00847778
5	0xc0be9d06	-5.956668
6	0x40915f3b	4.542875
7	0x40dfe80e	6.997077
8	0xc215786e	-37.367607
9	0xc0fffda5	-7.9997125
10	0xc0ef2652	-7.473428
11	0x40bd0d96	5.9079084
12	0x4065d8b9	3.5913527
13	0x41aeb878	21.840073
14	0x40e144fe	7.039672
15	0xc0c17ef2	-6.0467463
16	0xc211ae92	-36.42048
17	0xc14485ae	-12.282637
18	0xc0692293	-3.6427352
19	0xc0ddcbb0	-6.931114
20	0xc17d7943	-15.842105
21	0xc0a86a26	-5.2629576
22	0x41a37117	20.43022
23	0x40df4d95	6.9782205
24	0xc1ee1030	-29.757904
25	0xc0b327aa	-5.598592
26	0xc08c7cc3	-4.3902297
27	0xc0bfacb1	-5.9898305
28	0x40e27a7f	7.077453
29	0x3d588f6d	0.052871156
30	0xc0bee9f1	-5.9660573
31	0xc0beaa21	-5.9582677
32	0xc0e0f622	-7.0300455
33	0xc0c13dda	-6.0388002
34	0x406b0ebd	3.6727746
35	0xc0bff2d7	-5.9983935
36	0xc0be9c7a	-5.956601
37	0xc0bfce0b	-5.9939017
38	0xc1de35dc	-27.776299
39	0xbf1aa1dc	-0.6040323
40	0x40e042b8	7.0081444
41	0xc1950fbd	-18.632685
42	0xc0c1a82e	-6.0517797
43	0x40e06a53	7.012979
44	0xc0e07a71	-7.0149465
45	0xc103ea5c	-8.244717
46	0x41caf015	25.367228
47	0xc0669264	-3.602685
48	0x40e075d5	7.014384
49	0xc18858b9	-17.043322
50	0xc0e37845	-7.1084313
51	0x417a91a0	15.660553
52	0x40bf3df0	5.9763107
53	0x407c62d8	3.943533
54	0xc0be8d2e	-5.954734
55	0xc0e20e82	-7.064271
56	0x40decdc9	6.9626203
57	0x41dde7d2	27.738194
58	0x40689e4a	3.6346612
59	0x41076bc7	8.463813
60	0x40be8d23	5.9547286
61	0xc0bffef6	-5.999873
62	0x4038517b	2.8799732
63	0x40bdb2cb	5.9280753
64	0xc1ba35ec	-23.276329
65	0x40c05787	6.0106845
66	0xc0c20dc9	-6.0641828
67	0xc0be3e17	-5.9450793
68	0xc0e2829c	-7.0784435
69	0x40e72b1b	7.224012
70	0xc15675c1	-13.4037485
71	0xc0be2e13	-5.9431243
72	0xc0c0a017	-6.019542
73	0xc2046f5c	-33.10875
74	0x41b09d82	22.076908
75	0x40c10c29	6.0327344
76	0x41ab21a2	21.391422
77	0x3d3ef21f	0.046617623
78	0x40df475f	6.9774623
79	0xc0cca607	-6.395267
80	0x406949b3	3.6451232
81	0xc0e2c21d	-7.0861955
82	0x405406af	3.312908
83	0x40e2aed8	7.083843
84	0x406b05fa	3.6722398
85	0x40696c77	3.6472452
86	0x40ded664	6.9636707
87	0x40dea7c4	6.957979
88	0xbc257d70	-0.010100707
89	0xc04732ef	-3.1124837
90	0xc0bf5fe2	-5.9804544
91	0xc062ca4b	-3.543597
92	0xc211958f	-36.396053
93	0x4060d9f5	3.513303
94	0xc0c111d5	-6.033427
95	0x40e2d811	7.0888753
96	0x41307dd7	11.030723
97	0xc0ea9b02	-7.331422
98	0x40c03531	6.006493
99	0x406c6174	3.693448
100	0x40bf7772	5.9833307
101	0xc0e76cc0	-7.232025
102	0xbd9013eb	-0.07035049
103	0x40be2d38	5.94302
104	0xc0679225	-3.618295
105	0xc0bf49bb	-5.9777503
106	0x40bf249b	5.9732184
107	0xc0e2adf0	-7.0837326
108	0xc0c1396d	-6.03826
109	0xc1739bdc	-15.225552
110	0x40bf3b71	5.976006
111	0xc1729bca	-15.163034
112	0xc123300a	-10.199228
113	0xc211f873	-36.492626
114	0xc1ab3930	-21.402924
115	0xc0bdc251	-5.9299703
116	0xc0bd8cc1	-5.923432
117	0xc0bddd2e	-5.9332495
118	0x40bd03d0	5.9067154
119	0x41cb25b7	25.393415
120	0x41a31cb3	20.389013
121	0xc0c22f37	-6.0682635
122	0x41b320e6	22.391064
123	0xc0bfa7e0	-5.9892426
124	0xc0bf3ca9	-5.976155
125	0x40e14698	7.0398674
126	0xc0a828bf	-5.254974
127	0x419d0462	19.62714
128	0x40bd63d5	5.9184365
129	0xc0996d6f	-4.7946086
130	0x41320642	11.126528
131	0x40c16d7d	6.0446153
132	0xc0bf1c53	-5.9722075
133	0xc0646e6e	-3.56924
134	0xc0be635b	-5.9496284
135	0x40bdf549	5.936192
136	0xc14afe5f	-12.687102
137	0x40bf4649	5.9773297
138	0xc21546a5	-37.31899
139	0xbef92b1a	-0.48665696
140	0xc1306430	-11.02446
141	0xc0bf87a3	-5.985307
142	0x40e1ff07	7.0623813
143	0x40630453	3.547139
144	0xc0bd886f	-5.9229045
145	0xc1e67925	-28.809153
146	0xc19377fd	-18.433588
147	0xc08ec70a	-4.4617968
148	0xc1354be8	-11.331032
149	0xc1768667	-15.407813
150	0xc0900f5c	-4.501875
151	0xc093cd3e	-4.618804
152	0xc12fc356	-10.985189
153	0x3d10c4fc	0.03534411
154	0x3d2b4f30	0.041823566
155	0xc077ea37	-3.8736703
156	0xc08f00cb	-4.468847
157	0xc0d36f83	-6.6073623
158	0xc1cb09db	-25.379812
159	0xc1befb61	-23.872744
160	0xc090bc31	-4.5229726
161	0xc1b7ebc9	-22.99013
162	0xc09067d9	-4.5126767
163	0xc0c1e2a7	-6.0589175
164	0xc0d2d6fd	-6.5887437
165	0xc08f5cd9	-4.480084
166	0xc071835a	-3.773642
167	0xc0d08125	-6.5157647
168	0xc0d2a54b	-6.5826774
169	0xc0b135bc	-5.5378094
170	0xc0911757	-4.534099
171	0xc131f932	-11.123339
172	0xc090d288	-4.5256996
173	0xc0d3d994	-6.62031
174	0xc09c1f6b	-4.878835
175	0xc131b722	-11.10721
176	0xc0917d65	-4.546557
177	0xc0912993	-4.536325
178	0xc0d21293	-6.5647674
179	0xc0b388a3	-5.6104293
180	0xc131563a	-11.083551
181	0xc0cfd6b9	-6.4949613
182	0xc09175fe	-4.5456533
183	0xc0901304	-4.5023212
184	0xc091c905	-4.5557885
185	0xc0940424	-4.6255054
186	0xc0cf5f81	-6.480408
187	0xc07c2864	-3.9399652
188	0xc0a7ebf8	-5.247555
189	0xc092464d	-4.5710816
190	0xc0915279	-4.5413175
191	0xc08f2b59	-4.4740415
192	0xc08ee91a	-4.465955
193	0xc0ceb4af	-6.459556
194	0xc0d318cc	-6.596777
195	0xc0ae6681	-5.4500127
196	0xc0928bcf	-4.5795665
197	0xc0d1b9e6	-6.5539427
198	0xc0cf4af6	-6.4779005
199	0xc0910d86	-4.532901
200	0xc0d1481b	-6.540052
201	0xc130b3a9	-11.043862
202	0xc0c19aad	-6.0501313
203	0xc0907700	-4.5145264
204	0xc09115f0	-4.533928
205	0xc0d29e21	-6.581803
206	0xc0d2ec40	-6.591339
207	0xc131276b	-11.072124
208	0xc0d0cc7d	-6.524962
209	0xc093466c	-4.6023464
210	0xc092b00f	-4.5839915
211	0xc093b7a3	-4.6161666
212	0xc08f60f5	-4.4805856
213	0xc0922ea4	-4.5681934
214	0x41f3983f	30.449339
215	0x40c1ddf6	6.058345
216	0xc091efd6	-4.560527
217	0xc091d191	-4.556832
218	0xc0cffa40	-6.499298
219	0xc0d0a637	-6.52029
220	0xc08ed5a8	-4.463581
221	0xc0906ed4	-4.513529
222	0xc0d3cd26	-6.6187925
223	0xc0be32e2	-5.9437113
224	0x3d8acfd9	0.06777925
225	0xc0c20a68	-6.0637703
226	0xc09378ac	-4.6084805
227	0xbd623708	-0.055228263
228	0xc0b3afa0	-5.6151886
229	0xc0a70ce5	-5.220324
230	0xc0d1d378	-6.557064
231	0xc0b1def7	-5.5584674
232	0xc08f642b	-4.4809775
233	0xc0d0a65d	-6.520308
234	0xc0d1477e	-6.539977
235	0xc093f339	-4.6234403
236	0xc08fe560	-4.49675
237	0xc091f5e9	-4.5612683
238	0x3c195b13	0.009360093
239	0xc1539280	-13.223267
240	0xc08ee04b	-4.4648795
241	0xc08eee14	-4.4665623
242	0xc0907669	-4.5144544
243	0xc092fc2e	-4.5932837
244	0x382aeefe	4.0753737e-05
245	0xc0915f5d	-4.542891
246	0xc13270e3	-11.15256
247	0xc0d1acb6	-6.552333
248	0xc0939d3f	-4.612945
249	0xc09025bf	-4.5046077
250	0xc0be4565	-5.945971
251	0xc09122bf	-4.5354915
252	0xbc68ead4	-0.014216144
253	0xc0d3d1a7	-6.6193423
254	0xc0d319ce	-6.5969
255	0xc047b9cb	-3.120715

2.bias f4 [100]
0	0x422d61aa	43.345375
1	0xc1857359	-16.681322
2	0xc23a15fd	-46.521473
3	0xc24e1437	-51.51974
4	0xc26708cf	-57.758602
5	0xc222a646	-40.662376
6	0xc142d54e	-12.177076
7	0xc159e2af	-13.617843
8	0xc28703e8	-67.50763
9	0xc1d84ae6	-27.036572
10	0xc1dfb0b2	-27.961277
11	0xc12e36b7	-10.888358
12	0x429e483b	79.141075
13	0xc1d538d8	-26.652756
14	0xc223e5ad	-40.974293
15	0xc255e1a1	-53.47034
16	0xc0da7327	-6.8265567
17	0xc22e1578	-43.520966
18	0xc180b0ff	-16.086424
19	0xc11d61ea	-9.836405
20	0xc280e3e8	-64.44513
21	0xc0e87139	-7.263821
22	0xbff3e334	-1.9053712
23	0xc1b6830f	-22.813993
24	0xc20404f8	-33.004852
25	0xc2028c98	-32.6373
26	0xc199fbeb	-19.248007
27	0xc20362e5	-32.846577
28	0xc0aa9086	-5.330142
29	0xc19fed98	-19.991013
30	0xc0b8fa3a	-5.780545
31	0xc2830fa8	-65.53058
32	0xc13464eb	-11.274638
33	0xc1795660	-15.583588
34	0xc1220d58	-10.128258
35	0xc22d1f11	-43.28034
36	0xc2a887d2	-84.265274
37	0xc180a40b	-16.0801
38	0xc201b3cb	-32.42558
39	0xc1dda1bc	-27.703972
40	0xc18cb532	-17.588474
41	0xc19a7cae	-19.310879
42	0xc0e4b699	-7.1472898
43	0xc209ab88	-34.41751
44	0xc1ddff2f	-27.749601
45	0xc1607b7a	-14.030146
46	0xc1b8e2af	-23.110685
47	0xc0e78d08	-7.2359657
48	0xc1410f31	-12.066209
49	0xc1b79a9b	-22.95049
50	0xc1b4a6e5	-22.581491
51	0xc1d0aa65	-26.0832
52	0xc26a3e35	-58.56075
53	0xc1b07dfe	-22.06152
54	0xc0d4781c	-6.639662
55	0xc215b17f	-37.423336
56	0xc2a4d684	-82.418976
57	0xc2197bcb	-38.37089
58	0xc18a97f2	-17.324192
59	0xc2173e14	-37.810623
60	0xc15fe484	-13.99329
61	0xc1b0086b	-22.00411
62	0xc10834c1	-8.512879
63	0xc23a608c	-46.594284
64	0xc0cbd198	-6.369335
65	0xc29687a4	-75.26492
66	0xc0f7257b	-7.7233253
67	0xc17224a2	-15.133944
68	0xc1a9bbcc	-21.216698
69	0xc197808c	-18.937767
70	0xc232f154	-44.735672
71	0xc210ffcf	-36.249813
72	0xc025ea04	-2.5924082
73	0xc1cdf1df	-25.743101
74	0xc20de729	-35.475742
75	0xc0ddbed5	-6.929545
76	0xc13f484a	-11.955149
77	0xc1729b34	-15.162891
78	0xbf46b3be	-0.77618015
79	0xc15bee7e	-13.745726
80	0xc1c67aec	-24.81002
81	0xc0bf04d7	-5.969341
82	0xc1dc6be8	-27.552689
83	0xc21734a2	-37.8014
84	0xc238b539	-46.176975
85	0xc1c78993	-24.942175
86	0xc09b9c68	-4.8628426
87	0xc299bd6b	-76.86996
88	0xc27701b3	-61.75166
89	0xc1af782d	-21.93368
90	0xc201803f	-32.37524
91	0xc29958d6	-76.67351
92	0xc2795bd9	-62.339695
93	0xc28c33f0	-70.10144
94	0xc1163b51	-9.389482
95	0xc1e70190	-28.875763
96	0xc192e5b8	-18.362167
97	0xc1958de0	-18.694275
98	0xc11306d4	-9.189167
99	0xc2075c60	-33.84021
