trained_buffer/epsilon050_dqn_agent_state_truncated_step25.pth (torch, 680590 bytes, 24 tensors)

0.weight f4 [150, 11]
-4.704345 -4.823392 -4.4605846 -4.817319 -0.10972597 -4.310569 -4.2550015 4.304038
4.420215 4.7714944 -6.755518 -4.310308 -4.497226 -4.3916693 -4.555517 0.14675698
-4.7655287 -4.7398376 4.690008 6.6722507 4.5925894 -6.6588764 -4.7011046 -4.347283
-5.8224087 -4.5362425 -0.07019849 -5.677821 -4.6944714 4.2766113 4.684896 4.384886
-4.7495008 -37.643253 -4.756349 -6.622986 -6.72171 0.1358824 -6.3317914 -37.885597
-0.45758832 2.2684717 4.037292 4.2797184 -4.7408457 -6.267278 -6.259191 -6.596572
-0.08194253 -6.410352 -6.569994 4.6220045 -4.313165 4.5047774 -4.7463846 -4.5189795
-6.633624 -6.3170867 -6.487485 0.028077269 -4.4337754 -6.2880783 -4.7656627 4.4737506
4.33833 4.3192167 -5.7998195 -5.8150544 -5.805856 -6.2257357 0.11335333 -5.8600116
-5.7938337 5.7118516 -5.873878 -6.095605 -5.8243184 -4.6285152 -4.4364815 -4.7291045
-4.253521 -0.103367515 -4.6621556 -4.5502214 4.4934525 4.3609257 4.5673656 -6.358216
-6.4194984 -6.334472 -6.6099815 -6.8402386 -0.19554357 -4.6946287 -6.3029056 -4.4007077
-4.413264 4.4036098 -4.333496 -4.5893083 -4.666667 -4.2914243 -4.379969 0.047462527
-4.289753 -4.4079466 6.5766644 7.1047897 6.8263063 -6.4512043 -4.8299165 -4.5169034
-6.4682074 -4.746627 -0.121007994 -6.7143235 -4.3750105 4.742177 -2.2391648 4.291577
-4.287017 -22.203154 -22.071184 -22.130177 -6.091391 -0.19094823 -6.0646157 -22.499723
10.166636 10.583049 10.65058 10.334075 -6.629637 -29.58036 -6.387241 -6.441246
0.26133668 -5.9527674 -6.505366 4.8118157 -4.2380633 4.3568625 -4.8141537 -4.284754
-4.472692 -4.2825513 -4.635446 0.11410612 -4.3411493 -4.459895 6.487561 4.840731
4.4339714 -6.715539 -4.776729 -4.8379555 -4.3762746 -4.3263984 0.05866199 -4.1952386
-4.2564673 7.0223265 5.898439 7.1877613 -4.264815 -4.663111 -4.3389997 -4.505785
-4.3730536 0.24439156 -4.293298 -4.5054255 4.5938015 8.285196 6.9599423 -4.4516053
-4.7654905 -6.1941004 -6.001269 -4.589297 -0.06569736 -5.3097854 -4.8312836 4.432342
-3.1103547 4.061067 -3.7999852 -37.68879 -37.63579 -37.866074 -37.4706 -0.14309756
-37.545147 -38.023518 25.680515 -25.44318 25.921251 25.710005 -4.6411357 -4.574146
-4.0930724 -4.57122 0.2539315 -4.5758023 -4.301928 4.827468 7.643626 6.9794664
-4.7518935 -4.422812 -4.160625 -6.6211495 -4.3995347 31.749544 -6.699169 -4.2249784
4.2904634 -8.433522 5.0243154 -6.8707433 -4.7045565 -4.369273 -4.3415666 -4.257468
0.03013655 -4.7468224 -4.493871 4.7383237 4.430566 6.411706 -4.5144053 -0.17946827
-5.8097563 -0.16698804 -5.876113 -0.18038543 -0.13123365 -6.217637 0.048585348 6.1317577
-0.122093074 6.0426373 -4.5751715 -4.404247 -4.565342 -4.4255176 0.04789395 -4.3752484
-4.2706733 4.252553 4.397719 4.8119426 -6.700004 -4.720196 -4.0981307 -6.482961
00000000: ff89 96c0 3a59 9ac0 1cbd 8ec0 7a27 9ac0
00000010: 02b8 e0bd 2ef0 89c0 f928 88c0 aeba 8940
00000020: 6772 8d40 15b0 9840 342d d8c0 0bee 89c0
00000030: 47e9 8fc0 8e88 8cc0 ccc6 91c0 7647 163e
00000040: 367f 98c0 c0ac 97c0 8c14 9640 1483 d540
00000050: 7ef6 9240 8415 d5c0 736f 96c0 f11c 8bc0
00000060: 2c51 bac0 e628 91c0 3ac4 8fbd b6b0 b5c0
00000070: 1c39 96c0 00da 8840 abea 9540 fc50 8c40
00000080: e9fb 97c0 b192 16c2 0334 98c0 80ef d3c0
00000090: 4018 d7c0 c224 0b3e 099e cac0 da8a 17c2
000000a0: 0449 eabe a42e 1140 7f31 8140 74f3 8840
000000b0: 02b5 97c0 8b8d c8c0 4b4b c8c0 1e17 d3c0
000000c0: 7cd1 a7bd 9b21 cdc0 643d d2c0 76e7 9340
000000d0: 7305 8ac0 2327 9040 62e2 97c0 7b9b 90c0
000000e0: a646 d4c0 9325 cac0 7a99 cfc0 4d02 e63c
000000f0: 7de1 8dc0 f037 c9c0 4f80 98c0 f728 8f40
00000100: 99d3 8a40 0637 8a40 1f98 b9c0 ed14 bac0
00000110: 93c9 b9c0 3a39 c7c0 ca25 e83d 3785 bbc0
00000120: 1667 b9c0 7dc7 b640 cff6 bbc0 320f c3c0
00000130: d160 bac0 cc1c 94c0 a8f7 8dc0 d354 97c0
00000140: d81c 88c0 59b2 d3bd 6130 95c0 6a9b 91c0
00000150: 5dca 8f40 b48c 8b40 dc27 9240 8176 cbc0
00000160: 886c cdc0 ffb3 cac0 f884 d3c0 3ce3 dac0
00000170: 933c 48be 663a 96c0 67b1 c9c0 99d2 8cc0
00000180: 7539 8dc0 5fea 8c40 00ac 8ac0 9ddb 92c0
00000190: 5655 95c0 5953 89c0 b528 8cc0 1168 423d
000001a0: a845 89c0 e60d 8dc0 0974 d240 705a e340
000001b0: 1a71 da40 4470 cec0 ad8e 9ac0 798a 90c0
000001c0: 8efb cec0 5ee4 97c0 0ad3 f7bd bddb d6c0
000001d0: 1600 8cc0 eabf 9740 7a4e 0fc0 9954 8940
000001e0: 3e2f 89c0 0fa0 b1c1 c991 b0c1 9a0a b1c1
000001f0: adec c2c0 ef87 43be 5511 c2c0 6fff b3c1
00000200: 8baa 2241 2b54 2941 c768 2a41 5f58 2541
00000210: fc25 d4c0 94a4 ecc1 4764 ccc0 b01e cec0
00000220: eccd 853e 127d bec0 f52b d0c0 65fa 9940
00000230: 379e 87c0 6b6b 8b40 8c0d 9ac0 b41c 89c0
00000240: 4b20 8fc0 a90a 89c0 9355 94c0 78b0 e93d
00000250: b2ea 8ac0 76b7 8ec0 1a9a cf40 45e7 9a40
00000260: 18e3 8d40 b2e5 d6c0 f7da 98c0 88d0 9ac0
00000270: 710a 8cc0 db71 8ac0 8e47 703d 653f 86c0
00000280: fb34 88c0 e6b6 e040 03c0 bc40 2402 e640
00000290: 5d79 88c0 3538 95c0 16d9 8ac0 642f 90c0
000002a0: 0ef0 8bc0 c841 7a3e b262 89c0 722c 90c0
000002b0: 6c00 9340 2a90 0441 d9b7 de40 8d73 8ec0
000002c0: e67e 98c0 1236 c6c0 650a c0c0 85db 92c0
000002d0: 568c 86bd c3e9 a9c0 e099 9ac0 bfd5 8d40
000002e0: 0d10 47c0 43f4 8140 f532 73c0 52c1 16c2
000002f0: 0d8b 16c2 dc76 17c2 e5e1 15c2 2b88 12be
00000300: 3b2e 16c2 1518 18c2 b271 cd41 a28b cbc1
00000310: b95e cf41 17ae cd41 2f84 94c0 675f 92c0
00000320: 73fa 82c0 6f47 92c0 4f03 823e f96c 92c0
00000330: 65a9 89c0 9e7a 9a40 9698 f440 ca57 df40
00000340: 830f 98c0 ad87 8dc0 d723 85c0 75e0 d3c0
00000350: fdc8 8cc0 11ff fd41 985f d6c0 0633 87c0
00000360: 7a4b 8940 b5ef 06c1 31c7 a040 21dd dbc0
00000370: ba8b 96c0 16d1 8bc0 1dee 8ac0 2e3d 88c0
00000380: ede0 f63c f8e5 97c0 cbcd 8fc0 59a0 9740
00000390: 32c7 8d40 b22c cd40 0276 90c0 88c6 37be
000003a0: 86e9 b9c0 eafe 2abe 1e09 bcc0 f5b6 38be
000003b0: 1d62 06be e2f6 c6c0 6e01 473d 5c37 c440
000003c0: ef0b fabd 495d c140 ce67 92c0 97ef 8cc0
000003d0: 4817 92c0 d79d 8dc0 722c 443d 0902 8cc0
000003e0: 5ba9 88c0 ea14 8840 1dba 8c40 6ffb 9940
000003f0: 6f66 d6c0 d80b 97c0 e323 83c0 6b74 cfc0

0.bias f4 [150]
-4.7023616 -4.3594327 -4.710019 -12.689543 -6.4138083 -6.542734 -6.227528 -4.295235
-6.3786144 -4.381302 -4.725518 -22.520567 -6.508127 -4.7841277 -4.676701 -4.580429
-4.8282256 -37.645847 -4.5540447 -4.443707 -4.5851927 -6.234446 -4.480176 -4.585403
-4.452587 -4.8182273 -22.36901 -5.8552012 -4.4503193 -4.317701 -6.1067615 -4.7600656
-4.6780043 -4.483175 -4.601461 -6.833591 -4.4945326 -10.62699 -6.622501 -4.8141427
-4.381565 -6.1898985 -51.480034 -5.907165 -5.8653817 -4.7650394 -6.786745 -4.272142
-3.9855142 -4.4590592 -6.42644 -4.472004 -9.500261 -4.7516785 -4.7564807 -4.619274
-4.604996 -4.484347 -4.4802194 -6.622077 -4.4724827 -63.678486 8.426566 -8.0551
8.017183 -6.608697 -6.442985 -4.2908964 -4.7145157 -4.1933746 -4.4548664 -1.802823
-37.83326 -4.2863264 -4.6936054 -0.90130436 -6.2741203 -3.8177862 -37.431477 -0.13764171
-4.2699127 -5.299078 -4.4612446 -5.7289934 -7.2621036 -10.453741 -4.7379003 -4.251389
-4.391384 -6.830992 -4.2652235 -6.320076 -42.687782 66.78065 -6.259407 -6.021412
-6.6973433 -38.011463 -4.3642097 -4.292726 -37.844646 -4.7987657 26.088907 -9.44944
-4.4771957 -5.921923 -25.944267 -6.5000043 -37.85294 -5.4056883 -4.3773665 -4.9837837
-6.440001 -4.742092 -4.2570233 -6.138301 -4.595855 -6.829294 -0.1916754 -4.6008224
-6.17621 -7.4175076 -4.7159357 -5.4353533 -4.628986 -15.379196 -22.501287 -5.8636446
-4.752674 -6.4834785 -4.231359 -14.28293 -5.9384327 -6.3023925 -0.26111612 -6.3633156
-4.5609326 -6.672753 -6.780394 -4.585609 -5.9434566 -5.864015 28.844883 -4.6971855
-6.0639606 -21.291542 -23.149933 -4.3645296 -5.88387 -15.06871
00000000: bf79 96c0 7980 8bc0 7ab8 96c0 5e08 4bc1
00000010: eb3d cdc0 145e d1c0 e947 c7c0 9172 89c0
00000020: 9c1d ccc0 a033 8cc0 7237 97c0 1f2a b4c1
00000030: 9442 d0c0 9317 99c0 89a7 95c0 e092 92c0
00000040: d380 9ac0 5995 16c2 bcba 91c0 d932 8ec0
00000050: e6b9 92c0 9580 c7c0 9a5d 8fc0 9fbb 92c0
00000060: 987b 8ec0 eb2e 9ac0 bcf3 b2c1 cf5d bbc0
00000070: 0469 8ec0 9b2a 8ac0 976a c3c0 7552 98c0
00000080: 36b2 95c0 2b76 8fc0 2b3f 93c0 c7ac dac0
00000090: 36d3 8fc0 2708 2ac1 87eb d3c0 750d 9ac0
000000a0: c835 8cc0 a613 c6c0 8eeb 4dc2 7f07 bdc0
000000b0: 35b1 bbc0 347b 98c0 042d d9c0 63b5 88c0
000000c0: aa12 7fc0 9db0 8ec0 65a5 cdc0 a81a 8fc0
000000d0: 1201 18c1 c00d 98c0 1735 98c0 18d1 93c0
000000e0: 215c 93c0 c57f 8fc0 f55d 8fc0 0ee8 d3c0
000000f0: 941e 8fc0 c5b6 7ec2 37d3 0641 b1e1 00c1
00000100: 6246 0041 727a d3c0 ef2c cec0 064f 89c0
00000110: 50dd 96c0 2030 86c0 448e 8ec0 e7c2 e6bf
00000120: 4255 17c2 9629 89c0 0432 96c0 e2bb 66bf
00000130: 98c5 c8c0 9c56 74c0 d5b9 15c2 f3f1 0cbe
00000140: 20a3 88c0 0c92 a9c0 84c2 8ec0 ea53 b7c0
00000150: 2763 e8c0 8642 27c1 e19c 97c0 610b 88c0
00000160: 3886 8cc0 7d97 dac0 b67c 88c0 103e cac0
00000170: 4ac0 2ac2 b18f 8542 104d c8c0 68af c0c0
00000180: a350 d6c0 bd0b 18c2 9ba7 8bc0 035e 89c0
00000190: eb60 17c2 7d8f 99c0 15b6 d041 e830 17c1
000001a0: 3045 8fc0 6580 bdc0 dc8d cfc1 0900 d0c0
000001b0: 6969 17c2 66fb acc0 6313 8cc0 287b 9fc0
000001c0: 7d14 cec0 38bf 97c0 8939 88c0 f66c c4c0
000001d0: 3f11 93c0 9489 dac0 8e46 44be f039 93c0
000001e0: 83a3 c5c0 395c edc0 f2e8 96c0 6aee adc0
000001f0: a720 94c0 3011 76c1 a302 b4c1 faa2 bbc0
00000200: e815 98c0 a878 cfc0 4b67 87c0 e286 64c1
00000210: a407 bec0 33ad c9c0 03b1 85be 48a0 cbc0
00000220: 29f3 91c0 3187 d5c0 fdf8 d8c0 4fbd 92c0
00000230: cc30 bec0 03a6 bbc0 52c2 e641 584f 96c0
00000240: f70b c2c0 1455 aac1 1033 b9c1 3aaa 8bc0
00000250: aa48 bcc0 7019 71c1

2.weight f4 [100, 150]
-6.0375376 -6.0531206 -6.0041785 -5.93801 -5.9364233 -6.0640407 -5.9158597 -6.045255
-5.963923 -6.0052924 0.06487031 -5.933379 -5.931454 -5.9085727 -5.9193134 -6.0527396
-6.015507 -6.043938 -6.0398564 -5.98465 -5.937872 0.012673322 -5.9521585 -6.067881
-5.975173 -6.0492086 -6.0110207 -5.93755 -6.0229235 -6.049861 -5.9306026 -5.947736
-6.0448055 -5.990914 -6.0306096 -5.9253154 -6.0006676 0.036728587 -6.0511665 0.07876504
-6.0424695 -6.05518 -5.913583 -5.9104924 -5.9670644 -6.0056896 -5.9902735 -6.0085883
-5.928587 -5.9936404 -5.9968047 0.015243436 -6.0225563 -5.998736 -6.0510373 -6.0638676
-5.995962 -6.015463 -5.96639 -5.9935036 -6.00452 -6.046583 -6.0571227 -0.035017915
-6.05464 -6.063889 -5.9365435 -6.0309954 -5.9825716 -5.991196 -5.9288945 -0.01731919
-6.0336213 -5.9433866 -6.0375857 -5.910811 -6.034488 -5.9490256 -6.0559354 0.079892926
-5.9186745 -5.972754 -5.9996185 -6.025492 -5.9552503 -6.0489755 -6.0042686 -6.0687895
-6.0500736 -5.9909906 -5.9393826 -5.9779425 -6.0300817 -5.9133153 -5.968014 -5.909093
-5.968754 -6.039329 -6.0242515 -5.9308767 -5.966953 -0.04386093 -0.0564764 -6.0627627
-5.985134 -5.9155774 -6.0142574 -5.9538345 0.062026117 -5.996902 -5.9969306 -5.9306846
-5.961175 -5.989489 -6.004441 -5.929147 -6.024161 -5.921468 -0.068956904 -0.06473187
-5.937222 -6.0635448 -5.9218054 -6.0159163 0.022209853 -6.0445037 0.010308651 -5.918346
-6.068441 -5.941665 -6.0236607 0.07089881 -5.9489083 -5.936718 0.024936333 -5.985647
-6.066621 -5.922214 -6.0474973 -5.95964 -5.9491496 0.03680625 -5.9271736 -5.9939384
-5.954975 -6.0085263 -5.958313 -5.95739 -5.977569 0.01869198 -4.558326 -4.510341
-5.599385 -4.570998 -4.5642934 -4.6147137 6.0004697 -6.610665 -4.5398445 -4.5513315
-4.560376 -10.463079 -4.5529675 -4.4876075 -4.602466 -4.614173 -5.5868626 5.9551578
-6.577198 -4.4975476 -4.6271114 -0.077666394 -4.540659 -6.580135 -4.5755877 -4.5609145
-10.41701 6.031472 -4.5981064 -4.535346 5.962375 -4.5392003 -4.6067815 -6.519952
-4.62747 -4.4643507 -4.5147557 -6.503667 -4.478124 -6.5448027 -4.604342 6.06287
5.9955 5.933398 6.023472 -4.5291653 -4.594368 -4.5216556 -4.588355 -4.5163693
-4.4651628 -6.5047827 5.960877 -4.6212044 -5.566104 -4.541521 -4.600546 -4.502116
-4.4720187 -4.508774 -4.6306906 -4.5213675 -4.512126 -0.021511784 -4.5094557 -4.602483
-4.4874086 -4.5143204 -5.511068 -4.552166 -4.5063376 -0.049596373 -0.06801224 -4.490996
-4.610888 -4.550328 5.9874744 -4.56603 5.9621615 -0.03320151 -4.549495 -4.5402207
-4.588265 5.907238 -5.33811 -0.47802293 -4.557759 -4.5732617 -4.4987874 -5.5071273
-4.4664083 -4.5070415 -17.702707 -4.533688 -4.5475383 5.9812818 -6.6037703 -0.04919526
-4.5206656 -4.5380125 -5.968954 -6.4617624 -0.029261593 -4.5323396 -4.6252627 6.0343065
00000000: 8233 c1c0 2ab3 c1c0 3b22 c0c0 2e04 bec0
00000010: 2ef7 bdc0 9f0c c2c0 b94e bdc0 bb72 c1c0
00000020: 75d8 bec0 5b2b c0c0 bada 843d 3ede bdc0
00000030: 79ce bdc0 0713 bdc0 046b bdc0 0bb0 c1c0
00000040: 097f c0c0 f167 c1c0 8146 c1c0 4182 bfc0
00000050: 0c03 bec0 c4a3 4f3c 1578 bec0 152c c2c0
00000060: 9e34 bfc0 1e93 c1c0 485a c0c0 6900 bec0
00000070: cabb c0c0 7698 c1c0 7fc7 bdc0 da53 bec0
00000080: 0c6f c1c0 91b5 bfc0 c1fa c0c0 2f9c bdc0
00000090: 7805 c0c0 b770 163d 28a3 c1c0 914f a13d
000000a0: e95b c1c0 09c4 c1c0 123c bdc0 c122 bdc0
000000b0: 31f2 bec0 9c2e c0c0 52b0 bfc0 5b46 c0c0
000000c0: fcb6 bdc0 e7cb bfc0 d3e5 bfc0 9bbf 793c
000000d0: c8b8 c0c0 a5f5 bfc0 19a2 c1c0 340b c2c0
000000e0: ecde bfc0 ac7e c0c0 abec bec0 c8ca bfc0
000000f0: 0725 c0c0 9c7d c1c0 f3d3 c1c0 f26e 0fbd
00000100: 9cbf c1c0 610b c2c0 2af8 bdc0 eafd c0c0
00000110: 3a71 bfc0 e1b7 bfc0 81b9 bdc0 f9e0 8dbc
00000120: 6d13 c1c0 3930 bec0 e733 c1c0 5d25 bdc0
00000130: 871a c1c0 6b5e bec0 39ca c1c0 e79e a33d
00000140: c865 bdc0 cd20 bfc0 e0fc bfc0 d5d0 c0c0
00000150: 6991 bec0 3591 c1c0 f822 c0c0 8633 c2c0
00000160: 349a c1c0 32b6 bfc0 6c0f bec0 4e4b bfc0
00000170: 6ef6 c0c0 e139 bdc0 f8f9 bec0 4a17 bdc0
00000180: 0800 bfc0 2f42 c1c0 abc6 c0c0 bec9 bdc0
00000190: 47f1 bec0 85a7 33bd cc53 67bd 2702 c2c0
000001a0: 3886 bfc0 694c bdc0 cc74 c0c0 d085 bec0
000001b0: 190f 7e3d 9fe6 bfc0 dbe6 bfc0 2bc8 bdc0
000001c0: f2c1 bec0 e5a9 bfc0 6124 c0c0 92bb bdc0
000001d0: edc5 c0c0 aa7c bdc0 4739 8dbd 2592 84bd
000001e0: b9fd bdc0 8f08 c2c0 6e7f bdc0 6382 c0c0
000001f0: 70f1 b53c 936c c1c0 9ee5 283c 1763 bdc0
00000200: ab30 c2c0 1f22 bec0 d4c1 c0c0 6533 913d
00000210: 755d bec0 98f9 bdc0 4847 cc3c 6c8a bfc0
00000220: c221 c2c0 c782 bdc0 1985 c1c0 5fb5 bec0
00000230: 6f5f bec0 27c2 163d 68ab bdc0 58ce bfc0
00000240: 288f bec0 d945 c0c0 80aa bec0 f0a2 bec0
00000250: 3f48 bfc0 ec1f 993c cedd 91c0 b754 90c0
00000260: 292e b3c0 9e45 92c0 b10e 92c0 bcab 93c0
00000270: d903 c040 918a d3c0 6846 91c0 82a4 91c0
00000280: 9aee 91c0 c668 27c1 e9b1 91c0 7b9a 8fc0
00000290: 6747 93c0 4ea7 93c0 94c7 b2c0 a790 be40
000002a0: 6878 d2c0 e9eb 8fc0 4c11 94c0 8f0f 9fbd
000002b0: 144d 91c0 7790 d2c0 376b 92c0 03f3 91c0
000002c0: 13ac 26c1 d201 c140 b023 93c0 8e21 91c0
000002d0: c7cb be40 2141 91c0 c16a 93c0 72a3 d0c0
000002e0: 3c14 94c0 f6db 8ec0 e178 90c0 0a1e d0c0
000002f0: cb4c 8fc0 066f d1c0 c556 93c0 0803 c240
00000300: 23db bf40 65de bd40 48c0 c040 ecee 90c0
00000310: 1005 93c0 67b1 90c0 ced3 92c0 1986 90c0
00000320: 9de2 8ec0 2e27 d0c0 81bf be40 e8e0 93c0
00000330: 861d b2c0 2454 91c0 ac37 93c0 5611 90c0
00000340: c71a 8fc0 e047 90c0 9e2e 94c0 0baf 90c0
00000350: 5663 90c0 7b39 b0bc 764d 90c0 8a47 93c0
00000360: da98 8fc0 5075 90c0 ab5a b0c0 58ab 91c0
00000370: eb33 90c0 9125 4bbd 004a 8bbd 3db6 8fc0
00000380: 658c 93c0 499c 91c0 6499 bf40 eb1c 92c0
00000390: 07ca be40 4efe 07bd 7795 91c0 7d49 91c0
000003a0: 11d3 92c0 1808 bd40 ccd1 aac0 6cbf f4be
000003b0: 29d9 91c0 2958 92c0 11f6 8fc0 633a b0c0
000003c0: d1ec 8ec0 af39 90c0 259f 8dc1 f913 91c0
000003d0: 6f85 91c0 a966 bf40 1652 d3c0 f880 49bd
000003e0: 4ba9 90c0 6637 91c0 ac01 bfc0 c2c6 cec0
000003f0: 02b6 efbc ed08 91c0 2702 94c0 0a19 c140

2.bias f4 [100]
-5.939628 -4.704608 -15.785514 -4.9366703 -15.379123 -40.537735 -15.347226 -16.025938
-4.6902876 -29.690613 -15.500409 -6.40034 -4.787179 -4.811752 -42.3754 -65.59995
-15.76049 -58.74469 -18.768444 -4.8260455 -4.8034353 -20.872005 -15.9325905 -34.44425
-15.150765 -13.346868 -63.29986 -4.858323 -29.61306 -15.536839 -15.556833 -16.030624
-37.572063 -36.286217 -26.82244 -22.599472 -6.0546193 -48.62637 -20.856388 -4.78614
-15.5120125 -15.501843 -6.964726 -15.6844845 -5.773345 -4.9906993 -6.065262 -54.36512
-5.3231277 -16.342459 -15.937285 -5.908761 -15.610935 -15.655594 -37.730446 -15.441479
-6.0100603 -15.841337 -4.547683 -21.385077 -6.0233393 -49.147167 -15.733053 -4.547288
-4.7508564 -5.812541 -20.318012 -4.9891696 -15.174763 -6.0171475 -32.58299 -4.909476
-5.037929 -33.405365 -4.7630067 -47.38414 -45.00947 -31.710945 -37.57876 -4.834205
-35.745026 -15.023232 -61.28671 -4.80757 -6.062488 -5.344368 -21.008478 -5.0278506
-4.770862 -40.00836 -4.7327266 -62.46956 -29.686829 -37.682217 -20.934933 -15.694278
-15.76233 -4.590408 -5.9127645 -46.823223
00000000: 6f11 bec0 268c 96c0 7791 7cc1 34f9 9dc0
00000010: e310 76c1 a426 22c2 3d8e 75c1 1f35 80c1
00000020: d616 96c0 6086 edc1 ad01 78c1 96cf ccc0
00000030: 9230 99c0 dff9 99c0 6980 29c2 2d33 83c2
00000040: f82a 7cc1 90fa 6ac2 c625 96c1 f76e 9ac0
00000050: beb5 99c0 def9 a6c1 e4eb 7ec1 e9c6 09c2
00000060: 8969 72c1 c58c 55c1 0e33 7dc2 6277 9bc0
00000070: 8ce7 ecc1 e496 78c1 cae8 78c1 b83e 80c1
00000080: cb49 16c2 1625 11c2 5b94 d6c1 b8cb b4c1
00000090: 71bf c1c0 6781 42c2 e2d9 a6c1 0f28 99c0
000000a0: 3431 78c1 8d07 78c1 09df dec0 a6f3 7ac1
000000b0: 3ebf b8c0 cfb3 9fc0 a016 c2c0 e275 59c2
000000c0: 1057 aac0 5bbd 82c1 1fff 7ec1 9214 bdc0
000000d0: 64c6 79c1 507d 7ac1 faeb 16c2 4c10 77c1
000000e0: 6a52 c0c0 1e76 7dc1 9e86 91c0 a314 abc1
000000f0: 32bf c0c0 b396 44c2 96ba 7bc1 6283 91c0
00000100: 0407 98c0 5600 bac0 4a8b a2c1 47a7 9fc0
00000110: d4cb 72c1 798c c0c0 fb54 02c2 6d1a 9dc0
00000120: b736 a1c0 189f 05c2 8d6a 98c0 5c89 3dc2
00000130: b309 34c2 04b0 fdc1 a650 16c2 cfb1 9ac0
00000140: e8fa 0ec2 295f 70c1 9725 75c2 9dd7 99c0
00000150: e7ff c1c0 1005 abc0 5d11 a8c1 27e4 a0c0
00000160: e7aa 98c0 9008 20c2 7f72 97c0 d4e0 79c2
00000170: a07e edc1 97ba 16c2 be7a a7c1 c31b 7bc1
00000180: 8132 7cc1 9fe4 92c0 5e35 bdc0 fb4a 3bc2

4.weight f4 [5, 100]
-5.9650254 4.56096 4.5223784 4.577088 4.5264115 -31.577961 4.496607 4.575425
4.4384227 -5.914687 4.4996657 4.5219183 4.5068927 4.577906 -6.0125275 -18.942295
4.582663 -12.347745 13.0487795 4.459094 4.603208 9.949118 4.4831033 -5.9289856
4.5168805 -5.9718575 -12.749875 4.5726414 -5.9364934 4.5558257 4.502183 4.591436
-5.9782166 -27.538836 5.563283 10.772792 -5.9364634 -28.749233 10.266564 4.6017013
4.469884 4.4717402 4.5239663 4.444238 4.0953736 4.553363 -5.9393573 10.613516
5.4791665 2.8232152 4.530002 -5.9390693 -9.9811735 4.5185966 -0.057607558 4.562299
-5.976119 4.536208 4.4550796 10.783279 -5.9663363 -19.902298 4.447099 4.5967197
4.603608 5.3309293 2.3134203 4.5808105 4.4615393 -6.0057225 -6.001146 4.4383245
4.4907002 -4.9708652 4.62808 -4.4685717 10.700305 -5.898608 -19.70979 4.5816913
10.743778 4.4487286 -29.58759 4.4740305 -5.946299 5.59307 10.605406 4.602613
4.5081043 -20.594696 4.634934 -12.730149 -5.9534974 -6.0339785 8.995354 4.601169
4.5899434 4.632912 -5.9164295 -4.4201837 -5.9179173 4.5453653 4.517242 4.578933
4.525109 26.461523 4.4517965 4.519608 4.474259 17.712418 4.4524264 4.5120716
4.5240374 4.5513844 -5.753148 18.303823 4.5059166 21.470438 3.694728 4.475304
4.511765 10.681641 4.4788 -5.9278126 4.4808373 -9.96349 28.132076 4.4697676
17.75594 4.481345 4.5743623 4.5269327 25.75743 12.183995 4.5460734 -5.9489865
-6.0217013 19.094656 10.576098 4.4720645 4.6235304 4.4726 4.4440765 4.502983
4.27801 4.560569 -6.0828404 -5.9444675 4.5379887 -14.050024 4.554573 -6.002993
-29.70389 4.5045714 -0.06884062 4.458006 -5.8988156 4.5393786 4.5438733 10.698174
-5.9355493 33.778446 4.6385126 4.4713097 4.135263 4.499242 4.5622463 4.523715
4.4641013 -5.8977222 17.696894 4.5934825 4.5457215 -20.467188 4.613136 -4.5538287
-29.714264 17.70358 30.54835 4.5530286 -5.8902884 4.4490895 8.106038 4.47333
-5.9480186 4.4714437 10.595337 4.611579 4.5001755 25.347082 4.502949 20.595606
17.71716 -5.929135 10.580794 4.5354385 4.5498886 4.373967 0.082378425 27.068289
-6.001857 4.5623293 3.3936307 4.4721456 3.3584502 -26.260122 3.3533807 3.4014256
4.56338 17.662586 3.3404448 4.5478296 4.615106 4.516628 -5.9444857 -5.3970404
3.213809 16.337154 -27.979107 4.56972 4.468032 10.682046 3.5028253 25.706247
3.3188772 3.7709115 16.714846 4.491882 17.654314 3.4960947 3.2583635 3.0169854
-0.07337854 21.014004 3.9924805 -5.959223 -5.9375997 15.931609 10.621431 4.6191373
3.660266 3.4053168 4.471603 3.392815 4.5414314 4.513906 -5.8882875 -5.9363136
5.5624495 9.135081 3.7732842 -5.9739976 18.07456 3.3839428 25.55775 4.3133564
00000000: 7de1 bec0 62f3 9140 53b7 9040 8177 9240
00000010: 5dd8 9040 aa9f fcc1 34e4 8f40 e269 9240
00000020: 8f07 8e40 1e45 bdc0 43fd 8f40 8eb3 9040
00000030: 7738 9040 357e 9240 a066 c0c0 d289 97c1
00000040: 2da5 9240 5d90 45c1 cdc7 5041 e6b0 8e40
00000050: 7b4d 9340 962f 1f41 9575 8f40 40ba bdc0
00000060: 498a 9040 7519 bfc0 7dff 4bc1 1453 9240
00000070: c1f7 bdc0 53c9 9140 e211 9040 0bed 9240
00000080: 8d4d bfc0 894f dcc1 6a06 b240 5b5d 2c41
00000090: 82f7 bdc0 6efe e5c1 d943 2441 2341 9340
000000a0: 4a09 8f40 7f18 8f40 55c4 9040 3337 8e40
000000b0: 4d0d 8340 26b5 9140 370f bec0 f6d0 2941
000000c0: 5555 af40 8faf 3440 c7f5 9040 db0c bec0
000000d0: e3b2 1fc1 5898 9040 e7f5 6bbd 5afe 9140
000000e0: 5e3c bfc0 9e28 9140 0390 8e40 5088 2c41
000000f0: 3aec bec0 e837 9fc1 a34e 8e40 5418 9340
00000100: c250 9340 f996 aa40 140f 1440 0096 9240
00000110: eec4 8e40 e12e c0c0 6309 c0c0 c106 8e40
00000120: d1b3 8f40 5411 9fc0 3b19 9440 8afe 8ec0
00000130: 7334 2b41 66c1 bcc0 a6ad 9dc1 379d 9240
00000140: 84e6 2b41 fc5b 8e40 62b3 ecc1 422b 8f40
00000150: 1548 bec0 6efa b240 beaf 2941 9b48 9340
00000160: 6442 9040 f0c1 a4c1 6151 9440 b1ae 4bc1
00000170: 0d83 bec0 5a16 c1c0 f8ec 0f41 c73c 9340
00000180: d1e0 9240 d140 9440 6453 bdc0 2572 8dc0
00000190: 945f bdc0 a273 9140 3f8d 9040 9e86 9240
000001a0: b1cd 9040 33b1 d341 1e75 8e40 a1a0 9040
000001b0: 212d 8f40 08b3 8d41 477a 8e40 e462 9040
000001c0: eac4 9040 f1a4 9140 ca19 b8c0 3b6e 9241
000001d0: 7830 9040 75c3 ab41 6c76 6c40 b135 8f40
000001e0: 6160 9040 00e8 2a41 5452 8f40 a4b0 bdc0
000001f0: 0563 8f40 746a 1fc1 7e0e e141 5608 8f40
00000200: 2a0c 8e41 2e67 8f40 2d61 9240 a2dc 9040
00000210: 370f ce41 a5f1 4241 6f79 9140 195e bec0
00000220: c7b1 c0c0 dbc1 9841 b337 2941 271b 8f40
00000230: f6f3 9340 8a1f 8f40 e035 8e40 7018 9040
00000240: 75e5 8840 2ef0 9140 a1a6 c2c0 1439 bec0
00000250: 3437 9140 e6cc 60c1 10bf 9140 8518 c0c0
00000260: 91a1 edc1 7325 9040 50fc 8cbd fca7 8e40
00000270: 19c3 bcc0 9742 9140 6967 9140 b92b 2b41
00000280: 05f0 bdc0 211d 0742 b26e 9440 f814 8f40
00000290: 1354 8440 caf9 8f40 ecfd 9140 46c2 9040
000002a0: ebd9 8e40 24ba bcc0 3d93 8d41 cffd 9240
000002b0: 8d76 9140 cdbc a3c1 cf9e 9340 f7b8 91c0
000002c0: d0b6 edc1 efa0 8d41 0563 f441 69b2 9140
000002d0: 3e7d bcc0 f15e 8e40 55b2 0141 8525 8f40
000002e0: 2b56 bec0 1116 8f40 8086 2941 0e92 9340
000002f0: 7001 9040 d3c6 ca41 2918 9040 cdc3 a441
00000300: bebc 8d41 79bb bdc0 ef4a 2941 5022 9140
00000310: b098 9140 8af7 8b40 05b6 a83d db8b d841
00000320: 360f c0c0 9afe 9140 3f31 5940 d11b 8f40
00000330: d9f0 5640 bb14 d2c1 ca9d 5640 f5b0 5940
00000340: 3507 9240 fa4c 8d41 d9c9 5540 d287 9140
00000350: f3ae 9340 3788 9040 3a39 bec0 8eb4 acc0
00000360: 0caf 4d40 7eb2 8241 36d5 dfc1 253b 9240
00000370: 1efa 8e40 a9e9 2a41 4a2e 6040 65a6 cd41
00000380: 7c68 5440 9d56 7140 01b8 8541 7fbd 8f40
00000390: 093c 8d41 04c0 5f40 0789 5040 4a16 4140
000003a0: 7d47 96bd ae1c a841 cd84 7f40 f4b1 bec0
000003b0: d100 bec0 dfe7 7e41 62f1 2941 f9cf 9340
000003c0: cc41 6a40 b6f0 5940 5f17 8f40 e223 5940
000003d0: 6853 9140 eb71 9040 da6c bcc0 48f6 bdc0
000003e0: 96ff b140 4b29 1241 7d7d 7140 fd2a bfc0
000003f0: b398 9041 8592 5840 4676 cc41 0407 8a40

4.bias f4 [5]
3433.036 3446.4639 3453.1492 3445.6318 3655.7473
00000000: 9390 5645 6c67 5745 63d2 5745 1c5a 5745
00000010: f57b 6445

0.weight f4 [150, 11]
-4.704345 -4.823392 -4.4605846 -4.817319 -0.10972597 -4.310569 -4.2550015 4.304038
4.420215 4.7714944 -6.755518 -4.310308 -4.497226 -4.3916693 -4.555517 0.14675698
-4.7655287 -4.7398376 4.690008 6.6722507 4.5925894 -6.6588764 -4.7011046 -4.347283
-5.8224087 -4.5362425 -0.07019849 -5.677821 -4.6944714 4.2766113 4.684896 4.384886
-4.7495008 -37.643253 -4.756349 -6.622986 -6.72171 0.1358824 -6.3317914 -37.885597
-0.45758832 2.2684717 4.037292 4.2797184 -4.7408457 -6.267278 -6.259191 -6.596572
-0.08194253 -6.410352 -6.569994 4.6220045 -4.313165 4.5047774 -4.7463846 -4.5189795
-6.633624 -6.3170867 -6.487485 0.028077269 -4.4337754 -6.2880783 -4.7656627 4.4737506
4.33833 4.3192167 -5.7998195 -5.8150544 -5.805856 -6.2257357 0.11335333 -5.8600116
-5.7938337 5.7118516 -5.873878 -6.095605 -5.8243184 -4.6285152 -4.4364815 -4.7291045
-4.253521 -0.103367515 -4.6621556 -4.5502214 4.4934525 4.3609257 4.5673656 -6.358216
-6.4194984 -6.334472 -6.6099815 -6.8402386 -0.19554357 -4.6946287 -6.3029056 -4.4007077
-4.413264 4.4036098 -4.333496 -4.5893083 -4.666667 -4.2914243 -4.379969 0.047462527
-4.289753 -4.4079466 6.5766644 7.1047897 6.8263063 -6.4512043 -4.8299165 -4.5169034
-6.4682074 -4.746627 -0.121007994 -6.7143235 -4.3750105 4.742177 -2.2391648 4.291577
-4.287017 -22.203154 -22.071184 -22.130177 -6.091391 -0.19094823 -6.0646157 -22.499723
10.166636 10.583049 10.65058 10.334075 -6.629637 -29.58036 -6.387241 -6.441246
0.26133668 -5.9527674 -6.505366 4.8118157 -4.2380633 4.3568625 -4.8141537 -4.284754
-4.472692 -4.2825513 -4.635446 0.11410612 -4.3411493 -4.459895 6.487561 4.840731
4.4339714 -6.715539 -4.776729 -4.8379555 -4.3762746 -4.3263984 0.05866199 -4.1952386
-4.2564673 7.0223265 5.898439 7.1877613 -4.264815 -4.663111 -4.3389997 -4.505785
-4.3730536 0.24439156 -4.293298 -4.5054255 4.5938015 8.285196 6.9599423 -4.4516053
-4.7654905 -6.1941004 -6.001269 -4.589297 -0.06569736 -5.3097854 -4.8312836 4.432342
-3.1103547 4.061067 -3.7999852 -37.68879 -37.63579 -37.866074 -37.4706 -0.14309756
-37.545147 -38.023518 25.680515 -25.44318 25.921251 25.710005 -4.6411357 -4.574146
-4.0930724 -4.57122 0.2539315 -4.5758023 -4.301928 4.827468 7.643626 6.9794664
-4.7518935 -4.422812 -4.160625 -6.6211495 -4.3995347 31.749544 -6.699169 -4.2249784
4.2904634 -8.433522 5.0243154 -6.8707433 -4.7045565 -4.369273 -4.3415666 -4.257468
0.03013655 -4.7468224 -4.493871 4.7383237 4.430566 6.411706 -4.5144053 -0.17946827
-5.8097563 -0.16698804 -5.876113 -0.18038543 -0.13123365 -6.217637 0.048585348 6.1317577
-0.122093074 6.0426373 -4.5751715 -4.404247 -4.565342 -4.4255176 0.04789395 -4.3752484
-4.2706733 4.252553 4.397719 4.8119426 -6.700004 -4.720196 -4.0981307 -6.482961
00000000: ff89 96c0 3a59 9ac0 1cbd 8ec0 7a27 9ac0
00000010: 02b8 e0bd 2ef0 89c0 f928 88c0 aeba 8940
00000020: 6772 8d40 15b0 9840 342d d8c0 0bee 89c0
00000030: 47e9 8fc0 8e88 8cc0 ccc6 91c0 7647 163e
00000040: 367f 98c0 c0ac 97c0 8c14 9640 1483 d540
00000050: 7ef6 9240 8415 d5c0 736f 96c0 f11c 8bc0
00000060: 2c51 bac0 e628 91c0 3ac4 8fbd b6b0 b5c0
00000070: 1c39 96c0 00da 8840 abea 9540 fc50 8c40
00000080: e9fb 97c0 b192 16c2 0334 98c0 80ef d3c0
00000090: 4018 d7c0 c224 0b3e 099e cac0 da8a 17c2
000000a0: 0449 eabe a42e 1140 7f31 8140 74f3 8840
000000b0: 02b5 97c0 8b8d c8c0 4b4b c8c0 1e17 d3c0
000000c0: 7cd1 a7bd 9b21 cdc0 643d d2c0 76e7 9340
000000d0: 7305 8ac0 2327 9040 62e2 97c0 7b9b 90c0
000000e0: a646 d4c0 9325 cac0 7a99 cfc0 4d02 e63c
000000f0: 7de1 8dc0 f037 c9c0 4f80 98c0 f728 8f40
00000100: 99d3 8a40 0637 8a40 1f98 b9c0 ed14 bac0
00000110: 93c9 b9c0 3a39 c7c0 ca25 e83d 3785 bbc0
00000120: 1667 b9c0 7dc7 b640 cff6 bbc0 320f c3c0
00000130: d160 bac0 cc1c 94c0 a8f7 8dc0 d354 97c0
00000140: d81c 88c0 59b2 d3bd 6130 95c0 6a9b 91c0
00000150: 5dca 8f40 b48c 8b40 dc27 9240 8176 cbc0
00000160: 886c cdc0 ffb3 cac0 f884 d3c0 3ce3 dac0
00000170: 933c 48be 663a 96c0 67b1 c9c0 99d2 8cc0
00000180: 7539 8dc0 5fea 8c40 00ac 8ac0 9ddb 92c0
00000190: 5655 95c0 5953 89c0 b528 8cc0 1168 423d
000001a0: a845 89c0 e60d 8dc0 0974 d240 705a e340
000001b0: 1a71 da40 4470 cec0 ad8e 9ac0 798a 90c0
000001c0: 8efb cec0 5ee4 97c0 0ad3 f7bd bddb d6c0
000001d0: 1600 8cc0 eabf 9740 7a4e 0fc0 9954 8940
000001e0: 3e2f 89c0 0fa0 b1c1 c991 b0c1 9a0a b1c1
000001f0: adec c2c0 ef87 43be 5511 c2c0 6fff b3c1
00000200: 8baa 2241 2b54 2941 c768 2a41 5f58 2541
00000210: fc25 d4c0 94a4 ecc1 4764 ccc0 b01e cec0
00000220: eccd 853e 127d bec0 f52b d0c0 65fa 9940
00000230: 379e 87c0 6b6b 8b40 8c0d 9ac0 b41c 89c0
00000240: 4b20 8fc0 a90a 89c0 9355 94c0 78b0 e93d
00000250: b2ea 8ac0 76b7 8ec0 1a9a cf40 45e7 9a40
00000260: 18e3 8d40 b2e5 d6c0 f7da 98c0 88d0 9ac0
00000270: 710a 8cc0 db71 8ac0 8e47 703d 653f 86c0
00000280: fb34 88c0 e6b6 e040 03c0 bc40 2402 e640
00000290: 5d79 88c0 3538 95c0 16d9 8ac0 642f 90c0
000002a0: 0ef0 8bc0 c841 7a3e b262 89c0 722c 90c0
000002b0: 6c00 9340 2a90 0441 d9b7 de40 8d73 8ec0
000002c0: e67e 98c0 1236 c6c0 650a c0c0 85db 92c0
000002d0: 568c 86bd c3e9 a9c0 e099 9ac0 bfd5 8d40
000002e0: 0d10 47c0 43f4 8140 f532 73c0 52c1 16c2
000002f0: 0d8b 16c2 dc76 17c2 e5e1 15c2 2b88 12be
00000300: 3b2e 16c2 1518 18c2 b271 cd41 a28b cbc1
00000310: b95e cf41 17ae cd41 2f84 94c0 675f 92c0
00000320: 73fa 82c0 6f47 92c0 4f03 823e f96c 92c0
00000330: 65a9 89c0 9e7a 9a40 9698 f440 ca57 df40
00000340: 830f 98c0 ad87 8dc0 d723 85c0 75e0 d3c0
00000350: fdc8 8cc0 11ff fd41 985f d6c0 0633 87c0
00000360: 7a4b 8940 b5ef 06c1 31c7 a040 21dd dbc0
00000370: ba8b 96c0 16d1 8bc0 1dee 8ac0 2e3d 88c0
00000380: ede0 f63c f8e5 97c0 cbcd 8fc0 59a0 9740
00000390: 32c7 8d40 b22c cd40 0276 90c0 88c6 37be
000003a0: 86e9 b9c0 eafe 2abe 1e09 bcc0 f5b6 38be
000003b0: 1d62 06be e2f6 c6c0 6e01 473d 5c37 c440
000003c0: ef0b fabd 495d c140 ce67 92c0 97ef 8cc0
000003d0: 4817 92c0 d79d 8dc0 722c 443d 0902 8cc0
000003e0: 5ba9 88c0 ea14 8840 1dba 8c40 6ffb 9940
000003f0: 6f66 d6c0 d80b 97c0 e323 83c0 6b74 cfc0

0.bias f4 [150]
-4.7023616 -4.3594327 -4.710019 -12.689543 -6.4138083 -6.542734 -6.227528 -4.295235
-6.3786144 -4.381302 -4.725518 -22.520567 -6.508127 -4.7841277 -4.676701 -4.580429
-4.8282256 -37.645847 -4.5540447 -4.443707 -4.5851927 -6.234446 -4.480176 -4.585403
-4.452587 -4.8182273 -22.36901 -5.8552012 -4.4503193 -4.317701 -6.1067615 -4.7600656
-4.6780043 -4.483175 -4.601461 -6.833591 -4.4945326 -10.62699 -6.622501 -4.8141427
-4.381565 -6.1898985 -51.480034 -5.907165 -5.8653817 -4.7650394 -6.786745 -4.272142
-3.9855142 -4.4590592 -6.42644 -4.472004 -9.500261 -4.7516785 -4.7564807 -4.619274
-4.604996 -4.484347 -4.4802194 -6.622077 -4.4724827 -63.678486 8.426566 -8.0551
8.017183 -6.608697 -6.442985 -4.2908964 -4.7145157 -4.1933746 -4.4548664 -1.802823
-37.83326 -4.2863264 -4.6936054 -0.90130436 -6.2741203 -3.8177862 -37.431477 -0.13764171
-4.2699127 -5.299078 -4.4612446 -5.7289934 -7.2621036 -10.453741 -4.7379003 -4.251389
-4.391384 -6.830992 -4.2652235 -6.320076 -42.687782 66.78065 -6.259407 -6.021412
-6.6973433 -38.011463 -4.3642097 -4.292726 -37.844646 -4.7987657 26.088907 -9.44944
-4.4771957 -5.921923 -25.944267 -6.5000043 -37.85294 -5.4056883 -4.3773665 -4.9837837
-6.440001 -4.742092 -4.2570233 -6.138301 -4.595855 -6.829294 -0.1916754 -4.6008224
-6.17621 -7.4175076 -4.7159357 -5.4353533 -4.628986 -15.379196 -22.501287 -5.8636446
-4.752674 -6.4834785 -4.231359 -14.28293 -5.9384327 -6.3023925 -0.26111612 -6.3633156
-4.5609326 -6.672753 -6.780394 -4.585609 -5.9434566 -5.864015 28.844883 -4.6971855
-6.0639606 -21.291542 -23.149933 -4.3645296 -5.88387 -15.06871
00000000: bf79 96c0 7980 8bc0 7ab8 96c0 5e08 4bc1
00000010: eb3d cdc0 145e d1c0 e947 c7c0 9172 89c0
00000020: 9c1d ccc0 a033 8cc0 7237 97c0 1f2a b4c1
00000030: 9442 d0c0 9317 99c0 89a7 95c0 e092 92c0
00000040: d380 9ac0 5995 16c2 bcba 91c0 d932 8ec0
00000050: e6b9 92c0 9580 c7c0 9a5d 8fc0 9fbb 92c0
00000060: 987b 8ec0 eb2e 9ac0 bcf3 b2c1 cf5d bbc0
00000070: 0469 8ec0 9b2a 8ac0 976a c3c0 7552 98c0
00000080: 36b2 95c0 2b76 8fc0 2b3f 93c0 c7ac dac0
00000090: 36d3 8fc0 2708 2ac1 87eb d3c0 750d 9ac0
000000a0: c835 8cc0 a613 c6c0 8eeb 4dc2 7f07 bdc0
000000b0: 35b1 bbc0 347b 98c0 042d d9c0 63b5 88c0
000000c0: aa12 7fc0 9db0 8ec0 65a5 cdc0 a81a 8fc0
000000d0: 1201 18c1 c00d 98c0 1735 98c0 18d1 93c0
000000e0: 215c 93c0 c57f 8fc0 f55d 8fc0 0ee8 d3c0
000000f0: 941e 8fc0 c5b6 7ec2 37d3 0641 b1e1 00c1
00000100: 6246 0041 727a d3c0 ef2c cec0 064f 89c0
00000110: 50dd 96c0 2030 86c0 448e 8ec0 e7c2 e6bf
00000120: 4255 17c2 9629 89c0 0432 96c0 e2bb 66bf
00000130: 98c5 c8c0 9c56 74c0 d5b9 15c2 f3f1 0cbe
00000140: 20a3 88c0 0c92 a9c0 84c2 8ec0 ea53 b7c0
00000150: 2763 e8c0 8642 27c1 e19c 97c0 610b 88c0
00000160: 3886 8cc0 7d97 dac0 b67c 88c0 103e cac0
00000170: 4ac0 2ac2 b18f 8542 104d c8c0 68af c0c0
00000180: a350 d6c0 bd0b 18c2 9ba7 8bc0 035e 89c0
00000190: eb60 17c2 7d8f 99c0 15b6 d041 e830 17c1
000001a0: 3045 8fc0 6580 bdc0 dc8d cfc1 0900 d0c0
000001b0: 6969 17c2 66fb acc0 6313 8cc0 287b 9fc0
000001c0: 7d14 cec0 38bf 97c0 8939 88c0 f66c c4c0
000001d0: 3f11 93c0 9489 dac0 8e46 44be f039 93c0
000001e0: 83a3 c5c0 395c edc0 f2e8 96c0 6aee adc0
000001f0: a720 94c0 3011 76c1 a302 b4c1 faa2 bbc0
00000200: e815 98c0 a878 cfc0 4b67 87c0 e286 64c1
00000210: a407 bec0 33ad c9c0 03b1 85be 48a0 cbc0
00000220: 29f3 91c0 3187 d5c0 fdf8 d8c0 4fbd 92c0
00000230: cc30 bec0 03a6 bbc0 52c2 e641 584f 96c0
00000240: f70b c2c0 1455 aac1 1033 b9c1 3aaa 8bc0
00000250: aa48 bcc0 7019 71c1

2.weight f4 [100, 150]
-6.0375376 -6.0531206 -6.0041785 -5.93801 -5.9364233 -6.0640407 -5.9158597 -6.045255
-5.963923 -6.0052924 0.06487031 -5.933379 -5.931454 -5.9085727 -5.9193134 -6.0527396
-6.015507 -6.043938 -6.0398564 -5.98465 -5.937872 0.012673322 -5.9521585 -6.067881
-5.975173 -6.0492086 -6.0110207 -5.93755 -6.0229235 -6.049861 -5.9306026 -5.947736
-6.0448055 -5.990914 -6.0306096 -5.9253154 -6.0006676 0.036728587 -6.0511665 0.07876504
-6.0424695 -6.05518 -5.913583 -5.9104924 -5.9670644 -6.0056896 -5.9902735 -6.0085883
-5.928587 -5.9936404 -5.9968047 0.015243436 -6.0225563 -5.998736 -6.0510373 -6.0638676
-5.995962 -6.015463 -5.96639 -5.9935036 -6.00452 -6.046583 -6.0571227 -0.035017915
-6.05464 -6.063889 -5.9365435 -6.0309954 -5.9825716 -5.991196 -5.9288945 -0.01731919
-6.0336213 -5.9433866 -6.0375857 -5.910811 -6.034488 -5.9490256 -6.0559354 0.079892926
-5.9186745 -5.972754 -5.9996185 -6.025492 -5.9552503 -6.0489755 -6.0042686 -6.0687895
-6.0500736 -5.9909906 -5.9393826 -5.9779425 -6.0300817 -5.9133153 -5.968014 -5.909093
-5.968754 -6.039329 -6.0242515 -5.9308767 -5.966953 -0.04386093 -0.0564764 -6.0627627
-5.985134 -5.9155774 -6.0142574 -5.9538345 0.062026117 -5.996902 -5.9969306 -5.9306846
-5.961175 -5.989489 -6.004441 -5.929147 -6.024161 -5.921468 -0.068956904 -0.06473187
-5.937222 -6.0635448 -5.9218054 -6.0159163 0.022209853 -6.0445037 0.010308651 -5.918346
-6.068441 -5.941665 -6.0236607 0.07089881 -5.9489083 -5.936718 0.024936333 -5.985647
-6.066621 -5.922214 -6.0474973 -5.95964 -5.9491496 0.03680625 -5.9271736 -5.9939384
-5.954975 -6.0085263 -5.958313 -5.95739 -5.977569 0.01869198 -4.558326 -4.510341
-5.599385 -4.570998 -4.5642934 -4.6147137 6.0004697 -6.610665 -4.5398445 -4.5513315
-4.560376 -10.463079 -4.5529675 -4.4876075 -4.602466 -4.614173 -5.5868626 5.9551578
-6.577198 -4.4975476 -4.6271114 -0.077666394 -4.540659 -6.580135 -4.5755877 -4.5609145
-10.41701 6.031472 -4.5981064 -4.535346 5.962375 -4.5392003 -4.6067815 -6.519952
-4.62747 -4.4643507 -4.5147557 -6.503667 -4.478124 -6.5448027 -4.604342 6.06287
5.9955 5.933398 6.023472 -4.5291653 -4.594368 -4.5216556 -4.588355 -4.5163693
-4.4651628 -6.5047827 5.960877 -4.6212044 -5.566104 -4.541521 -4.600546 -4.502116
-4.4720187 -4.508774 -4.6306906 -4.5213675 -4.512126 -0.021511784 -4.5094557 -4.602483
-4.4874086 -4.5143204 -5.511068 -4.552166 -4.5063376 -0.049596373 -0.06801224 -4.490996
-4.610888 -4.550328 5.9874744 -4.56603 5.9621615 -0.03320151 -4.549495 -4.5402207
-4.588265 5.907238 -5.33811 -0.47802293 -4.557759 -4.5732617 -4.4987874 -5.5071273
-4.4664083 -4.5070415 -17.702707 -4.533688 -4.5475383 5.9812818 -6.6037703 -0.04919526
-4.5206656 -4.5380125 -5.968954 -6.4617624 -0.029261593 -4.5323396 -4.6252627 6.0343065
00000000: 8233 c1c0 2ab3 c1c0 3b22 c0c0 2e04 bec0
00000010: 2ef7 bdc0 9f0c c2c0 b94e bdc0 bb72 c1c0
00000020: 75d8 bec0 5b2b c0c0 bada 843d 3ede bdc0
00000030: 79ce bdc0 0713 bdc0 046b bdc0 0bb0 c1c0
00000040: 097f c0c0 f167 c1c0 8146 c1c0 4182 bfc0
00000050: 0c03 bec0 c4a3 4f3c 1578 bec0 152c c2c0
00000060: 9e34 bfc0 1e93 c1c0 485a c0c0 6900 bec0
00000070: cabb c0c0 7698 c1c0 7fc7 bdc0 da53 bec0
00000080: 0c6f c1c0 91b5 bfc0 c1fa c0c0 2f9c bdc0
00000090: 7805 c0c0 b770 163d 28a3 c1c0 914f a13d
000000a0: e95b c1c0 09c4 c1c0 123c bdc0 c122 bdc0
000000b0: 31f2 bec0 9c2e c0c0 52b0 bfc0 5b46 c0c0
000000c0: fcb6 bdc0 e7cb bfc0 d3e5 bfc0 9bbf 793c
000000d0: c8b8 c0c0 a5f5 bfc0 19a2 c1c0 340b c2c0
000000e0: ecde bfc0 ac7e c0c0 abec bec0 c8ca bfc0
000000f0: 0725 c0c0 9c7d c1c0 f3d3 c1c0 f26e 0fbd
00000100: 9cbf c1c0 610b c2c0 2af8 bdc0 eafd c0c0
00000110: 3a71 bfc0 e1b7 bfc0 81b9 bdc0 f9e0 8dbc
00000120: 6d13 c1c0 3930 bec0 e733 c1c0 5d25 bdc0
00000130: 871a c1c0 6b5e bec0 39ca c1c0 e79e a33d
00000140: c865 bdc0 cd20 bfc0 e0fc bfc0 d5d0 c0c0
00000150: 6991 bec0 3591 c1c0 f822 c0c0 8633 c2c0
00000160: 349a c1c0 32b6 bfc0 6c0f bec0 4e4b bfc0
00000170: 6ef6 c0c0 e139 bdc0 f8f9 bec0 4a17 bdc0
00000180: 0800 bfc0 2f42 c1c0 abc6 c0c0 bec9 bdc0
00000190: 47f1 bec0 85a7 33bd cc53 67bd 2702 c2c0
000001a0: 3886 bfc0 694c bdc0 cc74 c0c0 d085 bec0
000001b0: 190f 7e3d 9fe6 bfc0 dbe6 bfc0 2bc8 bdc0
000001c0: f2c1 bec0 e5a9 bfc0 6124 c0c0 92bb bdc0
000001d0: edc5 c0c0 aa7c bdc0 4739 8dbd 2592 84bd
000001e0: b9fd bdc0 8f08 c2c0 6e7f bdc0 6382 c0c0
000001f0: 70f1 b53c 936c c1c0 9ee5 283c 1763 bdc0
00000200: ab30 c2c0 1f22 bec0 d4c1 c0c0 6533 913d
00000210: 755d bec0 98f9 bdc0 4847 cc3c 6c8a bfc0
00000220: c221 c2c0 c782 bdc0 1985 c1c0 5fb5 bec0
00000230: 6f5f bec0 27c2 163d 68ab bdc0 58ce bfc0
00000240: 288f bec0 d945 c0c0 80aa bec0 f0a2 bec0
00000250: 3f48 bfc0 ec1f 993c cedd 91c0 b754 90c0
00000260: 292e b3c0 9e45 92c0 b10e 92c0 bcab 93c0
00000270: d903 c040 918a d3c0 6846 91c0 82a4 91c0
00000280: 9aee 91c0 c668 27c1 e9b1 91c0 7b9a 8fc0
00000290: 6747 93c0 4ea7 93c0 94c7 b2c0 a790 be40
000002a0: 6878 d2c0 e9eb 8fc0 4c11 94c0 8f0f 9fbd
000002b0: 144d 91c0 7790 d2c0 376b 92c0 03f3 91c0
000002c0: 13ac 26c1 d201 c140 b023 93c0 8e21 91c0
000002d0: c7cb be40 2141 91c0 c16a 93c0 72a3 d0c0
000002e0: 3c14 94c0 f6db 8ec0 e178 90c0 0a1e d0c0
000002f0: cb4c 8fc0 066f d1c0 c556 93c0 0803 c240
00000300: 23db bf40 65de bd40 48c0 c040 ecee 90c0
00000310: 1005 93c0 67b1 90c0 ced3 92c0 1986 90c0
00000320: 9de2 8ec0 2e27 d0c0 81bf be40 e8e0 93c0
00000330: 861d b2c0 2454 91c0 ac37 93c0 5611 90c0
00000340: c71a 8fc0 e047 90c0 9e2e 94c0 0baf 90c0
00000350: 5663 90c0 7b39 b0bc 764d 90c0 8a47 93c0
00000360: da98 8fc0 5075 90c0 ab5a b0c0 58ab 91c0
00000370: eb33 90c0 9125 4bbd 004a 8bbd 3db6 8fc0
00000380: 658c 93c0 499c 91c0 6499 bf40 eb1c 92c0
00000390: 07ca be40 4efe 07bd 7795 91c0 7d49 91c0
000003a0: 11d3 92c0 1808 bd40 ccd1 aac0 6cbf f4be
000003b0: 29d9 91c0 2958 92c0 11f6 8fc0 633a b0c0
000003c0: d1ec 8ec0 af39 90c0 259f 8dc1 f913 91c0
000003d0: 6f85 91c0 a966 bf40 1652 d3c0 f880 49bd
000003e0: 4ba9 90c0 6637 91c0 ac01 bfc0 c2c6 cec0
000003f0: 02b6 efbc ed08 91c0 2702 94c0 0a19 c140

2.bias f4 [100]
-5.939628 -4.704608 -15.785514 -4.9366703 -15.379123 -40.537735 -15.347226 -16.025938
-4.6902876 -29.690613 -15.500409 -6.40034 -4.787179 -4.811752 -42.3754 -65.59995
-15.76049 -58.74469 -18.768444 -4.8260455 -4.8034353 -20.872005 -15.9325905 -34.44425
-15.150765 -13.346868 -63.29986 -4.858323 -29.61306 -15.536839 -15.556833 -16.030624
-37.572063 -36.286217 -26.82244 -22.599472 -6.0546193 -48.62637 -20.856388 -4.78614
-15.5120125 -15.501843 -6.964726 -15.6844845 -5.773345 -4.9906993 -6.065262 -54.36512
-5.3231277 -16.342459 -15.937285 -5.908761 -15.610935 -15.655594 -37.730446 -15.441479
-6.0100603 -15.841337 -4.547683 -21.385077 -6.0233393 -49.147167 -15.733053 -4.547288
-4.7508564 -5.812541 -20.318012 -4.9891696 -15.174763 -6.0171475 -32.58299 -4.909476
-5.037929 -33.405365 -4.7630067 -47.38414 -45.00947 -31.710945 -37.57876 -4.834205
-35.745026 -15.023232 -61.28671 -4.80757 -6.062488 -5.344368 -21.008478 -5.0278506
-4.770862 -40.00836 -4.7327266 -62.46956 -29.686829 -37.682217 -20.934933 -15.694278
-15.76233 -4.590408 -5.9127645 -46.823223
00000000: 6f11 bec0 268c 96c0 7791 7cc1 34f9 9dc0
00000010: e310 76c1 a426 22c2 3d8e 75c1 1f35 80c1
00000020: d616 96c0 6086 edc1 ad01 78c1 96cf ccc0
00000030: 9230 99c0 dff9 99c0 6980 29c2 2d33 83c2
00000040: f82a 7cc1 90fa 6ac2 c625 96c1 f76e 9ac0
00000050: beb5 99c0 def9 a6c1 e4eb 7ec1 e9c6 09c2
00000060: 8969 72c1 c58c 55c1 0e33 7dc2 6277 9bc0
00000070: 8ce7 ecc1 e496 78c1 cae8 78c1 b83e 80c1
00000080: cb49 16c2 1625 11c2 5b94 d6c1 b8cb b4c1
00000090: 71bf c1c0 6781 42c2 e2d9 a6c1 0f28 99c0
000000a0: 3431 78c1 8d07 78c1 09df dec0 a6f3 7ac1
000000b0: 3ebf b8c0 cfb3 9fc0 a016 c2c0 e275 59c2
000000c0: 1057 aac0 5bbd 82c1 1fff 7ec1 9214 bdc0
000000d0: 64c6 79c1 507d 7ac1 faeb 16c2 4c10 77c1
000000e0: 6a52 c0c0 1e76 7dc1 9e86 91c0 a314 abc1
000000f0: 32bf c0c0 b396 44c2 96ba 7bc1 6283 91c0
00000100: 0407 98c0 5600 bac0 4a8b a2c1 47a7 9fc0
00000110: d4cb 72c1 798c c0c0 fb54 02c2 6d1a 9dc0
00000120: b736 a1c0 189f 05c2 8d6a 98c0 5c89 3dc2
00000130: b309 34c2 04b0 fdc1 a650 16c2 cfb1 9ac0
00000140: e8fa 0ec2 295f 70c1 9725 75c2 9dd7 99c0
00000150: e7ff c1c0 1005 abc0 5d11 a8c1 27e4 a0c0
00000160: e7aa 98c0 9008 20c2 7f72 97c0 d4e0 79c2
00000170: a07e edc1 97ba 16c2 be7a a7c1 c31b 7bc1
00000180: 8132 7cc1 9fe4 92c0 5e35 bdc0 fb4a 3bc2

4.weight f4 [5, 100]
-5.9650254 4.56096 4.5223784 4.577088 4.5264115 -31.577961 4.496607 4.575425
4.4384227 -5.914687 4.4996657 4.5219183 4.5068927 4.577906 -6.0125275 -18.942295
4.582663 -12.347745 13.0487795 4.459094 4.603208 9.949118 4.4831033 -5.9289856
4.5168805 -5.9718575 -12.749875 4.5726414 -5.9364934 4.5558257 4.502183 4.591436
-5.9782166 -27.538836 5.563283 10.772792 -5.9364634 -28.749233 10.266564 4.6017013
4.469884 4.4717402 4.5239663 4.444238 4.0953736 4.553363 -5.9393573 10.613516
5.4791665 2.8232152 4.530002 -5.9390693 -9.9811735 4.5185966 -0.057607558 4.562299
-5.976119 4.536208 4.4550796 10.783279 -5.9663363 -19.902298 4.447099 4.5967197
4.603608 5.3309293 2.3134203 4.5808105 4.4615393 -6.0057225 -6.001146 4.4383245
4.4907002 -4.9708652 4.62808 -4.4685717 10.700305 -5.898608 -19.70979 4.5816913
10.743778 4.4487286 -29.58759 4.4740305 -5.946299 5.59307 10.605406 4.602613
4.5081043 -20.594696 4.634934 -12.730149 -5.9534974 -6.0339785 8.995354 4.601169
4.5899434 4.632912 -5.9164295 -4.4201837 -5.9179173 4.5453653 4.517242 4.578933
4.525109 26.461523 4.4517965 4.519608 4.474259 17.712418 4.4524264 4.5120716
4.5240374 4.5513844 -5.753148 18.303823 4.5059166 21.470438 3.694728 4.475304
4.511765 10.681641 4.4788 -5.9278126 4.4808373 -9.96349 28.132076 4.4697676
17.75594 4.481345 4.5743623 4.5269327 25.75743 12.183995 4.5460734 -5.9489865
-6.0217013 19.094656 10.576098 4.4720645 4.6235304 4.4726 4.4440765 4.502983
4.27801 4.560569 -6.0828404 -5.9444675 4.5379887 -14.050024 4.554573 -6.002993
-29.70389 4.5045714 -0.06884062 4.458006 -5.8988156 4.5393786 4.5438733 10.698174
-5.9355493 33.778446 4.6385126 4.4713097 4.135263 4.499242 4.5622463 4.523715
4.4641013 -5.8977222 17.696894 4.5934825 4.5457215 -20.467188 4.613136 -4.5538287
-29.714264 17.70358 30.54835 4.5530286 -5.8902884 4.4490895 8.106038 4.47333
-5.9480186 4.4714437 10.595337 4.611579 4.5001755 25.347082 4.502949 20.595606
17.71716 -5.929135 10.580794 4.5354385 4.5498886 4.373967 0.082378425 27.068289
-6.001857 4.5623293 3.3936307 4.4721456 3.3584502 -26.260122 3.3533807 3.4014256
4.56338 17.662586 3.3404448 4.5478296 4.615106 4.516628 -5.9444857 -5.3970404
3.213809 16.337154 -27.979107 4.56972 4.468032 10.682046 3.5028253 25.706247
3.3188772 3.7709115 16.714846 4.491882 17.654314 3.4960947 3.2583635 3.0169854
-0.07337854 21.014004 3.9924805 -5.959223 -5.9375997 15.931609 10.621431 4.6191373
3.660266 3.4053168 4.471603 3.392815 4.5414314 4.513906 -5.8882875 -5.9363136
5.5624495 9.135081 3.7732842 -5.9739976 18.07456 3.3839428 25.55775 4.3133564
00000000: 7de1 bec0 62f3 9140 53b7 9040 8177 9240
00000010: 5dd8 9040 aa9f fcc1 34e4 8f40 e269 9240
00000020: 8f07 8e40 1e45 bdc0 43fd 8f40 8eb3 9040
00000030: 7738 9040 357e 9240 a066 c0c0 d289 97c1
00000040: 2da5 9240 5d90 45c1 cdc7 5041 e6b0 8e40
00000050: 7b4d 9340 962f 1f41 9575 8f40 40ba bdc0
00000060: 498a 9040 7519 bfc0 7dff 4bc1 1453 9240
00000070: c1f7 bdc0 53c9 9140 e211 9040 0bed 9240
00000080: 8d4d bfc0 894f dcc1 6a06 b240 5b5d 2c41
00000090: 82f7 bdc0 6efe e5c1 d943 2441 2341 9340
000000a0: 4a09 8f40 7f18 8f40 55c4 9040 3337 8e40
000000b0: 4d0d 8340 26b5 9140 370f bec0 f6d0 2941
000000c0: 5555 af40 8faf 3440 c7f5 9040 db0c bec0
000000d0: e3b2 1fc1 5898 9040 e7f5 6bbd 5afe 9140
000000e0: 5e3c bfc0 9e28 9140 0390 8e40 5088 2c41
000000f0: 3aec bec0 e837 9fc1 a34e 8e40 5418 9340
00000100: c250 9340 f996 aa40 140f 1440 0096 9240
00000110: eec4 8e40 e12e c0c0 6309 c0c0 c106 8e40
00000120: d1b3 8f40 5411 9fc0 3b19 9440 8afe 8ec0
00000130: 7334 2b41 66c1 bcc0 a6ad 9dc1 379d 9240
00000140: 84e6 2b41 fc5b 8e40 62b3 ecc1 422b 8f40
00000150: 1548 bec0 6efa b240 beaf 2941 9b48 9340
00000160: 6442 9040 f0c1 a4c1 6151 9440 b1ae 4bc1
00000170: 0d83 bec0 5a16 c1c0 f8ec 0f41 c73c 9340
00000180: d1e0 9240 d140 9440 6453 bdc0 2572 8dc0
00000190: 945f bdc0 a273 9140 3f8d 9040 9e86 9240
000001a0: b1cd 9040 33b1 d341 1e75 8e40 a1a0 9040
000001b0: 212d 8f40 08b3 8d41 477a 8e40 e462 9040
000001c0: eac4 9040 f1a4 9140 ca19 b8c0 3b6e 9241
000001d0: 7830 9040 75c3 ab41 6c76 6c40 b135 8f40
000001e0: 6160 9040 00e8 2a41 5452 8f40 a4b0 bdc0
000001f0: 0563 8f40 746a 1fc1 7e0e e141 5608 8f40
00000200: 2a0c 8e41 2e67 8f40 2d61 9240 a2dc 9040
00000210: 370f ce41 a5f1 4241 6f79 9140 195e bec0
00000220: c7b1 c0c0 dbc1 9841 b337 2941 271b 8f40
00000230: f6f3 9340 8a1f 8f40 e035 8e40 7018 9040
00000240: 75e5 8840 2ef0 9140 a1a6 c2c0 1439 bec0
00000250: 3437 9140 e6cc 60c1 10bf 9140 8518 c0c0
00000260: 91a1 edc1 7325 9040 50fc 8cbd fca7 8e40
00000270: 19c3 bcc0 9742 9140 6967 9140 b92b 2b41
00000280: 05f0 bdc0 211d 0742 b26e 9440 f814 8f40
00000290: 1354 8440 caf9 8f40 ecfd 9140 46c2 9040
000002a0: ebd9 8e40 24ba bcc0 3d93 8d41 cffd 9240
000002b0: 8d76 9140 cdbc a3c1 cf9e 9340 f7b8 91c0
000002c0: d0b6 edc1 efa0 8d41 0563 f441 69b2 9140
000002d0: 3e7d bcc0 f15e 8e40 55b2 0141 8525 8f40
000002e0: 2b56 bec0 1116 8f40 8086 2941 0e92 9340
000002f0: 7001 9040 d3c6 ca41 2918 9040 cdc3 a441
00000300: bebc 8d41 79bb bdc0 ef4a 2941 5022 9140
00000310: b098 9140 8af7 8b40 05b6 a83d db8b d841
00000320: 360f c0c0 9afe 9140 3f31 5940 d11b 8f40
00000330: d9f0 5640 bb14 d2c1 ca9d 5640 f5b0 5940
00000340: 3507 9240 fa4c 8d41 d9c9 5540 d287 9140
00000350: f3ae 9340 3788 9040 3a39 bec0 8eb4 acc0
00000360: 0caf 4d40 7eb2 8241 36d5 dfc1 253b 9240
00000370: 1efa 8e40 a9e9 2a41 4a2e 6040 65a6 cd41
00000380: 7c68 5440 9d56 7140 01b8 8541 7fbd 8f40
00000390: 093c 8d41 04c0 5f40 0789 5040 4a16 4140
000003a0: 7d47 96bd ae1c a841 cd84 7f40 f4b1 bec0
000003b0: d100 bec0 dfe7 7e41 62f1 2941 f9cf 9340
000003c0: cc41 6a40 b6f0 5940 5f17 8f40 e223 5940
000003d0: 6853 9140 eb71 9040 da6c bcc0 48f6 bdc0
000003e0: 96ff b140 4b29 1241 7d7d 7140 fd2a bfc0
000003f0: b398 9041 8592 5840 4676 cc41 0407 8a40

4.bias f4 [5]
3413.563 3427.708 3432.683 3434.6965 3637.6287
00000000: 0259 5545 543b 5645 ee8a 5645 25ab 5645
00000010: 0f5a 6345
