trained_buffer/epsilon090_dqn_agent_state_truncated_step40.pth (torch, 680462 bytes, 24 tensors)

0.weight f4 [150, 11]
0	0xc093d799	-4.620068
1	0xc09318eb	-4.5967917
2	0xc089d5b8	-4.3073387
3	0xc08aee4b	-4.3415885
4	0xc0994988	-4.790226
5	0xc09325bb	-4.598356
6	0xc08f5b91	-4.4799275
7	0x408d871a	4.422742
8	0xc0b2c6a2	-5.586747
9	0xc08f0b4c	-4.470129
10	0xc0cc4761	-6.3837132
11	0xc098a96d	-4.770682
12	0xc0d51b94	-6.6596165
13	0xc092e714	-4.590708
14	0xc0d57a69	-6.6711926
15	0xc0975daa	-4.7301836
16	0xc0ccf848	-6.405308
17	0xc0d6e899	-6.7158933
18	0x4099156e	4.783866
19	0xc091deab	-4.558431
20	0xc08f7485	-4.4829736
21	0xc08ade26	-4.3396177
22	0xc092cff2	-4.587884
23	0xc0e52b70	-7.1615524
24	0xc0d41067	-6.6270022
25	0xc0d17dcd	-6.5466065
26	0xc09688fd	-4.704222
27	0xc0a199b1	-5.050011
28	0xc09a9a74	-4.831354
29	0x4092614e	4.574378
30	0xc081a5a4	-4.05147
31	0x4066ff94	3.6093493
32	0xc0a7707d	-5.2324815
33	0xc1268f86	-10.41004
34	0xc1872dc0	-16.897339
35	0xc0b93581	-5.7877812
36	0xc0c0b073	-6.021539
37	0xbc9b1cbe	-0.018934604
38	0xc12d7753	-10.841632
39	0xc12d1c16	-10.819357
40	0xc1266bf8	-10.40136
41	0xc09c2799	-4.8798337
42	0x409433d2	4.6313257
43	0x409112c0	4.533539
44	0xc0d075ee	-6.5143957
45	0xc098e725	-4.778216
46	0xc09137d8	-4.538067
47	0xc08be5ed	-4.371817
48	0xc0e53854	-7.163126
49	0xc05e7b46	-3.476274
50	0xc046dc87	-3.10721
51	0x4121831a	10.094507
52	0x412a14a4	10.630039
53	0xc07713a9	-3.860575
54	0xc08a3191	-4.3185506
55	0xc091849e	-4.5474386
56	0xc09a0608	-4.813236
57	0xc08fd1ee	-4.494376
58	0xc092128e	-4.564765
59	0xc0904643	-4.508577
60	0xc0d58631	-6.672631
61	0xc08ca22d	-4.394797
62	0x40910edf	4.5330653
63	0xc0b6d554	-5.713541
64	0xc08afaaa	-4.3430986
65	0xc0d23c6c	-6.5698757
66	0xc0985754	-4.76066
67	0xc0d91c8a	-6.784734
68	0xc0cac951	-6.3370748
69	0xc08b2ee5	-4.3494744
70	0xc0b2d9f3	-5.589105
71	0xc0910848	-4.532261
72	0xc09b4012	-4.851571
73	0x408b8cf8	4.360958
74	0x40bb59c8	5.8547096
75	0xc0da8826	-6.8291197
76	0xc088e62e	-4.278098
77	0xc0d514da	-6.6587954
78	0xc08d4559	-4.4147153
79	0xc08fe2cb	-4.4964347
80	0xc0899871	-4.2998586
81	0xc09a9ae5	-4.831408
82	0xc0cd0351	-6.406655
83	0xc08d8423	-4.42238
84	0x4098415f	4.75798
85	0xc0d52662	-6.6609354
86	0xc098c639	-4.774197
87	0xc097f691	-4.7488484
88	0xc0c4e3d8	-6.152813
89	0xc0c2a210	-6.082283
90	0xbfa054db	-1.2525896
91	0xc149ab9e	-12.604399
92	0xc0c67b2c	-6.2025356
93	0xc0be8768	-5.954029
94	0xc1471170	-12.441757
95	0xc0b9464d	-5.7898316
96	0xbf93a173	-1.1533645
97	0xbf9fa7de	-1.2473104
98	0xc14cdb94	-12.803608
99	0xc099adf2	-4.8024836
100	0xc08c2f83	-4.3808
101	0xc08ed40a	-4.4633837
102	0xc0cf59bd	-6.4797044
103	0xc0887d6c	-4.2653103
104	0xc0d0da46	-6.5266447
105	0xc091c636	-4.5554457
106	0x408ae819	4.340832
107	0xc09a95e8	-4.830799
108	0xc08f6f5e	-4.4823446
109	0x408fdf22	4.495988
110	0xc0b7128d	-5.7210145
111	0xc0bfc326	-5.992572
112	0xc0d09ffa	-6.5195284
113	0xc0cdbb20	-6.4290924
114	0xc0be2bf2	-5.9428644
115	0xc0bfb531	-5.990868
116	0xc0c93692	-6.2879114
117	0x40c479e4	6.139879
118	0x40c3d582	6.119813
119	0xc08a766d	-4.3269563
120	0xc0899b16	-4.3001814
121	0xc08cf169	-4.404469
122	0xc093560f	-4.604255
123	0xc0ca7c7a	-6.327695
124	0xc0cf86a0	-6.4851837
125	0xc097a201	-4.738526
126	0xc0942b6f	-4.630302
127	0xc08eece1	-4.466416
128	0x40cd862a	6.4226274
129	0xc094b8d7	-4.6475635
130	0xc0cc9f69	-6.3944592
131	0x40964333	4.695703
132	0xc0cb07af	-6.344688
133	0xc087f5e2	-4.248765
134	0xc091b0ec	-4.552847
135	0xc0d81e76	-6.7537184
136	0xc094c914	-4.6495457
137	0xc0d4be7a	-6.6482515
138	0xc094226e	-4.629203
139	0x408ecba0	4.4623566
140	0xc0d57cc2	-6.671479
141	0xc0917541	-4.545563
142	0x40947497	4.639232
143	0xc0c50170	-6.1564255
144	0xc0ba384f	-5.8193736
145	0xc0bf6b61	-5.981858
146	0xc0c05a05	-6.0109887
147	0xc0c29b1c	-6.0814342
148	0xc0b5fd26	-5.687152
149	0xc0c0169e	-6.002761
150	0x40c0c502	6.024049
151	0x40b5faba	5.6868563
152	0xc0bec940	-5.9620667
153	0x40b96012	5.7929773
154	0xc0952e32	-4.661889
155	0xc096684f	-4.700233
156	0xc08b3ca2	-4.3511515
157	0xc08e3e7f	-4.445129
158	0xc08c58a4	-4.3858204
159	0xc0d63d34	-6.694971
160	0xc08c7747	-4.38956
161	0x408beed3	4.3729033
162	0xc0c9a018	-6.3007927
163	0xc09225d3	-4.567117
164	0xc0d7e971	-6.7472463
165	0xc0943f54	-4.6327305
166	0xc0d65c86	-6.6987944
167	0xc0cfb766	-6.4911375
168	0xc0c88732	-6.2665033
169	0xc08a44f7	-4.3209186
170	0xc094b53e	-4.6471243
171	0xc09014f2	-4.502557
172	0xc0892225	-4.285418
173	0xc08a56c3	-4.323091
174	0xc0d54a5c	-6.665327
175	0xc0cb0a93	-6.345041
176	0xc0988fd9	-4.7675595
177	0xc08903d3	-4.281717
178	0xc0980143	-4.750154
179	0xc096667a	-4.7000093
180	0xc09a47a1	-4.821244
181	0xc0d6c380	-6.7113647
182	0xc0cee2ad	-6.4651704
183	0x40943bb4	4.632288
184	0x408e2b4d	4.4427857
185	0xc08d8c87	-4.423404
186	0xc08faf27	-4.490131
187	0xc0c03014	-6.005869
188	0xc0c31208	-6.095951
189	0xc0bf270f	-5.973518
190	0xc0bb02aa	-5.844075
191	0xc0bbd684	-5.869936
192	0xc1325a95	-11.147115
193	0xc187bd67	-16.967482
194	0xc09f4586	-4.9772367
195	0xc09baed3	-4.865091
196	0xc0be7d32	-5.9527826
197	0xc0bf2229	-5.97292
198	0xc0d061eb	-6.511953
199	0xc0d74d86	-6.7282133
200	0xc091f4fd	-4.561156
201	0xc08b10c3	-4.345796
202	0xc0c877c0	-6.264618
203	0xc0b6477e	-5.696227
204	0xc0d42149	-6.629063
205	0x40957fc1	4.671845
206	0x408b4f09	4.353398
207	0xc0886e2a	-4.2634478
208	0xc091e646	-4.5593596
209	0xc08b9314	-4.361704
210	0xc08d4fc1	-4.4159856
211	0xc08ac4cb	-4.3365226
212	0xc09b9943	-4.8624587
213	0xc09ac2db	-4.836286
214	0xc08a381a	-4.3193483
215	0xc0967956	-4.7023115
216	0x4089c60f	4.305427
217	0xc0cde3e6	-6.4340696
218	0xc083547b	-4.1040626
219	0xc0cab888	-6.335026
220	0xc05e30af	-3.4717214
221	0x4058600e	3.3808627
222	0x40744b4f	3.8170965
223	0xc02ac4ad	-2.6682541
224	0xc094733f	-4.639068
225	0x412d9376	10.848501
226	0xbfb90b67	-1.4456605
227	0x41e02817	28.019575
228	0xc1da88af	-27.31674
229	0x41c0c9d1	24.098543
230	0xc1c1c8f5	-24.223124
231	0xc0b869f6	-5.7629347
232	0xc0bc1967	-5.878101
233	0xc0bcd555	-5.9010415
234	0xc0b95499	-5.791577
235	0xc0c54357	-6.16447
236	0xc0bbcd87	-5.868839
237	0xc0c297cf	-6.0810313
238	0x40c1d4e1	6.057236
239	0x40c2ee11	6.091561
240	0xc0c7ed59	-6.247723
241	0x40c4918c	6.142767
242	0xc0c8f1de	-6.279525
243	0xc0bb2066	-5.847705
244	0xc0c9e253	-6.3088775
245	0xc0ce808d	-6.453192
246	0xc0b8156c	-5.752615
247	0xc0c5f903	-6.186647
248	0xc0d3a22c	-6.6135464
249	0x40994a37	4.7903094
250	0xc08db62b	-4.4284873
251	0x408b02fe	4.3441153
252	0xc0991b1c	-4.7845592
253	0xc0cc17f1	-6.3779225
254	0xc0892712	-4.2860193
255	0xc09400be	-4.6250906

0.bias f4 [150]
0	0xc099ff89	-4.8124433
1	0xc0d4e836	-6.653346
2	0xc0d8aaf3	-6.770868
3	0xc184c0a0	-16.594055
4	0xc0826db6	-4.0758924
5	0xc0885461	-4.2603
6	0xc095b9b1	-4.6789174
7	0xc08c2e36	-4.380641
8	0xc148fc68	-12.561623
9	0xc0d58c6f	-6.673393
10	0xc0cef745	-6.4676843
11	0xc0d7c997	-6.743358
12	0xc088e95d	-4.2784867
13	0xc0be02b5	-5.9378304
14	0xc09a6061	-4.824265
15	0xc0d01e62	-6.503709
16	0xc08a3710	-4.3192215
17	0xc188d565	-17.104197
18	0xc0c84148	-6.257969
19	0xc099d7d0	-4.8075943
20	0x3e870e33	0.2637802
21	0xc0b7a9c8	-5.7394753
22	0xc0d444eb	-6.633413
23	0xc091b3f6	-4.553218
24	0xbdd5b164	-0.10434225
25	0xc0cd07fe	-6.4072256
26	0xc0d6c76e	-6.7118444
27	0xc0d2add0	-6.5837173
28	0xc0cb88a8	-6.3604317
29	0xc092f8eb	-4.5928855
30	0xc0d36bdc	-6.6069164
31	0xc0ba9f35	-5.8319345
32	0xc08ea18c	-4.45722
33	0xc0c7a8b8	-6.2393456
34	0xc0c89e43	-6.269319
35	0xc0cf5485	-6.4790673
36	0xc0959507	-4.674442
37	0xc0989934	-4.7687016
38	0xc089a3c4	-4.301241
39	0xc15d01fb	-13.8129835
40	0xc0d97fd6	-6.796855
41	0xc0cabb51	-6.335366
42	0xc0d55040	-6.666046
43	0xc1872eba	-16.897816
44	0xc0975f22	-4.730363
45	0xc0889e32	-4.269311
46	0xc0c9561b	-6.291761
47	0xc08e647d	-4.4497666
48	0xc190abcb	-18.083883
49	0xc14cc159	-12.797204
50	0xc0c36c41	-6.1069646
51	0xc0de6ba6	-6.9506407
52	0xc0c9c572	-6.305352
53	0xc0cf0245	-6.469027
54	0xc07691dd	-3.8526528
55	0xc08b19a7	-4.3468814
56	0xc0d5ba3a	-6.6789827
57	0xc093d18e	-4.6193304
58	0xc0d7fb8f	-6.749458
59	0xc14692d1	-12.410844
60	0xc089413c	-4.289213
61	0xc0cb620f	-6.35572
62	0xc0d71dda	-6.722394
63	0xc0b9fee6	-5.8123655
64	0xc1993a1f	-19.15338
65	0xc0d660e6	-6.6993284
66	0xc0937264	-4.6077137
67	0xc0bd5382	-5.916444
68	0xc08ffbbf	-4.4994807
69	0xc0c799f7	-6.2375445
70	0xc08b095c	-4.3448925
71	0xc1953ef5	-18.65574
72	0xc185e973	-16.738989
73	0xc08e925c	-4.455366
74	0xc08ebebe	-4.460784
75	0xc0d241bb	-6.5705237
76	0xc0d035a4	-6.506548
77	0xc08ca106	-4.394656
78	0xc098a4d9	-4.770123
79	0xc0d5994b	-6.6749625
80	0xc0d3b4ef	-6.6158366
81	0xc14a8f5d	-12.660001
82	0xc0982b01	-4.7552495
83	0xc08d88db	-4.422956
84	0xc08ba1e5	-4.3635125
85	0xc1d9cb15	-27.224161
86	0x418b8de3	17.44428
87	0xc0cc3f8a	-6.382756
88	0xc0bc1799	-5.8778806
89	0xc0b6613d	-5.69937
90	0xc090e36a	-4.5277605
91	0xc0917b73	-4.5463195
92	0xc0dac11d	-6.8360734
93	0xc2074408	-33.816437
94	0xc08b1109	-4.3458295
95	0xc09b0dd8	-4.84544
96	0xc0899866	-4.2998533
97	0xc0cf7f31	-6.4842763
98	0xc095ba09	-4.6789594
99	0xc09a0049	-4.812535
100	0xc148f3ce	-12.559523
101	0xc08c182d	-4.377951
102	0xc0d1bc18	-6.5542107
103	0xc0897cee	-4.2965
104	0xc208a7d9	-34.163914
105	0x3e65a9e2	0.22428086
106	0xc08ddf93	-4.433542
107	0xc098e618	-4.7780876
108	0xc1a345fb	-20.40917
109	0xc0babe80	-5.8357544
110	0xc0cf184b	-6.4717155
111	0xc0cbf23b	-6.373319
112	0xc0d087dd	-6.516585
113	0xc0d69a09	-6.706303
114	0xc0c19dbb	-6.050504
115	0xc0f21ffd	-7.566405
116	0xc0c7c360	-6.2425995
117	0xc0c7e568	-6.2467537
118	0xc08b3039	-4.3496366
119	0xc215bb90	-37.433167
120	0xc1491c47	-12.569404
121	0xc092ffd7	-4.5937304
122	0x41c0bdcc	24.092674
123	0xc09a911a	-4.8302126
124	0xc0526f84	-3.2880564
125	0xc08af352	-4.342202
126	0xc08dc8f1	-4.430779
127	0xc09c091f	-4.8761134
128	0xc0889cce	-4.269141
129	0xc0993fb7	-4.7890277
130	0xc0601c38	-3.5017223
131	0xc064ccdc	-3.5750036
132	0xc08b7c36	-4.3589125
133	0xc0cda784	-6.4266987
134	0xc147c064	-12.48447
135	0xc0d65947	-6.698398
136	0xc0cc4d29	-6.384419
137	0xc08e8dab	-4.4547935
138	0xc090b2b3	-4.521814
139	0xc09367ba	-4.606412
140	0xc087e000	-4.2460938
141	0xc0935be0	-4.604965
142	0xc19cb532	-19.588474
143	0xc0d17e63	-6.546678
144	0xc0cb8b49	-6.3607526
145	0xc15a9d6b	-13.663432
146	0xc0c05bff	-6.01123
147	0xc0be0106	-5.937625
148	0xc08eb979	-4.4601407
149	0xc0ce100e	-6.43946

2.weight f4 [100, 150]
0	0xc06f0f4f	-3.7353094
1	0xc0bd8a01	-5.923096
2	0x40be1615	5.9401956
3	0xbc9cc181	-0.019135239
4	0xc19696dc	-18.823662
5	0xc06644a8	-3.5979404
6	0xc0628a02	-3.5396733
7	0xc0be1f27	-5.941303
8	0xc0bdedc3	-5.9352736
9	0xc066d321	-3.6066363
10	0xc0bdac8e	-5.927314
11	0xc0c089e5	-6.016833
12	0xc0bf0c58	-5.970257
13	0xc0beb893	-5.960031
14	0xc06cb766	-3.6986938
15	0xc0c206a2	-6.0633097
16	0xc0bf8faf	-5.9862895
17	0xc09acda1	-4.837601
18	0xc0c01876	-6.002986
19	0xc0e84b85	-7.2592187
20	0xc1110a38	-9.064995
21	0xc0bff66a	-5.99883
22	0xc0c14285	-6.03937
23	0xc0c03da1	-6.007523
24	0x3d43ab7c	0.047770962
25	0x40c235af	6.069053
26	0xc0be8d05	-5.9547143
27	0xc0c07113	-6.013803
28	0xc0be896d	-5.9542756
29	0xc0668d21	-3.6023638
30	0x40bdd631	5.9323964
31	0xc0be99e1	-5.956284
32	0xc0eb9b1f	-7.3626857
33	0xc0bd4eca	-5.915868
34	0xc0bf1d18	-5.9723015
35	0xc0c03861	-6.006882
36	0xc0bf86ec	-5.98522
37	0xc06ed1f0	-3.7315636
38	0x40be58d5	5.9483438
39	0xc0e18ac6	-7.04819
40	0x40bef157	5.9669604
41	0xc0be3eed	-5.9451814
42	0xc0c2033b	-6.0628943
43	0xbd43e66a	-0.04782716
44	0xc0cdc24a	-6.429967
45	0xc0677eb1	-3.6171076
46	0xc0beb3f8	-5.959469
47	0xc0ea9a31	-7.331322
48	0xc0de25f6	-6.942134
49	0xc12f7a27	-10.967322
50	0xc0bf2ceb	-5.974233
51	0xbc9d3bb6	-0.019193511
52	0x40bd6d36	5.9195814
53	0x40bea4ef	5.9576335
54	0xc0bf9799	-5.9872556
55	0xc0665dbf	-3.5994718
56	0x40be52b6	5.9475965
57	0xc0c123ce	-6.0356207
58	0xc0c00430	-6.000511
59	0xbcc95fa3	-0.024581736
60	0xc0de6b8a	-6.9506273
61	0xc0c12b38	-6.0365257
62	0x40be8f42	5.9549875
63	0xc0bdd58f	-5.932319
64	0xc0c1587f	-6.0420527
65	0xc0bf61d0	-5.98069
66	0xc0e0260f	-7.004646
67	0xc0bde776	-5.9345045
68	0xc107e4c9	-8.493356
69	0xc0c0fc9e	-6.030837
70	0xc10864af	-8.524581
71	0xc06ae110	-3.6699867
72	0xc096f6c5	-4.717623
73	0xc0bd4855	-5.9150796
74	0xc068783f	-3.6323392
75	0xc0bd2b5b	-5.9115424
76	0x40bd9e66	5.9255857
77	0x40bfbf11	5.9920735
78	0x40c1be47	6.054477
79	0x40c15f74	6.042902
80	0xbd6e794a	-0.05822114
81	0xc0c13993	-6.038278
82	0x40c13d9b	6.03877
83	0xc0c17116	-6.0450544
84	0xc0c0b883	-6.0225234
85	0x3d65a137	0.05606195
86	0xc193de41	-18.483522
87	0xc0bdd850	-5.9326553
88	0x40bd86d8	5.9227104
89	0xc0c1db0e	-6.05799
90	0xc10a1ae4	-8.631565
91	0xc0befb40	-5.96817
92	0xc0c1bdf8	-6.0544395
93	0xc0be9e85	-5.9568505
94	0xc0e02a3a	-7.0051546
95	0xc06d7ee5	-3.71087
96	0xc0c071fe	-6.013915
97	0xc0c18572	-6.0475397
98	0xc0be985a	-5.9560976
99	0xc0deec1b	-6.9663215
100	0xc0c06037	-6.011745
101	0xc0df3abf	-6.975921
102	0xc0be1704	-5.9403095
103	0xc10197ee	-8.099592
104	0xc0c057fe	-6.010741
105	0x3d99d72a	0.075117424
106	0xc0c02bf9	-6.0053678
107	0xc0df3b97	-6.976024
108	0x3da3d1a1	0.07998968
109	0xc0beaf66	-5.958911
110	0x40bed703	5.9637465
111	0xc0be5301	-5.9476323
112	0xc0bdd84c	-5.9326534
113	0xc0c1fae4	-6.0618763
114	0xc0bf480f	-5.977546
115	0xc0ad20ee	-5.4102697
116	0xc0c1e877	-6.059627
117	0x40c17a1e	6.046157
118	0xc069c5db	-3.6527011
119	0xc0bd7d3f	-5.921539
120	0xc0bd5a33	-5.9172606
121	0xc0e24fde	-7.0722494
122	0xc0eae71e	-7.3407125
123	0x40c22017	6.066417
124	0xc11f9d36	-9.975882
125	0xc0f7fe9d	-7.7498307
126	0xc0be0291	-5.9378133
127	0xc0f0e8f9	-7.528439
128	0xc06ef97e	-3.7339778
129	0xc0fc9ffb	-7.894529
130	0x40560e75	3.3446324
131	0xc0e290a4	-7.0801563
132	0xc0bf17e7	-5.971668
133	0xc0c11050	-6.0332413
134	0xc0c166f3	-6.043817
135	0xc0bd94e3	-5.9244246
136	0xc0c1ca80	-6.055969
137	0x3cc59174	0.024117209
138	0xc0e2a75f	-7.082931
139	0xc06d10e7	-3.7041566
140	0x40bfbdf8	5.9919395
141	0xc06891c8	-3.6338978
142	0xc0c2062d	-6.063254
143	0xc0bde9be	-5.934783
144	0xc0bd1e96	-5.9099836
145	0xc0e482b8	-7.140957
146	0xc0bdf7c3	-5.9364944
147	0xc0c0f656	-6.0300703
148	0xc0c04324	-6.008196
149	0x40bfb882	5.991273
150	0xc09333b6	-4.6000624
151	0xc091ca57	-4.5559497
152	0xc08f04b8	-4.469326
153	0xc0be4078	-5.9453697
154	0xc092fd62	-4.5934305
155	0xc0d0fa8d	-6.530585
156	0xc0d0d455	-6.5259194
157	0xc08f93c8	-4.4867897
158	0xbf829fe6	-1.0205047
159	0xc0d33b23	-6.600969
160	0xc0d2984b	-6.5810905
161	0xc093c5a4	-4.617876
162	0xc0903bf9	-4.507321
163	0x40bfa858	5.9893
164	0xc0d29e63	-6.5818343
165	0xc0901635	-4.502711
166	0xc0ceb3fa	-6.45947
167	0xc0c0eb53	-6.028726
168	0xc09371dd	-4.6076493
169	0xc093f575	-4.623713
170	0xc094e083	-4.652406
171	0x40be16d8	5.9402885
172	0xc0925c22	-4.5737467
173	0xc08f635f	-4.4808803
174	0x3d09914e	0.03358584
175	0xc090e463	-4.527879
176	0xc08f26ef	-4.4735026
177	0xc093cec4	-4.61899
178	0xc0900837	-4.501003
179	0xc0d13dc4	-6.5387897
180	0xc093b421	-4.6157384
181	0x40be7afc	5.9525127
182	0xc0928adf	-4.579452
183	0x40bfc4d4	5.992777
184	0xc0924e67	-4.5720706
185	0xc093a896	-4.6143293
186	0xc09297ad	-4.581015
187	0xc0918720	-4.5477448
188	0xc092fd94	-4.5934544
189	0xc095b572	-4.678399
190	0xc08f5a35	-4.4797616
191	0xc0920f8b	-4.5643973
192	0xc08f8d30	-4.485985
193	0xbc640ad0	-0.0139185935
194	0xc093ecd4	-4.6226597
195	0xc0d141af	-6.539268
196	0xc093c669	-4.61797
197	0xc091af7c	-4.5526714
198	0xc0942ed8	-4.630718
199	0x3d6b98fb	0.05751894
200	0x40bec6fb	5.9617896
201	0xc02732bc	-2.6124716
202	0xc0d385a6	-6.6100645
203	0xc08f4abf	-4.4778743
204	0xc08eeeb9	-4.466641
205	0xc0d315ac	-6.5963955
206	0xc0cff590	-6.498726
207	0xc090c9d3	-4.5246367
208	0xc092913f	-4.58023
209	0x3d445ae9	0.04793826
210	0xc09217a5	-4.5653863
211	0xc09247e2	-4.5712748
212	0xc0d1e761	-6.5594945
213	0x40c20516	6.063121
214	0xc10ac34c	-8.67268
215	0xc09404f6	-4.6256056
216	0xc08ff09c	-4.4981213
217	0x40bd8812	5.92286
218	0xc0d21fdb	-6.5663886
219	0x40c00085	6.0000634
220	0xc094749a	-4.6392336
221	0xc093366b	-4.600393
222	0xc0bddc7b	-5.933164
223	0xc092fc78	-4.593319
224	0xc093b60c	-4.6159725
225	0xc092707a	-4.57623
226	0xc08f6a9b	-4.4817634
227	0xc0d0d46c	-6.5259304
228	0xc08f3946	-4.4757414
229	0xc0cfa9f0	-6.4894943
230	0xc0d0ea9f	-6.5286403
231	0xbf802dd8	-1.001399
232	0xc0919664	-4.549608
233	0xc091ccab	-4.556234
234	0xc092e0ce	-4.589942
235	0xbd8e57ba	-0.06950326
236	0xc0d1c4a8	-6.555256
237	0xc08f3fd1	-4.47654
238	0x40bfa860	5.9893036
239	0x40bf20ee	5.9727697
240	0xc095a7d5	-4.6767373
241	0xc0d39780	-6.6122437
242	0xc0900046	-4.5000334
243	0xc091c07a	-4.5547457
244	0xc091bbd4	-4.554178
245	0xc0d2f46b	-6.592336
246	0xc0d04c39	-6.5093045
247	0xc0d04404	-6.5083027
248	0xc0d11508	-6.5338173
249	0xc08ed829	-4.4638867
250	0xbf6b2701	-0.9185639
251	0xc093ce5e	-4.6189413
252	0xc093754c	-4.6080685
253	0xc093696f	-4.6066203
254	0xc093cf72	-4.619073
255	0xbd934869	-0.071915455

2.bias f4 [100]
0	0xc1b01ab9	-22.013048
1	0xc0c095ce	-6.0182867
2	0xc0cc3226	-6.3811216
3	0xc0c171f3	-6.04516
4	0xc292c707	-73.388725
5	0xc119543b	-9.583064
6	0xc0cde64b	-6.434362
7	0xc10b4ad8	-8.705772
8	0xc108006c	-8.500103
9	0xc10b3e1c	-8.702663
10	0xc18610d2	-16.758213
11	0xc2641774	-57.022903
12	0xc1382b73	-11.510608
13	0xc1b9baed	-23.216272
14	0xc0b8d05b	-5.775434
15	0xc0c5ce4b	-6.1814322
16	0xc0ab88a8	-5.3604317
17	0xc0b4ad2e	-5.64614
18	0xc0d64d29	-6.696919
19	0xc0c12edd	-6.0369706
20	0xc0f23bc8	-7.5697975
21	0xc1a30c05	-20.380869
22	0xc0caa5da	-6.3327456
23	0xc0c36d3b	-6.107084
24	0xc0afea23	-5.497331
25	0xc0ae6b35	-5.450587
26	0xc0b7f822	-5.7490396
27	0xc1212236	-10.070852
28	0xc0b2a792	-5.5829554
29	0xc0bb4592	-5.8522425
30	0xc0e974ca	-7.2955065
31	0xc1876f83	-16.92945
32	0xc0be15e4	-5.940172
33	0xc0db35c9	-6.8503156
34	0xc0e004e0	-7.000595
35	0xc0b2a331	-5.582421
36	0xc212e6ee	-36.725517
37	0xc2733e25	-60.810688
38	0xc18bf73c	-17.49572
39	0xc16e689c	-14.900539
40	0xc0fdfa15	-7.9367776
41	0xc0ec3afa	-7.3821993
42	0xc0a8ffb7	-5.281215
43	0xc0c70986	-6.2199125
44	0xc0c0a46f	-6.0200725
45	0xc2151137	-37.26681
46	0xc282f03a	-65.46919
47	0xc1a74d1b	-20.91265
48	0xc23a8f3c	-46.639877
49	0xc1390cff	-11.565673
50	0xc1214592	-10.079485
51	0xc1ce2876	-25.769756
52	0xc0b205d9	-5.563214
53	0xc0bd5688	-5.916813
54	0xc0fcfc9b	-7.9058356
55	0xc1292448	-10.571358
56	0xc1b931c6	-23.149303
57	0xc0b18e3f	-5.548614
58	0xc0a52048	-5.1601906
59	0xc0cf988c	-6.4873714
60	0xc13c1298	-11.7545395
61	0xc0aa2e8f	-5.3181834
62	0xc0ed3ec8	-7.4139137
63	0xc0cb35fc	-6.35034
64	0xc0d9bfd0	-6.8046646
65	0xc0b386f2	-5.610223
66	0xc268844c	-58.129196
67	0xc108a87c	-8.541134
68	0xc0ce985b	-6.456098
69	0xc18d3895	-17.652628
70	0xc0df96c4	-6.987154
71	0xc2be59a8	-95.17511
72	0xc0a1dc11	-5.0581136
73	0xc1828f03	-16.31983
74	0xc08d2d9b	-4.411817
75	0xc0abd575	-5.369807
76	0xc0ac3b4e	-5.3822393
77	0xc1796daa	-15.589273
78	0xc1bd8224	-23.688545
79	0xc2156c4f	-37.35577
80	0xc0cbd4c5	-6.369723
81	0xc0b58b37	-5.673244
82	0xc0ac98bd	-5.393645
83	0xc10083ec	-8.0322075
84	0xc0b261b6	-5.5744276
85	0xc0bd257f	-5.910827
86	0xc137b9cc	-11.482861
87	0xc21a2f40	-38.546143
88	0xc127dcf4	-10.491444
89	0xc12bf2bc	-10.746761
90	0xc203158b	-32.771038
91	0xc2157340	-37.36255
92	0xc130ed38	-11.057915
93	0xc1ca4f53	-25.288733
94	0xc1c3c5f6	-24.47166
95	0xc0fdd420	-7.932144
96	0xc1401840	-12.00592
97	0xc1c01ae1	-24.013124
98	0xc1a4539d	-20.540827
99	0xc0b012b1	-5.5022817

4.weight f4 [5, 100]
0	0xc0fa0f4f	-7.8143687
1	0x40cf4031	6.476586
2	0x40d109c3	6.5324416
3	0xc0bfb37c	-5.9906597
4	0xc1cc4478	-25.533432
5	0x40cd6076	6.418025
6	0x408fe988	4.497257
7	0x40ce1674	6.440241
8	0x40bbefe7	5.873035
9	0x40cd55ef	6.41674
10	0x4058e738	3.3891125
11	0x40dfb214	6.990488
12	0xbfd1e346	-1.6397483
13	0x41104e6a	9.019144
14	0x40d37222	6.607682
15	0x40835ffc	4.105467
16	0x408e827a	4.4534273
17	0x40d105b5	6.5319467
18	0x40907699	4.5144773
19	0xc0bdd2d7	-5.9319873
20	0x40c85569	6.260426
21	0x404dfc7e	3.218536
22	0x408f8545	4.4850183
23	0x40d090e8	6.5176888
24	0x40cf960d	6.4870667
25	0xc1c343dc	-24.408134
26	0xc16bdc3d	-14.741269
27	0x40cf11fe	6.4709463
28	0x40af6dca	5.482152
29	0x40d0b7f6	6.522456
30	0x40cfd817	6.495128
31	0x3c8760da	0.016525675
32	0x409268b1	4.5752797
33	0x40874890	4.2276077
34	0x40cb1bb9	6.347134
35	0x408d19e5	4.409411
36	0xc0a881e9	-5.265858
37	0xc19e8123	-19.813055
38	0xc0e16272	-7.0432673
39	0x414473d7	12.278281
40	0x40cea088	6.457096
41	0x40cfb01b	6.4902472
42	0x40d1a6ba	6.5516024
43	0x408e6a31	4.450463
44	0x408ea231	4.4572988
45	0x41fd7ff8	31.687485
46	0xc1cb9a72	-25.450413
47	0x400d50e2	2.2080617
48	0x41903a86	18.028576
49	0x3ffca157	1.9736737
50	0x4090a875	4.5205636
51	0xbfafd814	-1.3737817
52	0xbce7db53	-0.028302824
53	0x408d69b9	4.4191556
54	0x40d11d06	6.534793
55	0x402f7423	2.7414634
56	0xc04c7340	-3.1945343
57	0x4092fb3d	4.5931687
58	0x40940ea2	4.626786
59	0x40930bd6	4.595195
60	0xbe90fe91	-0.2831922
61	0x40b0050c	5.500616
62	0x403e6bc8	2.9753284
63	0x408ea828	4.458027
64	0x40d140c2	6.539155
65	0x40b0ad5f	5.5211635
66	0xc11db187	-9.855842
67	0x40bbc8b4	5.86825
68	0x40903601	4.5065923
69	0xc109d491	-8.614396
70	0x40ce67f9	6.450192
71	0xc1d0ca14	-26.098671
72	0x408f330c	4.4749813
73	0xc1a473ac	-20.55648
74	0x40a7d26f	5.2444377
75	0x40906089	4.511784
76	0x40917576	4.5455885
77	0xc09fd6fb	-4.9949927
78	0xbfe51a8b	-1.7898725
79	0x41ca88f9	25.316881
80	0x408e0698	4.438305
81	0x40d0c84e	6.5244513
82	0x40901be9	4.503407
83	0x4092e7b3	4.5907836
84	0xbdb4bca8	-0.08825046
85	0x40becee4	5.962755
86	0xc11b62fb	-9.711665
87	0x408ab7e9	4.33495
88	0x4083dc6a	4.120656
89	0xc0311e82	-2.767487
90	0xbfe35fec	-1.7763648
91	0x3c80eeb3	0.01573882
92	0x3fc0418d	1.5020005
93	0x414cf5fa	12.810053
94	0xc0eb35bd	-7.35031
95	0x40cf9e54	6.488077
96	0xc165d75c	-14.365078
97	0xc098ba26	-4.772723
98	0xc0684fbd	-3.6298668
99	0x40b0386a	5.5068865
100	0xc01700c3	-2.3594215
101	0x4093635c	4.605879
102	0x408fe0d3	4.4961944
103	0xc0bd16f2	-5.909051
104	0x41dafef6	27.374493
105	0x408efa16	4.468028
106	0x409334a1	4.6001744
107	0x40910a22	4.532487
108	0x409295f2	4.580804
109	0x4090e77f	4.528259
110	0x408fa3f6	4.488765
111	0xc13f628f	-11.961562
112	0x4063fd18	3.5623226
113	0xbdced932	-0.101000205
114	0x4092a509	4.582646
115	0x409137c5	4.538058
116	0x4091812e	4.547019
117	0x40927983	4.577333
118	0x408f7ff1	4.484368
119	0xc0c2c107	-6.086063
120	0x408ffc50	4.49955
121	0xc12713ba	-10.442316
122	0x408f2081	4.472718
123	0x4090754f	4.51432
124	0x408f48b9	4.4776273
125	0x403becc1	2.9363253
126	0xc00a3356	-2.1593833
127	0x40929346	4.5804777
128	0x40af5bc7	5.4799533
129	0x408fafb3	4.4901977
130	0x4093f36e	4.6234655
131	0x40800782	4.0009165
132	0x408ef523	4.467424
133	0x4092dd7a	4.5895357
134	0x408e4c4d	4.446814
135	0x4092e013	4.589853
136	0xc0a77db3	-5.234094
137	0x41f8ff1f	31.12457
138	0x406aca59	3.6686003
139	0x41a6401f	20.78131
140	0x40906831	4.5127187
141	0x4093eb3a	4.622464
142	0x40944c04	4.6342793
143	0x408e689e	4.4502707
144	0x4094062a	4.6257524
145	0x40b1a801	5.5517583
146	0x41c3316d	24.399134
147	0x40910ae0	4.5325775
148	0x41b0f891	22.12137
149	0x40c97ee3	6.296739
150	0x409409ee	4.626212
151	0xc108a681	-8.54065
152	0x3baff8e7	0.0053702476
153	0x4092fa7b	4.593076
154	0x408fd09c	4.494215
155	0x4090ab32	4.520898
156	0x40784393	3.8791244
157	0x40922a48	4.5676613
158	0x408f9a28	4.487568
159	0x40927114	4.5763035
160	0xc003c85a	-2.0591035
161	0x408f2b21	4.4740148
162	0x3fbf69b5	1.4954134
163	0x4090f53d	4.5299363
164	0x4093cae4	4.618517
165	0x40b079e3	5.5148787
166	0xc1d69f1f	-26.827696
167	0x4093197d	4.5968614
168	0x4091836d	4.547293
169	0x4088ffdd	4.2812333
170	0x408eaa06	4.458255
171	0x41a3e283	20.485601
172	0x4092a9c4	4.5832233
173	0x402aa5eb	2.6663768
174	0x409cb1f7	4.896724
175	0x40927265	4.576464
176	0x4093a3db	4.613752
177	0x3fe801b7	1.8125523
178	0x405206ed	3.2816727
179	0xbd8fc70f	-0.07020389
180	0x4092a82f	4.58303
181	0x40911ba5	4.5346246
182	0x40926e01	4.575928
183	0x408fee5d	4.497847
184	0xbd4c3847	-0.049858358
185	0xc0bdfa09	-5.936772
186	0xc104c0df	-8.297088
187	0xc068a380	-3.6349792
188	0x4091c4c3	4.555269
189	0xbf69884b	-0.9122359
190	0xc0072ecf	-2.112232
191	0xc0bf8e27	-5.9861026
192	0x408e3039	4.4433866
193	0x404ffe73	3.2499053
194	0xc0ffb6ba	-7.9910555
195	0x408fa629	4.489033
196	0xc0b3c825	-5.6181817
197	0x402c07a4	2.6879663
198	0x3ee4b23e	0.44667238
199	0x40b2bb0f	5.5853343
200	0xc084f26d	-4.154593
201	0x40d0ad71	6.521172
202	0x40d345b6	6.6022596
203	0xc0bce007	-5.902347
204	0xc1fd614f	-31.672514
205	0x408eb7de	4.4599447
206	0x40d29a9c	6.581373
207	0x40d1c7c7	6.555637
208	0x40d10cfc	6.532835
209	0x408cdffe	4.402343
210	0x408d23d4	4.4106236
211	0xc19798b2	-18.949558
212	0xc062724f	-3.5382268
213	0x40fcbc63	7.8979964
214	0x40d3895c	6.6105175
215	0x408dd3f2	4.432122
216	0x40d22c62	6.567918
217	0x40cf8c7c	6.485899
218	0x40d0bf3b	6.5233436
219	0xc0bd2fc5	-5.9120812
220	0x40cc1801	6.37793
221	0xc0c0383f	-6.006866
222	0x40926e0e	4.5759344
223	0x40d32d4d	6.59928
224	0x409458da	4.635846
225	0x4039114e	2.8916812
226	0x41099671	8.599229
227	0x40d1e9b8	6.55978
228	0x40b226dc	5.5672436
229	0x4090e58d	4.5280213
230	0x40d0034f	6.500404
231	0x40c85b11	6.2611165
232	0x409116b4	4.5340214
233	0x4090ccd8	4.5250053
234	0x408e6327	4.4496036
235	0x40d1e260	6.5588837
236	0x41ca0cdf	25.256285
237	0xc1aaa32b	-21.329672
238	0xc068a9ff	-3.6353757
239	0x410403ab	8.2508955
240	0x40d016ea	6.502797
241	0x40937e90	4.6091995
242	0x409188cd	4.5479493
243	0x408f837f	4.484802
244	0x40b069dc	5.5129223
245	0xc1d0a51e	-26.080624
246	0xc1ae06e6	-21.753368
247	0x40ce9070	6.4551315
248	0xc2045fc4	-33.09352
249	0x4089bba3	4.304155
250	0x4093f438	4.623562
251	0xc07d3c5a	-3.9568086
252	0x3db85b7b	0.090018235
253	0x40d18902	6.5479746
254	0x40cfd55b	6.4947944
255	0x40c43242	6.131135

4.bias f4 [5]
0	0x45577046	3447.017
1	0x45682203	3714.1257
2	0x456820a4	3714.04
3	0x4567a700	3706.4375
4	0x4574ffef	3919.9958

0.weight f4 [150, 11]
0	0xc093d799	-4.620068
1	0xc09318eb	-4.5967917
2	0xc089d5b8	-4.3073387
3	0xc08aee4b	-4.3415885
4	0xc0994988	-4.790226
5	0xc09325bb	-4.598356
6	0xc08f5b91	-4.4799275
7	0x408d871a	4.422742
8	0xc0b2c6a2	-5.586747
9	0xc08f0b4c	-4.470129
10	0xc0cc4761	-6.3837132
11	0xc098a96d	-4.770682
12	0xc0d51b94	-6.6596165
13	0xc092e714	-4.590708
14	0xc0d57a69	-6.6711926
15	0xc0975daa	-4.7301836
16	0xc0ccf848	-6.405308
17	0xc0d6e899	-6.7158933
18	0x4099156e	4.783866
19	0xc091deab	-4.558431
20	0xc08f7485	-4.4829736
21	0xc08ade26	-4.3396177
22	0xc092cff2	-4.587884
23	0xc0e52b70	-7.1615524
24	0xc0d41067	-6.6270022
25	0xc0d17dcd	-6.5466065
26	0xc09688fd	-4.704222
27	0xc0a199b1	-5.050011
28	0xc09a9a74	-4.831354
29	0x4092614e	4.574378
30	0xc081a5a4	-4.05147
31	0x4066ff94	3.6093493
32	0xc0a7707d	-5.2324815
33	0xc1268f86	-10.41004
34	0xc1872dc0	-16.897339
35	0xc0b93581	-5.7877812
36	0xc0c0b073	-6.021539
37	0xbc9b1cbe	-0.018934604
38	0xc12d7753	-10.841632
39	0xc12d1c16	-10.819357
40	0xc1266bf8	-10.40136
41	0xc09c2799	-4.8798337
42	0x409433d2	4.6313257
43	0x409112c0	4.533539
44	0xc0d075ee	-6.5143957
45	0xc098e725	-4.778216
46	0xc09137d8	-4.538067
47	0xc08be5ed	-4.371817
48	0xc0e53854	-7.163126
49	0xc05e7b46	-3.476274
50	0xc046dc87	-3.10721
51	0x4121831a	10.094507
52	0x412a14a4	10.630039
53	0xc07713a9	-3.860575
54	0xc08a3191	-4.3185506
55	0xc091849e	-4.5474386
56	0xc09a0608	-4.813236
57	0xc08fd1ee	-4.494376
58	0xc092128e	-4.564765
59	0xc0904643	-4.508577
60	0xc0d58631	-6.672631
61	0xc08ca22d	-4.394797
62	0x40910edf	4.5330653
63	0xc0b6d554	-5.713541
64	0xc08afaaa	-4.3430986
65	0xc0d23c6c	-6.5698757
66	0xc0985754	-4.76066
67	0xc0d91c8a	-6.784734
68	0xc0cac951	-6.3370748
69	0xc08b2ee5	-4.3494744
70	0xc0b2d9f3	-5.589105
71	0xc0910848	-4.532261
72	0xc09b4012	-4.851571
73	0x408b8cf8	4.360958
74	0x40bb59c8	5.8547096
75	0xc0da8826	-6.8291197
76	0xc088e62e	-4.278098
77	0xc0d514da	-6.6587954
78	0xc08d4559	-4.4147153
79	0xc08fe2cb	-4.4964347
80	0xc0899871	-4.2998586
81	0xc09a9ae5	-4.831408
82	0xc0cd0351	-6.406655
83	0xc08d8423	-4.42238
84	0x4098415f	4.75798
85	0xc0d52662	-6.6609354
86	0xc098c639	-4.774197
87	0xc097f691	-4.7488484
88	0xc0c4e3d8	-6.152813
89	0xc0c2a210	-6.082283
90	0xbfa054db	-1.2525896
91	0xc149ab9e	-12.604399
92	0xc0c67b2c	-6.2025356
93	0xc0be8768	-5.954029
94	0xc1471170	-12.441757
95	0xc0b9464d	-5.7898316
96	0xbf93a173	-1.1533645
97	0xbf9fa7de	-1.2473104
98	0xc14cdb94	-12.803608
99	0xc099adf2	-4.8024836
100	0xc08c2f83	-4.3808
101	0xc08ed40a	-4.4633837
102	0xc0cf59bd	-6.4797044
103	0xc0887d6c	-4.2653103
104	0xc0d0da46	-6.5266447
105	0xc091c636	-4.5554457
106	0x408ae819	4.340832
107	0xc09a95e8	-4.830799
108	0xc08f6f5e	-4.4823446
109	0x408fdf22	4.495988
110	0xc0b7128d	-5.7210145
111	0xc0bfc326	-5.992572
112	0xc0d09ffa	-6.5195284
113	0xc0cdbb20	-6.4290924
114	0xc0be2bf2	-5.9428644
115	0xc0bfb531	-5.990868
116	0xc0c93692	-6.2879114
117	0x40c479e4	6.139879
118	0x40c3d582	6.119813
119	0xc08a766d	-4.3269563
120	0xc0899b16	-4.3001814
121	0xc08cf169	-4.404469
122	0xc093560f	-4.604255
123	0xc0ca7c7a	-6.327695
124	0xc0cf86a0	-6.4851837
125	0xc097a201	-4.738526
126	0xc0942b6f	-4.630302
127	0xc08eece1	-4.466416
128	0x40cd862a	6.4226274
129	0xc094b8d7	-4.6475635
130	0xc0cc9f69	-6.3944592
131	0x40964333	4.695703
132	0xc0cb07af	-6.344688
133	0xc087f5e2	-4.248765
134	0xc091b0ec	-4.552847
135	0xc0d81e76	-6.7537184
136	0xc094c914	-4.6495457
137	0xc0d4be7a	-6.6482515
138	0xc094226e	-4.629203
139	0x408ecba0	4.4623566
140	0xc0d57cc2	-6.671479
141	0xc0917541	-4.545563
142	0x40947497	4.639232
143	0xc0c50170	-6.1564255
144	0xc0ba384f	-5.8193736
145	0xc0bf6b61	-5.981858
146	0xc0c05a05	-6.0109887
147	0xc0c29b1c	-6.0814342
148	0xc0b5fd26	-5.687152
149	0xc0c0169e	-6.002761
150	0x40c0c502	6.024049
151	0x40b5faba	5.6868563
152	0xc0bec940	-5.9620667
153	0x40b96012	5.7929773
154	0xc0952e32	-4.661889
155	0xc096684f	-4.700233
156	0xc08b3ca2	-4.3511515
157	0xc08e3e7f	-4.445129
158	0xc08c58a4	-4.3858204
159	0xc0d63d34	-6.694971
160	0xc08c7747	-4.38956
161	0x408beed3	4.3729033
162	0xc0c9a018	-6.3007927
163	0xc09225d3	-4.567117
164	0xc0d7e971	-6.7472463
165	0xc0943f54	-4.6327305
166	0xc0d65c86	-6.6987944
167	0xc0cfb766	-6.4911375
168	0xc0c88732	-6.2665033
169	0xc08a44f7	-4.3209186
170	0xc094b53e	-4.6471243
171	0xc09014f2	-4.502557
172	0xc0892225	-4.285418
173	0xc08a56c3	-4.323091
174	0xc0d54a5c	-6.665327
175	0xc0cb0a93	-6.345041
176	0xc0988fd9	-4.7675595
177	0xc08903d3	-4.281717
178	0xc0980143	-4.750154
179	0xc096667a	-4.7000093
180	0xc09a47a1	-4.821244
181	0xc0d6c380	-6.7113647
182	0xc0cee2ad	-6.4651704
183	0x40943bb4	4.632288
184	0x408e2b4d	4.4427857
185	0xc08d8c87	-4.423404
186	0xc08faf27	-4.490131
187	0xc0c03014	-6.005869
188	0xc0c31208	-6.095951
189	0xc0bf270f	-5.973518
190	0xc0bb02aa	-5.844075
191	0xc0bbd684	-5.869936
192	0xc1325a95	-11.147115
193	0xc187bd67	-16.967482
194	0xc09f4586	-4.9772367
195	0xc09baed3	-4.865091
196	0xc0be7d32	-5.9527826
197	0xc0bf2229	-5.97292
198	0xc0d061eb	-6.511953
199	0xc0d74d86	-6.7282133
200	0xc091f4fd	-4.561156
201	0xc08b10c3	-4.345796
202	0xc0c877c0	-6.264618
203	0xc0b6477e	-5.696227
204	0xc0d42149	-6.629063
205	0x40957fc1	4.671845
206	0x408b4f09	4.353398
207	0xc0886e2a	-4.2634478
208	0xc091e646	-4.5593596
209	0xc08b9314	-4.361704
210	0xc08d4fc1	-4.4159856
211	0xc08ac4cb	-4.3365226
212	0xc09b9943	-4.8624587
213	0xc09ac2db	-4.836286
214	0xc08a381a	-4.3193483
215	0xc0967956	-4.7023115
216	0x4089c60f	4.305427
217	0xc0cde3e6	-6.4340696
218	0xc083547b	-4.1040626
219	0xc0cab888	-6.335026
220	0xc05e30af	-3.4717214
221	0x4058600e	3.3808627
222	0x40744b4f	3.8170965
223	0xc02ac4ad	-2.6682541
224	0xc094733f	-4.639068
225	0x412d9376	10.848501
226	0xbfb90b67	-1.4456605
227	0x41e02817	28.019575
228	0xc1da88af	-27.31674
229	0x41c0c9d1	24.098543
230	0xc1c1c8f5	-24.223124
231	0xc0b869f6	-5.7629347
232	0xc0bc1967	-5.878101
233	0xc0bcd555	-5.9010415
234	0xc0b95499	-5.791577
235	0xc0c54357	-6.16447
236	0xc0bbcd87	-5.868839
237	0xc0c297cf	-6.0810313
238	0x40c1d4e1	6.057236
239	0x40c2ee11	6.091561
240	0xc0c7ed59	-6.247723
241	0x40c4918c	6.142767
242	0xc0c8f1de	-6.279525
243	0xc0bb2066	-5.847705
244	0xc0c9e253	-6.3088775
245	0xc0ce808d	-6.453192
246	0xc0b8156c	-5.752615
247	0xc0c5f903	-6.186647
248	0xc0d3a22c	-6.6135464
249	0x40994a37	4.7903094
250	0xc08db62b	-4.4284873
251	0x408b02fe	4.3441153
252	0xc0991b1c	-4.7845592
253	0xc0cc17f1	-6.3779225
254	0xc0892712	-4.2860193
255	0xc09400be	-4.6250906

0.bias f4 [150]
0	0xc099ff89	-4.8124433
1	0xc0d4e836	-6.653346
2	0xc0d8aaf3	-6.770868
3	0xc184c0a0	-16.594055
4	0xc0826db6	-4.0758924
5	0xc0885461	-4.2603
6	0xc095b9b1	-4.6789174
7	0xc08c2e36	-4.380641
8	0xc148fc68	-12.561623
9	0xc0d58c6f	-6.673393
10	0xc0cef745	-6.4676843
11	0xc0d7c997	-6.743358
12	0xc088e95d	-4.2784867
13	0xc0be02b5	-5.9378304
14	0xc09a6061	-4.824265
15	0xc0d01e62	-6.503709
16	0xc08a3710	-4.3192215
17	0xc188d565	-17.104197
18	0xc0c84148	-6.257969
19	0xc099d7d0	-4.8075943
20	0x3e870e33	0.2637802
21	0xc0b7a9c8	-5.7394753
22	0xc0d444eb	-6.633413
23	0xc091b3f6	-4.553218
24	0xbdd5b164	-0.10434225
25	0xc0cd07fe	-6.4072256
26	0xc0d6c76e	-6.7118444
27	0xc0d2add0	-6.5837173
28	0xc0cb88a8	-6.3604317
29	0xc092f8eb	-4.5928855
30	0xc0d36bdc	-6.6069164
31	0xc0ba9f35	-5.8319345
32	0xc08ea18c	-4.45722
33	0xc0c7a8b8	-6.2393456
34	0xc0c89e43	-6.269319
35	0xc0cf5485	-6.4790673
36	0xc0959507	-4.674442
37	0xc0989934	-4.7687016
38	0xc089a3c4	-4.301241
39	0xc15d01fb	-13.8129835
40	0xc0d97fd6	-6.796855
41	0xc0cabb51	-6.335366
42	0xc0d55040	-6.666046
43	0xc1872eba	-16.897816
44	0xc0975f22	-4.730363
45	0xc0889e32	-4.269311
46	0xc0c9561b	-6.291761
47	0xc08e647d	-4.4497666
48	0xc190abcb	-18.083883
49	0xc14cc159	-12.797204
50	0xc0c36c41	-6.1069646
51	0xc0de6ba6	-6.9506407
52	0xc0c9c572	-6.305352
53	0xc0cf0245	-6.469027
54	0xc07691dd	-3.8526528
55	0xc08b19a7	-4.3468814
56	0xc0d5ba3a	-6.6789827
57	0xc093d18e	-4.6193304
58	0xc0d7fb8f	-6.749458
59	0xc14692d1	-12.410844
60	0xc089413c	-4.289213
61	0xc0cb620f	-6.35572
62	0xc0d71dda	-6.722394
63	0xc0b9fee6	-5.8123655
64	0xc1993a1f	-19.15338
65	0xc0d660e6	-6.6993284
66	0xc0937264	-4.6077137
67	0xc0bd5382	-5.916444
68	0xc08ffbbf	-4.4994807
69	0xc0c799f7	-6.2375445
70	0xc08b095c	-4.3448925
71	0xc1953ef5	-18.65574
72	0xc185e973	-16.738989
73	0xc08e925c	-4.455366
74	0xc08ebebe	-4.460784
75	0xc0d241bb	-6.5705237
76	0xc0d035a4	-6.506548
77	0xc08ca106	-4.394656
78	0xc098a4d9	-4.770123
79	0xc0d5994b	-6.6749625
80	0xc0d3b4ef	-6.6158366
81	0xc14a8f5d	-12.660001
82	0xc0982b01	-4.7552495
83	0xc08d88db	-4.422956
84	0xc08ba1e5	-4.3635125
85	0xc1d9cb15	-27.224161
86	0x418b8de3	17.44428
87	0xc0cc3f8a	-6.382756
88	0xc0bc1799	-5.8778806
89	0xc0b6613d	-5.69937
90	0xc090e36a	-4.5277605
91	0xc0917b73	-4.5463195
92	0xc0dac11d	-6.8360734
93	0xc2074408	-33.816437
94	0xc08b1109	-4.3458295
95	0xc09b0dd8	-4.84544
96	0xc0899866	-4.2998533
97	0xc0cf7f31	-6.4842763
98	0xc095ba09	-4.6789594
99	0xc09a0049	-4.812535
100	0xc148f3ce	-12.559523
101	0xc08c182d	-4.377951
102	0xc0d1bc18	-6.5542107
103	0xc0897cee	-4.2965
104	0xc208a7d9	-34.163914
105	0x3e65a9e2	0.22428086
106	0xc08ddf93	-4.433542
107	0xc098e618	-4.7780876
108	0xc1a345fb	-20.40917
109	0xc0babe80	-5.8357544
110	0xc0cf184b	-6.4717155
111	0xc0cbf23b	-6.373319
112	0xc0d087dd	-6.516585
113	0xc0d69a09	-6.706303
114	0xc0c19dbb	-6.050504
115	0xc0f21ffd	-7.566405
116	0xc0c7c360	-6.2425995
117	0xc0c7e568	-6.2467537
118	0xc08b3039	-4.3496366
119	0xc215bb90	-37.433167
120	0xc1491c47	-12.569404
121	0xc092ffd7	-4.5937304
122	0x41c0bdcc	24.092674
123	0xc09a911a	-4.8302126
124	0xc0526f84	-3.2880564
125	0xc08af352	-4.342202
126	0xc08dc8f1	-4.430779
127	0xc09c091f	-4.8761134
128	0xc0889cce	-4.269141
129	0xc0993fb7	-4.7890277
130	0xc0601c38	-3.5017223
131	0xc064ccdc	-3.5750036
132	0xc08b7c36	-4.3589125
133	0xc0cda784	-6.4266987
134	0xc147c064	-12.48447
135	0xc0d65947	-6.698398
136	0xc0cc4d29	-6.384419
137	0xc08e8dab	-4.4547935
138	0xc090b2b3	-4.521814
139	0xc09367ba	-4.606412
140	0xc087e000	-4.2460938
141	0xc0935be0	-4.604965
142	0xc19cb532	-19.588474
143	0xc0d17e63	-6.546678
144	0xc0cb8b49	-6.3607526
145	0xc15a9d6b	-13.663432
146	0xc0c05bff	-6.01123
147	0xc0be0106	-5.937625
148	0xc08eb979	-4.4601407
149	0xc0ce100e	-6.43946

2.weight f4 [100, 150]
0	0xc06f0f4f	-3.7353094
1	0xc0bd8a01	-5.923096
2	0x40be1615	5.9401956
3	0xbc9cc181	-0.019135239
4	0xc19696dc	-18.823662
5	0xc06644a8	-3.5979404
6	0xc0628a02	-3.5396733
7	0xc0be1f27	-5.941303
8	0xc0bdedc3	-5.9352736
9	0xc066d321	-3.6066363
10	0xc0bdac8e	-5.927314
11	0xc0c089e5	-6.016833
12	0xc0bf0c58	-5.970257
13	0xc0beb893	-5.960031
14	0xc06cb766	-3.6986938
15	0xc0c206a2	-6.0633097
16	0xc0bf8faf	-5.9862895
17	0xc09acda1	-4.837601
18	0xc0c01876	-6.002986
19	0xc0e84b85	-7.2592187
20	0xc1110a38	-9.064995
21	0xc0bff66a	-5.99883
22	0xc0c14285	-6.03937
23	0xc0c03da1	-6.007523
24	0x3d43ab7c	0.047770962
25	0x40c235af	6.069053
26	0xc0be8d05	-5.9547143
27	0xc0c07113	-6.013803
28	0xc0be896d	-5.9542756
29	0xc0668d21	-3.6023638
30	0x40bdd631	5.9323964
31	0xc0be99e1	-5.956284
32	0xc0eb9b1f	-7.3626857
33	0xc0bd4eca	-5.915868
34	0xc0bf1d18	-5.9723015
35	0xc0c03861	-6.006882
36	0xc0bf86ec	-5.98522
37	0xc06ed1f0	-3.7315636
38	0x40be58d5	5.9483438
39	0xc0e18ac6	-7.04819
40	0x40bef157	5.9669604
41	0xc0be3eed	-5.9451814
42	0xc0c2033b	-6.0628943
43	0xbd43e66a	-0.04782716
44	0xc0cdc24a	-6.429967
45	0xc0677eb1	-3.6171076
46	0xc0beb3f8	-5.959469
47	0xc0ea9a31	-7.331322
48	0xc0de25f6	-6.942134
49	0xc12f7a27	-10.967322
50	0xc0bf2ceb	-5.974233
51	0xbc9d3bb6	-0.019193511
52	0x40bd6d36	5.9195814
53	0x40bea4ef	5.9576335
54	0xc0bf9799	-5.9872556
55	0xc0665dbf	-3.5994718
56	0x40be52b6	5.9475965
57	0xc0c123ce	-6.0356207
58	0xc0c00430	-6.000511
59	0xbcc95fa3	-0.024581736
60	0xc0de6b8a	-6.9506273
61	0xc0c12b38	-6.0365257
62	0x40be8f42	5.9549875
63	0xc0bdd58f	-5.932319
64	0xc0c1587f	-6.0420527
65	0xc0bf61d0	-5.98069
66	0xc0e0260f	-7.004646
67	0xc0bde776	-5.9345045
68	0xc107e4c9	-8.493356
69	0xc0c0fc9e	-6.030837
70	0xc10864af	-8.524581
71	0xc06ae110	-3.6699867
72	0xc096f6c5	-4.717623
73	0xc0bd4855	-5.9150796
74	0xc068783f	-3.6323392
75	0xc0bd2b5b	-5.9115424
76	0x40bd9e66	5.9255857
77	0x40bfbf11	5.9920735
78	0x40c1be47	6.054477
79	0x40c15f74	6.042902
80	0xbd6e794a	-0.05822114
81	0xc0c13993	-6.038278
82	0x40c13d9b	6.03877
83	0xc0c17116	-6.0450544
84	0xc0c0b883	-6.0225234
85	0x3d65a137	0.05606195
86	0xc193de41	-18.483522
87	0xc0bdd850	-5.9326553
88	0x40bd86d8	5.9227104
89	0xc0c1db0e	-6.05799
90	0xc10a1ae4	-8.631565
91	0xc0befb40	-5.96817
92	0xc0c1bdf8	-6.0544395
93	0xc0be9e85	-5.9568505
94	0xc0e02a3a	-7.0051546
95	0xc06d7ee5	-3.71087
96	0xc0c071fe	-6.013915
97	0xc0c18572	-6.0475397
98	0xc0be985a	-5.9560976
99	0xc0deec1b	-6.9663215
100	0xc0c06037	-6.011745
101	0xc0df3abf	-6.975921
102	0xc0be1704	-5.9403095
103	0xc10197ee	-8.099592
104	0xc0c057fe	-6.010741
105	0x3d99d72a	0.075117424
106	0xc0c02bf9	-6.0053678
107	0xc0df3b97	-6.976024
108	0x3da3d1a1	0.07998968
109	0xc0beaf66	-5.958911
110	0x40bed703	5.9637465
111	0xc0be5301	-5.9476323
112	0xc0bdd84c	-5.9326534
113	0xc0c1fae4	-6.0618763
114	0xc0bf480f	-5.977546
115	0xc0ad20ee	-5.4102697
116	0xc0c1e877	-6.059627
117	0x40c17a1e	6.046157
118	0xc069c5db	-3.6527011
119	0xc0bd7d3f	-5.921539
120	0xc0bd5a33	-5.9172606
121	0xc0e24fde	-7.0722494
122	0xc0eae71e	-7.3407125
123	0x40c22017	6.066417
124	0xc11f9d36	-9.975882
125	0xc0f7fe9d	-7.7498307
126	0xc0be0291	-5.9378133
127	0xc0f0e8f9	-7.528439
128	0xc06ef97e	-3.7339778
129	0xc0fc9ffb	-7.894529
130	0x40560e75	3.3446324
131	0xc0e290a4	-7.0801563
132	0xc0bf17e7	-5.971668
133	0xc0c11050	-6.0332413
134	0xc0c166f3	-6.043817
135	0xc0bd94e3	-5.9244246
136	0xc0c1ca80	-6.055969
137	0x3cc59174	0.024117209
138	0xc0e2a75f	-7.082931
139	0xc06d10e7	-3.7041566
140	0x40bfbdf8	5.9919395
141	0xc06891c8	-3.6338978
142	0xc0c2062d	-6.063254
143	0xc0bde9be	-5.934783
144	0xc0bd1e96	-5.9099836
145	0xc0e482b8	-7.140957
146	0xc0bdf7c3	-5.9364944
147	0xc0c0f656	-6.0300703
148	0xc0c04324	-6.008196
149	0x40bfb882	5.991273
150	0xc09333b6	-4.6000624
151	0xc091ca57	-4.5559497
152	0xc08f04b8	-4.469326
153	0xc0be4078	-5.9453697
154	0xc092fd62	-4.5934305
155	0xc0d0fa8d	-6.530585
156	0xc0d0d455	-6.5259194
157	0xc08f93c8	-4.4867897
158	0xbf829fe6	-1.0205047
159	0xc0d33b23	-6.600969
160	0xc0d2984b	-6.5810905
161	0xc093c5a4	-4.617876
162	0xc0903bf9	-4.507321
163	0x40bfa858	5.9893
164	0xc0d29e63	-6.5818343
165	0xc0901635	-4.502711
166	0xc0ceb3fa	-6.45947
167	0xc0c0eb53	-6.028726
168	0xc09371dd	-4.6076493
169	0xc093f575	-4.623713
170	0xc094e083	-4.652406
171	0x40be16d8	5.9402885
172	0xc0925c22	-4.5737467
173	0xc08f635f	-4.4808803
174	0x3d09914e	0.03358584
175	0xc090e463	-4.527879
176	0xc08f26ef	-4.4735026
177	0xc093cec4	-4.61899
178	0xc0900837	-4.501003
179	0xc0d13dc4	-6.5387897
180	0xc093b421	-4.6157384
181	0x40be7afc	5.9525127
182	0xc0928adf	-4.579452
183	0x40bfc4d4	5.992777
184	0xc0924e67	-4.5720706
185	0xc093a896	-4.6143293
186	0xc09297ad	-4.581015
187	0xc0918720	-4.5477448
188	0xc092fd94	-4.5934544
189	0xc095b572	-4.678399
190	0xc08f5a35	-4.4797616
191	0xc0920f8b	-4.5643973
192	0xc08f8d30	-4.485985
193	0xbc640ad0	-0.0139185935
194	0xc093ecd4	-4.6226597
195	0xc0d141af	-6.539268
196	0xc093c669	-4.61797
197	0xc091af7c	-4.5526714
198	0xc0942ed8	-4.630718
199	0x3d6b98fb	0.05751894
200	0x40bec6fb	5.9617896
201	0xc02732bc	-2.6124716
202	0xc0d385a6	-6.6100645
203	0xc08f4abf	-4.4778743
204	0xc08eeeb9	-4.466641
205	0xc0d315ac	-6.5963955
206	0xc0cff590	-6.498726
207	0xc090c9d3	-4.5246367
208	0xc092913f	-4.58023
209	0x3d445ae9	0.04793826
210	0xc09217a5	-4.5653863
211	0xc09247e2	-4.5712748
212	0xc0d1e761	-6.5594945
213	0x40c20516	6.063121
214	0xc10ac34c	-8.67268
215	0xc09404f6	-4.6256056
216	0xc08ff09c	-4.4981213
217	0x40bd8812	5.92286
218	0xc0d21fdb	-6.5663886
219	0x40c00085	6.0000634
220	0xc094749a	-4.6392336
221	0xc093366b	-4.600393
222	0xc0bddc7b	-5.933164
223	0xc092fc78	-4.593319
224	0xc093b60c	-4.6159725
225	0xc092707a	-4.57623
226	0xc08f6a9b	-4.4817634
227	0xc0d0d46c	-6.5259304
228	0xc08f3946	-4.4757414
229	0xc0cfa9f0	-6.4894943
230	0xc0d0ea9f	-6.5286403
231	0xbf802dd8	-1.001399
232	0xc0919664	-4.549608
233	0xc091ccab	-4.556234
234	0xc092e0ce	-4.589942
235	0xbd8e57ba	-0.06950326
236	0xc0d1c4a8	-6.555256
237	0xc08f3fd1	-4.47654
238	0x40bfa860	5.9893036
239	0x40bf20ee	5.9727697
240	0xc095a7d5	-4.6767373
241	0xc0d39780	-6.6122437
242	0xc0900046	-4.5000334
243	0xc091c07a	-4.5547457
244	0xc091bbd4	-4.554178
245	0xc0d2f46b	-6.592336
246	0xc0d04c39	-6.5093045
247	0xc0d04404	-6.5083027
248	0xc0d11508	-6.5338173
249	0xc08ed829	-4.4638867
250	0xbf6b2701	-0.9185639
251	0xc093ce5e	-4.6189413
252	0xc093754c	-4.6080685
253	0xc093696f	-4.6066203
254	0xc093cf72	-4.619073
255	0xbd934869	-0.071915455

2.bias f4 [100]
0	0xc1b01ab9	-22.013048
1	0xc0c095ce	-6.0182867
2	0xc0cc3226	-6.3811216
3	0xc0c171f3	-6.04516
4	0xc292c707	-73.388725
5	0xc119543b	-9.583064
6	0xc0cde64b	-6.434362
7	0xc10b4ad8	-8.705772
8	0xc108006c	-8.500103
9	0xc10b3e1c	-8.702663
10	0xc18610d2	-16.758213
11	0xc2641774	-57.022903
12	0xc1382b73	-11.510608
13	0xc1b9baed	-23.216272
14	0xc0b8d05b	-5.775434
15	0xc0c5ce4b	-6.1814322
16	0xc0ab88a8	-5.3604317
17	0xc0b4ad2e	-5.64614
18	0xc0d64d29	-6.696919
19	0xc0c12edd	-6.0369706
20	0xc0f23bc8	-7.5697975
21	0xc1a30c05	-20.380869
22	0xc0caa5da	-6.3327456
23	0xc0c36d3b	-6.107084
24	0xc0afea23	-5.497331
25	0xc0ae6b35	-5.450587
26	0xc0b7f822	-5.7490396
27	0xc1212236	-10.070852
28	0xc0b2a792	-5.5829554
29	0xc0bb4592	-5.8522425
30	0xc0e974ca	-7.2955065
31	0xc1876f83	-16.92945
32	0xc0be15e4	-5.940172
33	0xc0db35c9	-6.8503156
34	0xc0e004e0	-7.000595
35	0xc0b2a331	-5.582421
36	0xc212e6ee	-36.725517
37	0xc2733e25	-60.810688
38	0xc18bf73c	-17.49572
39	0xc16e689c	-14.900539
40	0xc0fdfa15	-7.9367776
41	0xc0ec3afa	-7.3821993
42	0xc0a8ffb7	-5.281215
43	0xc0c70986	-6.2199125
44	0xc0c0a46f	-6.0200725
45	0xc2151137	-37.26681
46	0xc282f03a	-65.46919
47	0xc1a74d1b	-20.91265
48	0xc23a8f3c	-46.639877
49	0xc1390cff	-11.565673
50	0xc1214592	-10.079485
51	0xc1ce2876	-25.769756
52	0xc0b205d9	-5.563214
53	0xc0bd5688	-5.916813
54	0xc0fcfc9b	-7.9058356
55	0xc1292448	-10.571358
56	0xc1b931c6	-23.149303
57	0xc0b18e3f	-5.548614
58	0xc0a52048	-5.1601906
59	0xc0cf988c	-6.4873714
60	0xc13c1298	-11.7545395
61	0xc0aa2e8f	-5.3181834
62	0xc0ed3ec8	-7.4139137
63	0xc0cb35fc	-6.35034
64	0xc0d9bfd0	-6.8046646
65	0xc0b386f2	-5.610223
66	0xc268844c	-58.129196
67	0xc108a87c	-8.541134
68	0xc0ce985b	-6.456098
69	0xc18d3895	-17.652628
70	0xc0df96c4	-6.987154
71	0xc2be59a8	-95.17511
72	0xc0a1dc11	-5.0581136
73	0xc1828f03	-16.31983
74	0xc08d2d9b	-4.411817
75	0xc0abd575	-5.369807
76	0xc0ac3b4e	-5.3822393
77	0xc1796daa	-15.589273
78	0xc1bd8224	-23.688545
79	0xc2156c4f	-37.35577
80	0xc0cbd4c5	-6.369723
81	0xc0b58b37	-5.673244
82	0xc0ac98bd	-5.393645
83	0xc10083ec	-8.0322075
84	0xc0b261b6	-5.5744276
85	0xc0bd257f	-5.910827
86	0xc137b9cc	-11.482861
87	0xc21a2f40	-38.546143
88	0xc127dcf4	-10.491444
89	0xc12bf2bc	-10.746761
90	0xc203158b	-32.771038
91	0xc2157340	-37.36255
92	0xc130ed38	-11.057915
93	0xc1ca4f53	-25.288733
94	0xc1c3c5f6	-24.47166
95	0xc0fdd420	-7.932144
96	0xc1401840	-12.00592
97	0xc1c01ae1	-24.013124
98	0xc1a4539d	-20.540827
99	0xc0b012b1	-5.5022817
