trained_buffer/epsilon090_dqn_agent_state_truncated_step35.pth (torch, 679694 bytes, 24 tensors)

0.weight f4 [150, 11]
-4.700086 -4.5261593 -4.3703156 -4.870044 -4.8115964 -4.9523067 -4.7665644 3.351496
0.6246947 -6.689891 3.4973478 -28.24246 -28.537674 -5.87686 -18.938929 -5.9226613
-35.3582 -18.883556 15.577944 15.603043 16.383194 15.477536 -21.834215 -21.930855
-22.032473 -21.958164 -21.94217 -6.040558 -21.973768 10.267041 8.670016 -9.823621
10.3914585 -5.697698 -6.185136 -5.8913765 -5.8422623 -5.9878306 -5.686975 -5.9998503
5.9906187 -6.21685 -5.8428855 5.865356 -6.0556216 -5.9931564 -6.0987997 -5.869066
-5.9942236 -6.041045 -5.9090285 5.909975 -5.8984547 5.796671 6.0018315 -35.90907
-68.93872 -67.09092 -31.656342 -37.076912 -31.847942 -36.41998 -22.265774 -4.4020762
-4.5456724 11.403493 -6.4908533 -4.340945 -4.75656 -4.307146 -4.394025 -6.269751
-6.5005245 6.2365365 4.667995 -4.37073 4.4198675 -4.641613 -4.6185904 -4.7544966
-4.872387 -4.8436975 -5.835115 -5.3418097 1.8400254 -2.8706625 -4.6451583 3.5261488
-4.434154 -4.3136473 -4.7863626 -4.6136556 -5.4413505 -4.467528 -4.814292 4.639794
4.6987925 -4.7622814 4.456915 -36.070385 -38.489697 -36.168205 -63.295326 -4.265348
-39.409695 -36.42144 -24.670568 23.851017 25.310806 17.409395 -4.8155084 -4.5636425
-4.765023 -5.1929636 -4.5968966 -4.936255 -5.047898 5.152626 -1.3118038 -2.9227138
5.3775 -4.5051656 -4.4269476 -4.794595 -4.8894887 -4.6807585 -4.6581173 -4.99418
3.4137282 3.2849522 -4.332731 3.5271995 -4.740493 -7.4547224 -7.303631 -5.8994775
0.2599111 -6.2615895 -5.972732 2.542071 7.8913383 2.3952014 2.657249 -8.684001
-10.966913 -5.349786 -13.415128 -7.5687838 -8.885942 -10.183284 8.511897 4.611642
6.3871517 5.713942 -21.6334 -22.545366 -22.013115 -22.036512 -21.971846 -6.269575
-21.83442 10.180046 9.163247 -9.397102 9.579506 -30.788431 -32.72753 -28.307829
-26.90413 -5.3260155 -33.16143 -16.113205 10.309346 13.837054 -3.7682092 25.380524
-28.167074 -28.487661 -28.409204 -28.354254 5.9812407 -28.368402 -28.470114 16.556612
16.252066 15.417901 15.590473 -4.5748715 -4.254823 -4.492877 -4.800026 -4.4110785
-4.7195973 -4.7032175 4.5732965 4.4748454 -4.670442 4.308392 -4.824137 -4.500329
-4.2638535 -5.4964347 -4.3916836 -4.9656763 -4.8846064 3.2840815 -3.014883 -6.772149
3.2131162 -28.875154 -13.787362 -19.216742 -31.187263 11.520396 -21.617443 -26.393826
2.3955638 1.8982465 0.9163112 5.0976744 -4.8123884 -4.7081895 -4.2516017 -5.0822964
-6.552811 -4.84679 -4.923393 5.280075 2.5221395 -6.0613647 3.5949285 -4.6127434
-4.555216 -4.710188 -5.1360703 -5.0552716 -5.0492225 -4.7166038 2.976963 -1.601127
-4.5269713 5.4011927 -6.654406 -6.4029355 -4.714882 -6.7203403 0.059137624 -5.798399
-6.0768805 4.7992454 4.3789515 -4.805403 6.5101233 -4.5340457 -4.2902336 -4.286079
00000000: 1b67 96c0 4cd6 90c0 a0d9 8bc0 67d7 9bc0
00000010: 99f8 99c0 4c79 9ec0 b287 98c0 e97e 5640
00000020: feeb 1f3f 9613 d6c0 8cd4 5f40 8ff0 e1c1
00000030: 284d e4c1 3d0f bcc0 ed82 97c1 7186 bdc0
00000040: cc6e 0dc2 8611 97c1 423f 7941 10a6 7941
00000050: c810 8341 fda3 7741 79ac aec1 6472 afc1
00000060: 8142 b0c1 52aa afc1 9089 afc1 404c c1c0
00000070: 47ca afc1 cd45 2441 63b8 0a41 8d2d 1dc1
00000080: 6a43 2641 8b53 b6c0 a2ec c5c0 2886 bcc0
00000090: d0f3 bac0 4f9c bfc0 b3fb b5c0 c6fe bfc0
000000a0: 26b3 bf40 6ff0 c6c0 ebf8 bac0 ffb0 bb40
000000b0: a7c7 c1c0 f0c7 bfc0 5e29 c3c0 64cf bbc0
000000c0: aed0 bfc0 3e50 c1c0 c316 bdc0 841e bd40
000000d0: 24c0 bcc0 547e b940 010f c040 e3a2 0fc2
000000e0: a0e0 89c2 8d2e 86c2 3040 fdc1 c24e 14c2
000000f0: 96c8 fec1 0fae 11c2 4e20 b2c1 cfdd 8cc0
00000100: 2676 91c0 b574 3641 12b5 cfc0 05e9 8ac0
00000110: bd35 98c0 24d4 89c0 da9b 8cc0 cda1 c8c0
00000120: 4c04 d0c0 b591 c740 3760 9540 05dd 8bc0
00000130: 8e6f 8d40 1888 94c0 7ecb 93c0 d624 98c0
00000140: 98ea 9bc0 92ff 9ac0 43b9 bac0 1bf0 aac0
00000150: f485 eb3f efb8 37c0 23a5 94c0 6cac 6140
00000160: 97e4 8dc0 6609 8ac0 e229 99c0 11a3 93c0
00000170: 8b1f aec0 fdf5 8ec0 ae0e 9ac0 3179 9440
00000180: 825c 9640 9c64 98c0 0c9f 8e40 1348 10c2
00000190: 73f5 19c2 3eac 10c2 6a2e 7dc2 bb7d 88c0
000001a0: 87a3 1dc2 8eaf 11c2 535d c5c1 e2ce be41
000001b0: 887c ca41 7146 8b41 a518 9ac0 5c09 92c0
000001c0: 127b 98c0 c22c a6c0 c719 93c0 cdf5 9dc0
000001d0: 6188 a1c0 50e2 a440 30e9 a7bf be0d 3bc0
000001e0: 7b14 ac40 512a 90c0 8ea9 8dc0 526d 99c0
000001f0: b176 9cc0 c6c8 95c0 4c0f 95c0 53d0 9fc0
00000200: 867a 5a40 a83c 5240 bba5 8ac0 a3bd 6140
00000210: 1eb2 97c0 168d eec0 58b7 e9c0 85c8 bcc0
00000220: 1113 853e f15e c8c0 9f20 bfc0 4bb1 2240
00000230: d885 fc40 fb4a 1940 5e10 2a40 abf1 0ac1
00000240: 7a78 2fc1 7231 abc0 5da4 56c1 7a33 f2c0
00000250: d22c 0ec1 bbee 22c1 bb30 0841 9292 9340
00000260: 8c63 cc40 9dd8 b640 3411 adc1 e95c b4c1
00000270: dc1a b0c1 c74a b0c1 57c6 afc1 5ca0 c8c0
00000280: e4ac aec1 78e1 2241 a99c 1241 885a 16c1
00000290: a845 1941 b54e f6c1 fee8 02c2 6f76 e2c1
000002a0: a93b d7c1 b86e aac0 4ea5 04c2 d8e7 80c1
000002b0: 15f3 2441 9364 5d41 572a 71c0 500b cb41
000002c0: 2b56 e1c1 bbe6 e3c1 0d46 e3c1 83d5 e2c1
000002d0: 5366 bf40 7df2 e2c1 cbc2 e3c1 f173 8441
000002e0: 3b04 8241 b9af 7641 9472 7941 5965 92c0
000002f0: 8327 88c0 a6c5 8fc0 d099 99c0 8e27 8dc0
00000300: f106 97c0 c280 96c0 7258 9240 ef31 8f40
00000310: 4374 95c0 59de 8940 555f 9ac0 b202 90c0
00000320: 7d71 88c0 cbe2 afc0 ac88 8cc0 d2e6 9ec0
00000330: b24e 9cc0 642e 5240 d8f3 40c0 72b5 d8c0
00000340: b2a3 4d40 5100 e7c1 0999 5cc1 e3bb 99c1
00000350: 847f f9c1 8b53 3841 86f0 acc1 8e26 d3c1
00000360: eb50 1940 bef9 f23f 5f93 6a3f 2620 a340
00000370: 16ff 99c0 7da9 96c0 1f0d 88c0 2ca2 a2c0
00000380: a1b0 d1c0 e718 9bc0 6f8c 9dc0 60f6 a840
00000390: bc6a 2140 b3f6 c1c0 4f13 6640 989b 93c0
000003a0: 54c4 91c0 dcb9 96c0 b05a a4c0 c9c4 a1c0
000003b0: 3b93 a1c0 6bee 96c0 9086 3e40 bbf1 ccbf
000003c0: f3dc 90c0 92d6 ac40 e5f0 d4c0 d9e4 ccc0
000003d0: 50e0 96c0 070d d7c0 4b3a 723d 7c8c b9c0
000003e0: ce75 c2c0 6b93 9940 5f20 8c40 ddc5 99c0
000003f0: ee52 d040 e716 91c0 9849 89c0 8f27 89c0

0.bias f4 [150]
-4.6969576 -40.832268 -33.85424 -6.284979 -6.1459236 -63.70122 -4.3514757 -4.838066
-4.4787292 -58.829952 -4.769135 -4.618874 -7.1802773 -12.113158 -34.859356 -39.969707
-29.309265 -4.68259 -4.94673 -27.760763 -4.6840963 -4.682054 -6.691108 -4.6544156
-5.7388773 -56.16579 -4.828401 -4.7616467 -4.515233 -55.63748 -6.566866 -4.577378
-4.6616006 -4.8024354 -35.035744 -4.503327 -5.031896 -54.644592 -35.134712 -35.33764
-63.297523 -4.676809 -4.813334 -30.626492 -40.050056 -6.0800157 -6.802506 -5.790027
-5.714212 -7.205057 -14.622729 -29.551044 -37.100883 -58.556007 -4.3604546 -31.14528
-5.038337 -6.25169 -28.23621 -4.7425666 -54.395187 -28.287046 -6.0783052 -63.68197
-30.168505 -4.284339 -5.1337695 -9.224872 -5.7665243 -32.9826 -26.829844 -64.22605
-41.129307 -4.8312855 -5.069334 -30.770353 -29.373932 -12.0398 -4.5498085 -5.058349
-6.534442 -13.850601 -35.068317 -20.42291 -6.659405 -4.669433 -4.455247 -12.796649
-5.98166 -5.9758935 -6.4614897 -6.728846 -4.9102345 -65.11449 -22.00373 -5.8605757
-29.617132 -55.168873 -5.8894496 -6.0903363 -69.111046 -6.5133815 -72.39237 -6.5078464
-64.29628 -7.3858614 -63.118412 -4.907947 -6.092259 -5.050398 -6.024263 -4.6716976
-6.3874836 -6.1623526 -13.954481 -4.5759377 -6.4332957 -5.751577 -4.6038337 -4.864349
-4.499684 -69.465866 -35.690292 -6.506854 -6.66654 -22.87103 -6.7138176 -14.310226
-25.759686 -23.104105 -4.6518264 -30.447622 -6.768401 -55.412354 -54.777153 -7.5393944
-56.592728 -4.9049277 -12.773295 -4.6774874 -6.1023583 -4.7961087 -4.8895183 -11.246432
-70.53887 -10.500463 -28.586382 -6.045177 -60.939186 -35.071297
00000000: 7a4d 96c0 3e54 23c2 be6a 07c2 8c1e c9c0
00000010: 68ab c4c0 0dce 7ec2 4a3f 8bc0 70d1 9ac0
00000020: c051 8fc0 df51 6bc2 c19c 98c0 d1cd 93c0
00000030: d5c4 e5c0 7fcf 41c1 fb6f 0bc2 fbe0 1fc2
00000040: 6079 eac1 c7d7 95c0 9d4b 9ec0 0b16 dec1
00000050: 1ee4 95c0 63d3 95c0 8f1d d6c0 f9f0 94c0
00000060: e2a4 b7c0 c5a9 60c2 4382 9ac0 695f 98c0
00000070: ca7c 90c0 c88c 5ec2 c423 d2c0 e179 92c0
00000080: d52b 95c0 8dad 99c0 9a24 0cc2 411b 90c0
00000090: 4b05 a1c0 1094 5ac2 f289 0cc2 be59 0dc2
000000a0: aa30 7dc2 6ba8 95c0 d506 9ac0 0e03 f5c1
000000b0: 4233 20c2 7d8f c2c0 21ae d9c0 e747 b9c0
000000c0: d3da b6c0 d48f e6c0 b3f6 69c1 8a68 ecc1
000000d0: 4e67 14c2 5a39 6ac2 d888 8bc0 8929 f9c1
000000e0: 0f3a a1c0 d80d c8c0 c2e3 e1c1 1bc3 97c0
000000f0: ac94 59c2 df4b e2c1 7a81 c2c0 56ba 7ec2
00000100: 1959 f1c1 4e19 89c0 d747 a4c0 1399 13c1
00000110: 5e87 b8c0 2fee 03c2 85a3 d6c1 bd73 80c2
00000120: 6984 24c2 e499 9ac0 fc37 a2c0 af29 f6c1
00000130: d0fd eac1 05a3 40c1 0898 91c0 ffdd a1c0
00000140: 261a d1c0 109c 5dc1 f545 0cc2 1f62 a3c1
00000150: d919 d5c0 ff6b 95c0 6291 8ec0 13bf 4cc1
00000160: c269 bfc0 853a bfc0 86c4 cec0 b552 d7c0
00000170: a420 9dc0 9e3a 82c2 a407 b0c1 d689 bbc0
00000180: e3ef ecc1 edac 5cc2 5f76 bcc0 09e4 c2c0
00000190: db38 8ac2 9f6d d0c0 e5c8 90c2 4740 d0c0
000001a0: b297 80c2 fa58 ecc0 4179 7cc2 e70d 9dc0
000001b0: c9f3 c2c0 dc9c a1c0 c3c6 c0c0 8c7e 95c0
000001c0: 4466 ccc0 fe31 c5c0 8e45 5fc1 156e 92c0
000001d0: 8fdd cdc0 eb0c b8c0 9b52 93c0 bfa8 9bc0
000001e0: 69fd 8fc0 86ee 8ac2 dcc2 0ec2 2638 d0c0
000001f0: 4c54 d5c0 dff7 b6c1 98d7 d6c0 b0f6 64c1
00000200: d613 cec1 35d5 b8c1 c3db 94c0 bb94 f3c1
00000210: be96 d8c0 40a6 5dc2 ce1b 5bc2 b842 f1c0
00000220: f45e 62c2 2bf5 9cc0 6b5f 4cc1 faad 95c0
00000230: 8546 c3c0 b979 99c0 ef76 9cc0 63f1 33c1
00000240: e713 8dc2 e501 28c1 e9b0 e4c1 1772 c1c0
00000250: bac1 73c2 0249 0cc2

2.weight f4 [100, 150]
-4.488235 -16.402273 -9.996022 6.02298 5.9109964 -6.512887 -4.54907 -4.600352
-4.5945783 -4.599056 -4.5813394 -4.562945 -2.5204654 -4.588507 -9.896464 -4.581154
-16.424587 -4.5942206 -4.4884005 -4.821561 -4.52647 -4.522508 -5.5048933 -4.5730486
5.9578257 -4.5615044 -4.612278 -4.5029616 -4.5086303 -4.554252 -4.5857134 -4.5270457
-4.5342326 -4.5862865 -9.870947 -5.5249567 -4.575333 -4.5124965 -9.984069 -4.5433006
-25.617641 -5.466807 -4.604456 -4.5549684 -4.616704 5.9196534 -4.582833 6.0468774
6.054903 -4.537402 -4.508516 -4.538346 0.027598009 -4.545392 -4.574696 -0.36434877
-4.522486 6.056407 -4.550602 -4.6050935 -4.552455 -0.045440838 -4.57187 -25.723696
-16.435284 -4.5720053 -4.6222534 0.07968555 5.9237933 -23.803566 -0.044263806 -4.50147
-22.422016 -4.623933 -5.5453715 -9.91627 -16.368795 0.007819072 -4.6287932 -4.472489
-4.6174283 -16.009562 -9.978977 -4.565931 -4.4768806 -4.488216 -4.5166044 -0.017859044
6.0490394 5.906691 -4.5843406 -4.6247177 -4.516494 -4.530622 10.11754 -5.959292
-16.371557 -4.616332 5.9758253 -4.611177 -34.15735 -4.490137 -6.4429355 -4.5267963
-4.496906 -4.5967813 -4.6109858 -4.471628 5.926939 -4.6091604 5.9540963 -5.5973425
-4.5574293 5.9811883 -4.5767045 -4.5113435 -4.4799676 5.9651756 -4.61172 -4.501534
-4.5228395 -4.526193 -6.562399 -6.522472 -4.5692463 22.11207 -4.5673046 -4.611955
-9.928411 -9.151627 -4.575495 -16.361622 -6.331522 -23.297886 -4.4847894 -4.3482413
-4.5321555 -6.5006104 -4.521778 -4.625846 5.9450274 -4.595358 -4.510935 -4.5717278
-4.4925647 -4.6057935 -16.373087 -6.064401 -5.5421205 0.07158123 -4.6035185 -16.4155
-10.250743 6.0018897 -5.9713955 -4.605685 -4.5119457 -4.5867586 -4.5927033 -4.4868827
-4.5209146 -4.472412 -2.5240006 -4.5515327 -10.328192 -4.615362 -16.336397 -4.627847
-6.491504 -4.5412364 -4.514788 -6.5699935 -4.5147834 -4.6097693 6.016727 -4.5795827
-4.485386 -4.520977 -4.469081 -4.577402 -4.5154924 -4.6084347 -4.481701 -4.5867615
-10.346416 -4.6018224 -4.571684 -4.48209 -10.35037 -4.4984627 -6.0004406 -4.5712314
-4.502913 -4.494486 -4.4822884 6.038482 -4.524126 5.918419 5.970968 -6.485195
-4.4967127 -4.612873 -0.08122528 -4.507078 -4.4976525 -0.4632732 -4.6017847 -5.9210215
-4.539364 -4.59926 -4.6192665 0.030413287 -4.4969687 -6.041703 -16.406273 -4.532018
-4.617377 -0.0028839184 6.0626283 -23.832916 -0.024957541 -6.4786057 -16.435343 -4.578206
-4.5381193 -10.18054 -16.317127 -0.053503856 -4.4989467 -4.471666 -4.475978 -15.853493
-10.310416 -6.4878545 -4.5051713 -4.475107 -4.49156 -0.065682985 6.0215178 6.0627007
-4.5526032 -4.48236 -4.596546 -4.486398 -9.85352 6.024924 -16.348242 -4.556418
6.004986 -4.549342 -2.60152 -4.568215 -4.5135665 -4.5212207 -4.554549 -4.465559
00000000: 9f9f 8fc0 db37 83c1 b5ef 1fc1 41bc c040
00000010: e226 bd40 9269 d0c0 fb91 91c0 1536 93c0
00000020: c906 93c0 772b 93c0 559a 92c0 a503 92c0
00000030: 4e4f 21c0 0dd5 92c0 eb57 1ec1 d098 92c0
00000040: 8e65 83c1 db03 93c0 faa0 8fc0 3a4a 9ac0
00000050: d8d8 90c0 63b8 90c0 1628 b0c0 6a56 92c0
00000060: 82a6 be40 d8f7 91c0 c897 93c0 4318 90c0
00000070: b346 90c0 6fbc 91c0 2abe 92c0 8fdd 90c0
00000080: 6f18 91c0 dcc2 92c0 66ef 1dc1 72cc b0c0
00000090: 2169 92c0 5f66 90c0 bfbe 1fc1 b862 91c0
000000a0: eef0 ccc1 15f0 aec0 b457 93c0 4dc2 91c0
000000b0: 0abc 93c0 cd6d bd40 91a6 92c0 0580 c140
000000c0: c4c1 c140 6632 91c0 c345 90c0 213a 91c0
000000d0: 3815 e23c da73 91c0 e963 92c0 ec8b babe
000000e0: 35b8 90c0 16ce c140 889e 91c0 ed5c 93c0
000000f0: b6ad 91c0 2c20 3abd c24c 92c0 21ca cdc1
00000100: 767b 83c1 de4d 92c0 80e9 93c0 2d32 a33d
00000110: b78f bd40 b46d bec1 f74d 35bd 0b0c 90c0
00000120: 4a60 b3c1 42f7 93c0 af73 b1c0 0ba9 1ec1
00000130: 4bf3 82c1 911b 003c 131f 94c0 a11e 8fc0
00000140: f9c1 93c0 9513 80c1 e4a9 1fc1 1b1c 92c0
00000150: 9b42 8fc0 779f 8fc0 0688 90c0 214d 92bc
00000160: bb91 c140 9d03 bd40 ebb2 92c0 b0fd 93c0
00000170: 1e87 90c0 dbfa 90c0 72e1 2141 85b2 bec0
00000180: f3f8 82c1 feb8 93c0 f639 bf40 c38e 93c0
00000190: 20a1 08c2 34af 8fc0 872c cec0 84db 90c0
000001a0: a7e6 8fc0 d518 93c0 328d 93c0 9417 8fc0
000001b0: 7ca9 bd40 3e7e 93c0 f587 be40 6e1d b3c0
000001c0: 76d6 91c0 e565 bf40 5d74 92c0 ed5c 90c0
000001d0: e55b 8fc0 b8e2 be40 3693 93c0 910c 90c0
000001e0: 1abb 90c0 93d6 90c0 2cff d1c0 17b8 d0c0
000001f0: 4437 92c0 85e5 b041 5c27 92c0 2395 93c0
00000200: c5da 1ec1 106d 12c1 746a 92c0 9ae4 82c1
00000210: d49b cac0 1262 bac1 6583 8fc0 cb24 8bc0
00000220: 6b07 91c0 0005 d0c0 68b2 90c0 ee06 94c0
00000230: aa3d be40 2c0d 93c0 9459 90c0 984b 92c0
00000240: 17c3 8fc0 a962 93c0 15fc 82c1 930f c2c0
00000250: 0d59 b1c0 2e99 923d 0650 93c0 f252 83c1
00000260: 0b03 24c1 7b0f c040 ac15 bfc0 c661 93c0
00000270: dc61 90c0 bac6 92c0 6df7 92c0 8b94 8fc0
00000280: 55ab 90c0 001e 8fc0 3a89 21c0 28a6 91c0
00000290: 4640 25c1 0cb1 93c0 f1b0 82c1 5317 94c0
000002a0: 67ba cfc0 cf51 91c0 2579 90c0 633d d2c0
000002b0: 1b79 90c0 3b83 93c0 0789 c040 f18b 92c0
000002c0: 4888 8fc0 d8ab 90c0 b602 8fc0 147a 92c0
000002d0: ea7e 90c0 4c78 93c0 186a 8fc0 c0c6 92c0
000002e0: ec8a 25c1 2142 93c0 3c4b 92c0 486d 8fc0
000002f0: 1e9b 25c1 68f3 8fc0 9c03 c0c0 8747 92c0
00000300: dd17 90c0 d4d2 8fc0 e86e 8fc0 3f3b c140
00000310: a4c5 90c0 b063 bd40 2b12 bf40 b886 cfc0
00000320: 12e5 8fc0 a89c 93c0 7159 a6bd fc39 90c0
00000330: c5ec 8fc0 2532 edbe d241 93c0 0279 bdc0
00000340: 7842 91c0 232d 93c0 08d1 93c0 4925 f93c
00000350: 2be7 8fc0 a255 c1c0 0c40 83c1 4b06 91c0
00000360: 8dc1 93c0 1f00 3dbb 0d01 c240 d0a9 bec1
00000370: c273 ccbc bd50 cfc0 957b 83c1 aa80 92c0
00000380: 4638 91c0 7ee3 22c1 7a89 82c1 dc26 5bbd
00000390: 5ff7 8fc0 e317 8fc0 363b 8fc0 e8a7 7dc1
000003a0: 77f7 24c1 819c cfc0 5d2a 90c0 1434 8fc0
000003b0: dcba 8fc0 cd84 86bd 46b0 c040 a501 c240
000003c0: edae 91c0 7e6f 8fc0 e816 93c0 9390 8fc0
000003d0: 05a8 1dc1 2dcc c040 33c9 82c1 2dce 91c0
000003e0: d828 c040 3694 91c0 4e7f 26c0 d12e 92c0
000003f0: 236f 90c0 d7ad 90c0 debe 91c0 dce5 8ec0

2.bias f4 [100]
-38.211586 -33.59204 -66.59157 -39.189705 13.584665 -40.719925 -37.89951 -39.0197
-5.924374 -5.932971 -34.082916 -52.05997 -41.40473 -42.765327 -5.974088 -18.526552
-34.092884 -33.358074 -5.972502 -32.254578 42.448437 -32.395798 -49.612442 -33.104324
-5.191206 -81.98924 -33.916073 -46.042366 -99.81428 -37.62649 -38.671497 -36.205708
-133.70117 -11.901093 -101.89328 -39.65713 -48.014935 -37.46125 -38.896824 -32.413933
-32.971565 -37.37813 -38.56719 -38.95104 -29.452362 -59.70822 -5.9932957 -34.048912
-33.48069 -5.9765315 -88.12195 -42.76328 -38.217995 -6.0941663 -33.08529 -38.294224
-38.85221 -35.070473 -73.04567 -5.993085 -38.736404 -37.663605 -33.78998 -9.983384
-29.914684 -33.803703 -56.488174 -33.54273 -35.947945 -5.2428756 -37.964092 -38.969727
-34.027527 -33.90839 -54.488655 -38.466843 -38.430702 -5.9633255 -80.86565 -38.658443
-6.0210185 -77.77902 -95.67383 -5.997247 -5.967895 -38.91644 -38.770916 -59.999855
-34.08734 -5.907397 -10.493333 -6.0376415 -68.2978 -33.970688 -38.68973 -38.687195
-118.60574 -33.6915 -6.054237 -38.21172
00000000: aad8 18c2 405e 06c2 e22e 85c2 42c2 1cc2
00000010: ca5a 5941 34e1 22c2 1999 17c2 2c14 1cc2
00000020: 7994 bdc0 e6da bdc0 e854 08c2 693d 50c2
00000030: 729e 25c2 b20f 2bc2 bb2b bfc0 6136 94c1
00000040: 1d5f 08c2 ab6e 05c2 bd1e bfc0 b004 01c2
00000050: 33cb 2942 4c95 01c2 2473 46c2 d46a 04c2
00000060: 5c1e a6c0 7efa a3c2 0faa 07c2 622b 38c2
00000070: e9a0 c7c2 8781 16c2 9daf 1ac2 a5d2 10c2
00000080: 80b3 05c3 e06a 3ec1 5cc9 cbc2 e7a0 1ec2
00000090: 4b0f 40c2 52d8 15c2 5996 1bc2 dea7 01c2
000000a0: e2e2 03c2 3583 15c2 cd44 1ac2 ddcd 1bc2
000000b0: 709e ebc1 38d5 6ec2 14c9 bfc0 1632 08c2
000000c0: 3aec 05c2 bf3f bfc0 703e b0c2 990d 2bc2
000000d0: 3adf 18c2 6903 c3c0 5657 04c2 492d 19c2
000000e0: aa68 1bc2 2a48 0cc2 6217 92c2 5ac7 bfc0
000000f0: 14f2 1ac2 88a7 16c2 f128 07c2 f1bb 1fc1
00000100: 4651 efc1 fe36 07c2 e4f3 61c2 c12b 06c2
00000110: b2ca 0fc2 a3c5 a7c0 3bdb 17c2 00e1 1bc2
00000120: 301c 08c2 31a2 07c2 62f4 59c2 0cde 19c2
00000130: 0ab9 19c2 90d3 bec0 36bb a1c2 3fa2 1ac2
00000140: 2fac c0c0 dc8e 9bc2 0059 bfc2 73e9 bfc0
00000150: fff8 bec0 6faa 1bc2 6b15 1bc2 daff 6fc2
00000160: 7059 08c2 6509 bdc0 b1e4 27c1 5c34 c1c0
00000170: 7998 88c2 fce1 07c2 49c2 1ac2 b0bf 1ac2
00000180: 2436 edc2 19c4 06c2 4fbc c1c0 cdd8 18c2

4.weight f4 [5, 100]
-6.8319225 -7.129837 -6.7439413 3.0866368 20.489258 1.1504416 -23.555103 -11.654915
-5.9047537 -5.9396563 -11.180401 25.725965 -7.4380465 34.342052 -5.90511 4.130495
-8.494769 -8.710949 0.034864962 -24.61595 56.12572 -12.321489 10.008829 -11.072841
0.07687279 -29.466959 -10.372428 -26.281683 3.2858903 -6.00168 -5.4697123 -8.170646
20.158224 -20.674423 -2.0372844 3.7583697 17.40297 -18.212147 -5.6805615 -21.1399
-19.820545 -13.840588 -6.0461307 -7.5360093 11.502999 6.1173987 -5.934937 -10.369055
-5.9815173 -5.9262877 -7.160249 -12.042769 -11.810537 3.7714326 -13.615727 -2.6676302
-6.2012615 25.733572 39.58768 -5.9006767 -5.893301 31.602297 -6.2242155 -31.149475
34.31097 -9.599977 -21.98864 -9.5469675 -9.597583 -5.274793 -17.368694 -5.531349
-15.668156 -7.9092593 -21.84008 -9.278076 -17.836197 -0.027566588 5.3151746 -11.853429
-5.9797864 -2.8802164 -7.039626 -5.9639935 -5.957096 -5.8735237 -7.5001135 -64.45699
-8.020572 -6.012825 -5.938148 -6.0099607 -5.7953153 -7.0183973 -7.0084777 -6.38666
3.5258677 -10.750979 -5.9091287 0.5859618 3.2871711 3.220645 18.052265 33.005188
23.039415 45.61481 -4.862907 2.459996 -5.8925 -5.977719 2.689182 -5.976577
3.2019389 58.59032 -5.9711885 4.4606423 2.996607 3.0389814 -0.023466682 -8.865439
69.74498 2.4134784 11.473538 2.6719544 -0.011974311 -12.637307 2.7044346 5.455173
21.456652 25.683096 3.4120078 2.9647744 8.343094 12.849565 0.80407727 13.544094
2.0934396 0.8286506 3.3741925 0.86981356 1.1523731 1.9943904 3.3473759 3.275089
13.191421 24.159246 -5.935061 2.7204342 3.3152058 -5.8910694 19.927942 3.564468
2.7154431 4.450499 2.2277846 3.103252 3.439846 22.492659 9.209392 0.01440146
3.365532 -0.0417418 3.368991 -49.40763 24.6402 2.8704388 -51.898296 3.0141902
2.9253833 -5.229992 1.2092699 3.3930826 1.8102531 3.0571406 -16.046907 2.9303043
1.2746198 -5.894825 6.1640654 2.401418 -5.963929 10.734805 -29.30422 -5.942293
-5.939622 3.5418003 3.1711981 2.480916 3.1636844 -5.923809 -5.016746 -5.9843516
19.308142 3.1531718 3.1905744 3.2880888 2.0040069 2.6276417 -0.02921741 22.554724
4.466351 4.361572 6.419997 23.820835 29.065022 13.704327 3.826014 4.353259
-6.044436 -5.923347 4.3209076 25.750364 5.356052 6.5084276 -5.9520035 4.5470285
4.366253 4.310297 -0.045820534 3.6684752 60.39608 4.347153 -5.9375772 4.3200235
0.06745302 -30.578629 4.35091 5.3930645 -20.897585 -5.9285755 4.3672247 4.4812565
-19.800312 -14.010745 -14.295056 4.1678376 4.2362576 4.177311 4.366186 4.124346
4.1994057 4.380092 4.4005346 4.415845 -32.228504 -6.467692 -5.9135303 4.394339
4.3499036 -6.009447 -1.2867069 5.5070333 4.404311 4.313864 4.3436594 3.335918
00000000: 1c9f dac0 a027 e4c0 5ece d7c0 758b 4540
00000010: 00ea a341 ac41 933f da70 bcc1 887a 3ac1
00000020: bef3 bcc0 aa11 bec0 ece2 32c1 c7ce cd41
00000030: 7a04 eec0 435e 0942 a9f6 bcc0 042d 8440
00000040: 93ea 07c1 0c60 0bc1 90ce 0e3d 77ed c4c1
00000050: bd80 6042 d224 45c1 2a24 2041 5b2a 31c1
00000060: 7b6f 9d3d 55bc ebc1 77f5 25c1 e340 d2c1
00000070: 074c 5240 c30d c0c0 e207 afc0 f7ba 02c1
00000080: 0b44 a141 3865 a5c1 de62 02c0 2189 7040
00000090: 4839 8b41 7ab2 91c1 29c7 b5c0 841e a9c1
000000a0: 7a90 9ec1 0c73 5dc1 e779 c1c0 fd26 f1c0
000000b0: 490c 3841 bbc1 c340 01eb bdc0 a6e7 25c1
000000c0: 9768 bfc0 26a4 bdc0 c320 e5c0 2faf 40c1
000000d0: f6f7 3cc1 275f 7140 05da 59c1 74ba 2ac0
000000e0: bc70 c6c0 5bde cd41 c959 1e42 58d2 bcc0
000000f0: ec95 bcc0 81d1 fc41 c62c c7c0 2032 f9c1
00000100: 6f3e 0942 8199 19c1 bce8 afc1 61c0 18c1
00000110: b38f 19c1 1bcb a8c0 16f3 8ac1 d000 b1c0
00000120: c4b0 7ac1 a718 fdc0 7cb8 aec1 0073 14c1
00000130: 88b0 8ec1 53d3 e1bc e915 aa40 a5a7 3dc1
00000140: 695a bfc0 7755 38c0 9e44 e1c0 09d9 bec0
00000150: 88a0 bec0 e8f3 bbc0 ee00 f0c0 fbe9 80c2
00000160: 4354 00c1 1069 c0c0 4f05 bec0 9951 c0c0
00000170: 3973 b9c0 b696 e0c0 7345 e0c0 855f ccc0
00000180: d1a7 6140 0304 2cc1 9517 bdc0 9801 163f
00000190: 0361 5240 0c1f 4e40 0a6b 9041 5005 0442
000001a0: b950 b841 9175 3642 ef9c 9bc0 9370 1d40
000001b0: 5c8f bcc0 7949 bfc0 8f1b 2c40 1e40 bfc0
000001c0: 91ec 4c40 7d5c 6a42 fa13 bfc0 95bd 8e40
000001d0: 69c8 3f40 ac7e 4240 333d c0bc d7d8 0dc1
000001e0: 6e7d 8b42 6e76 1a40 9d93 3741 4d01 2b40
000001f0: e72f 44bc 6932 4ac1 7515 2d40 c790 ae40
00000200: 39a7 ab41 fb76 cd41 565e 5a40 ddbe 3d40
00000210: 507d 0541 d197 4d41 02d8 4d3f 9cb4 5841
00000220: eafa 0540 7222 543f c5f2 5740 1aac 5e3f
00000230: f680 933f 2f48 ff3f 683b 5640 0f9b 5140
00000240: 0f10 5341 2346 c141 05ec bdc0 981b 2e40
00000250: 552c 5440 a483 bcc0 6d6c 9f41 3e20 6440
00000260: d2c9 2d40 7d6a 8e40 0694 0e40 ae9b 4640
00000270: 7026 5c40 f7f0 b341 ab59 1341 1af4 6b3c
00000280: e064 5740 73f9 2abd 8c9d 5740 6aa1 45c2
00000290: 211f c541 45b5 3740 db97 4fc2 7ee8 4040
000002a0: 7b39 3b40 185c a7c0 5bc9 9a3f 4428 5940
000002b0: 60b6 e73f 31a8 4340 1160 80c1 1b8a 3b40
000002c0: be26 a33f 68a2 bcc0 0640 c540 d5b0 1940
000002d0: 82d8 bec0 c3c1 2b41 0b6f eac1 4427 bec0
000002e0: 6211 bec0 dbac 6240 e9f4 4a40 54c7 1e40
000002f0: ce79 4a40 d88f bdc0 2f89 a0c0 cf7f bfc0
00000300: 1377 9a41 91cd 4940 5f32 4c40 0c70 5240
00000310: a641 0040 482b 2840 5a59 efbc 1370 b441
00000320: 59ec 8e40 ff91 8b40 9e70 cd40 1291 be41
00000330: 2a85 e841 ec44 5b41 6add 7440 e64d 8b40
00000340: 056c c1c0 0f8c bdc0 e044 8a40 bf00 ce41
00000350: c764 ab40 0a45 d040 d076 bec0 4281 9140
00000360: 58b8 8b40 f4ed 8940 50ae 3bbd 4cc8 6a40
00000370: 9695 7142 e11b 8b40 a200 bec0 a23d 8a40
00000380: cf24 8a3d 08a1 f4c1 a83a 8b40 fc93 ac40
00000390: 412e a7c1 e4b6 bdc0 4ec0 8b40 7466 8f40
000003a0: 0a67 9ec1 032c 60c1 8db8 64c1 ed5e 8540
000003b0: 6c8f 8740 88ac 8540 ccb7 8b40 a4fa 8340
000003c0: 8861 8640 b729 8c40 2ed1 8c40 9a4e 8d40
000003d0: fde9 00c2 55f7 cec0 a43b bdc0 6d9e 8c40
000003e0: 6932 8b40 644d c0c0 d0b2 a4bf 9e39 b040
000003f0: 1ef0 8c40 2d0b 8a40 42ff 8a40 ae7f 5540

4.bias f4 [5]
1106.2035 521.32697 817.0524 2479.7805 780.6697
00000000: 8346 8a44 ed54 0244 5b43 4c44 7dfc 1a45
00000010: dc2a 4344

0.weight f4 [150, 11]
-4.700086 -4.5261593 -4.3703156 -4.870044 -4.8115964 -4.9523067 -4.7665644 3.351496
0.6246947 -6.689891 3.4973478 -28.24246 -28.537674 -5.87686 -18.938929 -5.9226613
-35.3582 -18.883556 15.577944 15.603043 16.383194 15.477536 -21.834215 -21.930855
-22.032473 -21.958164 -21.94217 -6.040558 -21.973768 10.267041 8.670016 -9.823621
10.3914585 -5.697698 -6.185136 -5.8913765 -5.8422623 -5.9878306 -5.686975 -5.9998503
5.9906187 -6.21685 -5.8428855 5.865356 -6.0556216 -5.9931564 -6.0987997 -5.869066
-5.9942236 -6.041045 -5.9090285 5.909975 -5.8984547 5.796671 6.0018315 -35.90907
-68.93872 -67.09092 -31.656342 -37.076912 -31.847942 -36.41998 -22.265774 -4.4020762
-4.5456724 11.403493 -6.4908533 -4.340945 -4.75656 -4.307146 -4.394025 -6.269751
-6.5005245 6.2365365 4.667995 -4.37073 4.4198675 -4.641613 -4.6185904 -4.7544966
-4.872387 -4.8436975 -5.835115 -5.3418097 1.8400254 -2.8706625 -4.6451583 3.5261488
-4.434154 -4.3136473 -4.7863626 -4.6136556 -5.4413505 -4.467528 -4.814292 4.639794
4.6987925 -4.7622814 4.456915 -36.070385 -38.489697 -36.168205 -63.295326 -4.265348
-39.409695 -36.42144 -24.670568 23.851017 25.310806 17.409395 -4.8155084 -4.5636425
-4.765023 -5.1929636 -4.5968966 -4.936255 -5.047898 5.152626 -1.3118038 -2.9227138
5.3775 -4.5051656 -4.4269476 -4.794595 -4.8894887 -4.6807585 -4.6581173 -4.99418
3.4137282 3.2849522 -4.332731 3.5271995 -4.740493 -7.4547224 -7.303631 -5.8994775
0.2599111 -6.2615895 -5.972732 2.542071 7.8913383 2.3952014 2.657249 -8.684001
-10.966913 -5.349786 -13.415128 -7.5687838 -8.885942 -10.183284 8.511897 4.611642
6.3871517 5.713942 -21.6334 -22.545366 -22.013115 -22.036512 -21.971846 -6.269575
-21.83442 10.180046 9.163247 -9.397102 9.579506 -30.788431 -32.72753 -28.307829
-26.90413 -5.3260155 -33.16143 -16.113205 10.309346 13.837054 -3.7682092 25.380524
-28.167074 -28.487661 -28.409204 -28.354254 5.9812407 -28.368402 -28.470114 16.556612
16.252066 15.417901 15.590473 -4.5748715 -4.254823 -4.492877 -4.800026 -4.4110785
-4.7195973 -4.7032175 4.5732965 4.4748454 -4.670442 4.308392 -4.824137 -4.500329
-4.2638535 -5.4964347 -4.3916836 -4.9656763 -4.8846064 3.2840815 -3.014883 -6.772149
3.2131162 -28.875154 -13.787362 -19.216742 -31.187263 11.520396 -21.617443 -26.393826
2.3955638 1.8982465 0.9163112 5.0976744 -4.8123884 -4.7081895 -4.2516017 -5.0822964
-6.552811 -4.84679 -4.923393 5.280075 2.5221395 -6.0613647 3.5949285 -4.6127434
-4.555216 -4.710188 -5.1360703 -5.0552716 -5.0492225 -4.7166038 2.976963 -1.601127
-4.5269713 5.4011927 -6.654406 -6.4029355 -4.714882 -6.7203403 0.059137624 -5.798399
-6.0768805 4.7992454 4.3789515 -4.805403 6.5101233 -4.5340457 -4.2902336 -4.286079
00000000: 1b67 96c0 4cd6 90c0 a0d9 8bc0 67d7 9bc0
00000010: 99f8 99c0 4c79 9ec0 b287 98c0 e97e 5640
00000020: feeb 1f3f 9613 d6c0 8cd4 5f40 8ff0 e1c1
00000030: 284d e4c1 3d0f bcc0 ed82 97c1 7186 bdc0
00000040: cc6e 0dc2 8611 97c1 423f 7941 10a6 7941
00000050: c810 8341 fda3 7741 79ac aec1 6472 afc1
00000060: 8142 b0c1 52aa afc1 9089 afc1 404c c1c0
00000070: 47ca afc1 cd45 2441 63b8 0a41 8d2d 1dc1
00000080: 6a43 2641 8b53 b6c0 a2ec c5c0 2886 bcc0
00000090: d0f3 bac0 4f9c bfc0 b3fb b5c0 c6fe bfc0
000000a0: 26b3 bf40 6ff0 c6c0 ebf8 bac0 ffb0 bb40
000000b0: a7c7 c1c0 f0c7 bfc0 5e29 c3c0 64cf bbc0
000000c0: aed0 bfc0 3e50 c1c0 c316 bdc0 841e bd40
000000d0: 24c0 bcc0 547e b940 010f c040 e3a2 0fc2
000000e0: a0e0 89c2 8d2e 86c2 3040 fdc1 c24e 14c2
000000f0: 96c8 fec1 0fae 11c2 4e20 b2c1 cfdd 8cc0
00000100: 2676 91c0 b574 3641 12b5 cfc0 05e9 8ac0
00000110: bd35 98c0 24d4 89c0 da9b 8cc0 cda1 c8c0
00000120: 4c04 d0c0 b591 c740 3760 9540 05dd 8bc0
00000130: 8e6f 8d40 1888 94c0 7ecb 93c0 d624 98c0
00000140: 98ea 9bc0 92ff 9ac0 43b9 bac0 1bf0 aac0
00000150: f485 eb3f efb8 37c0 23a5 94c0 6cac 6140
00000160: 97e4 8dc0 6609 8ac0 e229 99c0 11a3 93c0
00000170: 8b1f aec0 fdf5 8ec0 ae0e 9ac0 3179 9440
00000180: 825c 9640 9c64 98c0 0c9f 8e40 1348 10c2
00000190: 73f5 19c2 3eac 10c2 6a2e 7dc2 bb7d 88c0
000001a0: 87a3 1dc2 8eaf 11c2 535d c5c1 e2ce be41
000001b0: 887c ca41 7146 8b41 a518 9ac0 5c09 92c0
000001c0: 127b 98c0 c22c a6c0 c719 93c0 cdf5 9dc0
000001d0: 6188 a1c0 50e2 a440 30e9 a7bf be0d 3bc0
000001e0: 7b14 ac40 512a 90c0 8ea9 8dc0 526d 99c0
000001f0: b176 9cc0 c6c8 95c0 4c0f 95c0 53d0 9fc0
00000200: 867a 5a40 a83c 5240 bba5 8ac0 a3bd 6140
00000210: 1eb2 97c0 168d eec0 58b7 e9c0 85c8 bcc0
00000220: 1113 853e f15e c8c0 9f20 bfc0 4bb1 2240
00000230: d885 fc40 fb4a 1940 5e10 2a40 abf1 0ac1
00000240: 7a78 2fc1 7231 abc0 5da4 56c1 7a33 f2c0
00000250: d22c 0ec1 bbee 22c1 bb30 0841 9292 9340
00000260: 8c63 cc40 9dd8 b640 3411 adc1 e95c b4c1
00000270: dc1a b0c1 c74a b0c1 57c6 afc1 5ca0 c8c0
00000280: e4ac aec1 78e1 2241 a99c 1241 885a 16c1
00000290: a845 1941 b54e f6c1 fee8 02c2 6f76 e2c1
000002a0: a93b d7c1 b86e aac0 4ea5 04c2 d8e7 80c1
000002b0: 15f3 2441 9364 5d41 572a 71c0 500b cb41
000002c0: 2b56 e1c1 bbe6 e3c1 0d46 e3c1 83d5 e2c1
000002d0: 5366 bf40 7df2 e2c1 cbc2 e3c1 f173 8441
000002e0: 3b04 8241 b9af 7641 9472 7941 5965 92c0
000002f0: 8327 88c0 a6c5 8fc0 d099 99c0 8e27 8dc0
00000300: f106 97c0 c280 96c0 7258 9240 ef31 8f40
00000310: 4374 95c0 59de 8940 555f 9ac0 b202 90c0
00000320: 7d71 88c0 cbe2 afc0 ac88 8cc0 d2e6 9ec0
00000330: b24e 9cc0 642e 5240 d8f3 40c0 72b5 d8c0
00000340: b2a3 4d40 5100 e7c1 0999 5cc1 e3bb 99c1
00000350: 847f f9c1 8b53 3841 86f0 acc1 8e26 d3c1
00000360: eb50 1940 bef9 f23f 5f93 6a3f 2620 a340
00000370: 16ff 99c0 7da9 96c0 1f0d 88c0 2ca2 a2c0
00000380: a1b0 d1c0 e718 9bc0 6f8c 9dc0 60f6 a840
00000390: bc6a 2140 b3f6 c1c0 4f13 6640 989b 93c0
000003a0: 54c4 91c0 dcb9 96c0 b05a a4c0 c9c4 a1c0
000003b0: 3b93 a1c0 6bee 96c0 9086 3e40 bbf1 ccbf
000003c0: f3dc 90c0 92d6 ac40 e5f0 d4c0 d9e4 ccc0
000003d0: 50e0 96c0 070d d7c0 4b3a 723d 7c8c b9c0
000003e0: ce75 c2c0 6b93 9940 5f20 8c40 ddc5 99c0
000003f0: ee52 d040 e716 91c0 9849 89c0 8f27 89c0

0.bias f4 [150]
-4.6969576 -40.832268 -33.85424 -6.284979 -6.1459236 -63.70122 -4.3514757 -4.838066
-4.4787292 -58.829952 -4.769135 -4.618874 -7.1802773 -12.113158 -34.859356 -39.969707
-29.309265 -4.68259 -4.94673 -27.760763 -4.6840963 -4.682054 -6.691108 -4.6544156
-5.7388773 -56.16579 -4.828401 -4.7616467 -4.515233 -55.63748 -6.566866 -4.577378
-4.6616006 -4.8024354 -35.035744 -4.503327 -5.031896 -54.644592 -35.134712 -35.33764
-63.297523 -4.676809 -4.813334 -30.626492 -40.050056 -6.0800157 -6.802506 -5.790027
-5.714212 -7.205057 -14.622729 -29.551044 -37.100883 -58.556007 -4.3604546 -31.14528
-5.038337 -6.25169 -28.23621 -4.7425666 -54.395187 -28.287046 -6.0783052 -63.68197
-30.168505 -4.284339 -5.1337695 -9.224872 -5.7665243 -32.9826 -26.829844 -64.22605
-41.129307 -4.8312855 -5.069334 -30.770353 -29.373932 -12.0398 -4.5498085 -5.058349
-6.534442 -13.850601 -35.068317 -20.42291 -6.659405 -4.669433 -4.455247 -12.796649
-5.98166 -5.9758935 -6.4614897 -6.728846 -4.9102345 -65.11449 -22.00373 -5.8605757
-29.617132 -55.168873 -5.8894496 -6.0903363 -69.111046 -6.5133815 -72.39237 -6.5078464
-64.29628 -7.3858614 -63.118412 -4.907947 -6.092259 -5.050398 -6.024263 -4.6716976
-6.3874836 -6.1623526 -13.954481 -4.5759377 -6.4332957 -5.751577 -4.6038337 -4.864349
-4.499684 -69.465866 -35.690292 -6.506854 -6.66654 -22.87103 -6.7138176 -14.310226
-25.759686 -23.104105 -4.6518264 -30.447622 -6.768401 -55.412354 -54.777153 -7.5393944
-56.592728 -4.9049277 -12.773295 -4.6774874 -6.1023583 -4.7961087 -4.8895183 -11.246432
-70.53887 -10.500463 -28.586382 -6.045177 -60.939186 -35.071297
00000000: 7a4d 96c0 3e54 23c2 be6a 07c2 8c1e c9c0
00000010: 68ab c4c0 0dce 7ec2 4a3f 8bc0 70d1 9ac0
00000020: c051 8fc0 df51 6bc2 c19c 98c0 d1cd 93c0
00000030: d5c4 e5c0 7fcf 41c1 fb6f 0bc2 fbe0 1fc2
00000040: 6079 eac1 c7d7 95c0 9d4b 9ec0 0b16 dec1
00000050: 1ee4 95c0 63d3 95c0 8f1d d6c0 f9f0 94c0
00000060: e2a4 b7c0 c5a9 60c2 4382 9ac0 695f 98c0
00000070: ca7c 90c0 c88c 5ec2 c423 d2c0 e179 92c0
00000080: d52b 95c0 8dad 99c0 9a24 0cc2 411b 90c0
00000090: 4b05 a1c0 1094 5ac2 f289 0cc2 be59 0dc2
000000a0: aa30 7dc2 6ba8 95c0 d506 9ac0 0e03 f5c1
000000b0: 4233 20c2 7d8f c2c0 21ae d9c0 e747 b9c0
000000c0: d3da b6c0 d48f e6c0 b3f6 69c1 8a68 ecc1
000000d0: 4e67 14c2 5a39 6ac2 d888 8bc0 8929 f9c1
000000e0: 0f3a a1c0 d80d c8c0 c2e3 e1c1 1bc3 97c0
000000f0: ac94 59c2 df4b e2c1 7a81 c2c0 56ba 7ec2
00000100: 1959 f1c1 4e19 89c0 d747 a4c0 1399 13c1
00000110: 5e87 b8c0 2fee 03c2 85a3 d6c1 bd73 80c2
00000120: 6984 24c2 e499 9ac0 fc37 a2c0 af29 f6c1
00000130: d0fd eac1 05a3 40c1 0898 91c0 ffdd a1c0
00000140: 261a d1c0 109c 5dc1 f545 0cc2 1f62 a3c1
00000150: d919 d5c0 ff6b 95c0 6291 8ec0 13bf 4cc1
00000160: c269 bfc0 853a bfc0 86c4 cec0 b552 d7c0
00000170: a420 9dc0 9e3a 82c2 a407 b0c1 d689 bbc0
00000180: e3ef ecc1 edac 5cc2 5f76 bcc0 09e4 c2c0
00000190: db38 8ac2 9f6d d0c0 e5c8 90c2 4740 d0c0
000001a0: b297 80c2 fa58 ecc0 4179 7cc2 e70d 9dc0
000001b0: c9f3 c2c0 dc9c a1c0 c3c6 c0c0 8c7e 95c0
000001c0: 4466 ccc0 fe31 c5c0 8e45 5fc1 156e 92c0
000001d0: 8fdd cdc0 eb0c b8c0 9b52 93c0 bfa8 9bc0
000001e0: 69fd 8fc0 86ee 8ac2 dcc2 0ec2 2638 d0c0
000001f0: 4c54 d5c0 dff7 b6c1 98d7 d6c0 b0f6 64c1
00000200: d613 cec1 35d5 b8c1 c3db 94c0 bb94 f3c1
00000210: be96 d8c0 40a6 5dc2 ce1b 5bc2 b842 f1c0
00000220: f45e 62c2 2bf5 9cc0 6b5f 4cc1 faad 95c0
00000230: 8546 c3c0 b979 99c0 ef76 9cc0 63f1 33c1
00000240: e713 8dc2 e501 28c1 e9b0 e4c1 1772 c1c0
00000250: bac1 73c2 0249 0cc2

2.weight f4 [100, 150]
-4.488235 -16.402273 -9.996022 6.02298 5.9109964 -6.512887 -4.54907 -4.600352
-4.5945783 -4.599056 -4.5813394 -4.562945 -2.5204654 -4.588507 -9.896464 -4.581154
-16.424587 -4.5942206 -4.4884005 -4.821561 -4.52647 -4.522508 -5.5048933 -4.5730486
5.9578257 -4.5615044 -4.612278 -4.5029616 -4.5086303 -4.554252 -4.5857134 -4.5270457
-4.5342326 -4.5862865 -9.870947 -5.5249567 -4.575333 -4.5124965 -9.984069 -4.5433006
-25.617641 -5.466807 -4.604456 -4.5549684 -4.616704 5.9196534 -4.582833 6.0468774
6.054903 -4.537402 -4.508516 -4.538346 0.027598009 -4.545392 -4.574696 -0.36434877
-4.522486 6.056407 -4.550602 -4.6050935 -4.552455 -0.045440838 -4.57187 -25.723696
-16.435284 -4.5720053 -4.6222534 0.07968555 5.9237933 -23.803566 -0.044263806 -4.50147
-22.422016 -4.623933 -5.5453715 -9.91627 -16.368795 0.007819072 -4.6287932 -4.472489
-4.6174283 -16.009562 -9.978977 -4.565931 -4.4768806 -4.488216 -4.5166044 -0.017859044
6.0490394 5.906691 -4.5843406 -4.6247177 -4.516494 -4.530622 10.11754 -5.959292
-16.371557 -4.616332 5.9758253 -4.611177 -34.15735 -4.490137 -6.4429355 -4.5267963
-4.496906 -4.5967813 -4.6109858 -4.471628 5.926939 -4.6091604 5.9540963 -5.5973425
-4.5574293 5.9811883 -4.5767045 -4.5113435 -4.4799676 5.9651756 -4.61172 -4.501534
-4.5228395 -4.526193 -6.562399 -6.522472 -4.5692463 22.11207 -4.5673046 -4.611955
-9.928411 -9.151627 -4.575495 -16.361622 -6.331522 -23.297886 -4.4847894 -4.3482413
-4.5321555 -6.5006104 -4.521778 -4.625846 5.9450274 -4.595358 -4.510935 -4.5717278
-4.4925647 -4.6057935 -16.373087 -6.064401 -5.5421205 0.07158123 -4.6035185 -16.4155
-10.250743 6.0018897 -5.9713955 -4.605685 -4.5119457 -4.5867586 -4.5927033 -4.4868827
-4.5209146 -4.472412 -2.5240006 -4.5515327 -10.328192 -4.615362 -16.336397 -4.627847
-6.491504 -4.5412364 -4.514788 -6.5699935 -4.5147834 -4.6097693 6.016727 -4.5795827
-4.485386 -4.520977 -4.469081 -4.577402 -4.5154924 -4.6084347 -4.481701 -4.5867615
-10.346416 -4.6018224 -4.571684 -4.48209 -10.35037 -4.4984627 -6.0004406 -4.5712314
-4.502913 -4.494486 -4.4822884 6.038482 -4.524126 5.918419 5.970968 -6.485195
-4.4967127 -4.612873 -0.08122528 -4.507078 -4.4976525 -0.4632732 -4.6017847 -5.9210215
-4.539364 -4.59926 -4.6192665 0.030413287 -4.4969687 -6.041703 -16.406273 -4.532018
-4.617377 -0.0028839184 6.0626283 -23.832916 -0.024957541 -6.4786057 -16.435343 -4.578206
-4.5381193 -10.18054 -16.317127 -0.053503856 -4.4989467 -4.471666 -4.475978 -15.853493
-10.310416 -6.4878545 -4.5051713 -4.475107 -4.49156 -0.065682985 6.0215178 6.0627007
-4.5526032 -4.48236 -4.596546 -4.486398 -9.85352 6.024924 -16.348242 -4.556418
6.004986 -4.549342 -2.60152 -4.568215 -4.5135665 -4.5212207 -4.554549 -4.465559
00000000: 9f9f 8fc0 db37 83c1 b5ef 1fc1 41bc c040
00000010: e226 bd40 9269 d0c0 fb91 91c0 1536 93c0
00000020: c906 93c0 772b 93c0 559a 92c0 a503 92c0
00000030: 4e4f 21c0 0dd5 92c0 eb57 1ec1 d098 92c0
00000040: 8e65 83c1 db03 93c0 faa0 8fc0 3a4a 9ac0
00000050: d8d8 90c0 63b8 90c0 1628 b0c0 6a56 92c0
00000060: 82a6 be40 d8f7 91c0 c897 93c0 4318 90c0
00000070: b346 90c0 6fbc 91c0 2abe 92c0 8fdd 90c0
00000080: 6f18 91c0 dcc2 92c0 66ef 1dc1 72cc b0c0
00000090: 2169 92c0 5f66 90c0 bfbe 1fc1 b862 91c0
000000a0: eef0 ccc1 15f0 aec0 b457 93c0 4dc2 91c0
000000b0: 0abc 93c0 cd6d bd40 91a6 92c0 0580 c140
000000c0: c4c1 c140 6632 91c0 c345 90c0 213a 91c0
000000d0: 3815 e23c da73 91c0 e963 92c0 ec8b babe
000000e0: 35b8 90c0 16ce c140 889e 91c0 ed5c 93c0
000000f0: b6ad 91c0 2c20 3abd c24c 92c0 21ca cdc1
00000100: 767b 83c1 de4d 92c0 80e9 93c0 2d32 a33d
00000110: b78f bd40 b46d bec1 f74d 35bd 0b0c 90c0
00000120: 4a60 b3c1 42f7 93c0 af73 b1c0 0ba9 1ec1
00000130: 4bf3 82c1 911b 003c 131f 94c0 a11e 8fc0
00000140: f9c1 93c0 9513 80c1 e4a9 1fc1 1b1c 92c0
00000150: 9b42 8fc0 779f 8fc0 0688 90c0 214d 92bc
00000160: bb91 c140 9d03 bd40 ebb2 92c0 b0fd 93c0
00000170: 1e87 90c0 dbfa 90c0 72e1 2141 85b2 bec0
00000180: f3f8 82c1 feb8 93c0 f639 bf40 c38e 93c0
00000190: 20a1 08c2 34af 8fc0 872c cec0 84db 90c0
000001a0: a7e6 8fc0 d518 93c0 328d 93c0 9417 8fc0
000001b0: 7ca9 bd40 3e7e 93c0 f587 be40 6e1d b3c0
000001c0: 76d6 91c0 e565 bf40 5d74 92c0 ed5c 90c0
000001d0: e55b 8fc0 b8e2 be40 3693 93c0 910c 90c0
000001e0: 1abb 90c0 93d6 90c0 2cff d1c0 17b8 d0c0
000001f0: 4437 92c0 85e5 b041 5c27 92c0 2395 93c0
00000200: c5da 1ec1 106d 12c1 746a 92c0 9ae4 82c1
00000210: d49b cac0 1262 bac1 6583 8fc0 cb24 8bc0
00000220: 6b07 91c0 0005 d0c0 68b2 90c0 ee06 94c0
00000230: aa3d be40 2c0d 93c0 9459 90c0 984b 92c0
00000240: 17c3 8fc0 a962 93c0 15fc 82c1 930f c2c0
00000250: 0d59 b1c0 2e99 923d 0650 93c0 f252 83c1
00000260: 0b03 24c1 7b0f c040 ac15 bfc0 c661 93c0
00000270: dc61 90c0 bac6 92c0 6df7 92c0 8b94 8fc0
00000280: 55ab 90c0 001e 8fc0 3a89 21c0 28a6 91c0
00000290: 4640 25c1 0cb1 93c0 f1b0 82c1 5317 94c0
000002a0: 67ba cfc0 cf51 91c0 2579 90c0 633d d2c0
000002b0: 1b79 90c0 3b83 93c0 0789 c040 f18b 92c0
000002c0: 4888 8fc0 d8ab 90c0 b602 8fc0 147a 92c0
000002d0: ea7e 90c0 4c78 93c0 186a 8fc0 c0c6 92c0
000002e0: ec8a 25c1 2142 93c0 3c4b 92c0 486d 8fc0
000002f0: 1e9b 25c1 68f3 8fc0 9c03 c0c0 8747 92c0
00000300: dd17 90c0 d4d2 8fc0 e86e 8fc0 3f3b c140
00000310: a4c5 90c0 b063 bd40 2b12 bf40 b886 cfc0
00000320: 12e5 8fc0 a89c 93c0 7159 a6bd fc39 90c0
00000330: c5ec 8fc0 2532 edbe d241 93c0 0279 bdc0
00000340: 7842 91c0 232d 93c0 08d1 93c0 4925 f93c
00000350: 2be7 8fc0 a255 c1c0 0c40 83c1 4b06 91c0
00000360: 8dc1 93c0 1f00 3dbb 0d01 c240 d0a9 bec1
00000370: c273 ccbc bd50 cfc0 957b 83c1 aa80 92c0
00000380: 4638 91c0 7ee3 22c1 7a89 82c1 dc26 5bbd
00000390: 5ff7 8fc0 e317 8fc0 363b 8fc0 e8a7 7dc1
000003a0: 77f7 24c1 819c cfc0 5d2a 90c0 1434 8fc0
000003b0: dcba 8fc0 cd84 86bd 46b0 c040 a501 c240
000003c0: edae 91c0 7e6f 8fc0 e816 93c0 9390 8fc0
000003d0: 05a8 1dc1 2dcc c040 33c9 82c1 2dce 91c0
000003e0: d828 c040 3694 91c0 4e7f 26c0 d12e 92c0
000003f0: 236f 90c0 d7ad 90c0 debe 91c0 dce5 8ec0

2.bias f4 [100]
-38.211586 -33.59204 -66.59157 -39.189705 13.871946 -40.719925 -37.89951 -39.0197
-5.924374 -5.932971 -34.082916 -52.05997 -41.40473 -42.765327 -5.974088 -18.526552
-34.092884 -33.358074 -5.972502 -32.254578 42.663048 -32.395798 -49.612442 -33.104324
-5.191206 -81.98924 -33.916073 -46.042366 -99.81428 -37.62649 -38.671497 -36.205708
-133.70117 -11.901093 -101.89328 -39.65713 -48.014935 -37.46125 -38.896824 -32.413933
-32.971565 -37.37813 -38.56719 -38.95104 -29.452362 -59.70822 -5.9932957 -34.048912
-33.48069 -5.9765315 -88.12195 -42.76328 -38.217995 -6.0941663 -33.08529 -38.294224
-38.85221 -35.070473 -73.04567 -5.993085 -38.736404 -37.663605 -33.78998 -9.983384
-29.914684 -33.803703 -56.488174 -33.54273 -35.947945 -5.2428756 -37.964092 -38.969727
-34.027527 -33.90839 -54.488655 -38.466843 -38.430702 -5.9633255 -80.86565 -38.658443
-6.0210185 -77.77902 -95.67383 -5.997247 -5.967895 -38.91644 -38.770916 -59.999855
-34.08734 -5.907397 -10.493333 -6.0376415 -68.2978 -33.970688 -38.68973 -38.687195
-118.60574 -33.6915 -6.054237 -38.21172
00000000: aad8 18c2 405e 06c2 e22e 85c2 42c2 1cc2
00000010: 7ef3 5d41 34e1 22c2 1999 17c2 2c14 1cc2
00000020: 7994 bdc0 e6da bdc0 e854 08c2 693d 50c2
00000030: 729e 25c2 b20f 2bc2 bb2b bfc0 6136 94c1
00000040: 1d5f 08c2 ab6e 05c2 bd1e bfc0 b004 01c2
00000050: f6a6 2a42 4c95 01c2 2473 46c2 d46a 04c2
00000060: 5c1e a6c0 7efa a3c2 0faa 07c2 622b 38c2
00000070: e9a0 c7c2 8781 16c2 9daf 1ac2 a5d2 10c2
00000080: 80b3 05c3 e06a 3ec1 5cc9 cbc2 e7a0 1ec2
00000090: 4b0f 40c2 52d8 15c2 5996 1bc2 dea7 01c2
000000a0: e2e2 03c2 3583 15c2 cd44 1ac2 ddcd 1bc2
000000b0: 709e ebc1 38d5 6ec2 14c9 bfc0 1632 08c2
000000c0: 3aec 05c2 bf3f bfc0 703e b0c2 990d 2bc2
000000d0: 3adf 18c2 6903 c3c0 5657 04c2 492d 19c2
000000e0: aa68 1bc2 2a48 0cc2 6217 92c2 5ac7 bfc0
000000f0: 14f2 1ac2 88a7 16c2 f128 07c2 f1bb 1fc1
00000100: 4651 efc1 fe36 07c2 e4f3 61c2 c12b 06c2
00000110: b2ca 0fc2 a3c5 a7c0 3bdb 17c2 00e1 1bc2
00000120: 301c 08c2 31a2 07c2 62f4 59c2 0cde 19c2
00000130: 0ab9 19c2 90d3 bec0 36bb a1c2 3fa2 1ac2
00000140: 2fac c0c0 dc8e 9bc2 0059 bfc2 73e9 bfc0
00000150: fff8 bec0 6faa 1bc2 6b15 1bc2 daff 6fc2
00000160: 7059 08c2 6509 bdc0 b1e4 27c1 5c34 c1c0
00000170: 7998 88c2 fce1 07c2 49c2 1ac2 b0bf 1ac2
00000180: 2436 edc2 19c4 06c2 4fbc c1c0 cdd8 18c2

4.weight f4 [5, 100]
-6.8319225 -7.129837 -6.7439413 3.0866368 20.406467 1.1504416 -23.555103 -11.654915
-5.9047537 -5.9396563 -11.180401 25.725965 -7.4380465 34.342052 -5.90511 4.130495
-8.494769 -8.710949 0.034864962 -24.61595 56.032784 -12.321489 10.008829 -11.072841
0.07687279 -29.466959 -10.372428 -26.281683 3.2858903 -6.00168 -5.4697123 -8.170646
20.158224 -20.674423 -2.0372844 3.7583697 17.40297 -18.212147 -5.6805615 -21.1399
-19.820545 -13.840588 -6.0461307 -7.5360093 11.502999 6.1173987 -5.934937 -10.369055
-5.9815173 -5.9262877 -7.160249 -12.042769 -11.810537 3.7714326 -13.615727 -2.6676302
-6.2012615 25.733572 39.58768 -5.9006767 -5.893301 31.602297 -6.2242155 -31.149475
34.31097 -9.599977 -21.98864 -9.5469675 -9.597583 -5.274793 -17.368694 -5.531349
-15.668156 -7.9092593 -21.84008 -9.278076 -17.836197 -0.027566588 5.3151746 -11.853429
-5.9797864 -2.8802164 -7.039626 -5.9639935 -5.957096 -5.8735237 -7.5001135 -64.45699
-8.020572 -6.012825 -5.938148 -6.0099607 -5.7953153 -7.0183973 -7.0084777 -6.38666
3.5258677 -10.750979 -5.9091287 0.5859618 3.2871711 3.220645 18.052265 33.005188
23.270485 45.61481 -4.862907 2.459996 -5.8925 -5.977719 2.689182 -5.976577
3.2019389 58.59032 -5.9711885 4.4606423 2.996607 3.0389814 -0.023466682 -8.865439
70.01078 2.4134784 11.473538 2.6719544 -0.011974311 -12.637307 2.7044346 5.455173
21.456652 25.683096 3.4120078 2.9647744 8.343094 12.849565 0.80407727 13.544094
2.0934396 0.8286506 3.3741925 0.86981356 1.1523731 1.9943904 3.3473759 3.275089
13.191421 24.159246 -5.935061 2.7204342 3.3152058 -5.8910694 19.927942 3.564468
2.7154431 4.450499 2.2277846 3.103252 3.439846 22.492659 9.209392 0.01440146
3.365532 -0.0417418 3.368991 -49.40763 24.6402 2.8704388 -51.898296 3.0141902
2.9253833 -5.229992 1.2092699 3.3930826 1.8102531 3.0571406 -16.046907 2.9303043
1.2746198 -5.894825 6.1640654 2.401418 -5.963929 10.734805 -29.30422 -5.942293
-5.939622 3.5418003 3.1711981 2.480916 3.1636844 -5.923809 -5.016746 -5.9843516
19.308142 3.1531718 3.1905744 3.2880888 2.0040069 2.6276417 -0.02921741 22.554724
4.466351 4.361572 6.419997 23.820835 29.17976 13.704327 3.826014 4.353259
-6.044436 -5.923347 4.3209076 25.750364 5.356052 6.5084276 -5.9520035 4.5470285
4.366253 4.310297 -0.045820534 3.6684752 60.680443 4.347153 -5.9375772 4.3200235
0.06745302 -30.578629 4.35091 5.3930645 -20.897585 -5.9285755 4.3672247 4.4812565
-19.800312 -14.010745 -14.295056 4.1678376 4.2362576 4.177311 4.366186 4.124346
4.1994057 4.380092 4.4005346 4.415845 -32.228504 -6.467692 -5.9135303 4.394339
4.3499036 -6.009447 -1.2867069 5.5070333 4.404311 4.313864 4.3436594 3.335918
00000000: 1c9f dac0 a027 e4c0 5ece d7c0 758b 4540
00000010: 7240 a341 ac41 933f da70 bcc1 887a 3ac1
00000020: bef3 bcc0 aa11 bec0 ece2 32c1 c7ce cd41
00000030: 7a04 eec0 435e 0942 a9f6 bcc0 042d 8440
00000040: 93ea 07c1 0c60 0bc1 90ce 0e3d 77ed c4c1
00000050: 9221 6042 d224 45c1 2a24 2041 5b2a 31c1
00000060: 7b6f 9d3d 55bc ebc1 77f5 25c1 e340 d2c1
00000070: 074c 5240 c30d c0c0 e207 afc0 f7ba 02c1
00000080: 0b44 a141 3865 a5c1 de62 02c0 2189 7040
00000090: 4839 8b41 7ab2 91c1 29c7 b5c0 841e a9c1
000000a0: 7a90 9ec1 0c73 5dc1 e779 c1c0 fd26 f1c0
000000b0: 490c 3841 bbc1 c340 01eb bdc0 a6e7 25c1
000000c0: 9768 bfc0 26a4 bdc0 c320 e5c0 2faf 40c1
000000d0: f6f7 3cc1 275f 7140 05da 59c1 74ba 2ac0
000000e0: bc70 c6c0 5bde cd41 c959 1e42 58d2 bcc0
000000f0: ec95 bcc0 81d1 fc41 c62c c7c0 2032 f9c1
00000100: 6f3e 0942 8199 19c1 bce8 afc1 61c0 18c1
00000110: b38f 19c1 1bcb a8c0 16f3 8ac1 d000 b1c0
00000120: c4b0 7ac1 a718 fdc0 7cb8 aec1 0073 14c1
00000130: 88b0 8ec1 53d3 e1bc e915 aa40 a5a7 3dc1
00000140: 695a bfc0 7755 38c0 9e44 e1c0 09d9 bec0
00000150: 88a0 bec0 e8f3 bbc0 ee00 f0c0 fbe9 80c2
00000160: 4354 00c1 1069 c0c0 4f05 bec0 9951 c0c0
00000170: 3973 b9c0 b696 e0c0 7345 e0c0 855f ccc0
00000180: d1a7 6140 0304 2cc1 9517 bdc0 9801 163f
00000190: 0361 5240 0c1f 4e40 0a6b 9041 5005 0442
000001a0: f429 ba41 9175 3642 ef9c 9bc0 9370 1d40
000001b0: 5c8f bcc0 7949 bfc0 8f1b 2c40 1e40 bfc0
000001c0: 91ec 4c40 7d5c 6a42 fa13 bfc0 95bd 8e40
000001d0: 69c8 3f40 ac7e 4240 333d c0bc d7d8 0dc1
000001e0: 8505 8c42 6e76 1a40 9d93 3741 4d01 2b40
000001f0: e72f 44bc 6932 4ac1 7515 2d40 c790 ae40
00000200: 39a7 ab41 fb76 cd41 565e 5a40 ddbe 3d40
00000210: 507d 0541 d197 4d41 02d8 4d3f 9cb4 5841
00000220: eafa 0540 7222 543f c5f2 5740 1aac 5e3f
00000230: f680 933f 2f48 ff3f 683b 5640 0f9b 5140
00000240: 0f10 5341 2346 c141 05ec bdc0 981b 2e40
00000250: 552c 5440 a483 bcc0 6d6c 9f41 3e20 6440
00000260: d2c9 2d40 7d6a 8e40 0694 0e40 ae9b 4640
00000270: 7026 5c40 f7f0 b341 ab59 1341 1af4 6b3c
00000280: e064 5740 73f9 2abd 8c9d 5740 6aa1 45c2
00000290: 211f c541 45b5 3740 db97 4fc2 7ee8 4040
000002a0: 7b39 3b40 185c a7c0 5bc9 9a3f 4428 5940
000002b0: 60b6 e73f 31a8 4340 1160 80c1 1b8a 3b40
000002c0: be26 a33f 68a2 bcc0 0640 c540 d5b0 1940
000002d0: 82d8 bec0 c3c1 2b41 0b6f eac1 4427 bec0
000002e0: 6211 bec0 dbac 6240 e9f4 4a40 54c7 1e40
000002f0: ce79 4a40 d88f bdc0 2f89 a0c0 cf7f bfc0
00000300: 1377 9a41 91cd 4940 5f32 4c40 0c70 5240
00000310: a641 0040 482b 2840 5a59 efbc 1370 b441
00000320: 59ec 8e40 ff91 8b40 9e70 cd40 1291 be41
00000330: 2670 e941 ec44 5b41 6add 7440 e64d 8b40
00000340: 056c c1c0 0f8c bdc0 e044 8a40 bf00 ce41
00000350: c764 ab40 0a45 d040 d076 bec0 4281 9140
00000360: 58b8 8b40 f4ed 8940 50ae 3bbd 4cc8 6a40
00000370: c6b8 7242 e11b 8b40 a200 bec0 a23d 8a40
00000380: cf24 8a3d 08a1 f4c1 a83a 8b40 fc93 ac40
00000390: 412e a7c1 e4b6 bdc0 4ec0 8b40 7466 8f40
000003a0: 0a67 9ec1 032c 60c1 8db8 64c1 ed5e 8540
000003b0: 6c8f 8740 88ac 8540 ccb7 8b40 a4fa 8340
000003c0: 8861 8640 b729 8c40 2ed1 8c40 9a4e 8d40
000003d0: fde9 00c2 55f7 cec0 a43b bdc0 6d9e 8c40
000003e0: 6932 8b40 644d c0c0 d0b2 a4bf 9e39 b040
000003f0: 1ef0 8c40 2d0b 8a40 42ff 8a40 ae7f 5540

4.bias f4 [5]
1106.112 521.5804 817.3569 2479.2646 781.1948
00000000: 9643 8a44 2565 0244 d756 4c44 3cf4 1a45
00000010: 784c 4344
